MimicApp/lightning_logs/version_16/checkpoints/epoch=99-step=999.ckpt (torch, 15861 bytes, 18 tensors)

lstm.weight_ih_l0 f4 [20, 34]
0	0xbd821b31	-0.063528426
1	0xbe252659	-0.1612791
2	0x3d75d0de	0.060013644
3	0x3e1cb1c4	0.15302187
4	0xbecc56d6	-0.3991
5	0xbed8c131	-0.42334893
6	0x3e9e29a0	0.30891132
7	0xbdd60dc0	-0.10451841
8	0x3e867792	0.262631
9	0xbeafd383	-0.34341058
10	0x3e593b9a	0.21214142
11	0xbe148d7f	-0.14507101
12	0xbe4d2c51	-0.20036437
13	0x3e7df922	0.24802068
14	0xbc8650c8	-0.016395941
15	0xbec48c8d	-0.38388482
16	0x3ee2af78	0.44274497
17	0x3e3b26f8	0.18276584
18	0x3e8f3d3b	0.27976403
19	0xbe84bbab	-0.2592443
20	0x3d76e601	0.060277943
21	0x3ea61329	0.32436493
22	0xbeb6d521	-0.3570948
23	0x3cc934a8	0.024561241
24	0xbcd8b8b8	-0.026455268
25	0x3ddcf813	0.10789504
26	0x3d806578	0.06269354
27	0x3e913cc5	0.28366676
28	0x3e56bc9c	0.20970386
29	0x3ea41cd1	0.32053235
30	0xbecb92d1	-0.3976045
31	0xbe406e5e	-0.18792102
32	0xbed2ccb8	-0.41171813
33	0xbea748dd	-0.32672778
34	0x3ed3062d	0.4121565
35	0x3e774a31	0.24149396
36	0x3e03b326	0.12861308
37	0x3ab166ef	0.0013534705
38	0x3ea7198e	0.32636684
39	0xbdba30e8	-0.090913594
40	0xbd9d705d	-0.07687447
41	0x3dbc7320	0.09201646
42	0x3dff5711	0.124677785
43	0x3e0aff76	0.13574013
44	0x3e2544fb	0.16139595
45	0x3e1482df	0.14503048
46	0x3ebfa343	0.37429246
47	0xbe70a467	-0.23500215
48	0xbea76117	-0.3269126
49	0x3e962db8	0.29331756
50	0xbecbd113	-0.39807948
51	0x3ed8597c	0.4225577
52	0x3cb825ce	0.022478964
53	0xbdb184fb	-0.08667942
54	0xbd067ef7	-0.032835927
55	0x3e3f595f	0.18686436
56	0xbe40f93a	-0.18845072
57	0xbec4ffb1	-0.38476327
58	0xbed05b70	-0.4069476
59	0xbe8ae13a	-0.2712496
60	0xbeb25361	-0.34829238
61	0x3ed02fb0	0.40661383
62	0xbea3eb1a	-0.32015306
63	0x3defdcd1	0.11712039
64	0x3eb7a4ad	0.35867825
65	0xbee52751	-0.4475656
66	0x3d1d636a	0.038424887
67	0xbe49c0e6	-0.19702491
68	0xbd95c7fc	-0.073135346
69	0xbe5b275e	-0.21401736
70	0x3e34c499	0.17653121
71	0xbde51436	-0.111854956
72	0x3e6dcece	0.23223421
73	0xbea2490c	-0.31696355
74	0x3ee7abd0	0.4524827
75	0x3e98a7e8	0.29815602
76	0x3e640ff0	0.22271705
77	0x3ee5b21d	0.44862452
78	0x3e4075c4	0.18794924
79	0xbe2ef059	-0.17083873
80	0xbd8a1441	-0.067421444
81	0x3e92a620	0.28642368
82	0x3da19513	0.07889762
83	0xbe8ef5cd	-0.27921906
84	0xbcf6cc92	-0.030126844
85	0x3edae06d	0.42749348
86	0x3ed8cc54	0.4234339
87	0x3eb892a6	0.36049384
88	0xbe9539a5	-0.29145542
89	0x3e519e55	0.20470555
90	0x3e561fcd	0.20910569
91	0xbe804ec7	-0.25060102
92	0x3ee7907e	0.45227426
93	0xbec3fdbd	-0.38279524
94	0xbea1aae3	-0.3157569
95	0xbc8a7d3f	-0.016905425
96	0xbecf3968	-0.40473485
97	0xbd9eb068	-0.077484906
98	0xbec9721b	-0.39344868
99	0xbda6d9fc	-0.08147046
100	0x3dbf97bd	0.09355114
101	0xbea591f3	-0.32337913
102	0xbe493d90	-0.1965239
103	0x3e0433f8	0.1291045
104	0xbe901b42	-0.28145796
105	0xbe724d64	-0.23662335
106	0x3e7056cd	0.23470612
107	0xbd0a4b3d	-0.03376316
108	0xbeaea2aa	-0.34108478
109	0xbea37ac8	-0.31929612
110	0xbe91bc9f	-0.2846422
111	0xbe2a0a65	-0.16605528
112	0x3ea86815	0.32891908
113	0x3e254145	0.1613818
114	0xbea14b73	-0.31502876
115	0x3e5874b1	0.21138264
116	0x3e5e4702	0.21706775
117	0x3e7ae446	0.24501142
118	0x3e630e91	0.22173525
119	0xbeb6eae4	-0.35726082
120	0xbbb30468	-0.0054631718
121	0xbe3e992c	-0.18613118
122	0xbe54a5f0	-0.20766425
123	0x3e9eb474	0.3099705
124	0xbeb64e10	-0.35606432
125	0x3db3b913	0.087755345
126	0xbeba50e3	-0.36389837
127	0x3ec5f439	0.3866289
128	0xbe48618e	-0.19568464
129	0xbe8952ed	-0.2682108
130	0x3dba64b2	0.09101237
131	0xbe7f8758	-0.24953973
132	0x3e9f488d	0.3111004
133	0xbe8b5286	-0.27211398
134	0xbe9b0d39	-0.30283526
135	0xbeb6e779	-0.35723475
136	0xbebf391d	-0.3734826
137	0x3eb276b3	0.34856185
138	0xbe803c14	-0.25045836
139	0x3deefe4b	0.11669596
140	0x3ed6e3d1	0.41970685
141	0xbd964d82	-0.07339002
142	0xbddfe4c2	-0.10932304
143	0xbeb165ff	-0.3464813
144	0x3e6bfb11	0.23044993
145	0x3e23e382	0.16004756
146	0xbeb27ed1	-0.34862378
147	0x3db65e67	0.089047246
148	0xbee0ed8d	-0.43931237
149	0x3eca4977	0.39509174
150	0x3e0c627e	0.13709447
151	0x3e2809a6	0.1640993
152	0xbd81f177	-0.06344884
153	0xbca1ff6e	-0.019775119
154	0x3eb013c0	0.34390068
155	0xbe93fd47	-0.28904173
156	0xbe64b3be	-0.22334191
157	0x3e72b267	0.23700868
158	0xbe64accc	-0.22331542
159	0xbed94ddf	-0.42442223
160	0xbed39065	-0.41321102
161	0xbebf4ef0	-0.37364912
162	0x3e7ec353	0.24879198
163	0x3d89dcd9	0.067315765
164	0x3d96a8b5	0.07356397
165	0xbe314413	-0.17311125
166	0x3e2db74c	0.16964453
167	0x3c8a6e48	0.01689829
168	0x3e44febd	0.192378
169	0xbec29270	-0.38002348
170	0xbe3b8d77	-0.18315683
171	0x3e8f31ca	0.27967674
172	0xbeca376f	-0.39495417
173	0x3e85a19c	0.2609986
174	0xbe655c92	-0.22398594
175	0xbed6e703	-0.41973123
176	0x3d62fea4	0.055418625
177	0x3eab07b2	0.3340431
178	0xbedeb2c7	-0.4349577
179	0xbebfc64a	-0.3745597
180	0x3e65ff68	0.22460711
181	0xbe6a5faa	-0.22888055
182	0xbd28cc22	-0.0412103
183	0x3e3e7989	0.1860105
184	0x3ed4f400	0.41592407
185	0xbe881ad7	-0.26582977
186	0xbc2fcc58	-0.010729872
187	0x3e9c761c	0.3055886
188	0xbc1a366e	-0.009412391
189	0xbee27207	-0.4422762
190	0xbea46eff	-0.32115933
191	0x3ec56da6	0.38560218
192	0xbd9ca6f6	-0.07649033
193	0x3da63e0b	0.081173025
194	0xbc290735	-0.01031666
195	0x3e937da5	0.28806797
196	0xbe996910	-0.2996297
197	0x3e69036b	0.2275521
198	0xbead5775	-0.33855787
199	0xbe6a08bb	-0.22854893
200	0x3ea2365b	0.31682095
201	0xbe578e86	-0.21050462
202	0xbecc4a31	-0.39900354
203	0xbdf0cd2a	-0.11757882
204	0x3ee140de	0.43994802
205	0x3ec36f08	0.38170648
206	0xbec1fac6	-0.37886637
207	0x3e49c4a8	0.19703925
208	0xbddda0c8	-0.10821682
209	0xbda65c3c	-0.08123061
210	0xbecf5fda	-0.40502816
211	0xbe8223cc	-0.25417936
212	0x3e22e278	0.15906703
213	0x3d0b10b8	0.03395149
214	0xbe1a27c0	-0.15054226
215	0xbeb6919a	-0.3565796
216	0xbedbd898	-0.42938685
217	0x3c2f4880	0.010698438
218	0x3e5fea08	0.2186662
219	0x3daf6630	0.085644126
220	0xbe4fb214	-0.20282775
221	0x3e22567c	0.15853304
222	0x3e418a90	0.18900514
223	0xbe00064a	-0.12502399
224	0xbdfdfa68	-0.12401277
225	0xbea735e1	-0.32658294
226	0xbec26e5d	-0.37974826
227	0xbb47cf80	-0.003048867
228	0x3d950f68	0.07278329
229	0x3d8c5ed8	0.068540275
230	0xbea4869a	-0.32133943
231	0xbeb92a29	-0.36164978
232	0xbcfc62f0	-0.030808896
233	0x3e893750	0.26800013
234	0xbd5bdb58	-0.05367598
235	0x3eda09e0	0.4258566
236	0x3dc86358	0.09784573
237	0x3eb406ea	0.35161525
238	0x3d68128d	0.056658316
239	0x3d75a537	0.059972014
240	0xbe0f3cce	-0.13988039
241	0x3ea82747	0.32842466
242	0x3e408770	0.18801665
243	0xbe8bdd55	-0.273173
244	0x3e1fb34c	0.1559574
245	0x3ed0ead8	0.40804172
246	0x3e201879	0.15634336
247	0xbb5a0a46	-0.0033270284
248	0x3d14f284	0.036364093
249	0xbe15d94d	-0.14633675
250	0x3e911eab	0.2834371
251	0xbec3303b	-0.38122734
252	0x3eb6228c	0.35573232
253	0x3c9f18f7	0.019421084
254	0x3cb90a08	0.022587791
255	0x3eaae5bd	0.333784

lstm.weight_hh_l0 f4 [20, 5]
0	0x3ea0ba16	0.31391972
1	0xbe01da40	-0.12680912
2	0x3c2ca6e6	0.010537839
3	0xbe5c7bdc	-0.21531624
4	0xbc109a4e	-0.008825852
5	0xbd4dcfe8	-0.050247103
6	0xbc8d24e7	-0.01722951
7	0xbed4b580	-0.41544724
8	0x3ec35320	0.38149357
9	0x3d132568	0.035924345
10	0xbe9b4c80	-0.30331802
11	0xbdfe9de1	-0.12432457
12	0x3dd8c1bc	0.10583827
13	0x3eb838c5	0.35980812
14	0x3ec16766	0.377742
15	0xbea1ba13	-0.31587276
16	0x3eaceaa9	0.33772781
17	0x3dd7c402	0.105354324
18	0xbed409dc	-0.41413772
19	0x3e9f73fc	0.31143177
20	0x3ec39732	0.3820129
21	0x3e71db58	0.23618829
22	0xbe5ea2f8	-0.21741855
23	0xbe181de8	-0.14855158
24	0xbe9de67a	-0.30839902
25	0xbe623595	-0.22090752
26	0x3e36e844	0.1786204
27	0xbe29fbc8	-0.16599953
28	0x3ed33cec	0.41257417
29	0xbed6d297	-0.41957542
30	0x3dd7a980	0.105303764
31	0xbecc1c48	-0.39865327
32	0xbdc64714	-0.09681526
33	0x3df677c0	0.12034559
34	0x3dc2e258	0.09515828
35	0x3e87af34	0.26500857
36	0x3ecade00	0.39622498
37	0x3e8dce37	0.27696392
38	0x3d412b6e	0.04716056
39	0x3d961835	0.07328836
40	0xbe0da54a	-0.13832584
41	0x3ec0198a	0.37519485
42	0x3ea48457	0.32132217
43	0x3ea6d760	0.32586193
44	0xbe911328	-0.28334928
45	0xbe5e43d0	-0.21705556
46	0xbe8cd053	-0.2750269
47	0xbd252a31	-0.04032344
48	0xbc0db52d	-0.008649153
49	0xbe915542	-0.2838536
50	0x3edb82a2	0.42873102
51	0xbed2197a	-0.41035062
52	0x3e865d70	0.26243162
53	0x3ec9912c	0.3936857
54	0x3e21dc9c	0.15806812
55	0x3e7aca04	0.24491125
56	0xbc5fa845	-0.013650958
57	0xbc3df120	-0.011593133
58	0xbecd9b5e	-0.40157598
59	0xbe6a3924	-0.2287336
60	0x3e0a7b18	0.13523519
61	0xbe127119	-0.14300956
62	0x3cacaaf5	0.021077612
63	0x3cc5e720	0.02415806
64	0xbd9607e4	-0.07325724
65	0x3e8ccb08	0.2749865
66	0xbd0ecfb8	-0.034866065
67	0x3e4066d4	0.18789226
68	0x3d080168	0.033204466
69	0x3eb2d81e	0.3493051
70	0xbee2af28	-0.4427426
71	0xbe3f55be	-0.18685052
72	0x3ebb78b8	0.3661554
73	0xbead703d	-0.33874694
74	0xbdbd200c	-0.09234628
75	0x3d8b54f5	0.06803314
76	0x3e106cfc	0.14104074
77	0x3e6e1bc0	0.23252773
78	0xbe3dfd65	-0.18553694
79	0xbe70acda	-0.23503438
80	0xbea13ed2	-0.3149324
81	0xbe710e12	-0.23540524
82	0x3db67cdd	0.089105345
83	0x3e8e0add	0.27742663
84	0x3de49066	0.11160354
85	0x3e58705f	0.21136616
86	0x3d280ed9	0.041029785
87	0x3e8bb2e1	0.2728491
88	0xbe4e1652	-0.20125702
89	0xbe21a9f3	-0.15787487
90	0xbe0445c2	-0.12917235
91	0xbe25aa16	-0.16178164
92	0x3d7f4590	0.0623222
93	0xbda9b29c	-0.0828602
94	0xbe39fa2e	-0.18161842
95	0xbbbb2fb8	-0.0057124756
96	0xbdc9ea57	-0.0985915
97	0xbe00a80b	-0.12564103
98	0x3ec406f1	0.38286546
99	0x3dfa6e74	0.122280985

lstm.bias_ih_l0 f4 [20]
0	0x3e6e915d	0.23297639
1	0x3e9d3c98	0.30710292
2	0xbcc895eb	-0.024485549
3	0x3eaefa7d	0.34175482
4	0x3edd12f0	0.4317851
5	0xbe41da4b	-0.18930928
6	0x3bb1db40	0.005427748
7	0x3b98ca7f	0.0046628113
8	0xbcb61bbf	-0.022230027
9	0x3e263f60	0.16235113
10	0xbd3a7fc0	-0.04553199
11	0x3dfa5d03	0.12224772
12	0xbe1c2181	-0.15247156
13	0xbdbb178a	-0.09135349
14	0x3ea160d0	0.31519175
15	0x3ea0383c	0.31292903
16	0x3e079f43	0.13244347
17	0xbec6d4f6	-0.3883435
18	0xbec83bb6	-0.39108056
19	0x3e88e634	0.2673813

lstm.bias_hh_l0 f4 [20]
0	0x3b47afa5	0.0030469683
1	0xbeb890c1	-0.36047938
2	0xbe9b1e2d	-0.3029646
3	0x3ebe413f	0.37159154
4	0xbed75e49	-0.4206412
5	0xbecbe447	-0.398226
6	0xbe955430	-0.29165792
7	0x3d81ad7d	0.063319184
8	0xbea71153	-0.32630405
9	0x3c8256d9	0.015910553
10	0xbec20af6	-0.37898988
11	0x3d0fef16	0.03514012
12	0xbd81e019	-0.06341571
13	0x3edae983	0.4275628
14	0xbea3a5e6	-0.31962508
15	0xbe469443	-0.19392495
16	0x3eab24ef	0.33426616
17	0x3e4d1a70	0.20029616
18	0x3e4a7de0	0.1977458
19	0x3e3d6941	0.18497182

linear.weight f4 [2, 5]
0	0x3e8f098b	0.27936968
1	0x3ea91113	0.3302084
2	0x3dd94b6b	0.10610088
3	0xbeaa4d5f	-0.33262154
4	0xbd5242a7	-0.051333096
5	0xbdefec55	-0.11714999
6	0xbe2b5763	-0.16732554
7	0xbd5b7d16	-0.053586088
8	0xbea2532d	-0.31704083
9	0x3e3fb493	0.18721227

linear.bias f4 [2]
0	0x3dbc3dfd	0.09191511
1	0xbe1d5224	-0.15363365

exp_avg f4 [20, 34]
0	0xb91d258f	-0.00014986678
1	0xb93f7f32	-0.00018262563
2	0xb8928fcb	-6.988606e-05
3	0xb93ff817	-0.000183076
4	0xb9046334	-0.00012625457
5	0xb8de2f85	-0.00010594636
6	0xb825336d	-3.938696e-05
7	0x00000000	0.0
8	0x36c2ef18	5.8094847e-06
9	0xb82ffc23	-4.1958072e-05
10	0xb597fe09	-1.1324311e-06
11	0xb768f719	-1.38858095e-05
12	0xb89faf1a	-7.614326e-05
13	0xb93d66d5	-0.00018062752
14	0xb8ba57eb	-8.885547e-05
15	0xb7e2d5cf	-2.7040862e-05
16	0xb99de40c	-0.00030115282
17	0xb788a78a	-1.629048e-05
18	0xb9554edd	-0.00020342642
19	0xb6418a01	-2.883957e-06
20	0xb6986837	-4.542085e-06
21	0xb9afc738	-0.0003352703
22	0xb6ca2134	-6.0239345e-06
23	0xb6875de4	-4.034244e-06
24	0xb6f2e35c	-7.23863e-06
25	0xb70ae1aa	-8.2779825e-06
26	0xb73f4765	-1.140111e-05
27	0xb751ca24	-1.2504435e-05
28	0xb88c7a6a	-6.6985216e-05
29	0xb7c0cb21	-2.2982773e-05
30	0xb8821960	-6.2036095e-05
31	0xb7d02d1e	-2.4816542e-05
32	0xb9591fe8	-0.00020706619
33	0xb9c545a8	-0.00037626666
34	0x3aa024cc	0.0012217998
35	0x3a3f859d	0.00073059817
36	0x398cab86	0.00026830676
37	0x39d23266	0.0004009187
38	0x38e60789	0.00010968658
39	0x39ab9803	0.0003272892
40	0xb874db4a	-5.8378362e-05
41	0x00000000	0.0
42	0x393bdea8	0.00017916656
43	0x398a5b49	0.00026389424
44	0xb667ad95	-3.452272e-06
45	0x38624002	5.394221e-05
46	0x3a5c44f1	0.0008402607
47	0x39a5d7ce	0.0003163204
48	0x3adecdea	0.0016998623
49	0xb9ccbe09	-0.000390515
50	0x398ac389	0.00026467096
51	0x3862ad77	5.404415e-05
52	0x3a0da2c7	0.0005402979
53	0xb7131b28	-8.768206e-06
54	0x3779b2a7	1.4883152e-05
55	0x3b29ba2c	0.002589832
56	0xb8a18fa5	-7.703834e-05
57	0x37af2315	2.0877962e-05
58	0x38353086	4.3198954e-05
59	0x383d9b07	4.5205492e-05
60	0xb6b2b728	-5.3261356e-06
61	0x3823a5d6	3.9016675e-05
62	0x39c5bfab	0.00037717572
63	0x38e742ae	0.000110273584
64	0x3a04019e	0.00050356414
65	0x396ec48e	0.00022770671
66	0xbb047eda	-0.002021721
67	0x3b5c9b72	0.0033661989
68	0xbb3ece34	-0.0029114606
69	0xbb5faecf	-0.0034131294
70	0xbaaa7d5f	-0.0013007334
71	0xbb8bf90a	-0.004271631
72	0xbb34e8a8	-0.0027604494
73	0xbb0570b0	-0.0020361356
74	0xba2b2f13	-0.0006530147
75	0x00000000	0.0
76	0xb847b5d9	-4.7614656e-05
77	0xba70b788	-0.0009182622
78	0xb7a06471	-1.9120258e-05
79	0xb9881535	-0.00025955742
80	0xbac25f87	-0.0014829495
81	0xbb4c47fa	-0.003117083
82	0xba997317	-0.0011707273
83	0xba445909	-0.0007490074
84	0xbc1461b1	-0.009056495
85	0xb99cc2f2	-0.00029899884
86	0xbb705d37	-0.0036676654
87	0xb82f2e2d	-4.1766256e-05
88	0xb938a961	-0.00017610706
89	0xbbadfce8	-0.00530969
90	0xb85298b0	-5.0210103e-05
91	0xb8923f0e	-6.973567e-05
92	0xb8f2648f	-0.0001155819
93	0xb916106e	-0.00014311235
94	0xb90c056e	-0.00013353463
95	0xba0724f5	-0.00051553483
96	0xba9285c6	-0.0011178784
97	0xb9c82012	-0.00038170867
98	0xba858942	-0.0010188001
99	0xb9dd627a	-0.00042225776
100	0xbc02893d	-0.0079672905
101	0xbbefbd0e	-0.0073162382
102	0xb8913d89	-6.9256006e-05
103	0xb8c196cb	-9.2310445e-05
104	0xb8149c9f	-3.5431814e-05
105	0xb8f5ba03	-0.00011717158
106	0xb88fafd7	-6.851524e-05
107	0xb866c5bc	-5.5020428e-05
108	0xb7881b5b	-1.6225202e-05
109	0x00000000	0.0
110	0x35f902a8	1.8552719e-06
111	0xb7b772bc	-2.1868727e-05
112	0xb480ab2e	-2.3966408e-07
113	0xb6e98612	-6.959549e-06
114	0xb8420f52	-4.6267472e-05
115	0xb8b96c77	-8.8416906e-05
116	0xb9a29a64	-0.00031014078
117	0xb8181a5d	-3.6264177e-05
118	0xb8ecfc0e	-0.00011300306
119	0xb70b103a	-8.288824e-06
120	0xb8d4723d	-0.00010130226
121	0xb63f2ec4	-2.848844e-06
122	0xb41974bb	-1.4291702e-07
123	0xb88e7492	-6.7928006e-05
124	0xb59d54be	-1.1722075e-06
125	0xb605f49b	-1.9960924e-06
126	0xb680e3ae	-3.8412027e-06
127	0xb690889f	-4.307439e-06
128	0xb69bd541	-4.644186e-06
129	0xb694c2ce	-4.433422e-06
130	0xb806f480	-3.2175798e-05
131	0xb7359069	-1.0822064e-05
132	0xb80ed7b6	-3.4056335e-05
133	0xb769c87a	-1.3934559e-05
134	0xb8e1d932	-0.00010769292
135	0xb93b06db	-0.00017836264
136	0xba03d75d	-0.0005029345
137	0xba029467	-0.000498122
138	0xb9492e30	-0.0001918606
139	0xba33c649	-0.0006857855
140	0xba3590b2	-0.00069261633
141	0xba049a1e	-0.00050583656
142	0xb8b3ea44	-8.5790205e-05
143	0x00000000	0.0
144	0xb6680020	-3.4570767e-06
145	0xb900b17e	-0.00012273152
146	0xb63db4eb	-2.8268503e-06
147	0xb821c4b2	-3.8568578e-05
148	0xb9681d7c	-0.00022136228
149	0xb9b09126	-0.0003367748
150	0xba11d19a	-0.0005562544
151	0xb8fad779	-0.00011961064
152	0xbc112625	-0.008859192
153	0xb83f1438	-4.555678e-05
154	0xba1603de	-0.0005722622
155	0xb69f73aa	-4.7520343e-06
156	0xb69c8cb0	-4.6655405e-06
157	0xba5d1852	-0.0008434105
158	0xb72fd1f6	-1.0479698e-05
159	0xb72014e0	-9.5416035e-06
160	0xb79a4b3a	-1.839326e-05
161	0xb7b10817	-2.1103811e-05
162	0xb71c49d0	-9.31551e-06
163	0xb7e4a446	-2.7256214e-05
164	0xb9538ef1	-0.00020175778
165	0xb88fe8f4	-6.862162e-05
166	0xb905257a	-0.0001269783
167	0xb8bf023e	-9.108007e-05
168	0xbad41dbd	-0.0016183179
169	0xbac4d660	-0.0015017502
170	0xb750c36f	-1.2443269e-05
171	0xb799e954	-1.8347673e-05
172	0xb6e51700	-6.8274094e-06
173	0xb7bb2f9d	-2.2314309e-05
174	0xb7542758	-1.2645345e-05
175	0xb72ab4a7	-1.0174851e-05
176	0xb65b9dda	-3.2725425e-06
177	0x00000000	0.0
178	0x35a1b30a	1.2047542e-06
179	0xb66d7197	-3.538187e-06
180	0xb3da4c35	-1.0165278e-07
181	0xb5b7c43f	-1.3691678e-06
182	0xb6dd538b	-6.596039e-06
183	0xb79a4393	-1.8389697e-05
184	0xb71a92eb	-9.213322e-06
185	0xb698c2e6	-4.552642e-06
186	0xb7587c54	-1.2903551e-05
187	0xb5dc8615	-1.64303e-06
188	0xb7b38a41	-2.1402842e-05
189	0xb4f409ed	-4.5455764e-07
190	0xb4aa4eac	-3.172221e-07
191	0xb7e21ffe	-2.6956197e-05
192	0xb55caa29	-8.2204e-07
193	0xb4c7a538	-3.718685e-07
194	0xb54246ae	-7.2373484e-07
195	0xb5464a55	-7.3868915e-07
196	0xb5b25792	-1.328752e-06
197	0xb522995b	-6.0572864e-07
198	0xb6bac79e	-5.5664705e-06
199	0xb5f8d846	-1.8540384e-06
200	0xb6d23d46	-6.265621e-06
201	0xb61e67f0	-2.3604334e-06
202	0xb7d49bdf	-2.5344953e-05
203	0xb7ebbc24	-2.8101793e-05
204	0x1cee129f	1.5754332e-21
205	0x1c6591f5	7.595839e-22
206	0x1c1758a4	5.0076274e-22
207	0x1c990bf8	1.0127785e-21
208	0x1c6151a0	7.4551753e-22
209	0x1c4c0ff7	6.751857e-22
210	0x1b880aa4	2.250619e-22
211	0x00000000	0.0
212	0x9bc38f4d	-3.235265e-22
213	0x1b880aa4	2.250619e-22
214	0x19880aa4	1.4066368e-23
215	0x1ae7f36f	9.593265e-23
216	0x1cd27075	1.3925704e-21
217	0x1c2a0d4d	5.626547e-22
218	0x1c3f4ef7	6.329866e-22
219	0x1b990bf8	2.5319461e-22
220	0x1c14cba3	4.9232287e-22
221	0x1b0d24a5	1.1675087e-22
222	0x1cf6934b	1.6316989e-21
223	0x19d9aaa0	2.2506189e-23
224	0x19233ff9	8.439822e-24
225	0x1dbdb6d8	5.021694e-21
226	0x1b4a5c9f	1.6738976e-22
227	0x1a233ff9	3.3759287e-23
228	0x1a74dff4	5.0638925e-23
229	0x1aa6a6a4	6.8925213e-23
230	0x1959aaa0	1.12530945e-23
231	0x1a4c0ff7	4.2199108e-23
232	0x1c2e4da3	5.7672114e-22
233	0x1b6591f5	1.8989597e-22
234	0x1beaabf4	3.8823175e-22
235	0x1bbf4ef7	3.164933e-22
236	0x1db75656	4.8528966e-21
237	0x1d218ca2	2.1380878e-21
238	0xb82121ce	-3.8416874e-05
239	0xb8369656	-4.3532193e-05
240	0xb78ab435	-1.6534797e-05
241	0xb861b55c	-5.3813084e-05
242	0xb80c04e5	-3.338316e-05
243	0xb7d0d7ba	-2.4895988e-05
244	0xb7084329	-8.121869e-06
245	0x00000000	0.0
246	0x353722a8	6.8223244e-07
247	0xb73cd71a	-1.1255755e-05
248	0xb484b011	-2.471502e-07
249	0xb65f44af	-3.3269569e-06
250	0xb792d619	-1.7504253e-05
251	0xb825c67b	-3.9523915e-05
252	0x380a07b5	3.290894e-05
253	0xb728aaa9	-1.0053315e-05
254	0xb8bec94a	-9.097399e-05
255	0xb679a2eb	-3.7198722e-06

exp_avg_sq f4 [20, 34]
0	0x333c7753	4.3880686e-08
1	0x3384d9b8	6.186332e-08
2	0x321c6089	9.102345e-09
3	0x33935a17	6.861608e-08
4	0x33082fab	3.170832e-08
5	0x32c3676f	2.2748024e-08
6	0x31530aa0	3.071058e-09
7	0x00000000	0.0
8	0x2f83d71a	2.39816e-10
9	0x31677857	3.368333e-09
10	0x2c453826	2.8026552e-12
11	0x2fc58c51	3.5933792e-10
12	0x323407e9	1.04791775e-08
13	0x3380fd27	6.0065126e-08
14	0x32945993	1.7270201e-08
15	0x30cfb71c	1.5113275e-09
16	0x3460f609	2.0951133e-07
17	0x3004a3c1	4.825403e-10
18	0x33a6b52b	7.7629316e-08
19	0x2dc28c0b	2.2117438e-11
20	0x2e6a4976	5.3270686e-11
21	0x344f276a	1.9292716e-07
22	0x2f2a9dba	1.5517446e-10
23	0x2e04fff6	3.0240664e-11
24	0x2edf1850	1.0145185e-10
25	0x2f0a96d6	1.2604615e-10
26	0x2ffde1d6	4.6180898e-10
27	0x2fbc5634	3.4258252e-10
28	0x320f874f	8.354461e-09
29	0x30892179	9.977575e-10
30	0x3202dc1c	7.617043e-09
31	0x309efd17	1.1567945e-09
32	0x339a9043	7.197425e-08
33	0x3496ffdd	2.8125842e-07
34	0x3803f1e3	3.145811e-05
35	0x3826fcdb	3.9812974e-05
36	0x36bedb9b	5.6880067e-06
37	0x3895d23c	7.144033e-05
38	0x380ffed9	3.4331202e-05
39	0x375afd22	1.305275e-05
40	0x35b27d4a	1.3298497e-06
41	0x00000000	0.0
42	0x34671d91	2.1524308e-07
43	0x361675e8	2.2420372e-06
44	0x31402349	2.7959735e-09
45	0x3472efce	2.2625247e-07
46	0x36f1fe17	7.2119396e-06
47	0x38157c47	3.564011e-05
48	0x3999bfc4	0.0002932531
49	0x369ef7c4	4.7376107e-06
50	0x3793c8f4	1.7617342e-05
51	0x3494bfeb	2.7706787e-07
52	0x3865efe4	5.482127e-05
53	0x31e14775	6.5564856e-09
54	0x3197743e	4.4078936e-09
55	0x38b8f971	8.820266e-05
56	0x33c6feb0	9.266421e-08
57	0x3258745b	1.2599311e-08
58	0x3323a350	3.8099927e-08
59	0x3389f917	6.424869e-08
60	0x3262cb29	1.3201125e-08
61	0x3253cc18	1.2328222e-08
62	0x3671f270	3.6052916e-06
63	0x350173bd	4.8224666e-07
64	0x369c7063	4.662246e-06
65	0x34aae545	3.1831783e-07
66	0x3a4e38a7	0.0007866718
67	0x38c207ca	9.252092e-05
68	0x36eba0ab	7.02225e-06
69	0x371fbde6	9.521353e-06
70	0x35ba6f75	1.3890518e-06
71	0x37812883	1.5396863e-05
72	0x36d5ad1a	6.3680463e-06
73	0x366fcdf4	3.5733656e-06
74	0x34d4088f	3.9494304e-07
75	0x00000000	0.0
76	0x3198e2c6	4.4495634e-09
77	0x3545af5c	7.36434e-07
78	0x2fbb486f	3.406657e-10
79	0x336e6265	5.5503182e-08
80	0x35f8164a	1.8483927e-06
81	0x3707531c	8.065977e-06
82	0x36984342	4.537783e-06
83	0x34f3a669	4.5383356e-07
84	0x38c448df	9.3595816e-05
85	0x339d8f65	7.3369655e-08
86	0x3738c4cc	1.1013075e-05
87	0x30d68663	1.5608744e-09
88	0x3321d4e2	3.767935e-08
89	0x37b4c1ee	2.1547978e-05
90	0x30fe843d	1.8518517e-09
91	0x3184a273	3.860174e-09
92	0x323ba821	1.0923061e-08
93	0x32904a11	1.6797488e-08
94	0x32a6bc2a	1.941051e-08
95	0x35052ba3	4.960986e-07
96	0x358c05ad	1.0432465e-06
97	0x34022d25	1.2123617e-07
98	0x35626f06	8.435312e-07
99	0x34265ff2	1.549486e-07
100	0x3862992b	5.4025248e-05
101	0x383f6ee2	4.5641216e-05
102	0x328adcee	1.6165782e-08
103	0x32dab648	2.5461432e-08
104	0x316d548f	3.4536105e-09
105	0x3314f135	3.4678312e-08
106	0x3284ef06	1.5475518e-08
107	0x321779b3	8.817028e-09
108	0x308eaffe	1.038188e-09
109	0x00000000	0.0
110	0x2d04452e	7.518692e-12
111	0x30d0a106	1.5179757e-09
112	0x2c0653c2	1.908904e-12
113	0x2f1e03c7	1.4371358e-10
114	0x31b4eabe	5.2653766e-09
115	0x32cd35b9	2.3889571e-08
116	0x3464f638	2.1323729e-07
117	0x31807be5	3.7393755e-09
118	0x32af3e03	2.0400881e-08
119	0x2f5f0ff8	2.0287405e-10
120	0x32f2c9a5	2.8264205e-08
121	0x2db124b4	2.013887e-11
122	0x2f00f191	1.1727354e-10
123	0x3401c884	1.2087008e-07
124	0x2db2d767	2.0331915e-11
125	0x2d65bec9	1.3059506e-11
126	0x2e7cf147	5.7512464e-11
127	0x2e4c2bbe	4.642308e-11
128	0x2e4053f2	4.3730304e-11
129	0x2e14aa84	3.3802752e-11
130	0x3113976b	2.1477387e-09
131	0x2f87ba2a	2.4688634e-10
132	0x31ca7970	5.8927796e-09
133	0x2fd83f5b	3.9335188e-10
134	0x33fe868e	1.1852272e-07
135	0x33889019	6.359205e-08
136	0x3518cf47	5.692604e-07
137	0x350b670e	5.19315e-07
138	0x33a6c535	7.765849e-08
139	0x35904d8a	1.0751403e-06
140	0x35a88f5f	1.2558702e-06
141	0x35326c4f	6.6467777e-07
142	0x3270f54f	1.4025615e-08
143	0x00000000	0.0
144	0x2f2fdb70	1.5994117e-10
145	0x32f9886c	2.9049453e-08
146	0x2d859216	1.5185225e-11
147	0x31582664	3.145396e-09
148	0x33c2ccd0	9.071084e-08
149	0x344efd71	1.9277446e-07
150	0x35693042	8.686949e-07
151	0x33204ebb	3.7324508e-08
152	0x39825dbc	0.0002486537
153	0x3196d41d	4.389689e-09
154	0x353f1c8c	7.1194586e-07
155	0x2e65011c	5.2069557e-11
156	0x2e1c68f7	3.556352e-11
157	0x35d37c0e	1.575683e-06
158	0x2f89297b	2.4949628e-10
159	0x2f4d2c1f	1.8660316e-10
160	0x303fc393	6.9763323e-10
161	0x3076dedb	8.9810975e-10
162	0x2f3b2a17	1.7022504e-10
163	0x30801bc0	9.321113e-10
164	0x33baae81	8.693042e-08
165	0x322ac59c	9.9402335e-09
166	0x330be4b5	3.2571467e-08
167	0x32a6c8d2	1.9416266e-08
168	0x36dede26	6.641977e-06
169	0x36856463	3.9753954e-06
170	0x2f9a5686	2.8073915e-10
171	0x301c3185	5.682284e-10
172	0x2eaeb953	7.945524e-11
173	0x307c2a95	9.173758e-10
174	0x2f9085e7	2.628859e-10
175	0x2f28220b	1.5291605e-10
176	0x2daea040	1.9852675e-11
177	0x00000000	0.0
178	0x2cc4e53d	5.5961056e-12
179	0x2da94263	1.9242557e-11
180	0x28988661	1.6933668e-14
181	0x2c5cd7ba	3.1383633e-12
182	0x2eaa0446	7.731464e-11
183	0x301d297b	5.7175215e-10
184	0x2f22eebb	1.4818628e-10
185	0x2df9c346	2.8394741e-11
186	0x2f827467	2.372957e-10
187	0x2c9fa709	4.5375964e-12
188	0x30544d16	7.7234696e-10
189	0x2b1ef913	5.6478536e-13
190	0x2b06a6f5	4.7838063e-13
191	0x30ea6c72	1.7056563e-09
192	0x2c2323c9	2.3183558e-12
193	0x2a9d0c00	2.789713e-13
194	0x2b7a1ed5	8.886063e-13
195	0x2b78eb0f	8.843351e-13
196	0x2d0fecee	8.181218e-12
197	0x2b533c30	7.5045786e-13
198	0x2e891372	6.233493e-11
199	0x2cf279e4	6.8915863e-12
200	0x2e919c11	6.6215596e-11
201	0x2d4f2fe1	1.1777219e-11
202	0x30ac3b63	1.2531526e-09
203	0x31164048	2.1864413e-09
204	0x0000269c	1.385e-41
205	0x000009c5	3.505e-42
206	0x000003d2	1.37e-42
207	0x00001070	5.897e-42
208	0x000009b6	3.484e-42
209	0x0000067d	2.328e-42
210	0x000001a0	5.83e-43
211	0x00000000	0.0
212	0x000001f7	7.05e-43
213	0x000001a0	5.83e-43
214	0x00000001	1e-45
215	0x00000028	5.6e-44
216	0x00001d78	1.0571e-41
217	0x000005dd	2.103e-42
218	0x000005e4	2.113e-42
219	0x000001da	6.64e-43
220	0x000003ae	1.32e-42
221	0x0000009d	2.2e-43
222	0x0000290e	1.4728e-41
223	0x00000002	3e-45
224	0x00000000	0.0
225	0x0001853e	1.39634e-40
226	0x000000dc	3.08e-43
227	0x00000005	7e-45
228	0x0000000b	1.5e-44
229	0x00000014	2.8e-44
230	0x00000001	1e-45
231	0x00000008	1.1e-44
232	0x000005dd	2.103e-42
233	0x000000fe	3.56e-43
234	0x000001f9	7.08e-43
235	0x000001f7	7.05e-43
236	0x00016b93	1.30426e-40
237	0x000046ea	2.5439e-41
238	0x31b91976	5.387103e-09
239	0x31dba448	6.3924155e-09
240	0x307c7634	9.184504e-10
241	0x32117272	8.466133e-09
242	0x316e0737	3.463766e-09
243	0x31041d40	1.9225155e-09
244	0x2f878722	2.4652375e-10
245	0x00000000	0.0
246	0x2d15d714	8.517426e-12
247	0x2fff0ee6	4.6394816e-10
248	0x2a90582c	2.564072e-13
249	0x2e22d796	3.7026014e-11
250	0x308fa5d8	1.0451755e-09
251	0x31b00e0b	5.1238707e-09
252	0x328e9dd3	1.6602746e-08
253	0x2fe1eb4c	4.109445e-10
254	0x32ce0e14	2.3987958e-08
255	0x2e3d1aa8	4.29973e-11

exp_avg f4 [20, 5]
0	0xb4617377	-2.0996764e-07
1	0x268dd2e2	9.841e-16
2	0xb4bfcbce	-3.572481e-07
3	0x34899e95	2.5633622e-07
4	0x35d8c076	1.6149268e-06
5	0x0588d9e7	1.2869423e-35
6	0xb6e32f5f	-6.770642e-06
7	0xb1ae46ca	-5.0721143e-09
8	0xb49b625d	-2.8942569e-07
9	0xb6232386	-2.430957e-06
10	0xb5383b19	-6.863134e-07
11	0xb38bb5f0	-6.505786e-08
12	0xb7878835	-1.615668e-05
13	0x36452f64	2.9382873e-06
14	0x37da29ed	2.6007148e-05
15	0xb2fc2334	-2.935267e-08
16	0x32d8462a	2.5177616e-08
17	0x3323363e	3.8000728e-08
18	0x35045352	4.929508e-07
19	0x34d16444	3.9002236e-07
20	0xa2b7e47b	-4.9844162e-18
21	0x1012dcd0	2.896353e-29
22	0xa77af38c	-3.4826497e-15
23	0x36511a1b	3.1158622e-06
24	0x35383b41	6.863157e-07
25	0xaf10f009	-1.3182001e-10
26	0x22773944	3.3505058e-18
27	0xb3da260d	-1.01583375e-07
28	0x33ae7692	8.124074e-08
29	0x3367a029	5.3929543e-08
30	0x00000000	0.0
31	0x91feab9e	-4.0179901e-28
32	0x1810419c	1.8644688e-24
33	0x81c9ec6c	-7.417499e-38
34	0x90ce44db	-8.135876e-29
35	0xb2a7bf18	-1.9528258e-08
36	0xb4066657	-1.2516954e-07
37	0xb5286213	-6.2727594e-07
38	0x348991f9	2.5624448e-07
39	0x34fae4da	4.673264e-07
40	0xaff9b1a6	-4.5419063e-10
41	0x2d597949	1.2361953e-11
42	0xb28916c9	-1.595926e-08
43	0x341ece2f	1.4789906e-07
44	0x2f396736	1.686232e-10
45	0xb2383b33	-1.072367e-08
46	0x2f0e6b0f	1.295286e-10
47	0xb50b52a3	-5.190179e-07
48	0x33d52f2f	9.927168e-08
49	0x37a41be0	1.9563304e-05
50	0x00000000	0.0
51	0x00000000	0.0
52	0x00000000	0.0
53	0x00000000	0.0
54	0x00000000	0.0
55	0x00000000	0.0
56	0xae96f7a0	-6.865197e-11
57	0x0000000f	2.1e-44
58	0x30b81988	1.3395018e-09
59	0x294de771	4.5719887e-14
60	0x80c90bfa	-1.8463231e-38
61	0x33bfdafb	8.933963e-08
62	0xb3fcebe1	-1.17775706e-07
63	0x35069773	5.013928e-07
64	0x34ad3fa7	3.2270074e-07
65	0x268e21ca	9.862388e-16
66	0xa6adaac7	-1.2050576e-15
67	0x335c1607	5.1242775e-08
68	0x334f2e19	4.823787e-08
69	0xb3769509	-5.7411885e-08
70	0x00000000	0.0
71	0x9e42fc17	-1.03224054e-20
72	0x25883d91	2.3633958e-16
73	0x00000000	0.0
74	0x9d1aa728	-2.0468148e-21
75	0xb656eaeb	-3.2025225e-06
76	0x1da147fb	4.269077e-21
77	0xb6171d3f	-2.2517777e-06
78	0x35888d9a	1.0174001e-06
79	0x36f38ae6	7.2581342e-06
80	0x215bca6c	7.446799e-19
81	0xb7cc60b8	-2.4363733e-05
82	0xb54fc45e	-7.739926e-07
83	0xb51355a0	-5.488637e-07
84	0xb502394a	-4.851214e-07
85	0xb4d78f7b	-4.0151266e-07
86	0xb5fbbb3b	-1.8755449e-06
87	0xb7654ac6	-1.3666873e-05
88	0xb64bd319	-3.0372232e-06
89	0x378f3b83	1.707464e-05
90	0x00000000	0.0
91	0x00000000	0.0
92	0x00000000	0.0
93	0x00000000	0.0
94	0x00000000	0.0
95	0xb485a152	-2.4890556e-07
96	0x3386d2c5	6.2782e-08
97	0xb7a58b57	-1.9734418e-05
98	0x37526aaf	1.2541815e-05
99	0x3916566a	0.00014337306

exp_avg_sq f4 [20, 5]
0	0x2a14e2b9	1.3223701e-13
1	0x0f14d7a1	7.338492e-30
2	0x2a92c871	2.6073894e-13
3	0x2a83c381	2.3405933e-13
4	0x2cbc4a80	5.3515525e-12
5	0x00000000	0.0
6	0x2efa94a5	1.1395088e-10
7	0x2ba45225	1.1675701e-12
8	0x2ba9ea14	1.2073142e-12
9	0x2dd3fff7	2.4101594e-11
10	0x2c2732df	2.3760367e-12
11	0x2a43ba63	1.7384145e-13
12	0x2f54c132	1.9349924e-10
13	0x2d696ac4	1.3268223e-11
14	0x303a3815	6.7746103e-10
15	0x2794270a	4.112058e-15
16	0x271ebffe	2.2030984e-15
17	0x29fc48d0	1.1203679e-13
18	0x2acbd749	3.6209428e-13
19	0x2aa87a7a	2.992778e-13
20	0x07eb32c3	3.5388705e-34
21	0x00000000	0.0
22	0x1187333a	2.1330815e-28
23	0x2e0cf373	3.204854e-11
24	0x2b11657e	5.1655197e-13
25	0x1f76963c	5.2216797e-20
26	0x06e1355e	8.471401e-35
27	0x28ebf73c	2.6197462e-14
28	0x285d3d70	1.22812866e-14
29	0x287961ee	1.3843512e-14
30	0x00000000	0.0
31	0x00000000	0.0
32	0x00000000	0.0
33	0x00000000	0.0
34	0x00000000	0.0
35	0x2763b58b	3.1600993e-15
36	0x2996b7d5	6.693228e-14
37	0x2b193d30	5.4441434e-13
38	0x2a88d005	2.4302796e-13
39	0x2b00c95d	4.5754183e-13
40	0x22008a3a	1.7420411e-18
41	0x1f9786b3	6.417383e-20
42	0x298e6589	6.32368e-14
43	0x29c012f8	8.5298034e-14
44	0x29cc1bf4	9.064269e-14
45	0x26f0f838	1.6720625e-15
46	0x1f58380a	4.5786134e-20
47	0x2ab8c113	3.2818938e-13
48	0x29f48c60	1.0860128e-13
49	0x2fb8fd92	3.3649578e-10
50	0x00000000	0.0
51	0x00000000	0.0
52	0x00000000	0.0
53	0x00000000	0.0
54	0x00000000	0.0
55	0x00000000	0.0
56	0x26eedddf	1.6574706e-15
57	0x00000000	0.0
58	0x25ee6ba3	4.1359356e-16
59	0x149a901a	1.5606864e-26
60	0x00000000	0.0
61	0x29013b49	2.8695176e-14
62	0x2bef7bb9	1.7016311e-12
63	0x2b9a2a54	1.0954107e-12
64	0x2ad90ef3	3.8557317e-13
65	0x0f5744fb	1.06136036e-29
66	0x0f816d41	1.2762465e-29
67	0x294306db	4.3304644e-14
68	0x29958b33	6.6410764e-14
69	0x29534db2	4.69188e-14
70	0x00000000	0.0
71	0x0003d208	3.50852e-40
72	0x0c6e7562	1.8370177e-31
73	0x00000000	0.0
74	0x00002670	1.3789e-41
75	0x2e022a48	2.959613e-11
76	0x0001730e	1.3311e-40
77	0x2d81d113	1.475845e-11
78	0x2c8e1e1e	4.0392264e-12
79	0x2f18721f	1.3864863e-10
80	0x0527dce4	7.8928735e-36
81	0x305afebc	7.966994e-10
82	0x2ca99ca1	4.820658e-12
83	0x2c744164	3.4710785e-12
84	0x2af0897c	4.2727963e-13
85	0x2b4bc39d	7.2391556e-13
86	0x2d6435eb	1.2972272e-11
87	0x2f54da7a	1.9358906e-10
88	0x2e6b16b7	5.345299e-11
89	0x2f9c1a79	2.8395045e-10
90	0x00000000	0.0
91	0x00000000	0.0
92	0x00000000	0.0
93	0x00000000	0.0
94	0x00000000	0.0
95	0x2b735036	8.644226e-13
96	0x28dd9b94	2.46034e-14
97	0x302d84c9	6.312573e-10
98	0x2f2e7c44	1.5869356e-10
99	0x328d27d9	1.6432681e-08

exp_avg f4 [20]
0	0xb5fddf31	-1.8914926e-06
1	0x36f93473	7.426884e-06
2	0xb8131e72	-3.5075886e-05
3	0xb57faa46	-9.5242683e-07
4	0xb6af011c	-5.2155356e-06
5	0xb448ecd8	-1.8712615e-07
6	0x19880aa4	1.4066368e-23
7	0xb4f23e61	-4.51214e-07
8	0xb2d92d63	-2.5282764e-08
9	0xb7d40739	-2.5275733e-05
10	0x00000000	0.0
11	0xb2e17c71	-2.6250037e-08
12	0xb6869673	-4.011026e-06
13	0x343a595b	1.7355107e-07
14	0x262f791d	6.087946e-16
15	0xb6f91ef7	-7.424383e-06
16	0x37ef02d0	2.849233e-05
17	0xb76af21d	-1.4003858e-05
18	0x00000000	0.0
19	0xb9b4accf	-0.00034461028

exp_avg_sq f4 [20]
0	0x2cead754	6.6745862e-12
1	0x319129a5	4.22479e-09
2	0x308b47a6	1.0133945e-09
3	0x2c3a57d0	2.6480935e-12
4	0x2e7c3063	5.7341142e-11
5	0x2985a935	5.935739e-14
6	0x00000001	1e-45
7	0x2b3e52b4	6.7616334e-13
8	0x29b20bd0	7.906837e-14
9	0x30180c5d	5.5314847e-10
10	0x00000000	0.0
11	0x2a65b134	2.0400765e-13
12	0x2e0d5113	3.2131697e-11
13	0x2ac384d9	3.473114e-13
14	0x0dc5c8b1	1.2189377e-30
15	0x2f1fc023	1.4529226e-10
16	0x31580001	3.143214e-09
17	0x2fa1aec3	2.9409905e-10
18	0x00000000	0.0
19	0x33bb5abb	8.72437e-08

exp_avg f4 [20]
0	0xb5fddf31	-1.8914926e-06
1	0x36f93473	7.426884e-06
2	0xb8131e72	-3.5075886e-05
3	0xb57faa46	-9.5242683e-07
4	0xb6af011c	-5.2155356e-06
5	0xb448ecd8	-1.8712615e-07
6	0x19880aa4	1.4066368e-23
7	0xb4f23e61	-4.51214e-07
8	0xb2d92d63	-2.5282764e-08
9	0xb7d40739	-2.5275733e-05
10	0x00000000	0.0
11	0xb2e17c71	-2.6250037e-08
12	0xb6869673	-4.011026e-06
13	0x343a595b	1.7355107e-07
14	0x262f791d	6.087946e-16
15	0xb6f91ef7	-7.424383e-06
16	0x37ef02d0	2.849233e-05
17	0xb76af21d	-1.4003858e-05
18	0x00000000	0.0
19	0xb9b4accf	-0.00034461028

exp_avg_sq f4 [20]
0	0x2cead754	6.6745862e-12
1	0x319129a5	4.22479e-09
2	0x308b47a6	1.0133945e-09
3	0x2c3a57d0	2.6480935e-12
4	0x2e7c3063	5.7341142e-11
5	0x2985a935	5.935739e-14
6	0x00000001	1e-45
7	0x2b3e52b4	6.7616334e-13
8	0x29b20bd0	7.906837e-14
9	0x30180c5d	5.5314847e-10
10	0x00000000	0.0
11	0x2a65b134	2.0400765e-13
12	0x2e0d5113	3.2131697e-11
13	0x2ac384d9	3.473114e-13
14	0x0dc5c8b1	1.2189377e-30
15	0x2f1fc023	1.4529226e-10
16	0x31580001	3.143214e-09
17	0x2fa1aec3	2.9409905e-10
18	0x00000000	0.0
19	0x33bb5abb	8.72437e-08

exp_avg f4 [2, 5]
0	0xb939d330	-0.00017721648
1	0x3addc95a	0.0016920969
2	0x3a91f360	0.0011135153
3	0x3c453d84	0.012038592
4	0x3d27bb49	0.040950093
5	0x3939d32f	0.00017721647
6	0xbaddc95a	-0.0016920969
7	0xba91f35e	-0.0011135151
8	0xbc453d84	-0.012038592
9	0xbd27bb49	-0.040950093

exp_avg_sq f4 [2, 5]
0	0x33ba05d9	8.6623636e-08
1	0x369664ac	4.482068e-06
2	0x3738c641	1.1013414e-05
3	0x38d4c445	0.00010145506
4	0x3ab0fc4b	0.0013502924
5	0x33ba05d9	8.6623636e-08
6	0x369664ac	4.482068e-06
7	0x3738c641	1.1013414e-05
8	0x38d4c445	0.00010145506
9	0x3ab0fc4b	0.0013502924

exp_avg f4 [2]
0	0xbeda291c	-0.4260949
1	0x3eda291c	0.4260949

exp_avg_sq f4 [2]
0	0x3debcb0f	0.1151334
1	0x3debcb0f	0.1151334
