MimicApp/lightning_logs/version_38/checkpoints/epoch=9-step=99.ckpt (torch, 15916 bytes, 18 tensors)

lstm.weight_ih_l0 f4 [20, 34]
0.12103022 0.21562526 -0.3914363 -0.11152624 -0.4554508 -0.11943563 0.25151977 0.08878261
-0.23081723 0.260661 -0.39954904 -0.31812903 -0.073580764 0.22156349 0.021883281 -0.0045193555
-0.23488389 0.15622634 -0.067596875 0.16285113 -0.32664132 0.400097 -0.11863062 -0.1456034
-0.3961698 0.16775551 -0.32093182 -0.39562482 0.23740226 0.21265572 -0.02939943 0.30960983
0.10176494 -0.16429359 0.03285322 -0.121949054 0.43152583 0.25222144 -0.25650588 -0.20931926
0.19005212 0.13539332 0.005789776 0.16654776 0.18974677 0.020107333 -0.08459215 0.28742668
0.32652476 0.41625547 0.3682162 0.3790947 -0.25945354 -0.12682177 0.12656257 -0.13196917
-0.13436536 -0.083551005 0.24453248 -0.13294807 -0.16661644 0.19854963 -0.25426596 -0.29150617
0.39762017 -0.046734158 -0.027030677 -0.35520014 -0.29435503 -0.04662032 0.2181771 0.14786533
-0.07266864 0.44166404 -0.12623428 0.21831095 -0.1930539 -0.29610166 -0.1337904 0.29874802
-0.37220338 0.3440912 -0.23396038 -0.13891846 -0.047830407 0.29925087 0.38511735 0.2076582
0.032879964 -0.3176043 0.44711766 0.13961414 0.30560514 0.026719477 0.14246993 0.48025578
0.38478163 0.4083331 -0.35194844 0.23323937 -0.11014135 0.41507116 0.31625298 -0.09331675
0.28245988 0.23024319 0.17878449 0.17875682 0.28967944 0.33333153 0.113601305 -0.0031634984
-0.102592096 0.22847179 0.40070724 0.4131065 -0.33666587 -0.29487798 0.17221121 -0.15384237
0.21426591 0.39817947 -0.29667976 0.2623744 -0.35244215 -0.2755161 -0.14468743 0.3885266
-0.24846648 -0.367767 0.36740246 -0.20945135 0.19149157 -0.28157213 -0.28337765 0.47457445
0.15418513 0.34279335 -0.38992402 0.32645214 -0.21502002 -0.22749567 -0.39402893 0.3077135
-0.22940746 -0.21564272 -0.0035040353 -0.42493773 0.035650857 0.23719835 0.033653628 0.3699927
-0.27018198 -0.46523353 -0.27836397 0.39393753 -0.3932203 0.05362445 -0.099172816 0.15662739
-0.11663205 -0.20489524 -0.29812747 0.14660393 0.1537384 -0.06388751 -0.26021746 -0.2293004
-0.30898717 -0.05876373 -0.21085633 0.036200814 -0.1741589 0.35811847 0.32555154 -0.15356396
-0.30524796 0.24185205 -0.19526146 -0.47959098 0.29944885 -0.04443649 0.23710258 0.24439126
0.37611088 -0.30856854 0.07536401 -0.30020565 -0.21012603 0.003907494 -0.23940322 0.39418492
-0.0889206 0.19417109 -0.40119094 0.25725222 -0.06822205 -0.12543556 -0.05887774 0.24765761
0.1079187 0.2024104 -0.4709563 0.06371065 -0.28215405 -0.29737413 -0.40514317 0.32523066
0.009857446 0.26294148 -0.31830695 -0.35716495 0.19316787 0.039717615 -0.04001972 -0.29551566
0.3719327 0.40861756 0.22250271 0.079898834 0.018989623 0.052396387 0.4109488 -0.24976759
0.22397316 0.34518105 0.06452376 0.25339437 0.23415846 0.14313465 -0.18465805 -0.4424028
-0.113821805 0.1431002 -0.06850231 -0.0148099065 -0.010248393 0.2739545 -0.16329993 0.23192707
-0.3429063 -0.3741342 0.044163916 -0.033036176 0.06647904 0.33433414 -0.19595699 0.3899072
0.03652948 -0.39038968 -0.34209013 0.17185439 0.22455545 0.47758955 -0.24850361 -0.11544755
00000000: b1de f73d decc 5c3e 576a c8be df67 e4bd
00000010: d930 e9be ab9a f4bd 33c7 803e a8d3 b53d
00000020: 5a5b 6cbe 5c75 853e b191 ccbe cfe1 a2be
00000030: 83b1 96bd 8ae1 623e 9144 b33c 1a17 94bb
00000040: 6785 70be ccf9 1f3e 3b70 8abd 72c2 263e
00000050: 883d a7be 84d9 cc3e 9cf4 f2bd 0f19 15be
00000060: c5d6 cabe 1ac8 2b3e 2d51 a4be 568f cabe
00000070: 9419 733e 6cc2 593e 13d7 f0bc 2e85 9e3e
00000080: 236a d03d 943c 28be 1991 063d 6dc0 f9bd
00000090: f4f0 dc3e 2b23 813e bd54 83be ca57 56be
000000a0: 069d 423e 8ca4 0a3e 29b8 bd3b 7f8b 2a3e
000000b0: fa4c 423e 22b8 a43c a63e adbd 9729 933e
000000c0: 412e a73e 701f d53e d586 bc3e b318 c23e
000000d0: 18d7 84be 91dd 01be 9e99 013e ed22 07be
000000e0: 1397 09be ca1c abbd b966 7a3e 8a23 08be
000000f0: 809d 2abe 9850 4b3e 262f 82be 4c40 95be
00000100: df94 cb3e 516c 3fbd 706f ddbc cbdc b5be
00000110: b4b5 96be f3f4 3ebd d169 5f3e 026a 173e
00000120: 4cd3 94bd ca21 e23e 8f43 01be e88c 5f3e
00000130: ecaf 45be a39a 97be 5a00 09be 80f5 983e
00000140: 7191 bebe b92c b03e 4f93 6fbe a440 0ebe
00000150: d1e9 43bd 6937 993e 1a2e c53e 5aa4 543e
00000160: 24ad 063d 089d a2be 9bec e43e 02f7 0e3e
00000170: 4778 9c3e cee2 da3c a3e3 113e 16e4 f53e
00000180: 1902 c53e 0911 d13e 9632 b4be 4dd6 6e3e
00000190: ca91 e1bd 3584 d43e e9eb a13e da1c bfbd
000001a0: 959e 903e dfc4 6b3e 4813 373e 070c 373e
000001b0: dd50 943e 6eaa aa3e cda7 e83d b252 4fbb
000001c0: ce1b d2bd 82f4 693e 8029 cd3e b282 d33e
000001d0: 785f acbe 3ffa 96be 2358 303e db88 1dbe
000001e0: 8668 5b3e 2ede cb3e 69e6 97be f055 863e
000001f0: 4c73 b4be 7210 8dbe f128 14be f5ec c63e
00000200: ff6d 7ebe f54b bcbe 2d1c bc3e 6a7a 56be
00000210: 5e16 443e 392a 90be e016 91be 6cfb f23e
00000220: b5e2 1d3e 9c82 af3e 1fa4 c7be bc24 a73e
00000230: 352e 5cbe a0f4 68be 29be c9be a08c 9d3e
00000240: cae9 6abe 72d1 5cbe f5a3 65bb 7091 d9be
00000250: a206 123d 20e4 723e 63d8 093d af6f bd3e
00000260: 4b55 8abe 1733 eebe b985 8ebe 2eb2 c93e
00000270: 2c54 c9be 50a5 5b3d 1e1b cbbd ee62 203e
00000280: c9dc eebd 0fd0 51be 2aa4 98be 571f 163e
00000290: 996d 1d3e 74d7 82bd 393b 85be b9cd 6abe
000002a0: 9133 9ebe 3db2 70bd b9ea 57be 4e47 143d
000002b0: b656 32be 4e5b b73e b1ae a63e df3f 1dbe
000002c0: 7649 9cbe 10a8 773e 9ff2 47be f38c f5be
000002d0: 5c51 993e 0903 36bd 05cb 723e b441 7a3e
000002e0: 9b91 c03e b2fc 9dbe 7258 9a3d 8eb4 99be
000002f0: 472b 57be 6f0a 803b 1e26 75be 9bd2 c93e
00000300: 011c b6bd c9d4 463e e668 cdbe 90b6 833e
00000310: 01b8 8bbd 2e72 00be c929 71bd f599 7d3e
00000320: 7b04 dd3d ac44 4f3e 2f21 f1be bb7a 823d
00000330: 7f76 90be 6c41 98be ed6e cfbe a284 a63e
00000340: 2081 213c 44a0 863e 21f9 a2be 53de b6be
00000350: cccd 453e f0ae 223d b8eb 23bd d44d 97be
00000360: f66d be3e 5236 d13e c0d7 633e 00a2 a33d
00000370: 2090 9b3c 989d 563d e267 d23e 13c3 7fbe
00000380: 3859 653e 92bb b03e 0825 843d e8bc 813e
00000390: 3cc7 6f3e e491 123e 0017 3dbe 9f82 e2be
000003a0: 681b e9bd dc88 123e f04a 8cbd 40a5 72bc
000003b0: e0e8 27bc c443 8c3e 1938 27be 4a7e 6d3e
000003c0: 6a91 afbe 858e bfbe 39e5 343d f150 07bd
000003d0: 2a26 883d d82d ab3e f3a8 48be eba1 c73e
000003e0: f09f 153d 28e1 c7be 7026 afbe 99fa 2f3e
000003f0: ddf1 653e 9e86 f43e bb77 7ebe c46f ecbd

lstm.weight_hh_l0 f4 [20, 5]
-0.11280431 0.35529882 0.28549764 0.2542035 -0.25684455 -0.26960453 -0.17758812 0.34050053
-0.12051725 -0.2785253 0.12626018 0.24388051 0.3046535 0.25062525 0.19830243 0.1850111
0.3298672 -0.36762878 -0.21954428 -0.124372005 -0.40694928 0.22062886 0.06232937 0.18861791
-0.2398125 -0.17665805 -0.48211786 -0.23345786 -0.37061003 0.4295638 -0.36039752 0.27826434
0.053521752 -0.09085512 -0.31287035 0.12621048 0.4583041 -0.21318543 -0.058336698 0.069435
0.32450894 -0.28707147 -0.3153949 -0.29886085 -0.2028261 0.4083296 -0.11609453 -0.2207245
-0.13302469 0.12784691 0.006989899 -0.072713114 0.46024108 -0.15803218 -0.34540552 -0.35043937
0.34112328 -0.44621283 0.14745176 0.44294548 0.23804322 0.07049167 -0.08597158 0.34059134
0.04444307 -0.17759296 -0.036264684 0.2526745 0.4107566 -0.3677428 0.2444349 0.05279571
0.35453284 -0.34508365 0.31162924 0.42826536 -0.081240386 -0.18551427 0.14191277 -0.3750127
-0.12536393 -0.04861252 -0.24405284 -0.025727568 0.247271 0.12705389 -0.21734776 0.37155458
-0.4418041 -0.18674979 0.24494594 -0.40726566 -0.3692275 0.18339163 -0.021365374 0.23573679
0.19267449 0.21112214 0.18033095 -0.30247432
00000000: f205 e7bd bae9 b53e bf2c 923e f626 823e
00000010: 2181 83be 9b09 8abe a9d9 35be 1656 ae3e
00000020: bfd1 f6bd de9a 8ebe 594a 013e d0bb 793e
00000030: 8bfb 9b3e f451 803e cb0f 4b3e 8d73 3d3e
00000040: 5be4 a83e d739 bcbe 37d0 60be c0b6 febd
00000050: a85b d0be 88ec 613e 154d 7f3d 0e25 413e
00000060: 6891 75be d9e5 34be 27d8 f6be 940f 6fbe
00000070: 99c0 bdbe c9ef db3e 0686 b8be aa78 8e3e
00000080: a039 5b3d 4012 babd 8b30 a0be 523d 013e
00000090: d6a6 ea3e 484d 5abe 76f2 6ebd f033 8e3d
000000a0: 0926 a63e 08fb 92be 717b a1be 4a04 99be
000000b0: a5b1 4fbe 9410 d13e f8c2 edbd 9a05 62be
000000c0: a037 08be 4dea 023e 860b e53b 9dea 94bd
000000d0: b8a4 eb3e 30d3 21be fed8 b0be ca6c b3be
000000e0: b6a7 ae3e 0276 e4be 98fd 163e c0c9 e23e
000000f0: 9ac1 733e f05d 903d de11 b0bd fd61 ae3e
00000100: f009 363d eeda 35be 478a 14bd 8d5e 813e
00000110: b04e d23e c948 bcbe 244d 7a3e 5040 583d
00000120: 5485 b53e ceae b0be de8d 9f3e 9945 db3e
00000130: 5c61 a6bd 74f7 3dbe 9551 113e aa01 c0be
00000140: 675f 00be ec1d 47bd fde8 79be 9fc2 d2bc
00000150: 9c34 7d3e 6a1a 023e 6990 5ebe 673c be3e
00000160: 2634 e2be 563b 3fbe 1cd3 7a3e 2085 d0be
00000170: 630b bdbe 04cb 3b3e 7006 afbc fc64 713e
00000180: 764c 453e 6730 583e ada8 383e eadd 9abe

lstm.bias_ih_l0 f4 [20]
0.08758745 -0.26286554 -0.31165108 -0.26071215 0.23100115 -0.16471563 0.063388586 0.10944774
0.15892693 -0.09049083 -0.20974264 -0.29019836 0.10951665 -0.45731777 0.070601285 -0.2665531
-0.30290994 -0.018696485 0.07175809 -0.14914832
00000000: 0d61 b33d 5096 86be bb90 9fbe 107c 85be
00000010: 918b 6c3e 37ab 28be e0d1 813d 2326 e03d
00000020: bebd 223e 4253 b9bd c6c6 56be e194 94be
00000030: 444a e03d 8e25 eabe 6897 903d a679 88be
00000040: 0317 9bbe 5f29 99bc e8f5 923d 56ba 18be

lstm.bias_hh_l0 f4 [20]
0.36390847 0.09083583 0.39857706 0.14313574 0.18926771 -0.036633395 0.31105548 0.02373781
-0.020052368 0.15530908 -0.080756985 0.3197775 -0.12357688 -0.038967285 -0.16012967 0.16781396
0.3617907 -0.15052058 0.40925163 0.09874776
00000000: 3652 ba3e 2308 ba3d 4b12 cc3e 2d92 123e
00000010: 65cf 413e e60c 16bd aa42 9f3e cc75 c23c
00000020: dd44 a4bc 5809 1f3e eb63 a5bd e0b9 a33e
00000030: e015 fdbd 299c 1fbd 08f9 23be 6cd7 2b3e
00000040: a13c b93e 1122 1abe 6e89 d13e 443c ca3d

linear.weight f4 [2, 5]
0.30467054 0.33646595 0.19051558 -0.46279877 0.2632456 0.24665485 0.10687509 -0.3157692
0.0046594953 0.1501316
00000000: c7fd 9b3e 4445 ac3e 8416 433e f6f3 ecbe
00000010: 21c8 863e 1793 7c3e 54e1 da3d 80ac a1be
00000020: aeae 983b 19bc 193e

linear.bias f4 [2]
-0.15940617 0.23731741
00000000: 5f3b 23be 5603 733e

exp_avg f4 [20, 34]
0.00067763467 0.0007335183 0.000280295 0.00084717793 0.0005231391 0.00040015293 0.00016627902 0.0
1.3032971e-05 0.00020243577 3.4448083e-06 5.547647e-05 0.00032005782 0.00068602466 0.0004186259 0.0001344665
0.0014194776 6.321206e-05 0.00077975006 6.4496985e-06 5.1440893e-05 0.0010929991 1.1257099e-05 1.5124608e-05
2.5275527e-05 3.0618874e-05 3.1650772e-05 4.4797238e-05 0.00023144101 7.700931e-05 0.00023723893 0.00011699591
0.0015537215 0.0023974394 -0.0007205586 -0.0008270225 -0.00031607912 -0.0010353781 -0.000694893 -0.00051162875
-0.00016579842 0.0 -4.034395e-06 -0.00021574993 -5.9827767e-06 -6.3179345e-05 -0.00036112036 -0.00075547356
-0.001222113 -0.00015122008 -0.001167668 -7.060601e-05 -0.0008941846 -7.3824303e-06 -4.5147877e-05 -0.001082862
-1.38013165e-05 -1.5946982e-05 -2.9270057e-05 -3.528468e-05 -3.8905993e-05 -7.7138706e-05 -0.00030027592 -0.00010320262
-0.00029635782 -0.00011379304 -0.0029414305 -0.0020281575 -0.012136459 -0.01372396 -0.005190505 -0.017278273
-0.011318485 -0.008719649 -0.0025324384 0.0 4.424486e-05 -0.0033650803 -8.352666e-05 -0.0010372918
-0.0059144227 -0.012578929 -0.021253122 -0.0037422823 -0.014296001 -0.0011590611 -0.014998687 -0.00018354769
-0.0007240076 -0.019889154 -0.0003177529 -0.00027406152 -0.0005067536 -0.00059656135 -0.00031239606 -0.00034687633
-0.0043422044 -0.0014894445 -0.0057594087 -0.0016046573 -0.053951923 -0.020988723 -0.0010462323 -0.0010946665
-0.00042112937 -0.0014925004 -0.0009813635 -0.00071418326 -0.00024475358 0.0 1.795797e-05 -0.0002599836
-6.957392e-06 -8.4000756e-05 -0.00043666593 -0.0010364479 -0.0034690145 -0.00022140225 -0.0008967358 -9.4641386e-05
-0.0012306542 -1.2543696e-05 -2.1639973e-05 -0.0014831354 -1.684927e-05 -2.3641012e-05 -3.9722287e-05 -5.047509e-05
-1.6024349e-05 -1.5330217e-05 -0.00037202233 -0.00012636954 -0.0003953738 -0.00020650755 -0.0072347615 -0.0015624267
0.00010372483 0.00013979153 5.342703e-05 0.0002196852 0.00014505627 0.00010550626 2.7429123e-05 0.0
-4.9242306e-07 3.589039e-05 7.565103e-07 1.0798582e-05 5.9121652e-05 0.00013986006 0.003775351 2.8584891e-05
0.00016882695 1.2904982e-05 0.00015155287 1.4959166e-06 1.8116735e-06 0.00017760342 6.2353815e-06 2.5571683e-06
5.0736626e-06 5.8960354e-06 3.878258e-06 5.966245e-06 4.5465473e-05 1.6231534e-05 5.9390455e-05 1.9088206e-05
0.00035385072 0.00021370426 6.8334393e-06 1.0346004e-05 3.6694591e-06 -1.3382149e-05 -1.0883559e-06 -2.790901e-06
4.1647804e-06 0.0 -2.882106e-06 -2.1130509e-06 -4.5458125e-07 5.786844e-07 -5.0019053e-06 7.565439e-06
3.8375012e-05 -1.0606973e-05 9.095063e-05 1.9242384e-07 1.2915883e-05 -1.2216177e-06 1.1924615e-06 2.8294016e-07
-8.460753e-07 -2.8069223e-07 -1.31917e-06 -1.9321942e-07 6.555013e-06 3.4433583e-06 -3.2151765e-06 -9.2901246e-08
-3.5755555e-05 -5.252163e-06 1.7717437e-05 -8.200442e-05 0.0 0.0 0.0 0.0
0.0 0.0 0.0 0.0 0.0 0.0 0.0 0.0
0.0 0.0 0.0 0.0 0.0 0.0 0.0 0.0
0.0 0.0 0.0 0.0 0.0 0.0 0.0 0.0
0.0 0.0 0.0 0.0 0.0 0.0 -0.00043905978 -0.0004509659
-0.00017404111 -0.0005877304 -0.0003691035 -0.00026785897 -7.871108e-05 0.0 -1.0374399e-05 -0.00011837737
-2.3282903e-06 -3.476016e-05 -0.00018386294 -0.0004265404 -0.00043295827 -9.651264e-05 -0.00060148985 -4.033812e-05
00000000: 4ba3 313a 9449 403a 8ff4 9239 2615 5e3a
00000010: 4523 093a 9ecb d139 2f5b 2e39 0000 0000
00000020: 2fa8 5a37 f044 5439 5b2d 6736 68af 6838
00000030: 6fcd a739 56d6 333a 047b db39 94ff 0c39
00000040: c40d ba3a b790 8438 2468 4c3a 7d6a d836
00000050: 3dc2 5738 f742 8f3a dfdc 3c37 b2bf 7d37
00000060: c806 d437 c46c 0038 c2c0 0438 abe4 3b38
00000070: f9ae 7239 0f80 a138 57c3 7839 b35b f538
00000080: 3ea6 cb3a 5c1e 1d3b dee3 3cba 8acc 58ba
00000090: 6cb7 a5b9 86b5 87ba 7b29 36ba d31e 06ba
000000a0: 2dda 2db9 0000 0000 305f 87b6 ee3a 62b9
000000b0: a9bf c8b6 277f 84b8 c154 bdb9 f90a 46ba
000000c0: 4f2f a0ba d590 1eb9 700c 99ba 5012 94b8
000000d0: b667 6aba 98b6 f7b6 2a5d 3db8 d2ee 8dba
000000e0: 348c 67b7 e2c5 85b7 f888 f5b7 a3fe 13b8
000000f0: fe2e 23b8 87c5 a1b8 5a6e 9db9 7c6e d8b8
00000100: 7960 9bb9 2ca4 eeb8 04c5 40bb d6ea 04bb
00000110: 00d8 46bc 76da 60bc 1d15 aabb 2a8b 8dbc
00000120: 2b71 39bc dcdc 0ebc 44f7 25bb 0000 0000
00000130: 8f93 3938 ae88 5cbb 092b afb8 bdf5 87ba
00000140: c6cd c1bb da17 4ebc 071b aebc 1441 75bb
00000150: c639 6abc a3eb 97ba 0ebd 75bc b576 40b9
00000160: 54cb 3dba 94ee a2bc 1398 a6b9 eaaf 8fb9
00000170: a9d7 04ba 8e62 1cba 17c9 a3b9 f4dc b5b9
00000180: 0d49 8ebb 7739 c3ba 6cb9 bcbb 5d53 d2ba
00000190: b1fc 5cbd 8bf0 abbc bb21 89ba ea7a 8fba
000001a0: 07cb dcb9 01a0 c3ba 18a1 80ba 0738 3bba
000001b0: 4552 80b9 0000 0000 72a4 9637 684e 88b9
000001c0: 8b73 e9b6 9029 b0b8 4ff0 e4b9 6cd9 87ba
000001d0: 6858 63bb 3728 68b9 ec12 6bba 357a c6b8
000001e0: e74d a1ba c472 52b7 7d87 b5b7 c465 c2ba
000001f0: 8857 8db7 b050 c6b7 7b9b 26b8 37b5 53b8
00000200: 076c 86b7 6499 80b7 fe0b c3b9 1182 04b9
00000210: 2c4a cfb9 f389 58b9 9411 edbb 57ca ccba
00000220: d886 d938 0195 1239 d616 6038 4c5b 6639
00000230: 3f1a 1839 3e43 dd38 9817 e637 0000 0000
00000240: 0e2f 04b5 0389 1638 fe12 4b35 8e2b 3537
00000250: 64f9 7738 66a7 1239 e16b 773b 96c9 ef37
00000260: 2407 3139 7a82 5837 2aea 1e39 4ec7 c835
00000270: a128 f335 0e3b 3a39 8539 d136 d19b 2b36
00000280: 6e3e aa36 8fd6 c536 fc21 8236 a831 c836
00000290: 2eb2 3e38 f428 8837 041a 7938 9c1f a037
000002a0: 0a85 b939 cd15 6039 cc4a e536 c093 2d37
000002b0: d440 7636 e483 60b7 a013 92b5 504b 3bb6
000002c0: 31bf 8b36 0000 0000 346a 41b6 f0cd 0db6
000002d0: 2c0d f4b4 e456 1b35 0ad6 a7b6 a0da fd36
000002e0: dbf4 2038 9af4 31b7 bfbc be38 109d 4e34
000002f0: 4cb1 5837 77f6 a3b5 aa0c a035 00e7 9734
00000300: da1d 63b5 0cb2 96b4 560e b1b5 c077 4fb4
00000310: 22f3 db36 7214 6736 50c4 57b6 0081 c7b3
00000320: 3cf8 15b8 bd3b b0b6 e89f 9437 caf9 abb8
00000330: 0000 0000 0000 0000 0000 0000 0000 0000
00000340: 0000 0000 0000 0000 0000 0000 0000 0000
00000350: 0000 0000 0000 0000 0000 0000 0000 0000
00000360: 0000 0000 0000 0000 0000 0000 0000 0000
00000370: 0000 0000 0000 0000 0000 0000 0000 0000
00000380: 0000 0000 0000 0000 0000 0000 0000 0000
00000390: 0000 0000 0000 0000 0000 0000 0000 0000
000003a0: 0000 0000 0000 0000 0000 0000 0000 0000
000003b0: 0000 0000 0000 0000 9b31 e6b9 9e6f ecb9
000003c0: ce7e 36b9 eb11 1aba 3c84 c1b9 6c6f 8cb9
000003d0: b011 a5b8 0000 0000 b40d 2eb7 5e41 f8b8
000003e0: b93f 1cb6 70cb 11b8 55cb 40b9 49a1 dfb9
000003f0: adfe e2b9 d466 cab8 4dad 1dba ba30 29b8

exp_avg_sq f4 [20, 34]
5.502916e-08 7.104088e-08 1.04428075e-08 1.15449446e-07 4.01158e-08 3.0660477e-08 3.9776955e-09 0.0
2.064633e-10 4.8621662e-09 3.9290997e-12 4.1667056e-10 1.2004167e-08 5.3316977e-08 8.500516e-08 5.6684164e-09
3.9137237e-07 5.586199e-10 8.188936e-08 1.1615195e-11 9.782588e-10 1.2005542e-07 3.9437557e-11 3.1226074e-11
1.0694822e-10 1.2807104e-10 1.5956043e-10 8.5913393e-10 6.750424e-09 7.2410206e-10 9.19648e-09 2.092768e-09
3.5060492e-07 1.4060282e-06 1.4128084e-07 2.0092943e-07 2.8089808e-08 2.7130534e-07 1.163704e-07 6.5458195e-08
6.598281e-09 0.0 2.408678e-10 1.5408341e-08 7.4857e-12 1.1347971e-09 3.491448e-08 1.7503677e-07
8.88324e-07 4.2376125e-09 7.5750455e-07 1.3468208e-09 2.3345837e-07 1.2451063e-11 2.0018496e-09 2.579302e-07
3.9029748e-11 7.172447e-11 3.6710812e-10 3.2455488e-10 2.4181388e-09 4.1842485e-10 2.1776875e-08 2.5133962e-09
1.8923986e-08 4.732165e-09 1.7022654e-06 1.1709399e-06 5.6335837e-05 8.539022e-05 1.2058429e-05 0.00013555303
5.8962338e-05 3.6523e-05 2.5678953e-06 0.0 4.9344635e-08 5.3324243e-06 3.7235095e-09 4.861258e-07
1.54068e-05 7.311385e-05 8.094236e-05 6.435544e-06 0.00011734051 6.2211456e-07 0.00010022839 1.98239e-08
9.682578e-07 0.0001433311 3.691836e-08 3.4920166e-08 1.273869e-07 1.543488e-07 1.1159323e-07 8.670378e-07
9.28961e-06 1.0767839e-06 1.0916433e-05 1.4801218e-06 0.0007316028 0.0003274939 2.1665267e-06 2.5569543e-06
3.6205583e-07 5.9960444e-06 2.436471e-06 1.3444493e-06 1.11041764e-07 0.0 9.554951e-09 1.2272935e-07
7.493175e-11 1.4429069e-08 4.4501988e-07 2.328992e-06 1.9614552e-05 6.8620716e-07 1.6433922e-06 1.9249837e-08
3.194886e-06 1.934363e-09 6.6016604e-08 4.1311855e-06 2.9867981e-09 1.0166171e-09 4.8695066e-09 4.9955586e-09
6.6604516e-10 1.3918794e-09 2.44906e-07 2.8127243e-08 3.4803665e-07 3.5798145e-08 0.00011659822 9.534115e-06
4.874656e-07 5.760784e-07 8.4530534e-08 8.0979027e-07 3.4402325e-07 1.7755869e-07 1.6774562e-08 0.0
4.6708487e-10 4.3958106e-08 1.7750256e-11 3.3381546e-09 1.5223351e-07 5.6809057e-07 4.6434976e-05 2.17821e-08
5.7912365e-07 4.3906447e-09 6.795809e-07 1.11189044e-10 1.0723913e-10 7.633888e-07 2.528445e-10 2.3219743e-10
6.716318e-10 1.1560348e-09 2.7325547e-10 7.87272e-11 6.3558026e-08 6.838761e-09 7.797722e-08 1.072031e-08
1.4564729e-06 2.2292222e-06 6.154966e-08 7.741464e-08 1.1080394e-08 1.0997949e-07 4.7665562e-08 2.4689797e-08
3.259625e-09 0.0 2.296061e-10 4.7967714e-09 3.3401981e-12 4.4527138e-10 1.2295009e-08 6.578046e-08
1.8508736e-08 9.0115035e-09 5.985199e-08 5.7930527e-10 9.0380105e-08 1.5306886e-11 2.2260447e-09 1.2788331e-07
4.728089e-11 3.506944e-11 1.02580534e-10 1.4561495e-10 2.9728765e-11 5.295918e-10 8.2542515e-09 9.441741e-10
1.4884448e-08 1.0419462e-09 7.5318417e-07 5.6269624e-07 0.0 0.0 0.0 0.0
0.0 0.0 0.0 0.0 0.0 0.0 0.0 0.0
0.0 0.0 0.0 0.0 0.0 0.0 0.0 0.0
0.0 0.0 0.0 0.0 0.0 0.0 0.0 0.0
0.0 0.0 0.0 0.0 0.0 0.0 4.2601886e-07 6.095459e-07
8.5440035e-08 1.3656509e-06 5.147111e-07 2.7124352e-07 1.6647114e-08 0.0 9.290919e-11 3.5538203e-08
2.5766188e-11 3.4176917e-09 1.2442523e-07 4.448307e-07 7.1041705e-07 1.1504375e-07 9.945184e-07 5.851866e-09
00000000: 3459 6c33 238f 9833 f467 3332 01ed f733
00000010: ca4b 2c33 8daf 0333 2eac 8831 0000 0000
00000020: 4102 632f 1110 a731 2f3e 8a2c 2b11 e52f
00000030: e33a 4e32 a3fe 6433 158c b633 ebc3 c231
00000040: cf1d d234 618d 1930 27db af33 3056 4c2d
00000050: 6c73 8630 95e8 0034 be72 2d2e 6f55 092e
00000060: 7f2e eb2e cbd0 0c2f 4570 2f2f 2d28 6c30
00000070: 5cf1 e731 270a 4730 8cfe 1d32 5dd0 0f31
00000080: c63a bc34 c3b6 bc35 fbb2 1734 10bf 5734
00000090: 244a f132 eca7 9134 4ee7 f933 0692 8c33
000000a0: 18b7 e231 0000 0000 216b 842f 4d5b 8432
000000b0: 99b0 032d 20f7 9b30 e0f4 1533 bef1 3b34
000000c0: 2975 6e35 6f9a 9131 5157 4b35 0b1b b930
000000d0: 8cac 7a34 9a0a 5b2d e990 0931 a879 8a34
000000e0: 97a7 2b2e 49b9 9d2e e0d1 c92f 0a6d b22f
000000f0: 592c 2631 1008 e62f db0f bb32 22b8 2c31
00000100: 498e a232 9098 a231 6579 e435 3029 9d35
00000110: 254a 6c38 8613 b338 8f4e 4a37 3d23 0e39
00000120: 544e 7738 4630 1938 1b54 2c36 0000 0000
00000130: 00ef 5333 2ded b236 ace0 7f31 507e 0235
00000140: da3d 8137 b354 9938 99bf a938 e7f0 d736
00000150: b514 f638 63ff 2635 b531 d238 3849 aa32
00000160: 16f5 8135 264b 1639 2b90 1e33 21fb 1533
00000170: d8c7 0834 13bb 2534 07a5 ef33 62be 6835
00000180: 92da 1b37 0386 9035 b925 3737 99a8 c635
00000190: 08c9 3f3a 7db3 ab39 a564 1136 2498 2b36
000001a0: 9360 c234 a131 c936 4182 2336 ed72 b435
000001b0: db75 ee33 0000 0000 1e27 2432 96c7 0334
000001c0: d3c6 a42e b7e3 7732 11eb ee34 c74b 1c36
000001d0: ee89 a437 cc33 3835 8792 dc35 d75a a532
000001e0: b967 5636 aced 0431 03c5 8d33 9d9e 8a36
000001f0: 4f40 4d31 09b9 8b30 a250 a731 66a5 ab31
00000200: c314 3730 674c bf30 a07b 8334 769c f132
00000210: cbd9 ba34 7ac0 1933 3186 f438 b6f4 1f37
00000220: 62da 0235 cea3 1a35 2787 b533 5d60 5935
00000230: 32b2 b834 f6a6 3e34 a717 9032 0000 0000
00000240: 2d64 0030 73cc 3c33 0622 9c2d 7065 6531
00000250: a175 2334 e37e 1835 2dc3 4238 581b bb32
00000260: 1375 1b35 85dc 9631 726c 3635 de81 f42e
00000270: 43d2 eb2e aeeb 4c35 b300 8b2f c44d 7f2f
00000280: e39d 3830 5ce2 9e30 4a39 962f 791f ad2e
00000290: 657d 8833 61fa ea31 6e74 a733 6c2c 3832
000002a0: 077c c335 bf99 1536 492d 8433 263f a633
000002b0: 175c 3e32 dd2d ec33 d7b8 4c33 7015 d432
000002c0: eeff 5f31 0000 0000 5f74 7c2f d9d0 a431
000002d0: a90b 6b2c 60ca f42f 053a 5332 3143 8d33
000002e0: 24fd 9e32 03d1 1a32 fb87 8033 fc3c 1f30
000002f0: fd16 c233 0ba4 862d fef8 1831 4c50 0934
00000300: 8df1 4f2e ae3c 1a2e b593 e12e f71a 202f
00000310: 9dbf 022e b692 1130 95ce 0d32 2cc4 8130
00000320: 7fb6 7f32 3934 8f30 6c2e 4a35 310c 1735
00000330: 0000 0000 0000 0000 0000 0000 0000 0000
00000340: 0000 0000 0000 0000 0000 0000 0000 0000
00000350: 0000 0000 0000 0000 0000 0000 0000 0000
00000360: 0000 0000 0000 0000 0000 0000 0000 0000
00000370: 0000 0000 0000 0000 0000 0000 0000 0000
00000380: 0000 0000 0000 0000 0000 0000 0000 0000
00000390: 0000 0000 0000 0000 0000 0000 0000 0000
000003a0: 0000 0000 0000 0000 0000 0000 0000 0000
000003b0: 0000 0000 0000 0000 96b7 e434 ad9f 2335
000003c0: 287b b733 684b b735 ad2a 0a35 6d9f 9134
000003d0: 64ff 8e32 0000 0000 394f cc2e aba2 1833
000003e0: 4ca4 e22d abdc 6a31 bf99 0534 11d1 ee34
000003f0: 7db3 3e35 f80d f733 647b 8535 8f11 c931

exp_avg f4 [20, 5]
-2.0976493e-06 2.8120348e-06 6.431014e-06 -6.301291e-06 -7.452284e-29 5.324061e-07 -1.0875985e-06 -5.964719e-06
6.2049735e-06 2.5329986e-12 -2.8039281e-05 -5.8388254e-05 -2.142418e-05 0.00012288986 1.0280388e-09 -3.0308756e-06
-6.7193073e-06 5.548948e-09 1.9700176e-06 -2.7623132e-10 9.207067e-11 1.4393509e-06 5.4141447e-09 -4.2447546e-08
-6.1855076e-07 -1.8413386e-06 5.492214e-07 6.244406e-08 -5.5332094e-08 -3.789684e-12 0.0 0.0
0.0 0.0 0.0 -1.2551065e-07 -4.866474e-07 -4.4663866e-06 4.5268466e-06 2.5916735e-27
1.1409795e-06 -6.8499867e-07 -7.2539115e-06 6.801702e-06 2.436882e-11 -6.035424e-11 2.6508454e-24 2.198251e-11
-4.918441e-10 -3.5307583e-11 -1.073566e-06 -2.3036228e-06 -9.061094e-06 1.0165488e-05 7.96315e-19 -4.884506e-17
-4.887388e-17 -4.812125e-36 3.7264043e-17 0.0 9.32976e-07 0.0 -1.7190458e-05 -2.4961033e-05
6.015653e-22 -1.3395623e-05 9.4019015e-06 2.2022203e-05 3.7727073e-06 -4.1045636e-10 0.0 0.0
0.0 0.0 0.0 -9.5499545e-06 1.230044e-06 -1.0108476e-05 1.06235775e-05 -2.310829e-11
8.3314944e-08 -1.8916102e-05 -3.5084453e-05 3.7978298e-05 1.4260564e-11 -1.3140426e-05 -7.7804557e-20 -9.579142e-06
1.727018e-05 8.956221e-14 0.0 0.0 0.0 0.0 0.0 -4.804323e-10
1.6348487e-08 4.935818e-10 -1.7833369e-08 -1.2138642e-09
00000000: 57c5 0cb6 64b6 3c36 fdc9 d736 ad6f d3b6
00000010: 17f0 bc90 abea 0e35 9af9 91b5 8c24 c8b6
00000020: 5134 d036 723e 322c e635 ebb7 e9e5 74b8
00000030: 14b8 b3b7 ffdb 0039 e64a 8d30 0c66 4bb6
00000040: 6976 e1b6 10a9 be31 a534 0436 1adc 97af
00000050: 2e77 ca2e b82f c135 5207 ba31 924f 36b3
00000060: 7c0a 26b5 ea23 f7b5 356e 1335 fc18 8633
00000070: 48a6 6db3 7056 85ac 0000 0000 0000 0000
00000080: 0000 0000 0000 0000 0000 0000 1bc4 06b4
00000090: 28a2 02b5 f8dd 95b6 51e5 9736 6255 4d13
000000a0: c223 9935 c0e0 37b5 a066 f3b6 2d3a e436
000000b0: b459 d62d 6bb8 84ae 6719 4d18 365c c12d
000000c0: 7432 07b0 ce48 1bae 7217 90b5 f097 1ab6
000000d0: 1a05 18b7 708c 2a37 dc07 6b21 1242 61a4
000000e0: 1864 61a4 67af cc84 9ed9 2b24 0000 0000
000000f0: 9f71 7a35 0000 0000 3a34 90b7 6963 d1b7
00000100: dccf 351c c3bd 60b7 dcbc 1d37 52bc b837
00000110: 9e2e 7d36 99a6 e1af 0000 0000 0000 0000
00000120: 0000 0000 0000 0000 0000 0000 be38 20b7
00000130: fd17 a535 9397 29b7 eb3b 3237 3e43 cbad
00000140: e0ea b233 05ae 9eb7 a527 13b8 e34a 1f38
00000150: dfdf 7a2d b375 5cb7 f8b5 b79f 1ab6 20b7
00000160: 6edf 9037 19ad c929 0000 0000 0000 0000
00000170: 0000 0000 0000 0000 0000 0000 6b0f 04b0
00000180: b46e 8c32 bbac 0730 fe2f 99b2 0dd5 a6b0

exp_avg_sq f4 [20, 5]
4.1611525e-13 1.1581393e-12 4.086448e-12 4.823266e-12 0.0 1.1193486e-11 1.4430891e-12 1.40628065e-11
1.6414236e-11 1.7736097e-16 2.403226e-09 2.9313402e-10 3.1750602e-10 5.408411e-09 2.2112467e-18 5.852921e-11
4.1576836e-11 8.230279e-14 3.5699773e-11 1.7905587e-12 3.8714962e-14 4.5602865e-11 6.273996e-15 2.8805746e-11
8.103769e-12 8.637441e-12 6.838564e-14 3.4680867e-12 7.605578e-12 7.925864e-17 0.0 0.0
0.0 0.0 0.0 1.7987212e-11 1.7558418e-12 5.2944607e-11 6.208247e-11 0.0
1.361311e-10 9.083803e-13 1.3423967e-10 2.7521804e-10 8.212089e-15 9.845227e-15 0.0 1.8504648e-15
3.951765e-14 6.5821274e-15 7.9919535e-12 1.9234828e-13 3.5724156e-11 1.4701207e-10 5.2771074e-32 3.6423225e-34
3.6253789e-34 0.0 2.1161986e-34 0.0 1.9065753e-09 0.0 5.1165017e-10 1.6380508e-09
2.0058244e-35 2.242193e-09 9.492989e-10 3.232755e-09 2.2675872e-09 3.0535596e-12 0.0 0.0
0.0 0.0 0.0 9.101465e-11 1.286283e-12 1.05930605e-10 2.0114739e-10 3.4298967e-15
5.523671e-12 2.4405918e-11 5.9551586e-11 9.563578e-11 3.9841995e-17 4.6163334e-11 9.2079e-40 2.6755197e-11
7.7804235e-11 4.4460834e-19 0.0 0.0 0.0 0.0 0.0 2.3935532e-12
1.193948e-13 2.486224e-12 2.2490974e-12 5.623905e-13
00000000: 8740 ea2a 5efe a22b 74c7 8f2c 1eb4 a92c
00000010: 0000 0000 fbea 442d c418 cb2b 4065 772d
00000020: 9361 902d b87b 4c25 0026 2531 f226 a12f
00000030: 008d ae2f e3d4 b931 4529 2322 04b5 802e
00000040: 5bdb 362e 5454 b929 5f02 1d2e adff fb2b
00000050: 505b 2e29 4390 482e 660b e227 c660 fd2d
00000060: 2290 0e2d 93f3 172d a3fd 9929 7f0b 742c
00000070: 7acc 052d 0bc2 b624 0000 0000 0000 0000
00000080: 0000 0000 0000 0000 0000 0000 9a37 9e2d
00000090: de1c f72b 54da 682e 5385 882e 0000 0000
000000a0: 80ad 152f b3af 7f2b 1c99 132f 7f4d 972f
000000b0: 93ef 1328 195b 3128 0000 0000 0d57 0527
000000c0: c0f8 3129 6925 ed27 8f98 0c2d 9e90 582a
000000d0: d31d 1d2e 38a4 212f 6500 890b e812 f207
000000e0: a0f2 f007 0000 0000 41a5 8c07 0000 0000
000000f0: d404 0331 0000 0000 2ea4 0c30 ca21 e130
00000100: bc4b d505 1415 1a31 7c78 8230 3a27 5e31
00000110: d1d3 1b31 0ae0 562c 0000 0000 0000 0000
00000120: 0000 0000 0000 0000 0000 0000 b124 c82e
00000130: 3b07 b52b a1f1 e82e f529 5d2f 6d26 7727
00000140: ce58 c22c 3ead d62d 90f4 822e 284e d22e
00000150: 20bd 3724 4b07 4b2e ca06 0a00 5957 eb2d
00000160: e417 ab2e a839 0321 0000 0000 0000 0000
00000170: 0000 0000 0000 0000 0000 0000 6c6e 282c
00000180: 356d 062a d4f3 2e2c 2344 1e2c 824c 1e2b

exp_avg f4 [20]
7.5259622e-06 -8.551266e-06 -0.0001405108 -1.1376541e-05 1.4601405e-06 7.209894e-08 0.0 -4.6690593e-06
-6.2007903e-06 4.9332943e-10 -1.0611075e-05 -4.8929004e-17 -3.0923184e-05 3.1903048e-05 0.0 -1.0910995e-05
-3.959195e-05 -1.7742377e-05 0.0 1.8018431e-08
00000000: 8687 fc36 6877 0fb7 1556 13b9 dfdd 3eb7
00000010: 0cfa c335 d0d4 9a33 0000 0000 eaaa 9cb6
00000020: 6210 d0b6 f99a 0730 3806 32b7 2ca5 61a4
00000030: 84b3 01b8 a3cf 0538 0000 0000 5e0e 37b7
00000040: 880f 26b8 77d5 94b7 0000 0000 f3c6 9a32

exp_avg_sq f4 [20]
7.640438e-12 2.064239e-11 8.922867e-09 2.6661898e-10 6.1490285e-11 8.148123e-12 0.0 6.315592e-11
1.6247122e-10 4.0125174e-14 2.1430788e-10 3.6484567e-34 2.3213762e-09 6.5982695e-09 0.0 3.1324046e-10
1.0745531e-10 9.562646e-11 0.0 3.6967807e-12
00000000: 7969 062d 8892 b52d 2f4b 1932 4993 922f
00000010: f437 872e e257 0f2d 0000 0000 9fe1 8a2e
00000020: 95a3 322f 2db5 3429 4ea2 6b2f 467b f207
00000030: 1586 1f31 feb6 e231 0000 0000 ad34 ac2f
00000040: f64b ec2e e948 d22e 0000 0000 a411 822c

exp_avg f4 [20]
7.5259622e-06 -8.551266e-06 -0.0001405108 -1.137654e-05 1.4601405e-06 7.2098885e-08 0.0 -4.6690593e-06
-6.2007907e-06 4.9332943e-10 -1.0611075e-05 -4.8929004e-17 -3.0923187e-05 3.1903048e-05 0.0 -1.0910995e-05
-3.959195e-05 -1.7742377e-05 0.0 1.8018426e-08
00000000: 8687 fc36 6877 0fb7 1556 13b9 dedd 3eb7
00000010: 0cfa c335 c8d4 9a33 0000 0000 eaaa 9cb6
00000020: 6310 d0b6 f99a 0730 3806 32b7 2ca5 61a4
00000030: 85b3 01b8 a3cf 0538 0000 0000 5e0e 37b7
00000040: 880f 26b8 77d5 94b7 0000 0000 f0c6 9a32

exp_avg_sq f4 [20]
7.640437e-12 2.0642389e-11 8.922868e-09 2.6661898e-10 6.1490285e-11 8.148123e-12 0.0 6.315592e-11
1.624712e-10 4.0125174e-14 2.1430785e-10 3.6484567e-34 2.3213762e-09 6.5982695e-09 0.0 3.132405e-10
1.07455315e-10 9.5626465e-11 0.0 3.69678e-12
00000000: 7869 062d 8792 b52d 304b 1932 4993 922f
00000010: f437 872e e257 0f2d 0000 0000 9fe1 8a2e
00000020: 94a3 322f 2db5 3429 4ca2 6b2f 467b f207
00000030: 1586 1f31 feb6 e231 0000 0000 ae34 ac2f
00000040: f74b ec2e ea48 d22e 0000 0000 a211 822c

exp_avg f4 [2, 5]
-0.0079220915 -0.028069712 -0.08022643 0.090311594 0.0010832811 0.0079220915 0.028069712 0.08022643
-0.090311594 -0.0010832811
00000000: a9cb 01bc 74f2 e5bc c14d a4bd 49f5 b83d
00000010: e2fc 8d3a a9cb 013c 74f2 e53c c14d a43d
00000020: 49f5 b8bd e2fc 8dba

exp_avg_sq f4 [2, 5]
0.00027575096 5.5903303e-05 0.00059065357 0.0010621814 3.1848674e-06 0.00027575096 5.5903296e-05 0.0005906536
0.0010621814 3.1848683e-06
00000000: ab92 9039 b779 6a38 17d6 1a3a e538 8b3a
00000010: 9bbb 5536 ab92 9039 b579 6a38 18d6 1a3a
00000020: e538 8b3a 9fbb 5536

exp_avg f4 [2]
-0.53508806 0.53508806
00000000: 88fb 08bf 88fb 083f

exp_avg_sq f4 [2]
0.0315728 0.0315728
00000000: 7b52 013d 7b52 013d
