MimicApp/lightning_logs/version_45/checkpoints/epoch=9-step=99.ckpt (torch, 15916 bytes, 18 tensors)

lstm.weight_ih_l0 f4 [20, 34]
00000000: a6c8 053f f84c f13e 4624 fc3e a676 7c3d
00000010: 8dee 76be e9ff 543e a317 b8be 98d1 c6be
00000020: c602 65be 8d6b 8f3e f537 0cbe 539a e8bd
00000030: 6805 81be fef4 cc3e 710c 81be 6b4e 143e
00000040: f78d 363e 584a 58be f76a 53be 405c 89be
00000050: 4d44 903e e176 abbe 31a9 ae3d 3f84 f2bd
00000060: 8641 b1be 10f4 60be bb05 f2bd 61be 0bbe
00000070: 5791 6ebe a21e 973e e101 913e 2522 b13e
00000080: 1f8d 8bbe 807e 063f 31e0 00bf eea3 ba3d
00000090: ce5e b63e 24d7 11be 831f 52be c024 bdbe
000000a0: 472b f5be 888f 0bbe 624a aebe 0e5c 27be
000000b0: db3b 483d ee23 e43d d8da eabe 6828 5bbd
000000c0: ac00 ddbe 59e6 a1bd b100 ddbe c3f1 a23e
000000d0: 0358 e2be e104 4d3e b8a8 1a3d 5347 a43e
000000e0: 62e5 3b3e feba 623e 3ead 8b3e f183 af3e
000000f0: 63b5 cebe f140 153e dcb8 783e bea1 8d3e
00000100: 8359 8c3e 7363 913e 3e04 8b3e 440a 44bd
00000110: 60e6 02be 1e19 21be b8b7 953d e610 b13e
00000120: e8ca d5be 6aad 85be f084 a03e d217 d73e
00000130: 4811 8dbd 5483 de3e aa77 af3e 048f a13e
00000140: 3642 ba3e c815 403e 9cdd 773e 18da 59be
00000150: 34a4 713e 9ce0 f3bd bef6 a33e e448 3c3e
00000160: 02d1 9e3e 8427 553e dca5 b13e caab 953e
00000170: f092 2e3d 6c62 743e 3d96 ccbe 40e5 a23b
00000180: c4f3 90bd ca10 81be 73a8 c4be a838 ed3d
00000190: f6a7 32be 00c6 3cbd 9ed5 d9be e85c e83d
000001a0: b884 27be 238a 3fbd f63f ca3e 0e35 a3bd
000001b0: 39ca 02be 6819 8abd 4ebf 92bd 21db 533e
000001c0: d85b c2be 1666 a4bd b20a c93e 3d37 e6be
000001d0: 63f0 e73d d4f4 7fbe 076b d7be 9489 7a3e
000001e0: 7479 ce3e e4d6 98bd 6f09 553e 4428 c1bb
000001f0: dbdb c93e 9f5d d1be c198 743e 8c89 733e
00000200: 6ae8 3e3e bf21 38bd dc55 e1be 4c75 22be
00000210: 6403 d03e cafb 8bbe 9ec9 81bd c386 99be
00000220: 9e4e 8dbc cb61 da3e 0dbb 6cbe f504 52be
00000230: 881f 8ebc 2d20 b03e 667d 1c3e 58b4 623e
00000240: ca97 54be de83 95be 825d 843e e6a9 6bbe
00000250: 70e3 a8bd d28e a33e bd7b dabe 7465 023e
00000260: d3d8 26be da9c a1bd 551f 333e 545b cc3e
00000270: 63f2 4f3e 7f68 31be 9c8d 413e 6606 a63d
00000280: 00d5 6fbe 1cf4 00be 9078 b7be 3e56 9d3e
00000290: e395 adbe dedb d63d 969e e33c 6b10 86bc
000002a0: 5bd7 a2be f6db babe 35b6 b8be 3a24 37be
000002b0: 2216 bcbe 700b eabd ca1e bdbe 5418 823e
000002c0: 94e0 d5bd 26b7 00be 18e7 653e 8099 f3bc
000002d0: c821 c43d d4c6 1fbe a077 003c baf3 bc3e
000002e0: 94f1 09be a44a 46be 80da 37bb 408d 84bd
000002f0: 8e3e 83be 40c9 003e e06f 993e e84b 1d3d
00000300: e815 13be 2809 c23e 004e 763c fad5 e13e
00000310: 0845 a0bd 703c 643e 1809 9c3d d0bb f03d
00000320: 80b7 12be 100b f0bc f052 b93d b8df d9be
00000330: 7bcb 1c3e 1b2c ff3d 65e4 48be 6e84 5e3e
00000340: 0f95 4ebe 0225 373e e992 823e bcab 9a3e
00000350: d304 c63c f649 8dbd 3cc6 54bd 9980 14be
00000360: c31d 94be 935e dfbd aa9a 8d3e 27eb b6be
00000370: a2d4 b73e a4da dcbc e242 853e 8c7c 15be
00000380: 4061 b6be ebb8 423e 3c4b e7bd c156 6ebd
00000390: 01f1 68be 0ec5 aa3b cef1 373e b031 cbbe
000003a0: add6 99be ca3a d1bd d9ad c5bd 6f6d c7be
000003b0: fd32 11be 0700 60be a54c fc3d 4e63 a2be
000003c0: 9d42 d83e f8de 7ebe 712c 3f3e 9dcf bcbe
000003d0: 8826 f73d 3089 4a3e 3f02 e43e 81ca 383d
000003e0: ed00 ecbb 00ca 66be 8aeb c5be d338 a43e
000003f0: b0c0 cd3e 53f1 87bd 2ae9 cf3e 8d6c 473e
0.5225929 0.47129035 0.49246424 0.06163659 -0.24114437 0.20800747 -0.35955533 -0.38831782
-0.22364339 0.28011742 -0.13693221 -0.1135756 -0.25199437 0.40030664 -0.25204805 0.14483039
0.17827593 -0.2112211 -0.20646273 -0.26828194 0.2817711 -0.33489135 0.085283644 -0.1184163
-0.34620303 -0.21968102 -0.11817499 -0.13646843 -0.2329763 0.29515558 0.28321746 0.34596363
-0.27256104 0.52536774 -0.5034209 0.09113298 0.35619205 -0.14242226 -0.20519833 -0.369421
-0.4788458 -0.13628972 -0.34041125 -0.1634371 0.048885208 0.111396655 -0.4587009 -0.05350533
-0.43164575 -0.079052635 -0.4316459 0.31825075 -0.44207773 0.20021392 0.03775856 0.32085666
0.18349221 0.22141644 0.2728061 0.3428035 -0.40372762 0.14575554 0.24289268 0.27662462
0.27412042 0.28396186 0.27151674 -0.047861353 -0.12783194 -0.15732238 0.07310432 0.34583205
-0.41756368 -0.26108867 0.31351423 0.4201036 -0.06888062 0.4345957 0.34270984 0.31554425
0.3637864 0.18758309 0.24205631 -0.21274602 0.23597795 -0.11908075 0.32024187 0.1838718
0.31018835 0.20815855 0.34696853 0.29232627 0.0426206 0.2386567 -0.39958373 0.0049711764
-0.070777446 -0.25208122 -0.38409767 0.11583072 -0.17446885 -0.046087265 -0.4254579 0.113458455
-0.16359222 -0.046762597 0.39501923 -0.07969104 -0.12772454 -0.06743127 -0.07165395 0.2068906
-0.37960696 -0.08027284 0.39265972 -0.44964018 0.11325147 -0.24995738 -0.42073843 0.24466544
0.40327036 -0.07462862 0.2080438 -0.0058946926 0.3942555 -0.4089174 0.23886396 0.23782939
0.18643346 -0.044954058 -0.44010818 -0.15865058 0.40627587 -0.27340537 -0.063372836 -0.29985628
-0.017249402 0.42652735 -0.23118229 -0.20509703 -0.01734902 0.34399548 0.1528221 0.22139108
-0.20761028 -0.2920217 0.2585259 -0.2301403 -0.08246505 0.319449 -0.4267253 0.12734014
-0.1629365 -0.07891245 0.17492421 0.39913428 0.20307307 -0.17325018 0.18901676 0.08106689
-0.23421097 -0.1259312 -0.3583417 0.3072986 -0.33903417 0.10491155 0.02778558 -0.01636525
-0.31804928 -0.36495942 -0.36076513 -0.17884913 -0.36735636 -0.11427963 -0.36937553 0.25409186
-0.104432255 -0.12569866 0.22451437 -0.02973628 0.09576756 -0.1560319 0.007841021 0.369047
-0.13471061 -0.1936441 -0.002805382 -0.06472254 -0.25633663 0.12576771 0.29968166 0.038402468
-0.14363825 0.3789761 0.015033245 0.44108564 -0.07825667 0.2228868 0.07618922 0.117545724
-0.14327812 -0.02930215 0.09049022 -0.42553496 0.15311997 0.12459584 -0.19618376 0.21730205
-0.20174049 0.17885211 0.2550271 0.30209148 0.024172222 -0.068988726 -0.051946864 -0.14502181
-0.28928956 -0.109067105 0.27657062 -0.35726282 0.35904413 -0.026959725 0.2602759 -0.14598292
-0.3562107 0.19015853 -0.11293647 -0.058188204 -0.22748186 0.005211479 0.17963335 -0.39686346
-0.30046597 -0.10216291 -0.096522994 -0.3895068 -0.14179607 -0.2187501 0.12319306 -0.31716388
0.42238322 -0.24889743 0.18669297 -0.36877146 0.12067896 0.19778895 0.44532964 0.045114998
-0.007202259 -0.22537994 -0.38656265 0.32074603 0.4018607 -0.06637826 0.40607578 0.19475003

lstm.weight_hh_l0 f4 [20, 5]
00000000: 5587 eebe 385d 043f db41 6a3e 6c69 27be
00000010: ceaf d13e c68e aa3e 93d1 a2be 8519 7ebe
00000020: 41e9 c9be 328b 953e dc72 dcbe 8806 ad3e
00000030: 3292 98be 00d7 273c acd4 85bd 379e a23d
00000040: 1faa c53e 2f83 13be d40a c33e 04c7 40be
00000050: 42e2 bb3e f8a7 d43d e3cc 62be 1cba b0be
00000060: a9e3 d7be 5076 583e acae 26be ec37 cabe
00000070: 4bdd babe e0b0 f5bc 6539 65be 9808 afbe
00000080: e0b5 03be b84c 19bd ad44 66be 9c36 89be
00000090: 86e9 71bd f438 04be 0c51 9cbe 2a06 c53e
000000a0: c492 cf3e 88bd b3bd 1fd6 003e 797b 443e
000000b0: 9819 383e 6072 223e fcc1 093e 806a 8b3d
000000c0: 9c09 23be 0064 7fba e89a 363e 7e23 8abe
000000d0: ce9e 863e 16f8 c0be 9096 fcbd 8156 6bbe
000000e0: 2336 cd3c aefb 52bd b601 81be 60b9 bf3e
000000f0: 2c2f bc3e acee 35be 5468 c8be 408c 743c
00000100: 4e23 b1be 0439 93be 5b22 8bbc 70ca e33d
00000110: 5463 32bd 02bb 93be 02fc cdbe c423 a3bd
00000120: 0873 563e 1f19 ddbe 92ca e0be 46b5 72be
00000130: ee8e 5c3e aa97 1e3e 5615 1fbe 6409 55be
00000140: 3e9d a93e 190a d9be 7c65 883e 00cd dc3d
00000150: ea5a db3e a04f 9b3e 97a6 74be 0a0e 583e
00000160: 26cb e7be 1e33 c4be 1ab3 9bbe 1718 c3be
00000170: 810c c2bb 5c2f 8fbe 6820 3d3e 7c00 36be
00000180: f846 a73e b080 8a3d 13ed a2be 4e29 89be
-0.46587625 0.5170474 0.22876684 -0.16348809 0.4095444 0.33312052 -0.31800517 -0.24814422
-0.3943577 0.2920776 -0.4305638 0.33794045 -0.29799038 0.010244131 -0.065347046 0.07940333
0.38606355 -0.14405511 0.380942 -0.18825918 0.3669606 0.103836 -0.2214847 -0.3451699
-0.42165878 0.21138883 -0.1627757 -0.3949579 -0.36496958 -0.029991567 -0.22385176 -0.34186244
-0.12862349 -0.03742668 -0.22487135 -0.26799476 -0.059060596 -0.12912351 -0.30530584 0.38481265
0.4054166 -0.087763846 0.1258168 0.19187726 0.17978513 0.15863943 0.13452905 0.06807423
-0.15921634 -0.0009742379 0.1783253 -0.26980203 0.26293033 -0.37689275 -0.12333405 -0.22982217
0.025050228 -0.05150955 -0.25196618 0.37446117 0.3675474 -0.17766827 -0.39142096 0.014926016
-0.34597248 -0.28754437 -0.016984155 0.11122596 -0.043551758 -0.28853613 -0.4023133 -0.07965806
0.20942318 -0.43183228 -0.4390455 -0.23701963 0.21538898 0.15487543 -0.15535483 -0.20804363
0.3312778 -0.42390516 0.26639926 0.10781288 0.428428 0.30334187 -0.23891674 0.21099105
-0.45272177 -0.3832025 -0.3041008 -0.38104317 -0.0059219007 -0.2796582 0.18469393 -0.17773622
0.32671332 0.067628264 -0.31821498 -0.26789325

lstm.bias_ih_l0 f4 [20]
00000000: ae0e b83e cb55 86be c6c1 8fbe 6337 5e3e
00000010: c8b0 a7be 08e7 d43e 17f9 f33d 7d2d 873e
00000020: 6ef7 ccbd 8853 803e 5c64 e1bd e5b6 c53e
00000030: f6ad f93d e30c 84be d063 d13c 0f23 ab3d
00000040: 315b ccbe 2c2f e33d 6fbb 7e3d 2057 97bd
0.359487 -0.2623733 -0.28077525 0.21700816 -0.3275206 0.41582513 0.119127445 0.26401892
-0.10008131 0.2506373 -0.1100547 0.386161 0.121913835 -0.25791082 0.02556029 0.08356296
-0.39913324 0.11092982 0.06219047 -0.07389665

lstm.bias_hh_l0 f4 [20]
00000000: 118b aabe 51ce 43be e8ba 40be 1d13 83bd
00000010: ba26 a93e 10fd c13d 06b0 efbe 414d 8bbe
00000020: 1a0e 373e f9f1 92be 5013 353d 8edf c6bd
00000030: 35df 23bd 7d83 66bd aa2d c23e 4356 343e
00000040: 531a c4be 7cf3 d83e 00e9 27be bc71 6fbe
-0.33309224 -0.19121672 -0.18821299 -0.0640013 0.3303736 0.09472096 -0.46813983 -0.27207378
0.17876473 -0.28700235 0.04420787 -0.097106084 -0.04000779 -0.05627774 0.37925464 0.17611031
-0.38301334 0.42373264 -0.16397476 -0.2338323

linear.weight f4 [2, 5]
00000000: 8de3 dabe d581 e03b 7ecf a13d 088a 5d3e
00000010: e333 e63d 9aa5 413e 6b75 523e d1de bebe
00000020: 6ca2 b53e 2333 cf3e
-0.42751732 0.0068514147 0.07900904 0.21634686 0.11240365 0.18910828 0.20552604 -0.3727937
0.3547548 0.40468702

linear.bias f4 [2]
00000000: 78af 9b3e 8770 92be
0.3040731 -0.28601477

exp_avg f4 [20, 34]
00000000: 74c3 a2bb 521d bbbb 8569 0ebb a305 ecbb
00000010: 6bc3 99bb 1ba1 61bb 6569 8cba 0000 0000
00000020: 5688 4338 7e25 b6ba 49b3 14b8 ea54 e3b9
00000030: 794a 23bb 38b8 afbb 18da 17bc 222f aeba
00000040: f0d5 a4bb 5500 fab9 5e7f ccbb 4c4e 9eb8
00000050: 4851 c6b9 1c10 12bc 1ef6 f9b8 df70 f5b8
00000060: 6b54 5db9 783f 7db9 f79e f4b8 0279 84b9
00000070: 323a f2ba 6e9a 25ba 003b 09bb 3e9c 2cba
00000080: 20cd c3bc b198 1abc c551 e23a fd1c 043b
00000090: 8c5d 473a e983 1b3b 09ee ca3a 49b0 993a
000000a0: 5521 c139 0000 0000 6130 d1b7 88ce 023a
000000b0: 7ac1 3c37 8714 1f39 30b8 5c3a ca80 f43a
000000c0: 472b 513a 71ff 013a 438c db3a a058 3339
000000d0: 462a 0d3b 5ccc d937 1e8f ca38 13ac 5d3b
000000e0: 9332 2b38 6f90 3038 0c18 a338 72eb ba38
000000f0: fe45 9237 e682 d138 6bf0 2b3a 95b6 6a39
00000100: 532b 453a e25c 9439 5343 1c3c 8474 983b
00000110: 0000 0000 0000 0000 0000 0000 0000 0000
00000120: 0000 0000 0000 0000 0000 0000 0000 0000
00000130: 0000 0000 0000 0000 0000 0000 0000 0000
00000140: 0000 0000 0000 0000 0000 0000 0000 0000
00000150: 0000 0000 0000 0000 0000 0000 0000 0000
00000160: 0000 0000 0000 0000 0000 0000 0000 0000
00000170: 0000 0000 0000 0000 0000 0000 0000 0000
00000180: 0000 0000 0000 0000 0000 0000 0000 0000
00000190: 0000 0000 0000 0000 7d5f 9038 37c8 9838
000001a0: 0018 e737 f5a2 c338 afd0 8538 ae71 5b38
000001b0: bb06 5737 0000 0000 de30 ae35 f369 9c37
000001c0: b7b3 b434 04cd b736 229f 1438 ab38 9638
000001d0: ab02 683a 23d9 3737 b5fd 0239 0083 cb36
000001e0: 0f60 a238 3846 2135 bfab 8135 817d b638
000001f0: 62ad 3136 c1ac a535 9346 4e36 4508 4736
00000200: 85e9 4436 e550 2335 30e5 c037 4773 0537
00000210: 6f6e e037 e624 fe36 b888 3239 eaa3 1939
00000220: d886 202b 8f0a 742b 96d6 ac2a 1f15 612b
00000230: 6150 092b d77c cb2a f5c1 2a2a 0000 0000
00000240: f1b4 18aa 936b 8129 a21d 9c27 9f47 8d29
00000250: acd0 652a a168 5d2b 0981 392a 8538 ab2b
00000260: c608 2f2a ee94 8a29 2f25 802b b69a 5e29
00000270: 0dea 5e2a 45b6 562b 44c9 2e28 eed2 9128
00000280: 41fd a929 84ef 4d29 7128 932a 59f9 042a
00000290: 57d2 9b2a 1551 d929 7772 d52a 42e0 302a
000002a0: c0d2 db2b a400 ef2a 1e8f f992 5c1f 1893
000002b0: 8b4e 6a92 fa31 f192 55a7 bc92 0a7f ab92
000002c0: d444 b991 0000 0000 f29a 930f 0d4c 1292
000002d0: e476 818f 06ad 3991 d821 6f92 0cac 1693
000002e0: e4d4 d391 ddad 3292 f4b4 ea92 c25b 4f91
000002f0: 6b93 2893 8aea 1490 11a4 0e92 d4f5 4093
00000300: 4a70 a88f 3173 3990 15f0 c390 0b54 e390
00000310: a9b4 4d8f 4d7c b38f e0fe 3192 d6f4 7491
00000320: 4f3e 4692 f8a3 9191 51fd 8a94 28f8 3793
00000330: 0828 ad39 cdd7 c339 385e 1339 4576 f839
00000340: b9a4 a039 3622 6c39 c065 a238 0000 0000
00000350: dc78 ca35 5c21 d838 73f5 f235 c215 e837
00000360: c616 2e39 e61f b339 e63f a838 3394 c438
00000370: 804f ba39 3931 0738 1c71 d939 de5a ae36
00000380: 802d 3238 a82b 0c3a 3389 e536 8178 ee36
00000390: d65c 6e37 3ea0 8937 9837 c136 28c9 54b6
000003a0: a2e3 f938 66cd 3238 d85b 2a38 f0b4 8838
000003b0: c864 e33a 5e68 633a 0a07 d1b6 0eba eeb6
000003c0: 6e42 38b6 f461 28b7 ea83 cbb6 245d 96b6
000003d0: 32ce abb5 0000 0000 c349 ccb4 81bc 01b6
000003e0: 6f1c 1eb3 9f30 14b5 b69e 51b6 ce24 f1b6
000003f0: 5b3e 9ab6 0d93 9eb5 151a ddb7 5f26 17b5
-0.0049671475 -0.0057102824 -0.0021730375 -0.0072028204 -0.004692485 -0.0034428302 -0.0010712562 0.0
4.6618596e-05 -0.0013896672 -3.5452922e-05 -0.0004336008 -0.0024916215 -0.0053625368 -0.009268306 -0.0013289193
-0.005030386 -0.00047683963 -0.0062407693 -7.548611e-05 -0.00037826062 -0.008914974 -0.00011919088 -0.00011703534
-0.0002110765 -0.00024151604 -0.00011664436 -0.0002526716 -0.0018480478 -0.00063172623 -0.0020939708 -0.0006584561
-0.023901522 -0.0094358185 0.0017266801 0.002015888 0.0007605187 0.0023729748 0.0015482317 0.0011725511
0.00036836663 0.0 -2.493727e-05 0.0004989882 1.12507205e-05 0.00015171069 0.000841978 0.0018654105
0.0007979166 0.0004959023 0.0016750175 0.00017103786 0.002154009 2.5963578e-05 9.658768e-05 0.0033824488
4.0816678e-05 4.2096184e-05 7.776925e-05 8.913026e-05 1.7437149e-05 9.990278e-05 0.00065589574 0.00022383996
0.00075214094 0.00028297963 0.009537536 0.0046525616 0.0 0.0 0.0 0.0
0.0 0.0 0.0 0.0 0.0 0.0 0.0 0.0
0.0 0.0 0.0 0.0 0.0 0.0 0.0 0.0
0.0 0.0 0.0 0.0 0.0 0.0 0.0 0.0
0.0 0.0 0.0 0.0 0.0 0.0 6.884241e-05 7.285218e-05
2.7548522e-05 9.328678e-05 6.3808046e-05 5.231954e-05 1.2816566e-05 0.0 1.2978232e-06 1.8645986e-05
3.3658372e-07 5.477692e-06 3.5434154e-05 7.1631126e-05 0.0008850495 1.0958206e-05 0.0001249228 6.065122e-06
7.742654e-05 6.0079356e-07 9.661234e-07 8.701813e-05 2.6475977e-06 1.2343736e-06 3.0737472e-06 2.9658124e-06
2.9342202e-06 6.083995e-07 2.2994907e-05 7.954258e-06 2.6754306e-05 7.5740854e-06 0.00017026335 0.0001465228
5.703055e-13 8.6700867e-13 3.0702237e-13 7.996537e-13 4.8783726e-13 3.614667e-13 1.5166325e-13 0.0
-1.3563089e-13 5.747412e-14 4.3330826e-15 6.274082e-14 2.0411683e-13 7.8660174e-13 1.6476069e-13 1.2165968e-12
1.5546166e-13 6.154266e-14 9.105268e-13 4.9428093e-14 1.9798764e-13 7.628102e-13 9.702583e-15 1.618971e-14
7.54904e-14 4.572689e-14 2.6140507e-13 1.1810465e-13 2.7679484e-13 9.6508013e-14 3.7915827e-13 1.5709745e-13
1.5619381e-12 4.2455373e-13 -1.574939e-27 -1.9200559e-27 -7.3934192e-28 -1.5221558e-27 -1.1905719e-27 -1.0822935e-27
-2.9230272e-28 0.0 1.4555002e-29 -4.6163217e-28 -1.2766177e-29 -1.4647244e-28 -7.545682e-28 -1.9017487e-27
-3.3421134e-28 -5.63812e-28 -1.4812085e-27 -1.6357696e-28 -2.1277264e-27 -2.9368536e-29 -4.5009527e-28 -2.435501e-27
-1.6609331e-29 -3.6573557e-29 -7.7283843e-29 -8.96652e-29 -1.0142074e-29 -1.7698642e-29 -5.616551e-28 -1.9323652e-28
-6.2554585e-28 -2.297802e-28 -1.4034355e-26 -2.3220198e-27 0.00033026957 0.00037354082 0.00014054112 0.00047390364
0.00030640306 0.00022519458 7.7437144e-05 0.0 1.5085348e-06 0.00010305896 1.810184e-06 2.7666687e-05
0.00016602417 0.00034165307 8.022766e-05 9.3736126e-05 0.00035535917 3.223235e-05 0.00041473738 5.1961824e-06
4.2480882e-05 0.00053470815 6.840704e-06 7.1069812e-06 1.42075205e-05 1.6406291e-05 5.75832e-06 -3.170755e-06
0.00011915645 4.26298e-05 4.0616695e-05 6.5186876e-05 0.0017348761 0.0008674915 -6.229505e-06 -7.1146123e-06
-2.7456804e-06 -1.0036387e-05 -6.0652283e-06 -4.4811914e-06 -1.2800504e-06 0.0 -3.805163e-07 -1.9332222e-06
-3.6813102e-08 -5.520505e-07 -3.1235809e-06 -7.1866443e-06 -4.596817e-06 -1.1814715e-06 -2.6357398e-05 -5.630772e-07

exp_avg_sq f4 [20, 34]
00000000: c22d be36 8edc 0637 de54 9c35 3f06 4e37
00000010: 070a b236 a49d 4436 8a7d a134 0000 0000
00000020: 8ec5 4631 c3e7 0a35 48a8 a32f b341 4833
00000030: 9adf cb35 152e e936 7754 4737 3998 0935
00000040: ae5c 4c37 5710 8033 6f82 2237 2489 0331
00000050: ed3c b033 c853 6d37 fd8c 7031 3000 6831
00000060: bdbf 4132 45fd 7f32 28c0 4032 8396 9833
00000070: 7b39 6635 5e09 d633 3a78 9335 ba30 0234
00000080: f423 e638 a8f7 e737 35a2 3037 9c85 8337
00000090: 6a7c 1436 ba74 a637 40fd 0837 53d4 b836
000000a0: 3478 e434 0000 0000 14a1 3433 2d24 7e35
000000b0: 43b7 1a30 84c8 be33 a94c 3836 a165 5f37
000000c0: 32c5 9c36 1b90 5c36 4708 4c37 95a2 f133
000000d0: 346e 9837 35fb fa31 1094 6134 321a 2938
000000e0: 66de 2232 9a58 db31 5e2c ed32 da6a f832
000000f0: da69 d133 3db3 0335 f616 df35 6d2c 4f34
00000100: ea3e 2136 2f62 ab34 a342 0039 14bf a638
00000110: 0000 0000 0000 0000 0000 0000 0000 0000
00000120: 0000 0000 0000 0000 0000 0000 0000 0000
00000130: 0000 0000 0000 0000 0000 0000 0000 0000
00000140: 0000 0000 0000 0000 0000 0000 0000 0000
00000150: 0000 0000 0000 0000 0000 0000 0000 0000
00000160: 0000 0000 0000 0000 0000 0000 0000 0000
00000170: 0000 0000 0000 0000 0000 0000 0000 0000
00000180: 0000 0000 0000 0000 0000 0000 0000 0000
00000190: 0000 0000 0000 0000 ba54 a633 558f e233
000001a0: b243 8132 39e6 1b34 026d 9433 f4e2 1633
000001b0: bdd8 3431 0000 0000 6835 ec2e 8318 fa31
000001c0: 1030 852c 65d6 2530 bfe5 db32 f12f db33
000001d0: f91c 5436 89c9 9e31 b472 4533 4c1b 6230
000001e0: ecb0 0134 ecde 132e 3705 1030 d08d 1434
000001f0: 7fcc 8f2e a774 3f2e 54b8 352f 66bc 6f2f
00000200: 4126 4b2d 6182 2c2e 01d3 3e32 41fb a630
00000210: dfba 8532 8cd5 f030 4b0e 9734 e3ec 0435
00000220: 2f13 8717 caa8 2118 9761 a116 1f51 0a18
00000230: 595a 4b17 0f9d dd16 2d7d 9e15 0000 0000
00000240: ff0b 9815 d1b6 2914 c27b 8410 6631 5714
00000250: b9ee 0c16 7b85 0618 a5d2 ba15 0a0a 9d18
00000260: 65ae a715 01b4 5014 b34c 3218 e982 0614
00000270: d582 0616 af7a fa17 75fc 9811 5957 6a12
00000280: 77ae 9c14 a68e ee13 346f 6a16 3370 3f15
00000290: 5170 8816 3994 0515 6d12 f716 948a a915
000002a0: b7fe 0219 8451 1b17 0000 0000 0000 0000
000002b0: 0000 0000 0000 0000 0000 0000 0000 0000
000002c0: 0000 0000 0000 0000 0000 0000 0000 0000
000002d0: 0000 0000 0000 0000 0000 0000 0000 0000
000002e0: 0000 0000 0000 0000 0000 0000 0000 0000
000002f0: 0000 0000 0000 0000 0000 0000 0000 0000
00000300: 0000 0000 0000 0000 0000 0000 0000 0000
00000310: 0000 0000 0000 0000 0000 0000 0000 0000
00000320: 0000 0000 0000 0000 0000 0000 0000 0000
00000330: 200d 1434 2373 3034 ed8d cf32 3660 8734
00000340: 2e24 e333 3864 7d33 47e9 e431 0000 0000
00000350: 917e c92f a981 3532 1638 aa2c 7b95 8430
00000360: d0fd f932 5486 1734 bba5 2b32 bd6a 2632
00000370: c4f7 9333 3994 a930 4006 6234 dbd9 e92d
00000380: 5894 8130 59ed 8a34 aaca c42e 95cb b02e
00000390: 3b33 872f ede1 b92f 231d 0d2e 50ff aa2f
000003a0: e4ef 9c32 0c31 0e31 b00c 9b32 3060 7631
000003b0: d8b7 5c36 522d 8e35 0dbc 9532 d38b c132
000003c0: 4902 6731 dac5 3f33 e9a6 8c32 4613 1a32
000003d0: 4d76 4a30 0000 0000 2c8f 862e 175e e330
000003e0: dc37 2c2b 3c58 152f b353 9431 08cb c532
000003f0: 389d 2132 9836 2c30 01a5 a434 4f6b 1b2f
5.667768e-06 8.038374e-06 1.1647605e-06 1.2280011e-05 5.3059807e-06 2.9298035e-06 3.007993e-07 0.0
2.892509e-09 5.1746264e-07 2.9769098e-10 4.6625882e-08 1.5189755e-06 6.9493058e-06 1.188099e-05 5.125799e-07
1.2180926e-05 5.963437e-08 9.686321e-06 1.9140964e-09 8.206721e-08 1.4145808e-05 3.500474e-09 3.376055e-09
1.1277675e-08 1.490054e-08 1.1219562e-08 7.1054295e-08 8.576532e-07 9.9668554e-08 1.0987344e-06 1.212492e-07
0.000109739514 2.765267e-05 1.0528184e-05 1.5678634e-05 2.2126137e-06 1.9843097e-05 8.165196e-06 5.508345e-06
4.255577e-07 0.0 4.2056016e-08 9.4675016e-07 5.6285304e-10 8.884038e-08 2.7462759e-06 1.3315498e-05
4.672119e-06 3.2866435e-06 1.2161275e-05 1.12520105e-07 1.817113e-05 7.3045165e-09 2.1008623e-07 4.0317136e-05
9.480209e-09 6.3838117e-09 2.7610607e-08 2.891959e-08 9.751575e-08 4.906213e-07 1.6621477e-06 1.929454e-07
2.402749e-06 3.192267e-07 0.00012231855 7.951088e-05 0.0 0.0 0.0 0.0
0.0 0.0 0.0 0.0 0.0 0.0 0.0 0.0
0.0 0.0 0.0 0.0 0.0 0.0 0.0 0.0
0.0 0.0 0.0 0.0 0.0 0.0 0.0 0.0
0.0 0.0 0.0 0.0 0.0 0.0 7.745389e-08 1.0550017e-07
1.504836e-08 1.4519254e-07 6.9116155e-08 3.513101e-08 2.6316649e-09 0.0 1.0741524e-10 7.2787443e-09
3.7854234e-12 6.0331323e-10 2.5599432e-08 1.0206703e-07 3.1607326e-06 4.621317e-09 4.597196e-08 8.225711e-10
1.2078425e-07 3.3621925e-11 5.2394306e-10 1.3835165e-07 6.539213e-11 4.353198e-11 1.652734e-10 2.1803856e-10
1.1547708e-11 3.9224072e-11 1.1107432e-08 1.21495e-09 1.5568217e-08 1.7522992e-09 2.813634e-07 4.951855e-07
8.729013e-25 2.0893979e-24 2.607254e-25 1.7877038e-24 6.570687e-25 3.5803594e-25 6.4013184e-26 0.0
6.141124e-26 8.568374e-27 5.22555e-29 1.0864468e-26 1.1384438e-25 1.7386484e-24 7.545714e-26 4.0593686e-24
6.772591e-26 1.0536816e-26 2.3044684e-24 6.7910886e-27 1.0865717e-25 1.6186841e-24 2.413696e-28 7.3945045e-28
1.5820789e-26 6.022031e-27 1.8937459e-25 3.8660652e-26 2.2042867e-25 2.6976063e-26 3.991663e-25 6.8477194e-26
6.772282e-24 5.018609e-25 0.0 0.0 0.0 0.0 0.0 0.0
0.0 0.0 0.0 0.0 0.0 0.0 0.0 0.0
0.0 0.0 0.0 0.0 0.0 0.0 0.0 0.0
0.0 0.0 0.0 0.0 0.0 0.0 0.0 0.0
0.0 0.0 0.0 0.0 1.3788349e-07 1.6433164e-07 2.4162512e-08 2.5215712e-07
1.0577092e-07 5.89973e-08 6.662194e-09 0.0 3.6651618e-10 1.0565068e-08 4.8379174e-12 9.646749e-10
2.9102836e-08 1.4111839e-07 9.991193e-09 9.686741e-09 6.890289e-08 1.2338496e-09 2.1050164e-07 2.658578e-11
9.428147e-10 2.5877196e-07 8.9490484e-11 8.039717e-11 2.4592758e-10 3.3811834e-10 3.2085567e-11 3.110423e-10
1.826988e-08 2.06916e-09 1.8050144e-08 3.5852388e-09 3.2889566e-06 1.0593014e-06 1.7431399e-08 2.2531742e-08
3.3616223e-09 4.4650598e-08 1.6374047e-08 8.968362e-09 7.365529e-10 0.0 6.119047e-11 1.6543166e-09
6.1184196e-13 1.3582818e-10 4.3168824e-09 2.3026146e-08 9.407181e-09 6.265082e-10 3.0667437e-07 1.4135292e-10

exp_avg f4 [20, 5]
00000000: 48b1 ad37 5f97 98b7 dde4 2335 d602 06b2
00000010: 93f0 9a9a 9a52 3eb7 0438 d336 a9b3 c6b0
00000020: edcb 3524 3033 f6a5 0000 0000 0000 0000
00000030: 0000 0000 0000 0000 0000 0000 b8a3 9db0
00000040: e8d1 7830 aba3 11b5 ef0e 8834 311e 7b8c
00000050: 6822 9da7 915c eda1 b922 8c96 f9d3 bd8d
00000060: 95a5 c719 35a3 970f a383 588f 8673 b287
00000070: 0000 0000 0000 0000 0414 15b6 52fe 4536
00000080: cb6c 0000 0000 0000 4657 b894 5bf5 2c33
00000090: aa4e 0130 1926 a0b3 8806 e282 163c 0d08
000000a0: 0000 0000 0400 0000 f3d3 9fae 0e34 892e
000000b0: 0000 0000 933e 0080 0500 0080 0500 0080
000000c0: 0000 0000 0000 0000 0000 0000 0000 0000
000000d0: 0000 0000 0000 0000 0000 0000 7a67 05a2
000000e0: 8026 5f34 b20c f2ab 2507 4896 0d9b 581e
000000f0: a1f4 1b31 85ae 8391 8a21 3b30 0000 0000
00000100: 55ea 0388 01d5 1695 668a f921 aeb0 a699
00000110: 52a0 1aa4 6ce3 5802 0000 0000 0000 0000
00000120: 0000 0000 0000 0000 0000 0000 ea44 0638
00000130: ae78 16b5 a840 5532 78fd d525 ace6 33a5
00000140: 0000 0000 0400 0000 0000 0000 0f00 0000
00000150: 0400 0000 f650 ab36 cc9d 80b0 c475 01b7
00000160: c6ac ed31 31cc 6214 844b 65a9 fe95 52ad
00000170: b3ae 42b5 6b00 9734 e0b7 ba8c 0000 0000
00000180: 0000 0000 0000 0000 0000 0000 0000 0000
2.070576e-05 -1.81903e-05 6.105527e-07 -7.800471e-09 -6.4081576e-23 -1.1344115e-05 6.294811e-06 -1.4457459e-09
3.942085e-17 -4.2708884e-16 0.0 0.0 0.0 0.0 0.0 -1.1469785e-09
9.052017e-10 -5.425488e-07 2.534284e-07 -1.9345422e-31 -4.3613557e-15 -1.6084247e-18 -2.2640133e-25 -1.1699055e-30
2.0642996e-23 1.4952615e-29 -1.06749745e-29 -2.6850362e-34 0.0 0.0 -2.221438e-06 2.9503321e-06
3.9028e-41 0.0 -1.8613675e-26 4.027002e-08 4.7041715e-10 -7.4575105e-08 -3.3211464e-37 4.2501275e-34
0.0 6e-45 -7.2681326e-11 6.2392855e-11 0.0 -2.2447e-41 -7e-45 -7e-45
0.0 0.0 0.0 0.0 0.0 0.0 0.0 -1.8079641e-18
2.07825e-07 -1.7198658e-12 -1.6158126e-25 1.14670085e-20 2.2694524e-09 -2.0775712e-28 6.8077866e-10 0.0
-3.9696835e-34 -3.046029e-26 1.690953e-18 -1.7235358e-23 -3.3529223e-17 1.5934441e-37 0.0 0.0
0.0 0.0 0.0 3.201227e-05 -5.6054967e-07 1.2412933e-08 3.7121367e-16 -1.560393e-16
0.0 6e-45 0.0 2.1e-44 6e-45 5.105622e-06 -9.358074e-10 -7.716419e-06
6.91725e-09 1.1450354e-26 -5.0913714e-14 -1.1970423e-11 -7.252485e-07 2.8126246e-07 -2.8768503e-31 0.0
0.0 0.0 0.0 0.0

exp_avg_sq f4 [20, 5]
00000000: d414 f92e 24e6 b82e 7c05 d12b 2186 8626
00000010: ed15 0000 edb8 ef2d 071f 292f 89d7 0d2a
00000020: 3744 3816 26ab f212 0000 0000 0000 0000
00000030: 0000 0000 0000 0000 0000 0000 84cb 6421
00000040: f1e7 3726 c96e 6a2b 4990 df2b 0000 0000
00000050: f0df 420f 074d d20f bf00 0000 0000 0000
00000060: 0000 0000 0000 0000 0000 0000 0000 0000
00000070: 0000 0000 0000 0000 cfab ca2c 9ba7 452d
00000080: 0000 0000 0000 0000 0000 0000 8385 492b
00000090: fbd5 3a24 04f8 2b2c 0000 0000 0000 0000
000000a0: 0000 0000 0000 0000 b672 9d27 f24b 5d27
000000b0: 0000 0000 0000 0000 0000 0000 0000 0000
000000c0: 0000 0000 0000 0000 0000 0000 0000 0000
000000d0: 0000 0000 0000 0000 0000 0000 535e c406
000000e0: 1909 0130 fd52 8323 3a03 0000 4ce1 ea09
000000f0: 9a79 0b23 0000 0000 0d8b fc2c 0000 0000
00000100: 0000 0000 0000 0000 2cea 0510 41e5 dc00
00000110: d0e8 0b14 0000 0000 0000 0000 0000 0000
00000120: 0000 0000 0000 0000 0000 0000 08ca 6e2f
00000130: 4d65 e02d 1b6f c729 f724 6c14 f9ee d80b
00000140: 0000 0000 0000 0000 0000 0000 0000 0000
00000150: 0000 0000 6965 3c2e fbd1 822c 98f2 8e2e
00000160: 3de7 032e 0000 0000 0a00 aa12 a27d a227
00000170: 4c44 882b f341 192b 0000 0000 0000 0000
00000180: 0000 0000 0000 0000 0000 0000 0000 0000
1.1326909e-10 8.4082324e-11 1.4851865e-12 9.334474e-16 7.865e-42 2.7253278e-11 1.5381484e-10 1.2598094e-13
1.4884926e-25 1.5314538e-27 0.0 0.0 0.0 0.0 0.0 7.7518755e-19
6.380522e-16 8.3287245e-13 1.588515e-12 0.0 9.608067e-30 2.0737269e-29 2.68e-43 0.0
0.0 0.0 0.0 0.0 0.0 0.0 5.76026e-12 1.1235369e-11
0.0 0.0 0.0 7.159483e-13 4.051357e-17 2.4438238e-12 0.0 0.0
0.0 0.0 4.3700624e-15 3.0711081e-15 0.0 0.0 0.0 0.0
0.0 0.0 0.0 0.0 0.0 0.0 0.0 7.38656e-35
4.6942855e-10 1.4238195e-17 1.157e-42 5.654532e-33 7.560955e-18 0.0 7.1777085e-12 0.0
0.0 0.0 2.6410025e-29 2.028605e-38 7.063621e-27 0.0 0.0 0.0
0.0 0.0 0.0 2.171775e-10 2.5510838e-11 8.856649e-14 1.1922245e-26 8.355974e-32
0.0 0.0 0.0 0.0 0.0 4.283632e-11 3.7181347e-12 6.500506e-11
2.9991332e-11 0.0 1.0728518e-27 4.5100244e-15 9.682337e-13 5.444804e-13 0.0 0.0
0.0 0.0 0.0 0.0

exp_avg f4 [20]
00000000: 4183 76b8 73bd ac37 0000 0000 e712 4835
00000010: 8d36 1c28 b0e1 c88f eada 7b36 e91a 9fb3
00000020: b883 a32e ab53 0000 0000 0000 9b6a 1f36
00000030: 20cc 80b1 7c5b b926 0000 0000 375f abb8
00000040: 77d2 c810 404f 0cb6 5ca1 5235 0000 0000
-5.877321e-05 2.0592217e-05 0.0 7.453331e-07 8.671568e-15 -1.9808454e-29 3.752934e-06 -7.4089094e-08
7.43578e-11 3.0014e-41 0.0 2.3754899e-06 -3.7484966e-09 1.2861751e-15 0.0 -8.1716506e-05
7.921036e-29 -2.0907755e-06 7.8465905e-07 0.0

exp_avg_sq f4 [20]
00000000: 0159 6b30 245e e030 0000 0000 4f9e 432d
00000010: bf7b 8411 0000 0000 67cb 9b2d ad35 2c2c
00000020: 760b a127 0000 0000 0000 0000 04b2 0c30
00000030: 2ec0 592d 25b1 b41a 0000 0000 e613 e530
00000040: 0000 0000 f7b5 852f 0e6d 4c2c 0000 0000
8.5618984e-10 1.6324901e-09 0.0 1.1119618e-11 2.0902192e-28 0.0 1.7711789e-11 2.4472466e-12
4.4698903e-15 0.0 0.0 5.118468e-10 1.2377694e-11 7.473245e-23 0.0 1.6667598e-09
0.0 2.4321853e-10 2.9050681e-12 0.0

exp_avg f4 [20]
00000000: 4183 76b8 75bd ac37 0000 0000 e712 4835
00000010: 8b36 1c28 b0e1 c88f e8da 7b36 e91a 9fb3
00000020: b883 a32e ab53 0000 0000 0000 9c6a 1f36
00000030: 20cc 80b1 895b b926 0000 0000 365f abb8
00000040: 77d2 c810 424f 0cb6 5aa1 5235 0000 0000
-5.877321e-05 2.059222e-05 0.0 7.453331e-07 8.671567e-15 -1.9808454e-29 3.7529335e-06 -7.4089094e-08
7.43578e-11 3.0014e-41 0.0 2.37549e-06 -3.7484966e-09 1.2861764e-15 0.0 -8.17165e-05
7.921036e-29 -2.090776e-06 7.8465894e-07 0.0

exp_avg_sq f4 [20]
00000000: 0359 6b30 245e e030 0000 0000 4f9e 432d
00000010: bf7b 8411 0000 0000 68cb 9b2d ad35 2c2c
00000020: 740b a127 0000 0000 0000 0000 04b2 0c30
00000030: 2ec0 592d 2ab1 b41a 0000 0000 e613 e530
00000040: 0000 0000 f7b5 852f 0e6d 4c2c 0000 0000
8.5618995e-10 1.6324901e-09 0.0 1.1119618e-11 2.0902192e-28 0.0 1.771179e-11 2.4472466e-12
4.4698894e-15 0.0 0.0 5.118468e-10 1.2377694e-11 7.473248e-23 0.0 1.6667598e-09
0.0 2.4321853e-10 2.9050681e-12 0.0

exp_avg f4 [2, 5]
00000000: 5073 263d dd71 eabb 636b c33b a05e 8bbb
00000010: 4109 07a9 5073 26bd dd71 ea3b 646b c3bb
00000020: a15e 8b3b 4109 0729
0.040637314 -0.007154687 0.005963729 -0.0042532235 -2.9984048e-14 -0.040637314 0.007154687 -0.0059637297
0.004253224 2.9984048e-14

exp_avg_sq f4 [2, 5]
00000000: 2db7 9638 c653 1639 7db1 c436 3890 8a36
00000010: 5403 4413 2db7 9638 c553 1639 7cb1 c436
00000020: 3890 8a36 5503 4413
7.1866765e-05 0.00014336323 5.8619175e-06 4.1295098e-06 2.4740319e-27 7.1866765e-05 0.00014336321 5.861917e-06
4.1295098e-06 2.474032e-27

exp_avg f4 [2]
00000000: 0bcd abbe 0bcd ab3e
-0.33554873 0.33554873

exp_avg_sq f4 [2]
00000000: 2235 563c 2235 563c
0.013074191 0.013074191
