MimicApp/lightning_logs/version_11/checkpoints/epoch=99-step=999.ckpt (torch, 15861 bytes, 18 tensors)

lstm.weight_ih_l0 f4 [20, 34]
00000000: d09c 443d bb5d 57ba 790e 37be 1959 9e3d
00000010: b966 84be 7f12 b8bd 2a66 a0be 2cd2 b33e
00000020: c685 98be 4d5b 79be 5b3d 983e fb13 673e
00000030: 3a97 993e 81dc debe bb5c af3b 213e 0b3e
00000040: 9aa1 cabe 13d3 d1bd fd5d 213e efc8 8f3e
00000050: 090d fa3d 6745 1ebe 28ae de3e 8726 d33d
00000060: 2cc9 31bc fcf1 5a3e 08bd a4be fda5 a23e
00000070: f80d bf3e 32db dc3d 30dc 123e a016 ebbd
00000080: 4ec5 593e 6dad 39bc 87de dcbe 3680 cf3d
00000090: 7c7b 983e ff2d 093c bfd4 cfbe 8c83 b43e
000000a0: 0797 babe 882b 073d 8d1d 4a3e 1a4a e63e
000000b0: 9bc1 adbd 579e 4a3e 2598 39be 1890 333e
000000c0: 92eb d6be 95fd adbe 4abe d93e 128a 68be
000000d0: 4273 0c3c eff0 c9bd 215a 593e 807f 173e
000000e0: d336 173e f7d4 a13e 51c5 9e3d 3e38 a2be
000000f0: e28b 9c3e ed05 aebd e29a a33d 62f4 a43e
00000100: 41dc 3e3e 1bbf 3c3e 777d e03d ba94 db3e
00000110: 4280 d13e 3ba9 dcbc 1f2a 7ebe f37b 683d
00000120: c1f1 d7bd ee61 a13d d12a 5d3e abf4 a0be
00000130: 1da1 acbe 889c 7f3d 8009 bf3e 8047 733d
00000140: 946b bebe dd09 76be 75be d23e f2ef d1be
00000150: c8b5 203e 5058 d13d 9454 73be a06a a5be
00000160: 6d40 5ebc 6677 dc3e 72c8 df3e 5043 85bd
00000170: bfe2 d8bd 1973 033e 08d6 15be 12b7 d53d
00000180: fce4 4abe 0c36 88bb a696 b03e e2f7 67be
00000190: 7aa5 82be e23e 82be e4d3 38be d971 0c3c
000001a0: efa5 bb3e e4ba 3dbd 1e4e f63c 8ca5 aa3e
000001b0: 9a32 b1bd 4051 a0bb 55ed 5abe df2c 9f3d
000001c0: 5eae 713e d16f 8abb 2496 d6bd dd73 8a3d
000001d0: 4f56 e4bd d37d 2b3e 9373 91be 67aa 47be
000001e0: 935f 903d 413b 7bbe db29 44be d0b1 e4bd
000001f0: 1ea5 69be da24 d93d 8a55 013e ad6d 7f3c
00000200: 8c97 90be 9812 68be e437 a3bb 3bb1 ac3e
00000210: 94ad dcbe 021d 93be a0f9 debd 7d00 50bd
00000220: 028a 42bd 75aa 9cbe 61a3 863d 4da1 523e
00000230: 03f9 803d afdb fb3c 260b 433e f899 bd3e
00000240: dd3b a0be 4af1 863e f23b de3e 535a babe
00000250: d142 8abe 2bf2 55be f4c6 153e 14d5 1fbd
00000260: 03de d13d 63bf 633e 6efa c0be c369 ba3e
00000270: fa2e edbd 5aeb 62be 7ff7 f2bd 56d1 c23e
00000280: bc56 30be c8ad ad3e 20f1 813e 92a8 2b3e
00000290: 02a1 97be d626 49be 0c40 b3be 659e f33d
000002a0: b7f9 ce3d ba13 e7bd b0df b4be 0100 81be
000002b0: 2401 dfbe 4235 b3be d192 1c3e c1d9 3d3e
000002c0: 8cac fa3d 1062 aa3d fd8c b8be d635 84be
000002d0: ef6f 9fbe a39b a23e ab5d 37be b3ef ee3c
000002e0: 0f46 113e edd3 b13e d85d a83e ef51 813e
000002f0: d44a 5b3d aa97 d7be d24c 713e d4d9 e0be
00000300: b744 21be b712 b9be de48 89be d080 8dbe
00000310: 281e 79be ea9d e6bd 1e88 92be d51f a5be
00000320: 9c58 123e c240 90be 947a 23bc 4922 2c3e
00000330: b001 ff3c 870b 5cbe 6813 c1be 3492 a33e
00000340: 14f5 ecbd 20d0 0d3e 9820 9b3d 80d2 983e
00000350: 517b c9be 467e 9dbe d846 473d 8890 bc3e
00000360: 6876 413e 84c9 1dbe b053 d5bc 1852 9c3e
00000370: 08c3 933d c99e a2be 7cd0 143e eac6 40be
00000380: 6693 b03e 80e9 dcbe aa62 b2be 0262 813e
00000390: e815 c33d f86f a33e 60a2 a73e a1ce d4be
000003a0: 1e77 b5be 2491 0f3e 40e3 82be f094 bf3c
000003b0: 8095 88be bc8d 83be 9cc1 8ebe 3e04 a03e
000003c0: fbd2 2fbe 4714 383e 0174 dabe d879 22bd
000003d0: ebd0 0bbe 4ecc d13e 2a76 743e 9ac3 e6be
000003e0: 2156 45bc 4042 183d 9705 a3be b1e4 d73e
000003f0: cd1e 3a3e bf7a e5be 3dc8 3ebe 95f7 ea3d
0.04800111 -0.0008215566 -0.17876615 0.07731838 -0.2585962 -0.08987903 -0.31327945 0.35121286
-0.2978956 -0.24351235 0.2973431 0.22566216 0.2999819 -0.43527606 0.0053516305 0.13597919
-0.39576417 -0.10245337 0.1575851 0.28082988 0.122095175 -0.15456162 0.43492246 0.10310083
-0.010851186 0.21381372 -0.3217547 0.31767264 0.37315345 0.10783996 0.14341807 -0.11478925
0.21266672 -0.011332852 -0.43138525 0.10131876 0.2978171 0.008372783 -0.40592 0.35256612
-0.3644335 0.0330005 0.19737835 0.4497841 -0.08484193 0.19786964 -0.18124445 0.17535436
-0.419766 -0.3398253 0.42527992 -0.2270892 0.0085724015 -0.098604076 0.21225788 0.14794731
0.14767008 0.31607792 0.07752479 -0.31683534 0.30575472 -0.08497224 0.07988526 0.322177
0.18638708 0.18432276 0.109614305 0.42886907 0.40918165 -0.026936164 -0.24820755 0.056758832
-0.10544158 0.07880007 0.21598364 -0.31436667 -0.3371667 0.06240514 0.37311935 0.05939436
-0.3719145 -0.240272 0.41160932 -0.41003376 0.15694344 0.102219224 -0.23762733 -0.3230791
-0.013565165 0.43059844 0.43707615 -0.065069795 -0.105901234 0.12836875 -0.14632428 0.104353085
-0.19813913 -0.0041568335 0.34489936 -0.22653154 -0.25516874 -0.254386 -0.1804958 0.008572065
0.36650035 -0.04632081 0.030066546 0.33329427 -0.086522296 -0.0048924983 -0.21379597 0.0777223
0.23601672 -0.0042247553 -0.10477856 0.067603804 -0.111492746 0.16747217 -0.2840849 -0.19498597
0.07049479 -0.24534322 -0.19156592 -0.111667275 -0.22816893 0.10602732 0.12630287 0.015590114
-0.2824062 -0.22663343 -0.004981028 0.33728966 -0.4310118 -0.2873307 -0.10887456 -0.050781716
-0.047494896 -0.30598798 0.06574131 0.20569344 0.06297495 0.030744402 0.19047222 0.3703153
-0.31295672 0.26355964 0.4340511 -0.36397037 -0.27004102 -0.20893161 0.14626676 -0.039021567
0.102474235 0.22240977 -0.37691063 0.36408815 -0.11581226 -0.22160092 -0.118636124 0.38050336
-0.17220587 0.33921647 0.25379276 0.16763523 -0.29615027 -0.19643721 -0.350098 0.11895446
0.10106223 -0.112830594 -0.3532691 -0.25195315 -0.43555558 -0.3500157 0.15290381 0.18540098
0.12239942 0.08319485 -0.36045066 -0.25822324 -0.31140086 0.31759366 -0.17906825 0.029167032
0.14186881 0.34732 0.32884097 0.25257823 0.05353816 -0.42107898 0.23564461 -0.4391619
-0.15748869 -0.3614709 -0.26813406 -0.2763734 -0.2432791 -0.112605885 -0.28619474 -0.32250848
0.14291614 -0.28174406 -0.009977955 0.16809954 0.031128734 -0.21488772 -0.37710118 0.31947482
-0.115701824 0.13848925 0.07574576 0.298481 -0.39351895 -0.307604 0.048651546 0.3682902
0.18892825 -0.15408903 -0.026040882 0.30531383 0.07214934 -0.31761768 0.14532655 -0.1882588
0.34487456 -0.43146896 -0.348409 0.25270087 0.09525663 0.31921363 0.3274107 -0.41563895
-0.35442442 0.1402021 -0.25564003 0.023386449 -0.2667656 -0.25694072 -0.27882087 0.31253237
-0.17170326 0.17976485 -0.4266663 -0.03966698 -0.13653915 0.40976185 0.23873201 -0.45071107
-0.0120444605 0.037172556 -0.31840202 0.42166665 0.18175812 -0.4482021 -0.18631072 0.11473004

lstm.weight_hh_l0 f4 [20, 5]
00000000: 5693 713e d30f 6e3e 271b eb3d 66d7 893e
00000010: 5ace c73e 1b6d d23e 9496 69bb f773 f3bd
00000020: f436 7f3e 7a3d 63be 45f3 813e fd92 53be
00000030: d36f 73be 6046 b5be ca90 e3bd c922 333d
00000040: 33f9 b93e d67c 913e a1e1 84bc 8373 bdbe
00000050: 4d62 b23e 6338 d9bc eae6 88bd 707d de3e
00000060: c519 043e 21d6 9e3e ac89 033e ce39 df3e
00000070: 01ff 4cbe e8b8 93bd 7e1d 863e 3e47 94be
00000080: 22ee a13e f66d 1abe eb9e babe 58ab 60be
00000090: fc45 b23e 1f85 a43e 606b e73c 2ab4 a83d
000000a0: 6004 29bd f53c a03c c0fe 683d 34b8 bfbe
000000b0: c827 90bd 24b8 b0be 2fb9 753e f5f7 dabd
000000c0: f416 1c3e c311 6e3e 5c60 c1bd 6054 bb3e
000000d0: 6072 b0be 94b7 30be 34d4 b1be 6005 493e
000000e0: 7527 c03e a6bc c93e a00d 23bc 0e76 75bd
000000f0: 055e a53e 2744 01bd 06d9 a03e 60a6 1fbc
00000100: e45c d03d 3a91 d63e 4f24 b7be d8e5 c43d
00000110: 34ea 8ebd f2fe d8be e399 98be ce9d 6c3d
00000120: 7809 363e d8a0 dcbd cc27 943c df4d ddbe
00000130: 04f1 7e3e 74e4 c9bd c412 febd 904d 5cbe
00000140: 49c4 d63e 8003 093e 6c91 5ebe 6666 12be
00000150: 3edd 26be 2081 783e acb2 623e e02e e73d
00000160: 7ca9 283e 543d 4d3e 50f4 213e 4033 703c
00000170: 6486 9ebe 2802 acbd d8e8 0b3d 24fc 3b3e
00000180: df20 a8be 40fb 833d 9887 be3e 3256 823e
0.2359136 0.23248224 0.11479788 0.26922148 0.3902462 0.41098866 -0.003564273 -0.11887353
0.24923307 -0.2219142 0.25380912 -0.2066154 -0.23773126 -0.35405254 -0.11111601 0.043734346
0.36322936 0.28415555 -0.01622087 -0.3700219 0.34840623 -0.026516145 -0.06684668 0.43455076
0.12900455 0.31022742 0.12845486 0.4359879 -0.20019151 -0.072130024 0.26194376 -0.28960603
0.31626993 -0.1508101 -0.3644937 -0.21940362 0.3481902 0.32132813 0.028249443 0.082374886
-0.041263938 0.019560317 0.056883574 -0.37445223 -0.07038838 -0.34515488 0.23996423 -0.10691825
0.15243131 0.23248963 -0.09442207 0.3658781 -0.3446226 -0.1725753 -0.3473221 0.19630957
0.37530103 0.3940174 -0.009951979 -0.05992704 0.32298294 -0.031559136 0.31415576 -0.009744257
0.101739675 0.41907674 -0.3576989 0.09614152 -0.069782645 -0.42382008 -0.29804906 0.05776768
0.1777705 -0.10772866 0.018085383 -0.43223473 0.24896628 -0.09858027 -0.12405923 -0.21513963
0.4194663 0.13380241 -0.21735162 -0.14296874 -0.16295335 0.24268007 0.2213847 0.112882376
0.16470903 0.20042926 0.15815854 0.014660656 -0.30961907 -0.08398849 0.034157604 0.18357903
-0.3283758 0.064444065 0.37212825 0.25456387

lstm.bias_ih_l0 f4 [20]
00000000: 8d62 63be e336 d63e 75d1 dabe f310 db3d
00000010: 0b3c 78be 06bb de3e 62a9 bfbe 8de5 803e
00000020: fa67 763d c3b7 283e 1c57 21be ff47 bdbd
00000030: a2d2 65bd faf5 2ebe 3716 bf3d a203 bcbe
00000040: 3dc0 6dbe 885c 1c3d b4f8 94be 0eff b1be
-0.22205563 0.4183875 -0.42737928 0.10696592 -0.24241655 0.43502063 -0.37433916 0.25175133
0.060157754 0.1647635 -0.15755886 -0.09242248 -0.05610908 -0.1708602 0.09330409 -0.36721522
-0.23217864 0.038174182 -0.29095995 -0.34764904

lstm.bias_hh_l0 f4 [20]
00000000: 7463 b03d 2c16 2cbe 981a ccbe 5dfb 79be
00000010: 5bac b1be ca55 97be b224 b0be afea c03e
00000020: 3662 25bc ebab 0a3e 5412 973e 479c 81bd
00000030: 4869 8abe ecc6 6d3e 454c 79bd ea2e b33e
00000040: 6431 10be 9a65 943e 5426 c8bd 5cab 3bbe
0.08612719 -0.16805333 -0.3986404 -0.24412294 -0.3470181 -0.2955764 -0.34402996 0.3767905
-0.010094216 0.13542144 0.2950617 -0.06328636 -0.27033448 0.23220414 -0.060863752 0.3499673
-0.14081341 0.28983766 -0.097729355 -0.18327087

linear.weight f4 [2, 5]
00000000: 1239 bcbe e208 dcbd 9048 9b3d 6c94 3a3e
00000010: cac3 85be c02a 223e 149b 6b3c 1e6b d1be
00000020: 48db d63e 9bc6 b6be
-0.3676229 -0.10743882 0.075821996 0.18220681 -0.26125938 0.1583662 0.014380235 -0.40902036
0.41964173 -0.356984

linear.bias f4 [2]
00000000: 8cf3 0fbe ff68 c0be
-0.1405775 -0.37580106

exp_avg f4 [20, 34]
00000000: 4c04 cfbc 50b8 efbc a842 36bc b4cf 14bd
00000010: 4bfd c6bc 57b5 94bc 2947 b3bb 0000 0000
00000020: e77c 22b9 c99c eebb 3af1 30b9 f9fe 11bb
00000030: 7068 4fbc cde1 dcbc 3f03 8cbc 74fd 01bc
00000040: cbae a1bc 12ca 28bb 24e4 01bd 67ed f0b9
00000050: e326 f6ba 1b41 21bd cbf3 1dba e343 24ba
00000060: e2c1 95ba 98b3 a4ba 0846 d5b9 06fe 8dbb
00000070: efc1 1ebc e618 58bb aa80 20bc 76e4 6bbb
00000080: 459d b0bd 090a 81bd 45a3 39ba 0c66 62ba
00000090: f921 adb9 0efa 8eba 01b9 35ba 61b3 1bba
000000a0: c512 31b9 0000 0000 84fe 85b6 6ac6 65b9
000000b0: 15b6 cfb6 1f16 8ab8 cedc c3b9 27a3 56ba
000000c0: b87b 63bb 9a22 20b9 ccd7 15ba eb50 9fb8
000000d0: 9d52 76ba 0223 02b7 7e50 8bb7 a9fb b5ba
000000e0: 3340 92b7 065e 94b7 8532 edb7 3866 1db8
000000f0: 5089 92b7 a2af a5b7 44ab 98b9 7f66 d0b8
00000100: 90c7 8eb9 d230 e5b8 31fd eeba 9637 f1ba
00000110: ea08 093b 9950 643b 0902 a63a 4875 8e3b
00000120: 92a2 2d3b 42f0 1c3b c647 dc39 0000 0000
00000130: b4d5 dfb8 a5ce 5a3a 661c c537 2883 8739
00000140: 515d b83a cf7c 5f3b 3113 503a f734 8a3a
00000150: 8b4c 8bb9 777f a239 7981 773b 05c1 2e38
00000160: 097a 6bb7 1136 cd3b 4d64 0538 c959 9038
00000170: 8720 e238 95f8 0c39 fb10 11b9 2fca a939
00000180: cb40 973a d03b cc39 277d 183a cf71 d939
00000190: 65b3 74bb 776b 013c bf74 262d 29e9 802d
000001a0: db25 c12c 5c1a b12d 2eb8 5e2d 3349 ca2d
000001b0: 1f7e 332c 0000 0000 4346 7baa 109c 5c2c
000001c0: 61c2 ac29 f1ef 992b 7b2b d02c d2f1 792d
000001d0: f430 6a2c b8b4 022d 64ec 052d c53a a92b
000001e0: 5dd6 852d c4d0 832a 07f6 9c2b ff3b 6a2d
000001f0: 58c7 0a2b b6b4 9b2a a63a 162b 2c4f 352b
00000200: 5293 b629 693b 272a 6760 a82c 3a5c e92b
00000210: 16b2 8c2c c11c a02b b999 1f2e 0a76 fe2d
00000220: 766f 4339 a5e6 7439 db2a b838 41ee c439
00000230: 0845 8139 5353 3c39 2a00 fa37 0000 0000
00000240: 9515 d2b6 b4cd 6a38 fab9 ed35 45c9 9337
00000250: 2ae9 cf38 b59a 4f39 3b4f 04b8 0b09 1938
00000260: 3c7b 6b39 434d bc37 908d 9039 405d 5536
00000270: a178 2a37 7705 5539 cbd9 fd35 d6b5 8936
00000280: b084 1437 6942 0537 7c45 d236 5715 f636
00000290: 8f96 a538 744d c637 b2a9 8938 7502 e937
000002a0: af4b 0f3b 277b 7339 947f 62b9 0007 71b9
000002b0: bdef b5b8 817e 92b9 c923 46b9 dfd0 13b9
000002c0: e2d1 42b8 0000 0000 5a2e 26b7 326c 9db8
000002d0: 0b08 74b5 b611 91b7 632a fcb8 01fc 67b9
000002e0: 09e7 f6b8 7fd2 a4b8 c320 b2b9 cd60 a1b7
000002f0: b77a 70b9 68f1 91b6 b18b bbb6 624c 7eb9
00000300: 48fc 74b6 4a9d 9db6 a38e 55b7 1038 52b7
00000310: 02f9 75b5 3d3a a4b8 f40f 87b8 11c9 afb7
00000320: cc74 80b8 1f88 18b8 e027 f7ba 4919 b9ba
00000330: 241e ae13 1d20 d613 2626 1e13 0035 2714
00000340: e90e db13 de97 af13 517c ca12 0000 0000
00000350: b05e c391 88a3 9c12 1bc9 0d10 6a91 0012
00000360: a494 2e13 29a0 c113 af1b c413 9d5e 8c13
00000370: 2720 c415 1896 1612 8199 ea13 e6c4 5d11
00000380: c9cb 7b10 752a cb13 f4c2 9711 69ea f910
00000390: d1dd 7d11 ac0f bd11 0d97 9010 e2c4 1011
000003a0: 81b5 e812 345c 2112 7797 e912 c84c 0012
000003b0: 8469 f014 3488 c813 2358 e13a 7a0c 083b
000003c0: 0d04 483a 7978 483b 81ba 063b 194f bd3a
000003d0: b29a 9939 0000 0000 1030 5a36 06f0 f739
000003e0: 84c8 5c37 10c6 2039 85cf 433a 43a9 fb3a
000003f0: 46d3 ee3a 9b85 2a3a 2394 e3b7 5a08 2f39
-0.025270604 -0.029262692 -0.0111242905 -0.036330894 -0.024290701 -0.018152876 -0.0054711294 0.0
-0.00015496054 -0.007281874 -0.00016874532 -0.002227722 -0.012659177 -0.026963139 -0.017091392 -0.007933963
-0.019736668 -0.002575521 -0.031711712 -0.00045953246 -0.00187799 -0.03936873 -0.00060254027 -0.00062662194
-0.001142558 -0.001256573 -0.00040678703 -0.0043332605 -0.009689792 -0.0032973825 -0.009796301 -0.0035994328
-0.08623747 -0.06300742 -0.0007081519 -0.0008636422 -0.00033022443 -0.0010908262 -0.000693217 -0.00059395103
-0.00016887028 0.0 -3.9933384e-06 -0.00021913057 -6.190278e-06 -6.584473e-05 -0.0003735781 -0.0008187764
-0.0034711193 -0.00015271679 -0.0005716055 -7.596783e-05 -0.00093964656 -7.756755e-06 -1.6607573e-05 -0.0013884205
-1.7434451e-05 -1.7686758e-05 -2.8276127e-05 -3.7526916e-05 -1.7468497e-05 -1.9751318e-05 -0.00029119302 -9.937304e-05
-0.00027233036 -0.000109286644 -0.0018233416 -0.0018403407 0.0020909854 0.003483808 0.0012665401 0.004347477
0.0026494605 0.0023946916 0.00042015145 0.0 -0.00010673274 0.00083468325 2.3497454e-05 0.00025846926
0.0014065896 0.0034101491 0.000793743 0.0010544349 -0.00026569175 0.00030994017 0.003776638 4.1664596e-05
-1.4035505e-05 0.0062625487 3.1803083e-05 6.883179e-05 0.000107825785 0.00013444044 -0.00013834603 0.0003238483
0.0011539696 0.00038954476 0.0005816989 0.0004147426 -0.0037338373 0.007899157 9.46193e-12 1.465546e-11
5.4895927e-12 2.0134276e-11 1.2660135e-11 2.2997248e-11 2.5507441e-12 0.0 -2.2317655e-13 3.1350512e-12
7.672054e-14 1.0937901e-12 5.916543e-12 1.4207706e-11 3.3280574e-12 7.429772e-12 7.612664e-12 1.2024484e-12
1.5215546e-11 2.3415135e-13 1.1152753e-12 1.3314682e-11 4.9304094e-13 2.7658924e-13 5.3372096e-13 6.441399e-13
8.1079796e-14 1.4853192e-13 4.78555e-12 1.6581244e-12 3.998811e-12 1.1376665e-12 3.6288948e-11 2.8928877e-11
0.00018638172 0.00023355575 8.781786e-05 0.00037561546 0.0002465623 0.00017960118 2.9802399e-05 0.0
-6.261e-06 5.5981523e-05 1.7712002e-06 1.7617489e-05 9.9139594e-05 0.00019798691 -3.154504e-05 3.6486465e-05
0.00022457255 2.2447324e-05 0.00027571293 3.1793752e-06 1.0160876e-05 0.00020315299 1.8913355e-06 4.1040867e-06
8.852381e-06 7.94288e-06 6.2665767e-06 7.3338556e-06 7.895857e-05 2.3639506e-05 6.564277e-05 2.7776909e-05
0.002186518 0.00023220164 -0.00021600566 -0.00022986159 -8.675407e-05 -0.00027941543 -0.00018896082 -0.00014096823
-4.6448673e-05 0.0 -9.905163e-06 -7.506496e-05 -9.090879e-07 -1.7293594e-05 -0.000120241915 -0.00022123755
-0.00011773228 -7.859337e-05 -0.00033975215 -1.9237772e-05 -0.00022933898 -4.34944e-06 -5.5892965e-06 -0.00024251782
-3.650568e-06 -4.6972755e-06 -1.27289995e-05 -1.25300285e-05 -9.1631966e-07 -7.830977e-05 -6.440273e-05 -2.0955255e-05
-6.125271e-05 -3.6366397e-05 -0.0018856488 -0.0014121915 4.3953496e-27 5.405286e-27 1.9961212e-27 8.441798e-27
5.5298075e-27 4.4325963e-27 1.2778639e-27 0.0 -3.082393e-28 9.885298e-28 2.7962273e-29 4.0568915e-28
2.2035173e-27 4.887798e-27 4.9504654e-27 3.5434264e-27 7.92145e-26 4.751666e-28 5.922127e-27 1.74945e-28
4.9658012e-29 5.128627e-27 2.3943748e-28 9.857435e-29 2.0026533e-28 2.98286e-28 5.7030716e-29 1.1420266e-28
1.4686003e-27 5.091629e-28 1.4741706e-27 4.048432e-28 2.4275426e-26 5.0621405e-27 0.0017192404 0.002075939
0.0007629998 0.0030589385 0.0020557942 0.0014443129 0.0002929769 0.0 3.2512507e-06 0.00047290343
1.3159708e-05 0.00015332573 0.00074695825 0.0019200224 0.0018220923 0.0006504894 -2.712949e-05 0.00016692412

exp_avg_sq f4 [20, 34]
00000000: 1a62 163a 74be 463a f95e e538 aaf3 973a
00000010: 1bba 083a 4845 8d39 639e d237 0000 0000
00000020: e9c1 3734 3e81 4238 5f7e d832 0de1 9236
00000030: 5e7b 1139 d308 273a f8b6 8b39 124c 8438
00000040: c0e1 ba39 4b6e c236 fcf5 693a e374 4a34
00000050: dbb4 8037 721b be3a e3b5 b734 8d16 bc34
00000060: 24ad 9835 8ee0 b935 19af 7934 71ed 0c38
00000070: 701a a738 2665 1b37 0398 b438 990a 3f37
00000080: 52df d73b f3b7 643b 1850 3635 fa4f 9e35
00000090: 62a8 3b34 8209 0336 4967 4b35 e81e 2535
000000a0: 7168 5033 0000 0000 fc2e e92f 17df a633
000000b0: b442 9b2e 9219 ed31 25fb 6634 dbdd 9835
000000c0: 1d3d ba37 df6e 1133 579b 0a35 2cca 2432
000000d0: f6cc b935 7a27 cf2e b93a ec2f 87f5 5f36
000000e0: 64a6 0430 9966 ff2f 9e9f aa30 5e8b 1931
000000f0: 43e5 b630 b3a0 5730 8fb7 1434 b0ce 8a32
00000100: d845 e933 088f a332 9acc 9436 a29a df36
00000110: 9635 0f38 e131 6938 488e 0537 ab6e a438
00000120: 53fa 0b38 9f3c ae37 1a87 2136 0000 0000
00000130: 3abc f033 adc2 5236 00bc 2331 3a45 ab34
00000140: 0384 0837 e968 4a38 12d4 a738 980e 7c36
00000150: 8a34 c638 6073 db34 6fec 8e38 160e e831
00000160: afc2 1f34 560f ff38 22ff 1d33 64b5 b132
00000170: 560f a833 b551 e133 8268 d833 1290 d634
00000180: 05b9 cb36 88bb 3f35 3a01 f636 3652 3d35
00000190: 9b6e 7439 89ec 3439 b788 091c 744b 841c
000001a0: 199e 131b 32fd dc1c 67f4 591c 6331 8e1d
000001b0: 5c58 061a 0000 0000 106b fe16 48b0 5a1a
000001c0: 6a0a 2d15 266b ba18 8962 2c1b dac2 7e1c
000001d0: b072 0d1b 7fa7 ad1b 20e3 bb1b 0784 db18
000001e0: e2ad 961c bb96 9016 49e0 2819 87c3 581c
000001f0: 585b 4617 7056 bf16 ec6e ab17 4bd2 fc17
00000200: 7027 1315 9ab2 3e17 e103 ca1a 0dfe 4719
00000210: 2d96 a21a 5dd4 2019 872f cc1d 7fb1 551d
00000220: 2ba3 8634 d1e3 b134 afcb 4633 18ea 5435
00000230: 7252 b934 4200 5934 9452 1432 0000 0000
00000240: fc25 3830 785a 9c32 7f5b 942d 9817 0131
00000250: b02e 6433 b782 8934 5311 1436 3219 5d32
00000260: 996b 9334 6c8e 3831 a03f ea34 de1a 3e2e
00000270: 8621 aa30 2dbd 9f34 b9fc f02e 771c e52e
00000280: 536d f02f fa8b e12f f909 2430 0f60 2e2f
00000290: 786a 2a33 87ec 8431 7a02 3833 b4e7 9131
000002a0: d88f b137 b91f 0b35 e359 d933 1648 ef33
000002b0: 2e30 8832 1989 3934 6f5a a633 b23d 3633
000002c0: e78f a131 0000 0000 4555 922f 4df9 4e32
000002d0: ae85 002c 73d2 2d30 41ab 0633 9bcd df33
000002e0: 6f07 0633 9ad2 a132 ae30 8f34 afa0 5430
000002f0: b411 f033 481c 152f c38a 0c2f dad8 0234
00000300: 78d9 fd2d 6dcf 512e 4869 b92f 4430 b92f
00000310: bcc1 0c2c 995c 8432 954f 1e32 b474 8430
00000320: 4507 0732 d5fe 3831 4192 f936 d922 9136
00000330: 0000 0000 0000 0000 0000 0000 0000 0000
00000340: 0000 0000 0000 0000 0000 0000 0000 0000
00000350: 0000 0000 0000 0000 0000 0000 0000 0000
00000360: 0000 0000 0000 0000 0000 0000 0000 0000
00000370: 0000 0000 0000 0000 0000 0000 0000 0000
00000380: 0000 0000 0000 0000 0000 0000 0000 0000
00000390: 0000 0000 0000 0000 0000 0000 0000 0000
000003a0: 0000 0000 0000 0000 0000 0000 0000 0000
000003b0: 0000 0000 0000 0000 92a3 1438 8c56 5438
000003c0: 807f f036 4064 c738 9432 2938 9bb5 a337
000003d0: 3053 ab35 0000 0000 0fe7 3131 6546 3336
000003e0: d55e b530 cea2 9734 842f d736 1005 2b38
000003f0: 9fba 6c37 291f 6636 73b0 da37 1ed2 bc34
0.0005736664 0.00075814803 0.00010937261 0.0011593003 0.000521572 0.00026945234 2.5107705e-05 0.0
1.7113747e-07 4.637357e-05 2.5203176e-08 4.3773384e-06 0.00013874235 0.00063718593 0.00026648468 6.30842e-05
0.0003564488 5.7944903e-06 0.0008924899 1.8855239e-07 1.5343006e-05 0.0014504029 3.4218746e-07 3.5034137e-07
1.1375273e-06 1.3848928e-06 2.3253632e-07 3.3599736e-05 7.968105e-05 9.26227e-06 8.611383e-05 1.1386955e-05
0.006587901 0.0034899681 6.7916835e-07 1.1795194e-06 1.747699e-07 1.9526055e-06 7.577369e-07 6.1512264e-07
4.8523763e-08 0.0 4.2415838e-10 7.770557e-08 7.060433e-11 6.900515e-09 2.1511785e-07 1.1389451e-06
2.2201386e-05 3.386128e-08 5.1635055e-07 9.592025e-09 1.3843226e-06 9.4202826e-11 4.2969875e-10 3.3372505e-06
4.8257776e-10 4.645713e-10 1.2414494e-09 2.2343651e-09 1.3307403e-09 7.844491e-10 1.3850352e-07 1.6159305e-08
1.08626125e-07 1.904074e-08 4.4345625e-06 6.6639195e-06 3.4143763e-05 5.5597982e-05 7.960545e-06 7.840743e-05
3.3373315e-05 2.0770645e-05 2.406951e-06 0.0 1.1210109e-07 3.1405755e-06 2.3826487e-09 3.19016e-07
8.136968e-06 4.8258258e-05 8.002682e-05 3.755942e-06 9.451162e-05 4.0875875e-07 6.815127e-05 6.75369e-09
1.4878854e-07 0.00012162204 3.6786453e-08 2.0687999e-08 7.825899e-08 1.04922414e-07 1.0077294e-07 3.996543e-07
6.0714106e-06 7.142594e-07 7.331514e-06 7.052762e-07 0.00023310857 0.00017254254 4.5506197e-22 8.754531e-22
1.2210639e-22 1.4623828e-21 7.211516e-22 3.763815e-21 2.7781927e-23 0.0 4.110348e-25 4.5223742e-23
3.4945287e-26 4.8188065e-24 1.4259345e-22 8.429339e-22 1.1700304e-22 2.872869e-22 3.108333e-22 5.6743487e-24
9.971115e-22 2.335958e-25 8.7306905e-24 7.172112e-22 6.4092543e-25 3.0912264e-25 1.1078617e-24 1.6338204e-24
2.9717524e-26 6.161774e-25 8.355151e-23 1.0339364e-23 6.724425e-23 8.3146925e-24 5.4047493e-21 2.8282079e-21
2.5078165e-07 3.3134577e-07 4.6285717e-08 7.9316806e-07 3.4518922e-07 2.0209794e-07 8.63351e-09 0.0
6.699279e-10 1.820193e-08 1.6866284e-11 1.8785382e-09 5.312785e-08 2.5613346e-07 2.2063803e-06 1.2869622e-08
2.745917e-07 2.6856481e-09 4.363219e-07 4.322486e-11 1.2378656e-09 2.97537e-07 1.0958829e-10 1.0418771e-10
4.3733425e-10 4.102672e-10 5.9677024e-10 1.5859335e-10 3.9678042e-08 3.8685957e-09 4.284309e-08 4.246397e-09
2.1167027e-05 5.18277e-07 1.01212e-07 1.1142417e-07 1.5854393e-08 1.7279343e-07 7.746427e-08 4.243129e-08
4.7020765e-09 0.0 2.6617833e-10 1.2047463e-08 1.8264101e-12 6.32361e-10 3.135506e-08 1.0421646e-07
3.1206067e-08 1.8838637e-08 2.6671245e-07 7.7353496e-10 1.1179091e-07 1.3561519e-10 1.2782224e-10 1.2186084e-07
2.8859345e-11 4.770533e-11 3.372611e-10 3.36856e-10 2.000274e-12 1.5408931e-08 9.214905e-09 9.637433e-10
7.859687e-09 2.692038e-09 7.4378045e-06 4.3253935e-06 0.0 0.0 0.0 0.0
0.0 0.0 0.0 0.0 0.0 0.0 0.0 0.0
0.0 0.0 0.0 0.0 0.0 0.0 0.0 0.0
0.0 0.0 0.0 0.0 0.0 0.0 0.0 0.0
0.0 0.0 0.0 0.0 0.0 0.0 3.5438286e-05 5.0625342e-05
7.1674003e-06 9.5077325e-05 4.0339844e-05 1.951568e-05 1.2764704e-06 0.0 2.5888232e-09 2.6714054e-06
1.3196436e-09 2.8244398e-07 6.413031e-06 4.0774292e-05 1.4110147e-05 3.4290808e-06 2.606979e-05 3.517061e-07

exp_avg f4 [20, 5]
00000000: fb57 e338 536c 6939 a873 c236 4a4e 8cb3
00000010: babb 4731 503e 7535 825a 6836 b2e9 0a37
00000020: d4d1 148f 29fd c8b4 5bb0 8137 29ef 64b7
00000030: 6ea2 19b8 cdbe b422 9034 f1a9 268d 50a9
00000040: ed6e c6a9 96c0 30a5 d053 9e28 c710 8f02
00000050: 0ae7 96b5 f379 a9b5 73a4 3433 45de 0480
00000060: b3db 6db5 6e9f 0636 d22d ef35 f599 cb27
00000070: 87be 888d 0a9a cba7 9d51 0d0d 08f1 8c0f
00000080: 3af5 0d10 295c 4300 722a 3990 b586 3232
00000090: 286e 73b7 ceb9 37b8 985c d91d 5b36 8335
000000a0: 6de4 93a7 3bd7 37aa 4a67 7317 3211 2f2a
000000b0: 0000 0000 2216 1aab d016 ca2f 67df 0430
000000c0: f700 0080 f802 04b0 0000 0000 0000 0000
000000d0: 0000 0000 0000 0000 0000 0000 ba9c 5692
000000e0: a577 dd35 a51a 28b6 cc72 a21b 8799 d233
000000f0: 1d57 2536 959e db37 f0f3 c6b6 512c 0694
00000100: cc3e aaaf 0000 0000 0000 0000 0000 0000
00000110: 0000 0000 0000 0000 21b8 2432 21b8 2432
00000120: e1eb 9fa6 0000 0000 0632 bcaf 320a 3436
00000130: 715b 6e36 ce20 d336 28a3 8fa0 285a 83ab
00000140: 6afc c02f ab9f 4237 9cea 9336 fc6b 1fa6
00000150: 6f44 2db5 0000 0000 0000 0000 0000 0000
00000160: 0000 0000 0000 0000 2400 0080 d2ce e301
00000170: 0000 0000 0000 0000 0000 0000 0000 0000
00000180: 0000 0000 0000 0000 0000 0000 0000 0000
0.00010840591 0.00022260965 5.7951147e-06 -6.533499e-08 2.9065022e-09 9.136029e-07 3.4623376e-06 8.279852e-06
-7.337375e-30 -3.74371e-07 1.546012e-05 -1.3645543e-05 -3.6629317e-05 4.8991116e-18 -1.0711668e-13 -4.6307705e-14
-8.812209e-14 -1.5330817e-16 1.7577872e-14 2.1021591e-37 -1.1243112e-06 -1.2626973e-06 4.205908e-08 -4.47077e-40
-8.8609085e-07 2.0060356e-06 1.7820223e-06 5.651074e-15 -8.427515e-31 -5.651083e-15 4.354722e-31 1.3897908e-29
2.7996263e-29 6.186039e-39 -3.6517516e-29 1.03915925e-08 -1.4509576e-05 -4.3803644e-05 5.753516e-21 9.77608e-07
-4.1048356e-15 -1.6328338e-13 7.8647904e-25 1.5549088e-13 0.0 -5.4742506e-13 3.6759795e-10 4.8338794e-10
-3.46e-43 -4.802554e-10 0.0 0.0 0.0 0.0 0.0 -6.7719674e-28
1.6500604e-06 -2.504946e-06 2.6874838e-22 9.8068135e-08 2.4637623e-06 2.618068e-05 -5.929258e-06 -6.774011e-27
-3.096744e-10 0.0 0.0 0.0 0.0 0.0 9.5879225e-09 9.5879225e-09
-1.1096776e-15 0.0 -3.4232545e-10 2.6828025e-06 3.551799e-06 6.292109e-06 -2.433311e-19 -9.333133e-13
3.5103948e-10 1.1600477e-05 4.4082535e-06 -5.5310553e-16 -6.4547106e-07 0.0 0.0 0.0
0.0 0.0 -5e-44 8.3683403e-38 0.0 0.0 0.0 0.0
0.0 0.0 0.0 0.0

exp_avg_sq f4 [20, 5]
00000000: 4330 2732 719d 3b33 728a 922f 3a1c a929
00000010: 4cbc a325 3701 6c2c 5b2e ae2d eb5a fa2e
00000020: 0000 0000 9215 022b 48f7 1930 f41f 2f31
00000030: e2a9 2b31 6e5f e106 bfb9 8a15 ad09 4514
00000040: cd69 1915 c4fd c50b 7568 da13 0000 0000
00000050: 4ab8 012d afef 022d 5b23 5a2c 0000 0000
00000060: b954 452c 6e09 162d 344a ec2c bcbc 2311
00000070: 0000 0000 bcbc 2311 0000 0000 0000 0000
00000080: 0000 0000 0000 0000 0000 0000 5272 3127
00000090: 2275 4b31 eef7 9c31 d010 bd02 4192 a42c
000000a0: 04ac ad10 c548 a21a 0000 0000 0842 a21a
000000b0: 0000 0000 05fd 0318 dc58 ec24 20bd 4b25
000000c0: 0000 0000 c0a4 e424 0000 0000 0000 0000
000000d0: 0000 0000 0000 0000 0000 0000 0000 0000
000000e0: c0ad 9f2c a574 9c2d f701 0000 0c49 232a
000000f0: 309b 002e 3271 9b30 27f4 602f 0000 0000
00000100: 3c45 4722 0000 0000 0000 0000 0000 0000
00000110: 0000 0000 0000 0000 fb2b f627 fb2b f627
00000120: 2fea 920f 0000 0000 4d40 0d25 3521 262e
00000130: bd97 8a2e dbe5 5c2f 1c0a 3e03 930b 5918
00000140: 0cd8 6c21 af87 632f d2b3 132e c678 0b0e
00000150: 55c2 c32b 0000 0000 0000 0000 0000 0000
00000160: 0000 0000 0000 0000 0000 0000 0000 0000
00000170: 0000 0000 0000 0000 0000 0000 0000 0000
00000180: 0000 0000 0000 0000 0000 0000 0000 0000
9.731653e-09 4.3682522e-08 2.6655617e-10 7.510004e-14 2.8403588e-16 3.3538292e-12 1.9802096e-11 1.1384834e-10
0.0 4.621521e-13 5.6012484e-10 2.5484015e-09 2.4980342e-09 8.4775815e-35 5.603081e-26 9.9478665e-27
3.0981566e-26 7.6263464e-32 5.513394e-27 0.0 7.373721e-12 7.442865e-12 3.099929e-12 0.0
2.8042414e-12 8.528607e-12 6.7157616e-12 1.2916591e-28 0.0 1.2916591e-28 0.0 0.0
0.0 0.0 0.0 2.4625658e-15 2.960697e-09 4.568384e-09 2.7780704e-37 4.677398e-12
6.85015e-29 6.7119195e-23 0.0 6.710831e-23 0.0 1.7059095e-24 1.0249922e-16 1.7671521e-16
0.0 9.9158335e-17 0.0 0.0 0.0 0.0 0.0 0.0
4.538342e-12 1.7786947e-11 7.05e-43 1.4502651e-13 2.9241665e-11 1.1309906e-09 2.0459422e-10 0.0
2.7006181e-18 0.0 0.0 0.0 0.0 0.0 6.83264e-15 6.83264e-15
1.4486916e-29 0.0 1.2251586e-16 3.7773524e-11 6.3024676e-11 2.0090545e-10 5.5847587e-37 2.8052436e-24
8.0245846e-19 2.0693734e-10 3.3583643e-11 1.7191223e-30 1.3909521e-12 0.0 0.0 0.0
0.0 0.0 0.0 0.0 0.0 0.0 0.0 0.0
0.0 0.0 0.0 0.0

exp_avg f4 [20]
00000000: ef1a 9eb9 8cf8 15b7 553f 1338 0163 272a
00000010: d3c0 2036 7406 1db6 98cb 8c10 1731 ad37
00000020: b363 712a d0ac 04b0 0000 0000 2354 f636
00000030: 97c5 80b8 0000 0000 3b48 58b2 662b 01b7
00000040: 2254 afb7 0000 0000 0fd9 1802 0000 0000
-0.00030156175 -8.938961e-06 3.5106514e-05 1.4866928e-13 2.3954096e-06 -2.339858e-06 5.553395e-29 2.0646066e-05
2.143969e-13 -4.82669e-10 0.0 7.341166e-06 -6.1403196e-05 0.0 -1.2589278e-08 -7.699104e-06
-2.0900803e-05 0.0 1.1229489e-37 0.0

exp_avg_sq f4 [20]
00000000: 1c5c ac33 8dd5 0b2f 140c ca31 3fad db15
00000010: e3e8 172e 56b0 4b2d 0000 0000 50f3 af31
00000020: e9e4 0b1b 20bd 4b25 0000 0000 0f44 952e
00000030: 5ddc e431 0000 0000 4435 5428 0c7b ab2f
00000040: 9d10 6f30 0000 0000 0000 0000 0000 0000
8.026129e-08 1.2717845e-10 5.880347e-09 8.872673e-26 3.454027e-11 1.15783685e-11 0.0 5.1208318e-09
1.1571775e-22 1.7671521e-16 0.0 6.787825e-11 6.6607257e-09 0.0 1.1779914e-14 3.119215e-10
8.69713e-10 0.0 0.0 0.0

exp_avg f4 [20]
00000000: ef1a 9eb9 8cf8 15b7 553f 1338 0163 272a
00000010: d3c0 2036 7406 1db6 98cb 8c10 1731 ad37
00000020: b363 712a d0ac 04b0 0000 0000 2354 f636
00000030: 97c5 80b8 0000 0000 3b48 58b2 662b 01b7
00000040: 2254 afb7 0000 0000 0fd9 1802 0000 0000
-0.00030156175 -8.938961e-06 3.5106514e-05 1.4866928e-13 2.3954096e-06 -2.339858e-06 5.553395e-29 2.0646066e-05
2.143969e-13 -4.82669e-10 0.0 7.341166e-06 -6.1403196e-05 0.0 -1.2589278e-08 -7.699104e-06
-2.0900803e-05 0.0 1.1229489e-37 0.0

exp_avg_sq f4 [20]
00000000: 1c5c ac33 8dd5 0b2f 140c ca31 3fad db15
00000010: e3e8 172e 56b0 4b2d 0000 0000 50f3 af31
00000020: e9e4 0b1b 20bd 4b25 0000 0000 0f44 952e
00000030: 5ddc e431 0000 0000 4435 5428 0c7b ab2f
00000040: 9d10 6f30 0000 0000 0000 0000 0000 0000
8.026129e-08 1.2717845e-10 5.880347e-09 8.872673e-26 3.454027e-11 1.15783685e-11 0.0 5.1208318e-09
1.1571775e-22 1.7671521e-16 0.0 6.787825e-11 6.6607257e-09 0.0 1.1779914e-14 3.119215e-10
8.69713e-10 0.0 0.0 0.0

exp_avg f4 [2, 5]
00000000: f435 a23c a951 843d 7337 9f3c 8e5b dab5
00000010: 410c d7bb f335 a2bc a951 84bd 6f37 9fbc
00000020: 915b da35 410c d73b
0.019801117 0.06460888 0.01943562 -1.6268912e-06 -0.00656274 -0.019801116 -0.06460888 -0.019435612
1.6268915e-06 0.00656274

exp_avg_sq f4 [2, 5]
00000000: 5a3b 9839 0777 463b ba38 9939 d029 4f2e
00000010: f59f 5d38 5a3b 9839 0777 463b ba38 9939
00000020: d129 4f2e f59f 5d38
0.0002903592 0.0030283348 0.000292247 4.7103488e-11 5.2839478e-05 0.0002903592 0.0030283348 0.000292247
4.710349e-11 5.2839478e-05

exp_avg f4 [2]
00000000: 5ed7 d9be 5ed7 d93e
-0.42547125 0.42547125

exp_avg_sq f4 [2]
00000000: 775a ea3d 775a ea3d
0.11443036 0.11443036
