MimicApp/lightning_logs/version_26/checkpoints/epoch=9-step=99.ckpt (torch, 15916 bytes, 18 tensors)

lstm.weight_ih_l0 f4 [20, 34]
0	0xba608400	-0.00085645914
1	0x3ec18738	0.37798476
2	0xbee22ea3	-0.44176206
3	0x3e8bde54	0.2731806
4	0xbe4ef75a	-0.20211545
5	0xbd8a4204	-0.06750873
6	0xbe71235a	-0.23548642
7	0x3e6f1284	0.23346907
8	0xbec0db0e	-0.37667125
9	0xbeaa7d4b	-0.33298716
10	0x3e28dc48	0.1649028
11	0xbe3ab3be	-0.18232629
12	0xbb764780	-0.0037579238
13	0x3e806744	0.25078785
14	0xbe432d72	-0.19060305
15	0xbc7247a0	-0.014787585
16	0xbebe3798	-0.3715179
17	0xbec7d735	-0.39031377
18	0xbec6705c	-0.38757598
19	0xbbf5d9c0	-0.0075027645
20	0x3e88ac1e	0.26693815
21	0xbdbeae58	-0.09310597
22	0xbe9fe612	-0.31230217
23	0xbde67a20	-0.11253762
24	0x3ede8984	0.4346429
25	0x3da9f5c0	0.08298826
26	0xbeb21bfa	-0.3478697
27	0x3e981a70	0.2970767
28	0xbea41e59	-0.32054403
29	0xbbf89680	-0.0075863004
30	0x3e908314	0.28225005
31	0xbe981e74	-0.29710734
32	0xbe47adc6	-0.19499883
33	0xbec9b41d	-0.39395228
34	0x3ec34c0b	0.38143954
35	0xbe669b12	-0.22520092
36	0x3eaaa6dc	0.3333043
37	0xbedabfd6	-0.42724484
38	0xbed493c2	-0.4151898
39	0xbc4a9c64	-0.012366388
40	0x3e8c8402	0.27444464
41	0x3e70a5cc	0.23500746
42	0x3eb0e840	0.34552193
43	0xbe61548e	-0.22004911
44	0x3dbaf6d8	0.09129113
45	0x3d8947ff	0.06703185
46	0x3d46f014	0.0485688
47	0xbe5b25b4	-0.21401101
48	0xbe4100a0	-0.18847895
49	0xbd42455d	-0.04742943
50	0x3e9b7764	0.30364525
51	0x3e8995ba	0.26872045
52	0x3eccc853	0.39996585
53	0x3ea51df2	0.3224941
54	0xbe948909	-0.290108
55	0x3e28d203	0.16486363
56	0xbe3dc702	-0.18532947
57	0xbe3b490a	-0.18289581
58	0xbd90a368	-0.07062417
59	0x3eab26d2	0.33428055
60	0x3c4e3960	0.012586921
61	0x3ecec47a	0.40384275
62	0x3ed5f623	0.4178935
63	0xbe1b4964	-0.15164715
64	0x3ee34c66	0.44394225
65	0x3e297fd8	0.16552675
66	0xbebb388b	-0.36566576
67	0xbe93cec2	-0.2886868
68	0xbe80e4cf	-0.25174567
69	0x3df42988	0.11921984
70	0xbeddb17d	-0.43299475
71	0xbe7fec71	-0.24992539
72	0x3e34d6dc	0.17660087
73	0xbee4f4b2	-0.44717938
74	0xbe90613a	-0.28199178
75	0x3d859bf8	0.06523889
76	0x3e96652a	0.29374057
77	0xbee47f00	-0.44628143
78	0xbec39f9d	-0.38207713
79	0xbe7828bf	-0.24234293
80	0xbdeed0ac	-0.11660895
81	0xbeb82e90	-0.35973024
82	0xbe8c99b3	-0.27461013
83	0xbebcb5f8	-0.3685758
84	0xbee36051	-0.4440942
85	0xbebb2e8a	-0.36558944
86	0x3edec56a	0.4350999
87	0x3d7f5da0	0.062345147
88	0xbd9c0fa8	-0.07620174
89	0xbebedd35	-0.37278143
90	0x3ec43f4a	0.38329536
91	0x3e96b4b8	0.29434752
92	0xbd9b79c8	-0.07591587
93	0xbe05a8f4	-0.13052732
94	0x3ede52d0	0.43422556
95	0x3e83f074	0.2576939
96	0x3ea36280	0.31911087
97	0xbe99da8c	-0.3004955
98	0x3db267c8	0.08711201
99	0xbe73e2ee	-0.23817036
100	0x3cb6fea0	0.022338212
101	0x3de9c4e0	0.11414504
102	0xbd3854ea	-0.045002855
103	0x3ed6ff1f	0.41991517
104	0xbe202a73	-0.15641193
105	0x3d8cc719	0.06873912
106	0x3edd68e0	0.43244076
107	0x3eb1244c	0.34598005
108	0xbe06d193	-0.13165884
109	0xbed4c646	-0.4155752
110	0xbee1ec6a	-0.44125682
111	0xbd33cd77	-0.04389712
112	0xbe25de06	-0.16197976
113	0x3df7f22b	0.12106737
114	0x3eb23b08	0.34810662
115	0x3e8eb8f8	0.27875495
116	0x3ed142dc	0.40871322
117	0x3df35855	0.118820824
118	0x3cdc4203	0.026886946
119	0x3d12604c	0.035736367
120	0xbda46a8c	-0.08028135
121	0x3eb7e610	0.3591771
122	0x3e3056d6	0.17220625
123	0xbe855393	-0.26040325
124	0x3e4d0dac	0.20024747
125	0x3eff8108	0.4990313
126	0x3edc79f7	0.43061802
127	0xbe827e56	-0.25487012
128	0x3ddeb8e5	0.108751096
129	0xbe93cbce	-0.28866428
130	0xbeadda41	-0.33955577
131	0x3f026d1d	0.50947744
132	0x3d922712	0.07136358
133	0xbe6ab787	-0.22921573
134	0x3d8b95de	0.06815694
135	0xbe8c6fcf	-0.27429053
136	0x3e68ba64	0.22727352
137	0x3c2cdccd	0.01055069
138	0x3ec377fe	0.38177484
139	0x3b9b8376	0.004745896
140	0x3dc4b346	0.09604506
141	0xbd71fe85	-0.05908062
142	0x3dd6dbaa	0.10491116
143	0x3dd46cb8	0.10372299
144	0xbe2191d4	-0.15778285
145	0x3ee1c767	0.44097444
146	0x3e42cbe6	0.19023094
147	0x3e799d22	0.24376348
148	0xbd77d0f2	-0.060502
149	0x3dc9850a	0.09839828
150	0xbe4a38eb	-0.19748275
151	0x3d6b1160	0.057389617
152	0x3d1fa5ba	0.03897641
153	0xbe975aa7	-0.2956135
154	0xbc432b3a	-0.0119121615
155	0x3dcc7cb4	0.09984723
156	0x3d2ff43f	0.04295754
157	0x3eed20ec	0.4631418
158	0xbea6827e	-0.32521433
159	0x3eb90127	0.36133692
160	0x3dbe4757	0.09290951
161	0xbe4a76c2	-0.19771865
162	0xbd78438a	-0.060611285
163	0xbe70109a	-0.23443833
164	0x3e340b55	0.17582448
165	0xbe8fd93f	-0.28095433
166	0x3eae48b1	0.34039834
167	0x3db1b0b8	0.086762846
168	0xbd54fd02	-0.0519991
169	0xbe2dcece	-0.16973421
170	0xbe9b2062	-0.30298144
171	0x3edd65c0	0.43241692
172	0xbe3df564	-0.1855064
173	0x3ebb055e	0.36527532
174	0x3d9256a8	0.071454346
175	0xbe1c3ec2	-0.15258315
176	0x3e039a50	0.12851834
177	0x3eda6a7e	0.42659372
178	0xbe6389b2	-0.22220495
179	0xbc7fdee0	-0.015617102
180	0xbe239b58	-0.15977228
181	0xbedd84f8	-0.4326551
182	0x3eab25e6	0.33427352
183	0x3e62c60c	0.22145861
184	0x3dc206d8	0.094739616
185	0xbe10ae62	-0.14129022
186	0xbeafb66f	-0.34318873
187	0x3e34e20c	0.17664355
188	0x3dc14698	0.09437293
189	0xbe9f991e	-0.31171507
190	0xbea149cc	-0.31501615
191	0x3e9168b2	0.2840019
192	0x3ec50f22	0.38488108
193	0xbebbe44a	-0.36697608
194	0xbe8fa743	-0.28057298
195	0xbd3da708	-0.04630187
196	0x3ee37a4a	0.44429237
197	0x3e7542e0	0.23951292
198	0x3e1ed808	0.15512097
199	0x3ec7b17a	0.3900259
200	0x3ee32102	0.4436112
201	0x3ed6d3c6	0.41958445
202	0xbebead54	-0.37241614
203	0xbd87e8bc	-0.066361874
204	0xbe70b903	-0.23508076
205	0xbda23880	-0.07920933
206	0x3ca38550	0.01996103
207	0x3d0bf190	0.03416592
208	0x3d437118	0.047715276
209	0x3e9bcfa6	0.3043186
210	0xbd53bf18	-0.051695913
211	0xbe58ff56	-0.21191153
212	0xbebf5d7b	-0.37376007
213	0xbeb42c53	-0.35190067
214	0x3e0dbd3c	0.13841718
215	0xbe16f7dc	-0.14742988
216	0xbebca33a	-0.36843282
217	0xbea02912	-0.31281334
218	0xbd8c67bc	-0.06855723
219	0xbee3ef0c	-0.44518316
220	0xbe556fbf	-0.20843409
221	0x3d42ee18	0.047590345
222	0x3e5f671c	0.21816677
223	0x3ed44724	0.41460526
224	0xbe68fd65	-0.22752912
225	0xbe83bb5d	-0.25728884
226	0xbd8959ec	-0.06706604
227	0x3e74996c	0.23886651
228	0xbea81cde	-0.32834524
229	0x3df606d0	0.12013018
230	0x3cd78a20	0.02631098
231	0x3d065598	0.032796472
232	0xbea4136b	-0.32046065
233	0x3e7526fc	0.23940653
234	0xbdacc598	-0.084361255
235	0x3ede5e7e	0.43431467
236	0xbe4f9791	-0.20272662
237	0x3e4bc6dc	0.19900078
238	0x3d94f630	0.07273519
239	0xbd2e7870	-0.042595327
240	0x3d3957a0	0.04524958
241	0x3e17f3b8	0.14839065
242	0x3edffe58	0.43748736
243	0x3de2c968	0.110735714
244	0x3e5887bc	0.21145529
245	0x3ea8b482	0.32950217
246	0xbeb1dcff	-0.3473892
247	0xbe833f0a	-0.25634032
248	0xbe57456b	-0.21022575
249	0xbe01eef4	-0.1268881
250	0xbe7fe37c	-0.24989122
251	0xbecd65aa	-0.40116626
252	0xbeb2b09e	-0.34900373
253	0x3dc30c00	0.09523773
254	0xbebff804	-0.37493908
255	0xbed9efc6	-0.42565745

lstm.weight_hh_l0 f4 [20, 5]
0	0x3eb61a80	0.35567093
1	0xbdc99390	-0.098425984
2	0x3e9fb640	0.31193733
3	0xbecbb88c	-0.39789236
4	0x3e297b10	0.16550851
5	0x3ea10ce4	0.31455147
6	0xbd422028	-0.047393948
7	0xbec8eda9	-0.3924382
8	0xbea08e0e	-0.3135838
9	0xbe9d2322	-0.30690867
10	0xbed1cc8d	-0.40976372
11	0xbec847b0	-0.39117193
12	0x3da66070	0.08123863
13	0x396ce800	0.0002259314
14	0x3d43c130	0.04779166
15	0xbe3e528e	-0.1858618
16	0xbe53e516	-0.20692858
17	0x3e375ce0	0.17906523
18	0xbe9d4626	-0.30717582
19	0xbcba1463	-0.0227148
20	0x3e529ab0	0.20566821
21	0xbe887321	-0.26650336
22	0xbe580131	-0.21094204
23	0xbeabc73d	-0.33550444
24	0xbc814623	-0.015780514
25	0x3e9029a4	0.2815677
26	0xbe9d75db	-0.3075398
27	0xbe275808	-0.16342175
28	0x3e2bf36c	0.16792077
29	0x3edec3ac	0.4350866
30	0x3dcfaf30	0.10140836
31	0xbe7958fa	-0.24350348
32	0x3e65dec4	0.2244826
33	0xbeb57212	-0.3543859
34	0x3e82bdca	0.25535423
35	0x3e8906c6	0.2676298
36	0xbe87a4bd	-0.26492873
37	0x3ea54446	0.3227865
38	0xbdfe8e98	-0.12429541
39	0xbe26e85a	-0.16299573
40	0xba9e7f00	-0.0012092292
41	0xbe2d4d6c	-0.16924065
42	0xbdac986c	-0.0842751
43	0xbe8b5b8c	-0.27218282
44	0x3eca9be6	0.39572066
45	0xbe8f1fa3	-0.27953824
46	0xbec2de1c	-0.3806008
47	0x3eda2210	0.42604113
48	0x3eb7bc21	0.35885718
49	0x3ee05e76	0.43822068
50	0x3de4a0f0	0.11163509
51	0xbea11222	-0.31459147
52	0x3ec53128	0.38514066
53	0x3dc66228	0.096866906
54	0xbeb0395f	-0.3441877
55	0xbeb40e35	-0.3516709
56	0xbdceee84	-0.10104087
57	0x3d2cd9e0	0.04219997
58	0x3d4915d0	0.049093068
59	0x3e201514	0.1563304
60	0xbe7d36f4	-0.24727994
61	0xbe78b7f3	-0.24288921
62	0x3ea1dc7a	0.31613523
63	0x3d6c25f0	0.057653368
64	0x3cdba380	0.026811361
65	0x3d989e08	0.07452017
66	0x3e4df328	0.20112288
67	0xbedefafa	-0.43550855
68	0x3e0ad6f1	0.13558556
69	0x3e4fdebc	0.2029981
70	0xbda27c20	-0.07933831
71	0xbe3392d4	-0.17536479
72	0x3eb4f492	0.35342842
73	0xbe8f19ea	-0.27949458
74	0xbd9b2ccd	-0.075769044
75	0x3eabfe86	0.33592623
76	0xbdc75298	-0.097325504
77	0xbecb77ba	-0.39739782
78	0x3ec7d122	0.39026743
79	0xbed8572d	-0.4225401
80	0xbc124b00	-0.008929014
81	0xbe7cfc08	-0.24705517
82	0x3e170640	0.14748478
83	0x3e34ae08	0.17644513
84	0xbe2cf212	-0.16889217
85	0xbe940a1a	-0.28913957
86	0x3e98d810	0.29852343
87	0xbe89b32c	-0.2689451
88	0x3ed480bc	0.41504467
89	0x3de99038	0.11404461
90	0x3edd7ede	0.43260854
91	0x3debd798	0.115157306
92	0xbea857e4	-0.32879555
93	0xbef1ce62	-0.4722777
94	0xbe5acbf4	-0.21366864
95	0xbe86095c	-0.26179016
96	0x3ea279cd	0.31733552
97	0xbd15f780	-0.036612988
98	0xbe8d8cf5	-0.27646604
99	0xbcfeae7c	-0.03108906

lstm.bias_ih_l0 f4 [20]
0	0xbdafcd58	-0.08584088
1	0xbe37abda	-0.1793665
2	0xbeafd80c	-0.34344518
3	0xbe1219bf	-0.14267634
4	0x3eec939f	0.46206376
5	0x3e8310ba	0.255987
6	0x3e97912c	0.29602945
7	0xbdd13254	-0.102146775
8	0xbe932024	-0.2873546
9	0xbd8bcd17	-0.06826227
10	0xbe38ec3a	-0.18058863
11	0xbed7dc5e	-0.42160314
12	0xbe0ffd26	-0.14061412
13	0xbed07e44	-0.40721333
14	0xbded280f	-0.11579906
15	0x3e492b58	0.1964544
16	0x3ec028c0	0.3753109
17	0xbe6bb75e	-0.23019168
18	0x3e60e20f	0.21961235
19	0x3f00c51d	0.5030077

lstm.bias_hh_l0 f4 [20]
0	0x3e4606c0	0.19338512
1	0xbec2a908	-0.38019586
2	0xbd2878b8	-0.04113075
3	0xbe805910	-0.2506795
4	0xbdc6a791	-0.096999295
5	0xbecd8227	-0.4013836
6	0x3e137b74	0.14402562
7	0x3e7c7d6c	0.2465722
8	0xbe5810b8	-0.21100128
9	0x3e8999e1	0.26875213
10	0xbec10466	-0.37698668
11	0x3de571e0	0.112033606
12	0xbeca89c1	-0.39558223
13	0xbe8a0340	-0.26955605
14	0x3da93055	0.08261172
15	0xbd49aa70	-0.049234807
16	0x3ea9d246	0.33168238
17	0xbe2ceedc	-0.16887993
18	0x3ded6587	0.115916304
19	0x3c0830b6	0.008312395

linear.weight f4 [2, 5]
0	0x3cb0bb20	0.021573603
1	0x3e804ef5	0.2506024
2	0x3cdd6830	0.02702722
3	0xbeea3902	-0.45746619
4	0x3e423e48	0.18969071
5	0x3d311b78	0.043239087
6	0xbcc684f4	-0.024233319
7	0x3e8b5752	0.27215058
8	0xbe794769	-0.24343647
9	0xbe086dc0	-0.13323116

linear.bias f4 [2]
0	0xbcb51216	-0.02210335
1	0x3db6dbe4	0.089286596

exp_avg f4 [20, 34]
0	0x8dfebeab	-1.569986e-30
1	0x8e46d8c5	-2.4509755e-30
2	0x8d8be0a7	-8.6206195e-31
3	0x8e37cd67	-2.265539e-30
4	0x8dd89d56	-1.3349905e-30
5	0x8d9ebf1f	-9.7835125e-31
6	0x8d0b331b	-4.28942e-31
7	0x00000000	0.0
8	0x0d15abf6	4.612116e-31
9	0x8c4129c4	-1.4880748e-31
10	0x8a7e87a4	-1.2255166e-32
11	0x8c64401a	-1.7583771e-31
12	0x8d36fb1d	-5.6385347e-31
13	0x8e36ef03	-2.2548312e-30
14	0x8d172400	-4.65738e-31
15	0x8e897053	-3.388127e-30
16	0x8d0f3726	-4.413166e-31
17	0x8c61e7f4	-1.740317e-31
18	0x8e50cc6a	-2.5736401e-30
19	0x8c35577a	-1.3970057e-31
20	0x8d355639	-5.587872e-31
21	0x8e2eff82	-2.1570178e-30
22	0x8b009c29	-2.4769385e-32
23	0x8b715e97	-4.6486073e-32
24	0x8c8a6509	-2.1323075e-31
25	0x8c2e37ef	-1.3421304e-31
26	0x8d6f65b0	-7.3769963e-31
27	0x8cd8553a	-3.3331363e-31
28	0x8d8467b6	-8.160096e-31
29	0x8cba138a	-2.8669597e-31
30	0x8dadcaff	-1.0710818e-30
31	0x8d0ff560	-4.4360637e-31
32	0x8eb2f6fd	-4.411823e-30
33	0x8dc2de7c	-1.2009734e-30
34	0x28b5b00d	2.0171387e-14
35	0x293d420e	4.2023724e-14
36	0x2888aea3	1.517477e-14
37	0x2920de8d	3.572017e-14
38	0x28ceef4d	2.2974374e-14
39	0x28a68c0f	1.8490443e-14
40	0x27a68c0f	4.6226107e-15
41	0x00000000	0.0
42	0x25f24013	4.2023726e-16
43	0x285b8a12	1.2186881e-14
44	0x25f24013	4.2023726e-16
45	0x2761e5fe	3.1349702e-15
46	0x28631c12	1.2607118e-14
47	0x28ff7f93	2.8366014e-14
48	0x2a0388cc	1.1682598e-13
49	0x27724013	3.3618981e-15
50	0x2a768233	2.1894361e-13
51	0x2783b93d	3.656064e-15
52	0x29502f0f	4.6226095e-14
53	0x2541ccdb	1.6809489e-16
54	0x24c1ccdb	8.4047446e-17
55	0x29268c0f	3.6980886e-14
56	0x25f24013	4.2023726e-16
57	0x2641ccdb	6.7237957e-16
58	0x26da0677	1.5128541e-15
59	0x26fe5ce0	1.7649964e-15
60	0x24c1ccdc	8.404745e-17
61	0x25c1ccdb	3.3618979e-16
62	0x2866e513	1.2817237e-14
63	0x2795e472	4.160349e-15
64	0x298c3d7d	6.2279155e-14
65	0x271a6f40	2.1432102e-15
66	0x2a4a086f	1.794413e-13
67	0x298c0d0b	6.2195115e-14
68	0x8f3ca86c	-9.3015525e-30
69	0x8f6f1517	-1.17876715e-29
70	0x8eb7c042	-4.529812e-30
71	0x8f6b723e	-1.1608397e-29
72	0x8f1ca0f6	-7.722394e-30
73	0x8f175ecb	-7.463131e-30
74	0x8e32063b	-2.1943194e-30
75	0x00000000	0.0
76	0x0df137e3	1.4866226e-30
77	0x8e35b67c	-2.2397836e-30
78	0x8bc20496	-7.473298e-32
79	0x8d931800	-9.065352e-31
80	0x8e835292	-3.2373506e-30
81	0x8f4e9bdf	-1.0186604e-29
82	0x8e35cb3e	-2.240783e-30
83	0x8d732f09	-7.4936773e-31
84	0x8e7c8b05	-3.1128334e-30
85	0x8d8d5a4a	-8.711532e-31
86	0x8f8bf11a	-1.3799327e-29
87	0x8bc1dcf9	-7.467338e-32
88	0x8d481938	-6.1660114e-31
89	0x8f335dfb	-8.843481e-30
90	0x8d2d6205	-5.3427728e-31
91	0x8cc9b0d8	-3.1075387e-31
92	0x8c99c36c	-2.3690998e-31
93	0x8d1950c8	-4.7244e-31
94	0x8c314539	-1.3656415e-31
95	0x8bcc3932	-7.8664e-32
96	0x8ea9ef05	-4.1891884e-30
97	0x8de1ca43	-1.3915388e-30
98	0x8fbcad88	-1.8605073e-29
99	0x8df482bf	-1.5069137e-30
100	0x906e15fc	-4.695416e-29
101	0x90125ada	-2.8863413e-29
102	0xbb34494b	-0.0027509506
103	0xbb470e39	-0.0030373468
104	0xba97b7d8	-0.0011575175
105	0xbb6f85b1	-0.0036548192
106	0xbb1eda50	-0.002423901
107	0xbaf19f03	-0.001843423
108	0xba24f0eb	-0.0006292003
109	0x00000000	0.0
110	0xb622b461	-2.4244875e-06
111	0xba4be395	-0.0007777748
112	0xb791d9fa	-1.738685e-05
113	0xb9721a10	-0.00023088627
114	0xbaa7f515	-0.0012814129
115	0xbb3a6aa9	-0.0028444922
116	0xba8ecdda	-0.0010895089
117	0xba3b8cd0	-0.00071544666
118	0xbb435680	-0.0029806197
119	0xb9898734	-0.0002623141
120	0xbb56a331	-0.0032751078
121	0xb81a7590	-3.682595e-05
122	0xb8e92fda	-0.00011119219
123	0xbba14eae	-0.0049227094
124	0xb87d9c29	-6.0465336e-05
125	0xb8855d34	-6.359295e-05
126	0xb8eafb25	-0.00011204769
127	0xb90a44f5	-0.00013186394
128	0xb81c3418	-3.7241814e-05
129	0xb9db7dc6	-0.00041864644
130	0xba82edc3	-0.0009989071
131	0xb9b08984	-0.00033671793
132	0xba8ba674	-0.0010654465
133	0xb9dad6cf	-0.00041740245
134	0xbc01c485	-0.007920389
135	0xbc28f0ca	-0.010311315
136	0xbb91e57b	-0.004452405
137	0xbb95c7db	-0.004570944
138	0xbae5b899	-0.0017526328
139	0xbbbb16ed	-0.00570952
140	0xbb7c1806	-0.0038466468
141	0xbb2f304c	-0.0026731668
142	0xba719959	-0.0009216271
143	0x00000000	0.0
144	0xb92a40fc	-0.00016236672
145	0xbaaad2e3	-0.001303282
146	0xb7dc022c	-2.6227055e-05
147	0xb9b64c3d	-0.00034770547
148	0xbb29c64a	-0.0025905543
149	0xbb8c9988	-0.0042907633
150	0xbc599a32	-0.013281392
151	0xbab0e563	-0.0013496097
152	0xbb84c5b7	-0.0040518898
153	0xb9c975a9	-0.0003842537
154	0xbba02cdf	-0.0048881616
155	0xb8895cc0	-6.549945e-05
156	0xb95a00ba	-0.00020790371
157	0xbbbe8f38	-0.005815413
158	0xb8c485ec	-9.370953e-05
159	0xb8b93b9d	-8.832591e-05
160	0xb92cf63c	-0.00016494928
161	0xb959150e	-0.00020702576
162	0xb8a37c49	-7.7955956e-05
163	0xb967df1f	-0.00022112996
164	0xbac424d0	-0.0014964584
165	0xba002237	-0.0004887911
166	0xbaca168e	-0.0015418099
167	0xba2fee60	-0.0006711241
168	0xbc75bd3f	-0.014998733
169	0xbc72cfd4	-0.014820058
170	0x09ab5bd8	4.1253122e-33
171	0x099cbb75	3.7731918e-33
172	0x08f94ae5	1.500375e-33
173	0x0997dc79	3.655926e-33
174	0x0955b45f	2.5723752e-33
175	0x092b25a3	2.0601073e-33
176	0x0866f2e6	6.9498633e-34
177	0x00000000	0.0
178	0x00000000	0.0
179	0x088a90bb	8.339599e-34
180	0x05d3274e	1.9856783e-35
181	0x07c45f5e	2.9546854e-34
182	0x08e0596e	1.3502534e-33
183	0x09947797	3.5742166e-33
184	0x09bf66cf	4.6078258e-33
185	0x08d9baa9	1.3104096e-33
186	0x09ea42fe	5.639645e-33
187	0x07cb3fd6	3.0581565e-34
188	0x09b082a7	4.2493324e-33
189	0x06a8ea0a	6.3538466e-35
190	0x08c0045a	1.1556603e-33
191	0x09a84e69	4.0518265e-33
192	0x06f2d3a7	9.134128e-35
193	0x06d32246	7.941974e-35
194	0x0713c552	1.1117038e-34
195	0x071e5d70	1.1914058e-34
196	0x08c7f2fb	1.2034001e-33
197	0x08337ad7	5.401025e-34
198	0x08c0ac27	1.15960525e-33
199	0x080a90e9	4.1698205e-34
200	0x08e84437	1.3979029e-33
201	0x08015079	3.891412e-34
202	0x0a486f31	9.6505625e-33
203	0x0903f8b5	1.5885493e-33
204	0x00000000	0.0
205	0x00000000	0.0
206	0x00000000	0.0
207	0x00000000	0.0
208	0x00000000	0.0
209	0x00000000	0.0
210	0x00000000	0.0
211	0x00000000	0.0
212	0x00000000	0.0
213	0x00000000	0.0
214	0x00000000	0.0
215	0x00000000	0.0
216	0x00000000	0.0
217	0x00000000	0.0
218	0x00000000	0.0
219	0x00000000	0.0
220	0x00000000	0.0
221	0x00000000	0.0
222	0x00000000	0.0
223	0x00000000	0.0
224	0x00000000	0.0
225	0x00000000	0.0
226	0x00000000	0.0
227	0x00000000	0.0
228	0x00000000	0.0
229	0x00000000	0.0
230	0x00000000	0.0
231	0x00000000	0.0
232	0x00000000	0.0
233	0x00000000	0.0
234	0x00000000	0.0
235	0x00000000	0.0
236	0x00000000	0.0
237	0x00000000	0.0
238	0x00000000	0.0
239	0x00000000	0.0
240	0x00000000	0.0
241	0x00000000	0.0
242	0x00000000	0.0
243	0x00000000	0.0
244	0x00000000	0.0
245	0x00000000	0.0
246	0x00000000	0.0
247	0x00000000	0.0
248	0x00000000	0.0
249	0x00000000	0.0
250	0x00000000	0.0
251	0x00000000	0.0
252	0x00000000	0.0
253	0x00000000	0.0
254	0x00000000	0.0
255	0x00000000	0.0

exp_avg_sq f4 [20, 34]
0	0x00000000	0.0
1	0x00000000	0.0
2	0x00000000	0.0
3	0x00000000	0.0
4	0x00000000	0.0
5	0x00000000	0.0
6	0x00000000	0.0
7	0x00000000	0.0
8	0x00000000	0.0
9	0x00000000	0.0
10	0x00000000	0.0
11	0x00000000	0.0
12	0x00000000	0.0
13	0x00000000	0.0
14	0x00000000	0.0
15	0x00000000	0.0
16	0x00000000	0.0
17	0x00000000	0.0
18	0x00000000	0.0
19	0x00000000	0.0
20	0x00000000	0.0
21	0x00000000	0.0
22	0x00000000	0.0
23	0x00000000	0.0
24	0x00000000	0.0
25	0x00000000	0.0
26	0x00000000	0.0
27	0x00000000	0.0
28	0x00000000	0.0
29	0x00000000	0.0
30	0x00000000	0.0
31	0x00000000	0.0
32	0x00000000	0.0
33	0x00000000	0.0
34	0x13334f67	2.2632125e-27
35	0x1442905e	9.8229684e-27
36	0x12caf565	1.2808487e-27
37	0x140c928a	7.0970934e-27
38	0x13689b14	2.9358976e-27
39	0x1316ab96	1.901726e-27
40	0x1116ab98	1.188579e-28
41	0x00000000	0.0
42	0x0d9f62f7	9.8229565e-31
43	0x1282e70f	8.261114e-28
44	0x0d9f6307	9.8229715e-31
45	0x108a9884	5.466639e-29
46	0x128c1603	8.840668e-28
47	0x13b14be0	4.47559e-27
48	0x15bbf561	7.591584e-26
49	0x109f6309	6.286703e-29
50	0x16a50a1b	2.6663565e-25
51	0x10bc7ff4	7.435007e-29
52	0x146b6c1f	1.1885791e-26
53	0x0c4c03dd	1.5716751e-31
54	0x0b4c03db	3.929187e-32
55	0x1416ab98	7.6069056e-27
56	0x0d9f630d	9.822977e-31
57	0x0e4c03db	2.5146798e-30
58	0x0f811a70	1.2730565e-29
59	0x0fafb956	1.7327721e-29
60	0x0b4c03db	3.929187e-32
61	0x0d4c03db	6.2866994e-31
62	0x1290cb67	9.13782e-28
63	0x10f41600	9.6274927e-29
64	0x14d5a9aa	2.1574424e-26
65	0x10018d3c	2.5549567e-29
66	0x165db770	1.791012e-25
67	0x14d51620	2.151623e-26
68	0x00000000	0.0
69	0x00000000	0.0
70	0x00000000	0.0
71	0x00000000	0.0
72	0x00000000	0.0
73	0x00000000	0.0
74	0x00000000	0.0
75	0x00000000	0.0
76	0x00000000	0.0
77	0x00000000	0.0
78	0x00000000	0.0
79	0x00000000	0.0
80	0x00000000	0.0
81	0x00000000	0.0
82	0x00000000	0.0
83	0x00000000	0.0
84	0x00000000	0.0
85	0x00000000	0.0
86	0x00000000	0.0
87	0x00000000	0.0
88	0x00000000	0.0
89	0x00000000	0.0
90	0x00000000	0.0
91	0x00000000	0.0
92	0x00000000	0.0
93	0x00000000	0.0
94	0x00000000	0.0
95	0x00000000	0.0
96	0x00000000	0.0
97	0x00000000	0.0
98	0x00000000	0.0
99	0x00000000	0.0
100	0x00000000	0.0
101	0x00000000	0.0
102	0x35eb61c0	1.7537313e-06
103	0x361bcb15	2.321501e-06
104	0x34b5211f	3.3737976e-07
105	0x366f22a2	3.5633934e-06
106	0x35cd4120	1.5292644e-06
107	0x3572d740	9.0465255e-07
108	0x33bbe527	8.7495486e-08
109	0x00000000	0.0
110	0x2f703054	2.1845042e-10
111	0x341ecdb2	1.4789728e-07
112	0x2eb0843f	8.027045e-11
113	0x3267e5f2	1.3498253e-08
114	0x34e2bc04	4.223258e-07
115	0x3609600f	2.0470504e-06
116	0x35043123	4.9245335e-07
117	0x3401ad4d	1.2077108e-07
118	0x364b9bdf	3.0340086e-06
119	0x32934335	1.7143615e-08
120	0x3639796f	2.7637832e-06
121	0x2fe18af3	4.102599e-10
122	0x32d19046	2.439641e-08
123	0x369d66db	4.6909386e-06
124	0x3085acc5	9.726128e-10
125	0x308ae67f	1.0106332e-09
126	0x315cc284	3.2124783e-09
127	0x3192c5e2	4.271656e-09
128	0x304b4319	7.394632e-10
129	0x338cf25c	6.563343e-08
130	0x34887b13	2.5421522e-07
131	0x32fdef7c	2.9561981e-08
132	0x34a385b4	3.0458398e-07
133	0x331a403a	3.5914333e-08
134	0x37887c9a	1.6270486e-05
135	0x3748f4de	1.19779415e-05
136	0x372f33f0	1.04429055e-05
137	0x374e7750	1.2306336e-05
138	0x35ec4529	1.7603498e-06
139	0x37a327a0	1.9449566e-05
140	0x371396a2	8.796955e-06
141	0x36a06a42	4.7807416e-06
142	0x34f8889e	4.6293002e-07
143	0x00000000	0.0
144	0x3295dad0	1.7445387e-08
145	0x355883d0	8.0658083e-07
146	0x3003a6a6	4.7894344e-10
147	0x3396e95b	7.0273664e-08
148	0x3621a276	2.4085434e-06
149	0x3735830b	1.08189515e-05
150	0x37f90a66	2.9687955e-05
151	0x3595a600	1.1149677e-06
152	0x3785c3fa	1.5946094e-05
153	0x33be79f4	8.8697476e-08
154	0x37711396	1.436928e-05
155	0x316a4737	3.4091963e-09
156	0x340ffe45	1.3410416e-07
157	0x37bfeb0a	2.2878423e-05
158	0x31f23488	7.049099e-09
159	0x31b16e20	5.1638978e-09
160	0x32977aed	1.7634614e-08
161	0x32cb7b69	2.368843e-08
162	0x329062a5	1.6808665e-08
163	0x345fc32b	2.0839495e-07
164	0x35b4a2d0	1.345843e-06
165	0x34247973	1.5317873e-07
166	0x35c0d61f	1.4367432e-06
167	0x3468d18a	2.1682914e-07
168	0x38b27729	8.509897e-05
169	0x38b4fffe	8.630751e-05
170	0x00000000	0.0
171	0x00000000	0.0
172	0x00000000	0.0
173	0x00000000	0.0
174	0x00000000	0.0
175	0x00000000	0.0
176	0x00000000	0.0
177	0x00000000	0.0
178	0x00000000	0.0
179	0x00000000	0.0
180	0x00000000	0.0
181	0x00000000	0.0
182	0x00000000	0.0
183	0x00000000	0.0
184	0x00000000	0.0
185	0x00000000	0.0
186	0x00000000	0.0
187	0x00000000	0.0
188	0x00000000	0.0
189	0x00000000	0.0
190	0x00000000	0.0
191	0x00000000	0.0
192	0x00000000	0.0
193	0x00000000	0.0
194	0x00000000	0.0
195	0x00000000	0.0
196	0x00000000	0.0
197	0x00000000	0.0
198	0x00000000	0.0
199	0x00000000	0.0
200	0x00000000	0.0
201	0x00000000	0.0
202	0x00000000	0.0
203	0x00000000	0.0
204	0x00000000	0.0
205	0x00000000	0.0
206	0x00000000	0.0
207	0x00000000	0.0
208	0x00000000	0.0
209	0x00000000	0.0
210	0x00000000	0.0
211	0x00000000	0.0
212	0x00000000	0.0
213	0x00000000	0.0
214	0x00000000	0.0
215	0x00000000	0.0
216	0x00000000	0.0
217	0x00000000	0.0
218	0x00000000	0.0
219	0x00000000	0.0
220	0x00000000	0.0
221	0x00000000	0.0
222	0x00000000	0.0
223	0x00000000	0.0
224	0x00000000	0.0
225	0x00000000	0.0
226	0x00000000	0.0
227	0x00000000	0.0
228	0x00000000	0.0
229	0x00000000	0.0
230	0x00000000	0.0
231	0x00000000	0.0
232	0x00000000	0.0
233	0x00000000	0.0
234	0x00000000	0.0
235	0x00000000	0.0
236	0x00000000	0.0
237	0x00000000	0.0
238	0x00000000	0.0
239	0x00000000	0.0
240	0x00000000	0.0
241	0x00000000	0.0
242	0x00000000	0.0
243	0x00000000	0.0
244	0x00000000	0.0
245	0x00000000	0.0
246	0x00000000	0.0
247	0x00000000	0.0
248	0x00000000	0.0
249	0x00000000	0.0
250	0x00000000	0.0
251	0x00000000	0.0
252	0x00000000	0.0
253	0x00000000	0.0
254	0x00000000	0.0
255	0x00000000	0.0

exp_avg f4 [20, 5]
0	0x00000000	0.0
1	0x00000000	0.0
2	0x00000000	0.0
3	0x0a9c5bd9	1.5056803e-32
4	0x8ab45b29	-1.736766e-32
5	0x00000000	0.0
6	0x8ea66e61	-4.102845e-30
7	0x00000000	0.0
8	0xa5b85541	-3.1976682e-16
9	0x25e162ee	3.9098316e-16
10	0x00000000	0.0
11	0x00000000	0.0
12	0x00000000	0.0
13	0x0bef9e9c	9.22981e-32
14	0x8c194239	-1.180662e-31
15	0x046e4372	2.8007735e-36
16	0x3364f4c9	5.3308018e-08
17	0x07101353	1.0839035e-34
18	0x37524a5a	1.2534287e-05
19	0xb7efb4cf	-2.8575216e-05
20	0x00000004	6e-45
21	0x31820145	3.7836423e-09
22	0x0532d83c	8.409236e-36
23	0x37bfa22d	2.2844493e-05
24	0xb731bcd4	-1.0593987e-05
25	0x00000000	0.0
26	0x00000000	0.0
27	0x00000000	0.0
28	0x8620cf73	-3.0245065e-35
29	0x0653040a	3.9687657e-35
30	0x00000000	0.0
31	0x00000000	0.0
32	0x00000000	0.0
33	0x00000000	0.0
34	0x00000000	0.0
35	0x00000000	0.0
36	0x00000000	0.0
37	0x00000000	0.0
38	0x00000000	0.0
39	0x00000000	0.0
40	0x00000000	0.0
41	0x00000000	0.0
42	0x00000000	0.0
43	0x00000000	0.0
44	0x00000000	0.0
45	0x00000000	0.0
46	0x00000000	0.0
47	0x00000015	3e-44
48	0x32975646	1.7617946e-08
49	0x33a323db	7.596801e-08
50	0x00000000	0.0
51	0x00000000	0.0
52	0x00000000	0.0
53	0x00000000	0.0
54	0x00000000	0.0
55	0x00000000	0.0
56	0x00000000	0.0
57	0x00000000	0.0
58	0x00000000	0.0
59	0x00000000	0.0
60	0x00000000	0.0
61	0x00000000	0.0
62	0x00000000	0.0
63	0x00000000	0.0
64	0x00000000	0.0
65	0x00000000	0.0
66	0x00000000	0.0
67	0x80003e54	-2.2359e-41
68	0xb52392ce	-6.093586e-07
69	0x35b6ac7f	1.361026e-06
70	0x00000000	0.0
71	0x00000000	0.0
72	0x00000000	0.0
73	0x24158fc5	3.2431002e-17
74	0xb482a229	-2.4332374e-07
75	0x00000000	0.0
76	0x00000000	0.0
77	0x00000000	0.0
78	0x03986bf8	8.9585455e-37
79	0x83c816c7	-1.1760173e-36
80	0x00000000	0.0
81	0xb31a4ed8	-3.5927627e-08
82	0x00000000	0.0
83	0xb420e87f	-1.4985743e-07
84	0x345394c6	1.970503e-07
85	0x00000000	0.0
86	0x00000000	0.0
87	0x00000000	0.0
88	0x00099d28	8.82897e-40
89	0x87917eab	-2.1891624e-34
90	0x00000004	6e-45
91	0x00000000	0.0
92	0x800001ba	-6.2e-43
93	0x36b84123	5.4912102e-06
94	0xb531860c	-6.61327e-07
95	0x064c04d5	3.8371686e-35
96	0x35ed7151	1.7690855e-06
97	0x00000203	7.22e-43
98	0x37df5faf	2.6628228e-05
99	0xb79a814b	-1.8418437e-05

exp_avg_sq f4 [20, 5]
0	0x00000000	0.0
1	0x00000000	0.0
2	0x00000000	0.0
3	0x00000000	0.0
4	0x00000000	0.0
5	0x00000000	0.0
6	0x00000000	0.0
7	0x00000000	0.0
8	0x0d13f454	4.559197e-31
9	0x0c1d3407	1.2110496e-31
10	0x00000000	0.0
11	0x00000000	0.0
12	0x00000000	0.0
13	0x00000000	0.0
14	0x00000000	0.0
15	0x00000000	0.0
16	0x2939ade5	4.122908e-14
17	0x00000000	0.0
18	0x2e1a87f5	3.51363e-11
19	0x2f56ee35	1.9547815e-10
20	0x00000000	0.0
21	0x280397e6	7.3048985e-15
22	0x00000000	0.0
23	0x2ee2d051	1.03142946e-10
24	0x2e809a2a	5.848151e-11
25	0x00000000	0.0
26	0x00000000	0.0
27	0x00000000	0.0
28	0x00000000	0.0
29	0x00000000	0.0
30	0x00000000	0.0
31	0x00000000	0.0
32	0x00000000	0.0
33	0x00000000	0.0
34	0x00000000	0.0
35	0x00000000	0.0
36	0x00000000	0.0
37	0x00000000	0.0
38	0x00000000	0.0
39	0x00000000	0.0
40	0x00000000	0.0
41	0x00000000	0.0
42	0x00000000	0.0
43	0x00000000	0.0
44	0x00000000	0.0
45	0x00000000	0.0
46	0x00000000	0.0
47	0x00000000	0.0
48	0x26f267de	1.6820277e-15
49	0x2a03b791	1.1698825e-13
50	0x00000000	0.0
51	0x00000000	0.0
52	0x00000000	0.0
53	0x00000000	0.0
54	0x00000000	0.0
55	0x00000000	0.0
56	0x00000000	0.0
57	0x00000000	0.0
58	0x00000000	0.0
59	0x00000000	0.0
60	0x00000000	0.0
61	0x00000000	0.0
62	0x00000000	0.0
63	0x00000000	0.0
64	0x00000000	0.0
65	0x00000000	0.0
66	0x00000000	0.0
67	0x00000000	0.0
68	0x2a8f61ac	2.5469676e-13
69	0x2bbd1c72	1.3437153e-12
70	0x00000000	0.0
71	0x00000000	0.0
72	0x00000000	0.0
73	0x0c81be8d	1.999028e-31
74	0x2b27eeb7	5.96616e-13
75	0x00000000	0.0
76	0x00000000	0.0
77	0x00000000	0.0
78	0x00000000	0.0
79	0x00000000	0.0
80	0x00000000	0.0
81	0x2903601c	2.9171205e-14
82	0x00000000	0.0
83	0x2977da37	5.503429e-14
84	0x28e980ac	2.5923999e-14
85	0x00000000	0.0
86	0x00000000	0.0
87	0x00000000	0.0
88	0x00000000	0.0
89	0x00000000	0.0
90	0x00000000	0.0
91	0x00000000	0.0
92	0x00000000	0.0
93	0x2c305a78	2.5061325e-12
94	0x2a109399	1.2840977e-13
95	0x00000000	0.0
96	0x2ba94f14	1.2030121e-12
97	0x00000000	0.0
98	0x2e9e28df	7.192268e-11
99	0x2f08427b	1.2392747e-10

exp_avg f4 [20]
0	0x8afe8901	-2.4510845e-32
1	0x25f24013	4.2023726e-16
2	0x8c2169b2	-1.2434795e-31
3	0xb8033a56	-3.1287163e-05
4	0xb8465bb4	-4.7292284e-05
5	0x0653273d	3.9713517e-35
6	0x00000000	0.0
7	0x00000000	0.0
8	0x00000000	0.0
9	0xb4657c1a	-2.1372435e-07
10	0x00000000	0.0
11	0x00000000	0.0
12	0x00000000	0.0
13	0x35dc74d6	1.6425281e-06
14	0xb55d4b52	-8.243852e-07
15	0x83c8229a	-1.1762888e-36
16	0x3453f586	1.9740227e-07
17	0x87df9ab3	-3.3644235e-34
18	0xb76718c7	-1.3774442e-05
19	0xb81b4c57	-3.7025977e-05

exp_avg_sq f4 [20]
0	0x00000000	0.0
1	0x0d9f6307	9.8229715e-31
2	0x00000000	0.0
3	0x2f88036f	2.4740696e-10
4	0x30b1368d	1.2893949e-09
5	0x00000000	0.0
6	0x00000000	0.0
7	0x00000000	0.0
8	0x00000000	0.0
9	0x29fec666	1.13142826e-13
10	0x00000000	0.0
11	0x00000000	0.0
12	0x00000000	0.0
13	0x2bf0fa4a	1.7122495e-12
14	0x2c80b59d	3.658142e-12
15	0x00000000	0.0
16	0x2aed6c90	4.2174987e-13
17	0x00000000	0.0
18	0x2d8e7b84	1.6198383e-11
19	0x2ffd9817	4.6128498e-10

exp_avg f4 [20]
0	0x8afe8903	-2.4510848e-32
1	0x25f24013	4.2023726e-16
2	0x8c2169b2	-1.2434795e-31
3	0xb8033a55	-3.128716e-05
4	0xb8465bb4	-4.7292284e-05
5	0x0653273d	3.9713517e-35
6	0x00000000	0.0
7	0x00000000	0.0
8	0x00000000	0.0
9	0xb4657c15	-2.1372428e-07
10	0x00000000	0.0
11	0x00000000	0.0
12	0x00000000	0.0
13	0x35dc74d6	1.6425281e-06
14	0xb55d4b50	-8.243851e-07
15	0x83c8229a	-1.1762888e-36
16	0x3453f586	1.9740227e-07
17	0x87df9aaf	-3.3644226e-34
18	0xb76718c6	-1.3774441e-05
19	0xb81b4c58	-3.702598e-05

exp_avg_sq f4 [20]
0	0x00000000	0.0
1	0x0d9f6307	9.8229715e-31
2	0x00000000	0.0
3	0x2f880371	2.47407e-10
4	0x30b13690	1.2893953e-09
5	0x00000000	0.0
6	0x00000000	0.0
7	0x00000000	0.0
8	0x00000000	0.0
9	0x29fec662	1.131428e-13
10	0x00000000	0.0
11	0x00000000	0.0
12	0x00000000	0.0
13	0x2bf0fa4d	1.7122498e-12
14	0x2c80b59b	3.658141e-12
15	0x00000000	0.0
16	0x2aed6c90	4.2174987e-13
17	0x00000000	0.0
18	0x2d8e7b82	1.619838e-11
19	0x2ffd9816	4.6128495e-10

exp_avg f4 [2, 5]
0	0x0db77d74	1.13084475e-30
1	0x3ab081e4	0.0013466445
2	0x0d24a5be	5.0735907e-31
3	0x3d9da7d2	0.07698025
4	0xbdcb22be	-0.09918736
5	0x8db77d75	-1.1308448e-30
6	0xbab081e4	-0.0013466445
7	0x8d24a5be	-5.0735907e-31
8	0xbd9da7d2	-0.07698025
9	0x3dcb22be	0.09918736

exp_avg_sq f4 [2, 5]
0	0x00000000	0.0
1	0x35a4a369	1.2266511e-06
2	0x00000000	0.0
3	0x3988a199	0.0002606034
4	0x3a2de671	0.0006633765
5	0x00000000	0.0
6	0x35a4a36a	1.2266512e-06
7	0x00000000	0.0
8	0x3988a199	0.0002606034
9	0x3a2de672	0.00066337653

exp_avg f4 [2]
0	0xbeff9cff	-0.49924466
1	0x3eff9cff	0.49924466

exp_avg_sq f4 [2]
0	0x3cdeb733	0.027186966
1	0x3cdeb734	0.027186967
