MimicApp/lightning_logs/version_9/checkpoints/epoch=9-step=129.ckpt (torch, 15861 bytes, 18 tensors)

lstm.weight_ih_l0 f4 [20, 34]
00000000: fa8a 8e3e d6a3 bfbe ea32 c8be 96a7 d9be
00000010: 34da 503e 3a9a 933e 8ee5 26be 4629 aebe
00000020: ea6c 60be 60c7 1d3c 7a23 33be 4cec 65be
00000030: d005 c6be 0a5f 14be d4a7 3b3e 3fd6 96be
00000040: c067 2b3e b88d 81bd e8ca b43e be74 c13e
00000050: d182 61be 20b7 efbd 7cda 563e 94f3 973e
00000060: 0cb9 893e 4a8a 863e 991b 9bbe 2cdd c63e
00000070: 6abd b0be 905c d93e 4fdd 70be 048e b7be
00000080: 724f da3e 227e ab3e d062 46bd b4fa d13e
00000090: 10e6 b33d ca7a bb3e e05d ee3c a06d 523d
000000a0: d0aa 763d 585f d93e 6a95 05be 6c64 dd3e
000000b0: 4853 cd3d 7cf2 4c3e c0ca ddbb 189a 753e
000000c0: 6079 65bd 2f8a e3be 0515 74be e884 f23d
000000d0: 9c5d 01be 1032 823d 9c49 e03e 928f bf3e
000000e0: 0459 61be 52c4 da3e b498 3f3e 34eb d63e
000000f0: 1213 983e 18b0 c53d 20db 6e3c 2a0b 8bbe
00000100: a4c6 35be 8468 e03e 103a f43d 6aae b23e
00000110: 10a4 2c3d d20e e33e ede6 c5be 09b8 89be
00000120: 8c6a 233e 8002 893d 480a 393e 0e9f 8abe
00000130: 6c6b d6be 4025 b5bc 44df be3e 8a2a da3e
00000140: 5266 de3e 64e0 d43e 20cf 62be 20e0 e13e
00000150: 1c05 383e 9a78 0cbe 94d0 cc3e c81c 0dbd
00000160: 8c9d cbbe 28b0 b63e 3007 933d b2c4 3bbe
00000170: b468 5d3e 1c33 783e 0cdd 523e 80dd e3bd
00000180: 546c 25be 5ecf 65be 901e ce3d ae2e cf3e
00000190: bc0f c73e 5022 1f3d 02eb a33e ae6b 563e
000001a0: ca4f 8abe 0199 ddbe 35c1 55be 954f 2dbd
000001b0: 145d c2be 68be af3e 2d25 21bc bc39 33be
000001c0: bbda c3bc 00f9 46be 4799 933e ff83 953e
000001d0: 6175 123e a639 98be fe6c 38bd 8b2f e13d
000001e0: 9f18 5f3d f001 d2be e48c f33c 7040 863e
000001f0: 05ef b6be 9acd b53e e662 03be 934b 51be
00000200: 7e7d 963d 313f cf3e 46d1 913e 0c81 bd3e
00000210: c27c bebe f575 a4be bc7a 073e e77a 14be
00000220: abeb 833e 4ed3 9e3e 0496 d73d 8dd7 9f3c
00000230: e891 8abd 15c4 87bd 3b18 c83e 60e9 c5bc
00000240: ba53 21be a392 a63e c91c 2abe 2e00 a03e
00000250: fe38 b63e 9530 e2be 0ca2 cbbe 5f15 9f3e
00000260: 52d2 d8be 7063 99be d621 dcbe b8ba 863e
00000270: 369f b63e 8ec9 da3e 4dfc 6e3e ea1e 053e
00000280: bb5e 25be 9d35 d6be a887 863c 3dc6 cfbd
00000290: 5f15 aa3e e218 cbbe 5521 153e ea50 7dbe
000002a0: f27b bb3d bd80 9d3e 5e73 c4be f039 ba3e
000002b0: 1bce dbbe 682b a6bd 6833 6fbe 5951 6cbe
000002c0: 0860 f43d 8444 cebd 2c98 de3e 3262 c73e
000002d0: d0e5 d53e 4eaf afbe d928 c5be c62c b63e
000002e0: 28fb c4bd 742a 313e 0cdd d1bd 80a4 5a3d
000002f0: 5cf1 183e 10ad a33d 8036 b33c c07c ac3c
00000300: 6846 e03d dcfe bbbd 008d 313b 5458 e4be
00000310: 4896 3a3d 1c5f a3be 5404 9c3e e449 c5be
00000320: 2c83 7c3e 03a9 a0be 74ee 733e 82ce c2be
00000330: 2616 b53e e816 ec3d aa18 45be 50ff 473e
00000340: ae58 c23e d888 883e 4809 8bbe 307d 2e3e
00000350: a8b4 01be 0c6d 573e 106e c73e 1086 e5bc
00000360: e060 1dbe 08fb d33e 38cb 813d 62cb d5be
00000370: e831 a13e 7240 903e f4fb a73e 8239 c23e
00000380: 8d6d 4cbe 881a d13e 1ec2 d8be 0e83 bb3e
00000390: 7cf2 8f3e 0010 c9bd 0602 953e 9070 d03d
000003a0: 92f7 5bbe e6f1 84be 90a4 143e 10ad 7ebe
000003b0: 9a8a c93e d051 8abd 42f6 18be f0b8 e43d
000003c0: d463 ddbd 848c 59be 5cb0 6b3e 3811 02bd
000003d0: ec76 913e 0cdb b1be 02fd 7bbe 8c4e 90be
000003e0: 2cae 073e f926 8fbe cce3 973e ba5b cc3e
000003f0: 26e7 9c3e e014 dc3c 5094 683d 405a 133c
0.27840406 -0.37429684 -0.39101344 -0.4251067 0.20395738 0.28828603 -0.16298506 -0.34015864
-0.21916547 0.009630054 -0.17494002 -0.22453421 -0.3867631 -0.1448938 0.1832574 -0.29460332
0.16738796 -0.06325859 0.35311055 0.3778438 -0.22022559 -0.1170485 0.20981783 0.29678023
0.26898992 0.2627738 -0.30294493 0.38840616 -0.3451951 0.42453432 -0.23521923 -0.35850537
0.42638737 0.3349467 -0.04843408 0.41011584 0.08784115 0.36617118 0.029097497 0.051374078
0.060221493 0.42455554 -0.13045278 0.43240678 0.1002565 0.20014375 -0.0067685544 0.23984563
-0.056023955 -0.44441363 -0.23836143 0.11841756 -0.12633365 0.06357205 0.4380616 0.37414223
-0.22006613 0.42727906 0.18710595 0.4197632 0.2970205 0.09652728 0.014578611 -0.27156955
-0.17751557 0.4382974 0.11925137 0.34898692 0.04214865 0.44347245 -0.38652745 -0.2689822
0.15958613 0.0668993 0.18070328 -0.27074474 -0.4187883 -0.022112489 0.37279713 0.4261058
0.4343744 0.41577446 -0.22149324 0.44116306 0.17970699 -0.13717881 0.40002882 -0.034451276
-0.39768636 0.35681272 0.07179105 -0.18336752 0.21621972 0.24238247 0.20592135 -0.11126232
-0.16154605 -0.22442386 0.10064423 0.404653 0.38879192 0.038851082 0.32015234 0.20939514
-0.27014 -0.43280795 -0.20874484 -0.042312223 -0.37961638 0.34324956 -0.009835524 -0.17502493
-0.02390801 -0.19430923 0.2882788 0.29202268 0.14302589 -0.29731482 -0.045025818 0.10995396
0.05446684 -0.41017103 0.029730268 0.26221037 -0.35729232 0.35508424 -0.12830696 -0.20438986
0.073481545 0.404779 0.28479975 0.37012517 -0.37204558 -0.32121244 0.13230413 -0.14500009
0.25765738 0.31020588 0.1052666 0.019511962 -0.06766111 -0.066291966 0.39080986 -0.024159133
-0.15754595 0.3253375 -0.16612543 0.31250137 0.35590357 -0.4417769 -0.3977207 0.31070992
-0.42347962 -0.29958677 -0.42994565 0.2631433 0.35668343 0.427319 0.23338433 0.13000074
-0.16149418 -0.4183778 0.016422108 -0.10145233 0.3321943 -0.39667422 0.14563496 -0.24737898
0.091545 0.30762282 -0.38369268 0.36372328 -0.42930683 -0.08113748 -0.23359454 -0.23077907
0.11932379 -0.10071662 0.43475473 0.38942105 0.41776896 -0.34313434 -0.38507727 0.35581034
-0.09618217 0.17301351 -0.102472395 0.053379536 0.14935821 0.079919934 0.021876574 0.02105558
0.10950929 -0.0917947 0.00270921 -0.4459864 0.045553476 -0.319085 0.30472052 -0.38532937
0.24659413 -0.31378946 0.23821431 -0.38048178 0.3536846 0.115278065 -0.1924769 0.19530988
0.37958282 0.26666903 -0.2715552 0.17039943 -0.12666571 0.21037692 0.3895116 -0.028018028
-0.15368986 0.4140246 0.06337589 -0.4175673 0.31483388 0.28174168 0.32809412 0.379345
-0.19963665 0.40840554 -0.423356 0.36623424 0.28114688 -0.09817505 0.29103106 0.101777196
-0.2148116 -0.25965804 0.145159 -0.24870706 0.39363557 -0.06753886 -0.1493769 0.111680865
-0.10810056 -0.21245009 0.23016495 -0.031754702 0.28411043 -0.34737432 -0.24608234 -0.28184927
0.13250035 -0.2795942 0.29665983 0.39913732 0.30645102 0.026865423 0.056782067 0.008993685

lstm.weight_hh_l0 f4 [20, 5]
00000000: 60ee bb3e 767c e0be 50e9 a63e 80c7 b83b
00000010: 00b8 fc3a c051 103e 268d aebe 14fe 843e
00000020: ea39 afbe cc12 963e 40b6 fabd 629e 933e
00000030: cae5 84be fc6a b33e 6c34 363e 6bd5 d2be
00000040: b281 b03e 7924 a53e 5122 dcbe 3b33 6b3d
00000050: 7661 da3e 7cdc cebd 4100 40be 3c33 bebe
00000060: 3514 cb3e 3ee1 ca3e 9822 0b3e 70d1 8e3d
00000070: 789c cb3e 6030 3f3e 9c5c 9abe 2e4d a53e
00000080: f450 8cbd 928c 86be 5a05 a1be 7235 b53e
00000090: d091 5b3d b05d 9e3e 1816 83bd c2db d33e
000000a0: 48c5 a63d 5872 e4bd 29e9 923e b6b1 483e
000000b0: 32f0 b53d 20f5 79be 2a5a 83bd 3558 1a3d
000000c0: 265a 573e 8fe4 c03e de24 b43e 4e87 0dbe
000000d0: c600 83be f0a8 493d a071 053e 0c21 99be
000000e0: 4efd 8c3e 8089 523c 84e9 9b3e fe3a 83be
000000f0: 908b 863e 8776 83bd 73be d8bd 24aa 493e
00000100: 9b3e b13e 482f f23d 3cfb 9b3e 84b3 d53e
00000110: 6d88 dd3e 7846 c83d 60be d6bc 0ef9 6bbe
00000120: b9fd d63c a295 8f3e 8b4f 493e e0c9 8f3c
00000130: 5474 093e ffec 38be f62f b5be e306 dfbe
00000140: 80b5 80bd bbec ab3e 839c 3a3e 00d4 6bbb
00000150: e466 a4be 30a7 1c3e f8f6 033e 7f0e f6bc
00000160: 7966 db3d 697f 0ebe 8c56 463e cba8 cabe
00000170: 4a28 22bd e337 a737 d255 86bd 1410 203e
00000180: dc29 7d3e 97bf dbba 7283 903e 4461 25be
0.36705303 -0.43844956 0.32599878 0.0056390166 0.001928091 0.14093685 -0.34092063 0.25975096
-0.34223872 0.29311216 -0.12241793 0.28831774 -0.25956565 0.3504256 0.17793435 -0.4117845
0.3447395 0.3225439 -0.4299493 0.057421904 0.42652482 -0.10100648 -0.18750097 -0.37148464
0.39663854 0.3962497 0.13587415 0.06973541 0.39767814 0.18670797 -0.3014878 0.32285446
-0.06851378 -0.26279122 -0.31449395 0.35392338 0.053605855 0.30930853 -0.064006984 0.413786
0.08143097 -0.11154622 0.28693512 0.19599041 0.08883704 -0.24409914 -0.06413682 0.037681777
0.21030483 0.37674376 0.35184377 -0.13821146 -0.25586528 0.049233377 0.13031626 -0.29908025
0.27537006 0.012850165 0.30451596 -0.25630945 0.26278353 -0.06419092 -0.105832 0.1969381
0.34618077 0.118254244 0.30465114 0.41738522 0.43268147 0.09779066 -0.026213825 -0.23044226
0.026244031 0.28043848 0.1965925 0.017552316 0.13423282 -0.18059157 -0.35388154 -0.43559942
-0.062846184 0.3357905 0.18223767 -0.0035984516 -0.3210975 0.15298152 0.1288718 -0.03003621
0.107129045 -0.1391579 0.19368953 -0.39581904 -0.039589204 1.9933976e-05 -0.06559338 0.15631133
0.24723 -0.0016765472 0.28225285 -0.16150385

lstm.bias_ih_l0 f4 [20]
00000000: 4867 94be c8f7 d33d b793 acbe 2133 cabe
00000010: 96fa ddbd 87cc a3be 26f3 bc3e f0a7 a6be
00000020: 5df0 e5bd bf72 dfbd 5270 d9be b0d4 833d
00000030: 4aea 04be 913d c53e e601 d13e 2f9a 00be
00000040: ad44 babe 3684 94be 6002 bc3e fe30 cc3e
-0.28985047 0.10349995 -0.33706447 -0.39492133 -0.10838811 -0.3199198 0.36904258 -0.3255
-0.11227486 -0.10910558 -0.42468506 0.06437051 -0.12979999 0.38523534 0.4082176 -0.12558816
-0.3638052 -0.2900712 0.36720562 0.39881128

lstm.bias_hh_l0 f4 [20]
00000000: d47a 0fbe 22d5 883e 20be aa3e e56f c23e
00000010: e230 d6be f0f7 fa3d 4066 373c 00f6 55ba
00000020: 5d84 423e 47bc 98be dda0 cdbe 505f 69bd
00000030: 5ba3 48be f139 aebc a3e3 0b3e 6bb8 1a3d
00000040: 5977 d53e f38a 6d3e b6c7 2b3e bf0f 0f3b
-0.14011699 0.26725107 0.3334818 0.37975994 -0.4183417 0.122543216 0.011193812 -0.0008161962
0.18995805 -0.29831144 -0.4016179 -0.056975663 -0.19593565 -0.021267863 0.13661055 0.03777353
0.41692618 0.23197536 0.16775402 0.0021829454

linear.weight f4 [2, 5]
00000000: 8814 08be acaf d93e ee9c 4c3d 0fde 093d
00000010: 3320 e4be b785 e4bd fcde ce3e 06ac dc3e
00000020: 5e5e 873e 7e79 3dbe
-0.13289082 0.4251684 0.049954347 0.033659037 -0.44555816 -0.111583166 0.404045 0.43099993
0.26439184 -0.18503377

linear.bias f4 [2]
00000000: aa41 b1be 09e2 89bc
-0.3462041 -0.016831415

exp_avg f4 [20, 34]
00000000: 0000 0000 0000 0000 0000 0000 0000 0000
00000010: 0000 0000 0000 0000 0000 0000 0000 0000
00000020: 0000 0000 0000 0000 0000 0000 0000 0000
00000030: 0000 0000 0000 0000 0000 0000 0000 0000
00000040: 0000 0000 0000 0000 0000 0000 0000 0000
00000050: 0000 0000 0000 0000 0000 0000 0000 0000
00000060: 0000 0000 0000 0000 0000 0000 0000 0000
00000070: 0000 0000 0000 0000 0000 0000 0000 0000
00000080: 0000 0000 0000 0000 0000 0000 0000 0000
00000090: 0000 0000 0000 0000 0000 0000 0000 0000
000000a0: 0000 0000 0000 0000 0000 0000 0000 0000
000000b0: 0000 0000 0000 0000 0000 0000 0000 0000
000000c0: 0000 0000 0000 0000 0000 0000 0000 0000
000000d0: 0000 0000 0000 0000 0000 0000 0000 0000
000000e0: 0000 0000 0000 0000 0000 0000 0000 0000
000000f0: 0000 0000 0000 0000 0000 0000 0000 0000
00000100: 0000 0000 0000 0000 0000 0000 0000 0000
00000110: 0000 0000 0000 0000 0000 0000 0000 0000
00000120: 0000 0000 0000 0000 0000 0000 0000 0000
00000130: 0000 0000 0000 0000 0000 0000 0000 0000
00000140: 0000 0000 0000 0000 0000 0000 0000 0000
00000150: 0000 0000 0000 0000 0000 0000 0000 0000
00000160: 0000 0000 0000 0000 0000 0000 0000 0000
00000170: 0000 0000 0000 0000 0000 0000 0000 0000
00000180: 0000 0000 0000 0000 0000 0000 0000 0000
00000190: 0000 0000 0000 0000 1071 aabb 54ac b1bb
000001a0: 766a 07bb 9646 d2bb 767d 90bb e9a6 6dbb
000001b0: 61f9 9dba 0000 0000 5d4c 73b9 d16f d1ba
000001c0: 2c7e 0bb8 94fc dab9 6414 38bb 7be5 a3bb
000001d0: e5c8 79ba 6dc3 12bb 418f aebb 9bfa 00ba
000001e0: 7881 b5bb a5e7 d6b8 60a1 92b7 eb3f d7bb
000001f0: d9e3 abb8 c871 0bb9 0eab 93b9 7347 79b9
00000200: 2b79 63b8 6203 12b9 b407 f0ba 413a 1bba
00000210: 6b38 f3ba 9b11 25ba b557 8ebc b9b5 b8bc
00000220: e9e9 4c3b 5c2c db3a 5c99 1b3a 574b 813b
00000230: e62e 3b3b feb0 0b3b 7ebe 313a 0000 0000
00000240: 0e2b b839 70ab e039 1f96 39b7 8d84 0939
00000250: ceb8 1939 dc58 3c3b bbc9 b73b 157f 4739
00000260: e392 c6b9 4598 1c39 4e7e eb3a 55fb 97b7
00000270: 15cc 8037 c8ac fe3a 2c25 59b5 5807 7237
00000280: 27b0 74b7 3ada 5738 ed59 2239 3dd8 f337
00000290: 2fb2 453a db99 9a39 3498 ddb9 525e b838
000002a0: 8e02 803b 41bb 903b 4b11 9ca2 0a24 a7a2
000002b0: 7b53 00a2 375e 9fa2 628d 5ea2 5bb8 3ea2
000002c0: f9c3 6ba1 0000 0000 76c9 380d d0ae b1a1
000002d0: 1e6f 639f f0f1 d2a0 d9fc 66a2 345a aca2
000002e0: 3901 c7a1 7919 72a1 d26b 7ba3 c160 d8a0
000002f0: f9ec bfa2 cf4e 369f 1e6f e39e 3081 faa2
00000300: cdb0 cc9f a451 c19f 4b6c 58a0 5db4 63a0
00000310: 6b2d 7a9f 3901 47a0 73ea d7a1 55c2 1aa1
00000320: a20a 09a2 ce0a 7aa1 a6de f3a3 e77e 67a3
00000330: 0000 0000 0000 0000 0000 0000 0000 0000
00000340: 0000 0000 0000 0000 0000 0000 0000 0000
00000350: 0000 0000 0000 0000 0000 0000 0000 0000
00000360: 0000 0000 0000 0000 0000 0000 0000 0000
00000370: 0000 0000 0000 0000 0000 0000 0000 0000
00000380: 0000 0000 0000 0000 0000 0000 0000 0000
00000390: 0000 0000 0000 0000 0000 0000 0000 0000
000003a0: 0000 0000 0000 0000 0000 0000 0000 0000
000003b0: 0000 0000 0000 0000 0000 0000 0000 0000
000003c0: 0000 0000 0000 0000 0000 0000 0000 0000
000003d0: 0000 0000 0000 0000 0000 0000 0000 0000
000003e0: 0000 0000 0000 0000 0000 0000 0000 0000
000003f0: 0000 0000 0000 0000 0000 0000 0000 0000
0.0 0.0 0.0 0.0 0.0 0.0 0.0 0.0
0.0 0.0 0.0 0.0 0.0 0.0 0.0 0.0
0.0 0.0 0.0 0.0 0.0 0.0 0.0 0.0
0.0 0.0 0.0 0.0 0.0 0.0 0.0 0.0
0.0 0.0 0.0 0.0 0.0 0.0 0.0 0.0
0.0 0.0 0.0 0.0 0.0 0.0 0.0 0.0
0.0 0.0 0.0 0.0 0.0 0.0 0.0 0.0
0.0 0.0 0.0 0.0 0.0 0.0 0.0 0.0
0.0 0.0 0.0 0.0 0.0 0.0 0.0 0.0
0.0 0.0 0.0 0.0 0.0 0.0 0.0 0.0
0.0 0.0 0.0 0.0 0.0 0.0 0.0 0.0
0.0 0.0 0.0 0.0 0.0 0.0 0.0 0.0
0.0 0.0 0.0 0.0 0.0 0.0 -0.0052014664 -0.0054221544
-0.002066282 -0.006417106 -0.0044094874 -0.0036262816 -0.001205247 0.0 -0.00023202733 -0.0015978758
-3.325769e-05 -0.00041768386 -0.0028088326 -0.0050017214 -0.0009528532 -0.0022394315 -0.005327136 -0.00049201556
-0.0055391155 -0.00010247462 -1.7479702e-05 -0.006568899 -8.196355e-05 -0.0001329846 -0.0002816547 -0.00023773107
-5.4233864e-05 -0.00013924905 -0.0018312843 -0.0005921461 -0.0018556243 -0.0006296874 -0.017375806 -0.02254759
0.003126735 0.0016721594 0.0005935633 0.003945749 0.002856189 0.0021315212 0.00067803997 0.0
0.00035127293 0.0004285234 -1.1061812e-05 0.00013114717 0.00014660062 0.0028739488 0.005608765 0.0001902546
-0.00037874942 0.00014934044 0.0017966719 -1.8117638e-05 1.5353822e-05 0.0019430155 -8.089289e-07 1.4426034e-05
-1.4584547e-05 5.1463234e-05 0.00015483024 2.9068551e-05 0.0007541505 0.000294878 -0.00042265805 8.791372e-05
0.0039065545 0.0044168537 -4.2302194e-18 -4.53036e-18 -1.7391429e-18 -4.319679e-18 -3.0161458e-18 -2.5847399e-18
-7.9880465e-19 0.0 5.6941877e-31 -1.2040259e-18 -4.8161034e-20 -3.5735485e-19 -3.1304669e-18 -4.67162e-18
-1.3485088e-18 -8.20265e-19 -1.3629569e-17 -3.665585e-19 -5.202156e-18 -3.8605188e-20 -2.4080517e-20 -6.789942e-18
-8.668985e-20 -8.187374e-20 -1.8331743e-19 -1.9287325e-19 -5.2977128e-20 -1.685636e-19 -1.4631025e-18 -5.2434426e-19
-1.8572591e-18 -8.4717595e-19 -2.6440408e-17 -1.2549408e-17 0.0 0.0 0.0 0.0
0.0 0.0 0.0 0.0 0.0 0.0 0.0 0.0
0.0 0.0 0.0 0.0 0.0 0.0 0.0 0.0
0.0 0.0 0.0 0.0 0.0 0.0 0.0 0.0
0.0 0.0 0.0 0.0 0.0 0.0 0.0 0.0
0.0 0.0 0.0 0.0 0.0 0.0 0.0 0.0
0.0 0.0 0.0 0.0 0.0 0.0 0.0 0.0

exp_avg_sq f4 [20, 34]
00000000: 0000 0000 0000 0000 0000 0000 0000 0000
00000010: 0000 0000 0000 0000 0000 0000 0000 0000
00000020: 0000 0000 0000 0000 0000 0000 0000 0000
00000030: 0000 0000 0000 0000 0000 0000 0000 0000
00000040: 0000 0000 0000 0000 0000 0000 0000 0000
00000050: 0000 0000 0000 0000 0000 0000 0000 0000
00000060: 0000 0000 0000 0000 0000 0000 0000 0000
00000070: 0000 0000 0000 0000 0000 0000 0000 0000
00000080: 0000 0000 0000 0000 0000 0000 0000 0000
00000090: 0000 0000 0000 0000 0000 0000 0000 0000
000000a0: 0000 0000 0000 0000 0000 0000 0000 0000
000000b0: 0000 0000 0000 0000 0000 0000 0000 0000
000000c0: 0000 0000 0000 0000 0000 0000 0000 0000
000000d0: 0000 0000 0000 0000 0000 0000 0000 0000
000000e0: 0000 0000 0000 0000 0000 0000 0000 0000
000000f0: 0000 0000 0000 0000 0000 0000 0000 0000
00000100: 0000 0000 0000 0000 0000 0000 0000 0000
00000110: 0000 0000 0000 0000 0000 0000 0000 0000
00000120: 0000 0000 0000 0000 0000 0000 0000 0000
00000130: 0000 0000 0000 0000 0000 0000 0000 0000
00000140: 0000 0000 0000 0000 0000 0000 0000 0000
00000150: 0000 0000 0000 0000 0000 0000 0000 0000
00000160: 0000 0000 0000 0000 0000 0000 0000 0000
00000170: 0000 0000 0000 0000 0000 0000 0000 0000
00000180: 0000 0000 0000 0000 0000 0000 0000 0000
00000190: 0000 0000 0000 0000 5916 d437 f1b6 ee37
000001a0: cd18 8836 4fed 4938 6c81 b437 6c92 5e37
000001b0: 1d71 ab35 0000 0000 4cbd 8633 96ac 2236
000001c0: a035 a330 c9a3 3034 fff9 0f37 3f49 d137
000001d0: eac8 9035 f25d bb36 9b67 e137 61c4 7734
000001e0: 77d0 f537 8c80 1b32 ca74 ca30 8cc1 4738
000001f0: 599a e031 708a 7232 1b79 6733 238e 5733
00000200: ce69 1331 0030 6b32 3017 6936 f793 ce34
00000210: d984 6236 656d c834 7d6d 5339 9fc8 9b39
00000220: 3daa 0337 7529 d036 2d16 6235 10af 8937
00000230: 71cd ff36 8ed4 a236 996d d334 0000 0000
00000240: 84b8 4f33 1c7d 9c34 d261 872f 521e 1933
00000250: 882a b135 2e90 0c37 d1f9 9237 6c55 2835
00000260: 413f b137 ca85 2c33 4abc 0037 bc5e ee30
00000270: f5d1 a42f 8386 c936 a60b 3531 dcc0 0231
00000280: 2baa 8731 d971 2332 d31a 6133 873d 9e31
00000290: 0c84 4e35 58f6 d933 2c3a 6435 3760 8733
000002a0: 7695 ce38 f6e9 9637 0e84 8506 7422 9906
000002b0: b589 3405 0d39 8b06 36c0 0706 9163 c705
000002c0: 3a59 1804 0000 0000 0000 0000 ab0f ad04
000002d0: c9e2 4600 89eb f302 993c 1206 50d5 a206
000002e0: 8416 d904 fda4 2004 ef40 2d08 a852 0003
000002f0: f6ea c906 028c 2d00 adb8 1100 26fe 2b07
00000300: 8eab e500 37dc cc00 5760 0002 e91b 0e02
00000310: 9ec5 5500 8416 d901 198d ff04 7449 8303
00000320: d4e4 4d05 bf5b 2b04 aa00 2309 7fe1 1208
00000330: 0000 0000 0000 0000 0000 0000 0000 0000
00000340: 0000 0000 0000 0000 0000 0000 0000 0000
00000350: 0000 0000 0000 0000 0000 0000 0000 0000
00000360: 0000 0000 0000 0000 0000 0000 0000 0000
00000370: 0000 0000 0000 0000 0000 0000 0000 0000
00000380: 0000 0000 0000 0000 0000 0000 0000 0000
00000390: 0000 0000 0000 0000 0000 0000 0000 0000
000003a0: 0000 0000 0000 0000 0000 0000 0000 0000
000003b0: 0000 0000 0000 0000 0000 0000 0000 0000
000003c0: 0000 0000 0000 0000 0000 0000 0000 0000
000003d0: 0000 0000 0000 0000 0000 0000 0000 0000
000003e0: 0000 0000 0000 0000 0000 0000 0000 0000
000003f0: 0000 0000 0000 0000 0000 0000 0000 0000
0.0 0.0 0.0 0.0 0.0 0.0 0.0 0.0
0.0 0.0 0.0 0.0 0.0 0.0 0.0 0.0
0.0 0.0 0.0 0.0 0.0 0.0 0.0 0.0
0.0 0.0 0.0 0.0 0.0 0.0 0.0 0.0
0.0 0.0 0.0 0.0 0.0 0.0 0.0 0.0
0.0 0.0 0.0 0.0 0.0 0.0 0.0 0.0
0.0 0.0 0.0 0.0 0.0 0.0 0.0 0.0
0.0 0.0 0.0 0.0 0.0 0.0 0.0 0.0
0.0 0.0 0.0 0.0 0.0 0.0 0.0 0.0
0.0 0.0 0.0 0.0 0.0 0.0 0.0 0.0
0.0 0.0 0.0 0.0 0.0 0.0 0.0 0.0
0.0 0.0 0.0 0.0 0.0 0.0 0.0 0.0
0.0 0.0 0.0 0.0 0.0 0.0 2.5282776e-05 2.8457e-05
4.056003e-06 4.8143145e-05 2.1517939e-05 1.3266323e-05 1.2773413e-06 0.0 6.274294e-08 2.424034e-06
1.1875052e-09 1.6450862e-07 8.581671e-06 2.494885e-05 1.078731e-06 5.583971e-06 2.6870335e-05 2.307511e-07
2.930335e-05 9.051416e-09 1.4730628e-09 4.762555e-05 6.5368053e-09 1.4117731e-08 5.3894023e-08 5.018786e-08
2.1451458e-09 1.3689714e-08 3.4733202e-06 3.847815e-07 3.3753952e-06 3.7332498e-07 0.00020163316 0.00029713378
7.847845e-06 6.2037093e-06 8.422383e-07 1.6413192e-05 7.6235087e-06 4.852721e-06 3.9381555e-07 0.0
4.836376e-08 2.9148293e-07 2.4625862e-10 3.5650665e-08 1.3199906e-06 8.37822e-06 1.7520886e-05 6.270918e-07
2.11295e-05 4.016855e-08 7.673234e-06 1.7343704e-09 2.998061e-10 6.005926e-06 2.6345588e-09 1.9027118e-09
3.948363e-09 9.513735e-09 5.241129e-08 4.6054e-09 7.6933134e-07 1.01496596e-07 8.502127e-07 6.303929e-08
9.850685e-05 1.799034e-05 5.0223076e-35 5.760283e-35 8.488852e-36 5.236982e-35 2.5531892e-35 1.8750445e-35
1.7908485e-36 0.0 0.0 4.0686493e-36 6.50984e-39 3.5840831e-37 2.7504068e-35 6.125106e-35
5.1037132e-36 1.8883669e-36 5.2136623e-34 3.7710704e-37 7.595304e-35 4.182823e-39 1.627453e-39 1.2939298e-34
2.1091871e-38 1.881344e-38 9.431603e-38 1.0440522e-37 7.876909e-39 7.974552e-38 6.007979e-36 7.716352e-37
9.681083e-36 2.0143081e-36 1.9620724e-33 4.4200346e-34 0.0 0.0 0.0 0.0
0.0 0.0 0.0 0.0 0.0 0.0 0.0 0.0
0.0 0.0 0.0 0.0 0.0 0.0 0.0 0.0
0.0 0.0 0.0 0.0 0.0 0.0 0.0 0.0
0.0 0.0 0.0 0.0 0.0 0.0 0.0 0.0
0.0 0.0 0.0 0.0 0.0 0.0 0.0 0.0
0.0 0.0 0.0 0.0 0.0 0.0 0.0 0.0

exp_avg f4 [20, 5]
00000000: 0000 0000 0000 0000 0000 0000 0000 0000
00000010: 0000 0000 0000 0000 0000 0000 0000 0000
00000020: 0000 0000 0000 0000 0000 0000 0000 0000
00000030: 0000 0000 0000 0000 0000 0000 23ef 5a04
00000040: 0f83 f0a8 631e d537 283a 0238 1334 3038
00000050: deea 10a0 0000 0000 8926 17b8 1925 bfb7
00000060: 59d4 4838 a918 6e07 0000 0000 613b 629f
00000070: 4036 2d1f 6336 2d1f 0000 0000 0000 0000
00000080: 0000 0000 0000 0000 0000 0000 0000 0000
00000090: 0000 0000 0000 0000 0000 0000 0000 0000
000000a0: d707 d603 e51a b5a1 d4b0 5f38 2bdb 8738
000000b0: ae1b 0338 b963 1a04 c5ff 39af 9bb3 ca37
000000c0: 8eb0 a337 e4ba c137 0000 0000 0000 0000
000000d0: 0000 0000 0000 0000 0000 0000 0000 0000
000000e0: 0400 0080 2df6 cb13 8cf4 cb13 bdcc a110
000000f0: 60c6 1490 fbd3 9126 e491 5c3a 119a 8cba
00000100: eab0 90ba 0000 0000 4caf 5789 2b97 0137
00000110: 8318 0137 52a8 0aae 0000 0000 4711 0119
00000120: 6854 6aba b467 37ba 44a5 7639 5a9d 342d
00000130: 0000 0000 cca2 11b2 b60b 5c29 bbd4 dd31
00000140: 0000 0000 2254 80b1 b057 5134 605c 7427
00000150: fec5 f433 9e00 0000 de88 3f86 94ed 3c37
00000160: fd35 8037 2cc4 6536 b34e 6b2b 0000 0000
00000170: d7ad 01b8 0687 4a37 f8e4 9c37 3b3c 1f1d
00000180: 2af3 09aa 7b76 6639 0a2b ef39 4114 8339
0.0 0.0 0.0 0.0 0.0 0.0 0.0 0.0
0.0 0.0 0.0 0.0 0.0 0.0 0.0 2.5735583e-36
-2.670219e-14 2.5405729e-05 3.1048578e-05 4.2010168e-05 -1.2274985e-19 0.0 -3.6037094e-05 -2.278625e-05
4.788148e-05 1.7912377e-34 0.0 -4.790648e-20 3.667905e-20 3.6679163e-20 0.0 0.0
0.0 0.0 0.0 0.0 0.0 0.0 0.0 0.0
1.25795895e-36 -1.2272156e-18 5.3332027e-05 6.478125e-05 3.1258613e-05 1.8148403e-36 -1.691652e-10 2.4163912e-05
1.9513329e-05 2.309442e-05 0.0 0.0 0.0 0.0 0.0 0.0
-6e-45 5.1487152e-27 5.1485546e-27 6.381875e-29 -2.9340676e-29 1.0118854e-15 0.00084140734 -0.0010727068
-0.0011039053 0.0 -2.5962108e-33 7.724196e-06 7.694706e-06 -3.1527066e-11 0.0 6.672633e-24
-0.0008938969 -0.0006996349 0.00023521954 1.02667545e-11 0.0 -8.477127e-09 4.885997e-14 6.456131e-09
0.0 -3.734855e-09 1.9496542e-07 3.3911879e-15 1.139815e-07 2.21e-43 -3.6023661e-35 1.1260989e-05
1.528393e-05 3.4237846e-06 8.359799e-13 0.0 -3.0917898e-05 1.2071576e-05 1.8703271e-05 2.1074613e-21
-1.2252409e-13 0.00021978647 0.000456177 0.00025001357

exp_avg_sq f4 [20, 5]
00000000: 0000 0000 0000 0000 0000 0000 0000 0000
00000010: 0000 0000 0000 0000 0000 0000 0000 0000
00000020: 0000 0000 0000 0000 0000 0000 0000 0000
00000030: 0000 0000 0000 0000 0000 0000 0000 0000
00000040: 089c 9013 20ab 1731 2adb 0430 9c66 4b30
00000050: c976 ad02 0000 0000 deca 2b30 9e1c ca2f
00000060: 805f 8830 0000 0000 0000 0000 7a23 4600
00000070: 8d1d 2900 9d1d 2900 0000 0000 0000 0000
00000080: 0000 0000 0000 0000 0000 0000 0000 0000
00000090: 0000 0000 0000 0000 0000 0000 0000 0000
000000a0: 0000 0000 1a9f 5d05 097f fe30 ecb4 d730
000000b0: 2331 e62f 0000 0000 c038 5920 290c 952f
000000c0: 3d99 422f abb0 8c2f 0000 0000 0000 0000
000000d0: 0000 0000 0000 0000 0000 0000 0000 0000
000000e0: 0000 0000 0000 0000 0000 0000 0000 0000
000000f0: 0000 0000 ecc2 871f b6b7 0a35 77b1 3b35
00000100: 73e3 7b35 0000 0000 0000 0000 2ee8 e32e
00000110: c2cb e32e af2c 721d 0000 0000 0000 0000
00000120: 3bb8 9234 6ef0 3634 4a8b 9a32 dc94 ac1b
00000130: 0000 0000 8202 6925 f0a8 ec13 d426 0725
00000140: 0000 0000 c360 a724 8515 6b2a d20c 9610
00000150: 7451 9b29 0000 0000 0000 0000 eeeb 602f
00000160: 6557 2430 30eb 832d 72fb 0918 0000 0000
00000170: f82d 9f30 1f3f d22f aea2 e12f 6ccd 9508
00000180: cf81 bc15 b7e8 9733 674f 6233 5ea4 8d32
0.0 0.0 0.0 0.0 0.0 0.0 0.0 0.0
0.0 0.0 0.0 0.0 0.0 0.0 0.0 0.0
3.650457e-27 2.2070665e-09 4.833277e-10 7.3996786e-10 2.5488245e-37 0.0 6.249773e-10 3.676392e-10
9.922445e-10 0.0 0.0 6.441211e-39 3.775856e-39 3.775879e-39 0.0 0.0
0.0 0.0 0.0 0.0 0.0 0.0 0.0 0.0
0.0 1.04205924e-35 1.8517038e-09 1.569473e-09 4.187167e-10 0.0 1.8399392e-19 2.7111582e-10
1.7698638e-10 2.5591382e-10 0.0 0.0 0.0 0.0 0.0 0.0
0.0 0.0 0.0 0.0 0.0 5.7497195e-20 5.167634e-07 6.9921174e-07
9.383577e-07 0.0 0.0 1.0364008e-10 1.03589595e-10 3.2051534e-21 0.0 0.0
2.7328664e-07 1.7037539e-07 1.7991301e-08 2.855121e-22 0.0 2.0210378e-16 5.974136e-27 1.1722539e-16
0.0 7.2588626e-17 2.0879659e-13 5.918432e-29 6.8975126e-14 0.0 0.0 2.04565e-10
5.978705e-10 1.499742e-11 1.7833782e-24 0.0 1.1581838e-09 3.8243628e-10 4.1042852e-10 9.015906e-34
7.61374e-26 7.073816e-08 5.269194e-08 1.6489306e-08

exp_avg f4 [20]
00000000: 0000 0000 0000 0000 0000 0000 1752 6cb8
00000010: 9357 8b37 1d6f 639f 0000 0000 0000 0000
00000020: 4570 95b8 6109 e2b7 0000 0000 30f6 cb93
00000030: e2d7 d33a 6f50 2b37 5d50 5a3a d3a2 11b2
00000040: 9788 57b4 c3e6 91b7 a26f 1fb8 2e27 1bba
0.0 0.0 0.0 -5.6343237e-05 1.6610871e-05 -4.816103e-20 0.0 0.0
-7.1257855e-05 -2.6945667e-05 0.0 -5.1487164e-27 0.001616236 1.0211122e-05 0.0008328015 -8.477133e-09
-2.0073126e-07 -1.7392804e-05 -3.801252e-05 -0.0005918619

exp_avg_sq f4 [20]
00000000: 0000 0000 0000 0000 0000 0000 327d 5031
00000010: e163 2c30 c8e2 4600 0000 0000 0000 0000
00000020: 5966 fe30 59f1 bf2f 0000 0000 0000 0000
00000030: 4bc5 e135 8285 442f 2769 af34 8502 6925
00000040: 1af2 782a 71a0 5130 da70 fe30 4598 ba33
0.0 0.0 0.0 3.033915e-09 6.271517e-10 6.509839e-39 0.0 0.0
1.8510021e-09 3.4914185e-10 0.0 0.0 1.6821226e-06 1.7873528e-10 3.2672799e-07 2.0210382e-16
2.211082e-13 7.626176e-10 1.8513007e-09 8.6889976e-08

exp_avg f4 [20]
00000000: 0000 0000 0000 0000 0000 0000 1752 6cb8
00000010: 9357 8b37 1d6f 639f 0000 0000 0000 0000
00000020: 4570 95b8 6109 e2b7 0000 0000 30f6 cb93
00000030: e2d7 d33a 6f50 2b37 5d50 5a3a d3a2 11b2
00000040: 9788 57b4 c3e6 91b7 a26f 1fb8 2e27 1bba
0.0 0.0 0.0 -5.6343237e-05 1.6610871e-05 -4.816103e-20 0.0 0.0
-7.1257855e-05 -2.6945667e-05 0.0 -5.1487164e-27 0.001616236 1.0211122e-05 0.0008328015 -8.477133e-09
-2.0073126e-07 -1.7392804e-05 -3.801252e-05 -0.0005918619

exp_avg_sq f4 [20]
00000000: 0000 0000 0000 0000 0000 0000 327d 5031
00000010: e163 2c30 c8e2 4600 0000 0000 0000 0000
00000020: 5966 fe30 59f1 bf2f 0000 0000 0000 0000
00000030: 4bc5 e135 8285 442f 2769 af34 8502 6925
00000040: 1af2 782a 71a0 5130 da70 fe30 4598 ba33
0.0 0.0 0.0 3.033915e-09 6.271517e-10 6.509839e-39 0.0 0.0
1.8510021e-09 3.4914185e-10 0.0 0.0 1.6821226e-06 1.7873528e-10 3.2672799e-07 2.0210382e-16
2.211082e-13 7.626176e-10 1.8513007e-09 8.6889976e-08

exp_avg f4 [2, 5]
00000000: 4c23 d634 92a0 4db8 df35 c63d f24e 413e
00000010: d344 c13d 4c23 d6b4 93a0 4d38 df35 c6bd
00000020: f14e 41be d344 c1bd
3.9886288e-07 -4.902535e-05 0.09678244 0.18877771 0.09436955 -3.9886288e-07 4.9025355e-05 -0.09678244
-0.1887777 -0.09436955

exp_avg_sq f4 [2, 5]
00000000: 9b88 fc2a 0246 6d32 a29b a13b 32ad 8d3b
00000010: 92f3 073b 9b88 fc2a 0546 6d32 a09b a13b
00000020: 31ad 8d3b 92f3 073b
4.4858981e-13 1.3811134e-08 0.004931883 0.004323625 0.0020744544 4.4858981e-13 1.3811136e-08 0.004931882
0.0043236245 0.0020744544

exp_avg f4 [2]
00000000: 447d ffbe 427d ff3e
-0.49900258 0.49900252

exp_avg_sq f4 [2]
00000000: 1dd3 003d 1cd3 003d
0.031451333 0.03145133
