MimicApp/lightning_logs/version_14/checkpoints/epoch=99-step=999.ckpt (torch, 15861 bytes, 18 tensors)

lstm.weight_ih_l0 f4 [20, 34]
00000000: 15e6 983e cbb1 6ebd 8371 31be 16e2 2f3e
00000010: dae9 983d 0f00 6f3e 7c62 3dbe 9889 bd3d
00000020: 0788 b33e 7855 a53e fbc1 8dbe 8583 3cbe
00000030: 5e7d 47be 9aaf 8abe 62bc 5d3e b51e c53d
00000040: bfcd 39be cecf 74be 58a5 db3e d272 bbbe
00000050: bbfb 833d c8f6 c03e b428 3b3d 4768 123e
00000060: 19ba a0bd ebe4 24be b3e0 2dbd a942 3b3e
00000070: fc7e d2be c34e 273e 7f9b 543d 628a 493e
00000080: 4f6a 2d3e 6e73 11be e31e c1be cbc5 a53e
00000090: 4490 ea39 188c 733e 44a7 76be 55bd 40be
000000a0: a659 953e 284c 1e3d 8673 753e 5aa2 5bbd
000000b0: 9797 f63d 4000 b23e ae92 533e 1e39 9dbd
000000c0: 3897 183e 50dd 8abd 049a 6e3d 0e06 bbbe
000000d0: d8fa d9be fb14 0abe 9d92 a43d d701 d73e
000000e0: 7244 cf3e 3b2e e13e 2eaf 9cbe 5c17 0c3d
000000f0: 0b03 2fbe cdd9 863e 43ee 11bd c4dd 0d3e
00000100: 5a76 bbbe c802 96bd fc96 98be f60f bd3e
00000110: bbb5 cd3e 8046 943e af74 313e 992f 7c3c
00000120: 0e77 9fbe da39 783e d8ce 80be 40e6 8e3e
00000130: 8a61 2cbe 8fa0 e03d 5b50 1cbe b61c 4a3e
00000140: 4cc9 0dbd 9a60 d1be 4fb7 f2bd 5ce1 ebbd
00000150: ec08 733e 2920 b03e 07fc 93be bddb 623e
00000160: 9977 94bd 92cc d2be f06a b23e 94ed 533c
00000170: b8b7 00be 1e9c 953e bb30 263e 218d adbd
00000180: e5e1 833e 6839 803e d69d 0b3e c7db 103e
00000190: 86b3 8bbe 9d61 89be 00d0 cf3e d9c0 1f3d
000001a0: 2662 8a3c a1f1 cd3e bfae b8bd ba16 25be
000001b0: 8e17 e0bd f804 c2bd 05f1 c43e 5098 66be
000001c0: 493d 533c 60ae 7f3a cb24 cf3e 00e8 dcbe
000001d0: 7f18 b5be 037d 3a3e 6c3a 4f3e a740 92be
000001e0: 960f f63c dc89 7d3e bb1c e2be a275 7c3e
000001f0: 3941 88be 7498 363e c6ec c53e b97a b93e
00000200: a6bf c83e 5273 1abd 593a e23d 09dc e0be
00000210: 0ba1 163e 71a1 863e c029 463e 0a3c 1d3d
00000220: 9974 d63e f30a 16bd 461a 34be 0d45 94be
00000230: 9d6d e53e ca96 cc3d 605c d5be fc0a 513e
00000240: acb5 acbe 03be dabd e261 dcbe 5157 383e
00000250: e970 ddbc 5054 dc3e ed43 29be a10a 7abe
00000260: 8c98 ae3e 2819 fdbd 1d76 76bc d882 8b3e
00000270: 867a f13d 2051 c63e 979f 973e dc97 7b3e
00000280: d80b 6b3c 3119 eb3d e9a8 193e 6283 04be
00000290: 47a0 c43e 8284 aebe 6b78 a03c 9126 b8be
000002a0: 622e b93e 8edf 49be dedd ccbe 4cd8 02be
000002b0: dc72 6f3d 6162 613e beb0 4a3e 8c90 b3be
000002c0: 275f c6be b38d 96be e0b3 873c 569a 813e
000002d0: bc16 94be c1fa 60be 4637 bdbe 5eef 833e
000002e0: f33d 37be 2bdd 21be 89d5 00bd 0b08 7bbc
000002f0: 4d85 d9be 5e8c 9bbe 1d77 d23c f5a1 eb3d
00000300: 4767 4abe ded1 0ebe dfd6 973e 08d4 793e
00000310: 37da 3fbe 257c e13e f648 863d 6523 5cbe
00000320: 1de7 a53e fce2 fe3d 5e05 e33e d0df 6bbe
00000330: 83a8 d63e 95be 923e 2356 c83e 8fd3 e93c
00000340: 6386 df3e 0d5c cd3e afe7 d2be 2c7c be3e
00000350: ccb8 6dbe d4a6 51be 766c e5be b054 773b
00000360: aeac a5be e082 e6bd dadb 5bbe a27e 2b3e
00000370: 51bf 263e 4b31 9b3e 1c59 053c 2307 c7be
00000380: cc6d b2be b26e bfbe db3b 0e3d 4f66 d2be
00000390: 123f a3be 2593 a43e 6d9b 92bc d1b1 51be
000003a0: 0167 8e3e 34cc 203d 95f8 c53e bdcf 8b3e
000003b0: e455 173d 301d 27bd da80 d73e 01d2 4bbe
000003c0: 349e 19be f06c 47be 085f 96bd 34b8 213e
000003d0: 06af a23e c0df ba3e 88c1 20bd 504b 983d
000003e0: c860 9e3e b7bf c2be 4029 23be c2e7 8ebe
000003f0: a803 983e 1617 b2be 594b cebe 80ea a83d
0.2986304 -0.058275025 -0.17328458 0.17176089 0.07466479 0.23339866 -0.184946 0.092547596
0.35064718 0.3229177 -0.27687058 -0.18409546 -0.19481418 -0.27087098 0.21653894 0.096249975
-0.18144892 -0.23907396 0.42899585 -0.36611038 0.06444498 0.3768828 0.045693114 0.14297591
-0.07847995 -0.1610295 -0.042450618 0.18287148 -0.41112506 0.16338639 0.051906105 0.19681695
0.16935085 -0.14204189 -0.37718877 0.32377467 0.00044739444 0.2378391 -0.24087244 -0.18822224
0.2916996 0.038646847 0.2396985 -0.053621627 0.12040632 0.34765816 0.20661423 -0.0767691
0.14901435 -0.06780493 0.05825235 -0.36528057 -0.4257419 -0.13484566 0.08035777 0.4199359
0.40481907 0.43980584 -0.30602401 0.034201965 -0.17091005 0.26338044 -0.035627615 0.13854128
-0.36613733 -0.07324749 -0.29802692 0.3692624 0.40177712 0.28960037 0.17329668 0.015392208
-0.3114552 0.24240819 -0.2515781 0.27910042 -0.16834083 0.10968124 -0.15265028 0.19737515
-0.0346158 -0.40894014 -0.118513696 -0.11517593 0.23733872 0.34399536 -0.2890322 0.22154136
-0.07249374 -0.411717 0.34847212 0.012935061 -0.12570083 0.2922067 0.16229527 -0.08474184
0.2575828 0.25043797 0.13634428 0.14146338 -0.27285403 -0.26832286 0.4058838 0.039002273
0.016892504 0.4022341 -0.09017705 -0.16121951 -0.10941993 -0.09473604 0.38465133 -0.2251904
0.0128930295 0.0009753462 0.40457758 -0.43145752 -0.35370252 0.1821175 0.2023713 -0.2856495
0.030036729 0.2475962 -0.44162545 0.24654248 -0.2661226 0.17831594 0.38657206 0.36226442
0.39208716 -0.037707634 0.11046285 -0.43917874 0.1470987 0.26295045 0.19351864 0.038387336
0.41885832 -0.036631536 -0.17588148 -0.28958932 0.4481019 0.09989698 -0.4167204 0.20414346
-0.33732355 -0.10680773 -0.4304343 0.18002059 -0.027031379 0.43033075 -0.16529818 -0.24418117
0.3410076 -0.12358314 -0.015042809 0.27248263 0.117909476 0.38733768 0.29613945 0.24569649
0.0143460855 0.11479414 0.1500584 -0.12940744 0.38403532 -0.3408547 0.01958867 -0.35966924
0.361682 -0.19714186 -0.4001302 -0.12777823 0.058459148 0.22010185 0.19793984 -0.35071218
-0.3874447 -0.29404983 0.016565263 0.2531306 -0.28923595 -0.21970655 -0.36956233 0.2576856
-0.17894726 -0.15807025 -0.031453643 -0.015321742 -0.42484513 -0.3038053 0.025691563 0.115055
-0.1976596 -0.13947245 0.2965612 0.2439729 -0.18735586 0.44040027 0.06556885 -0.21497877
0.32402888 0.124456376 0.44340032 -0.23034596 0.4192544 0.28661028 0.39128217 0.028543262
0.43657216 0.40109292 -0.41192386 0.3720411 -0.23215026 -0.20473796 -0.44809312 0.0037739687
-0.32358307 -0.11255431 -0.21470585 0.16747525 0.16283919 0.30311045 0.008138921 -0.38872632
-0.34849393 -0.3738914 0.03472505 -0.4109368 -0.31884056 0.32143512 -0.017896378 -0.20477988
0.2781296 0.039257243 0.38666216 0.2730693 0.036947146 -0.04079932 0.42090493 -0.19904329
-0.15001756 -0.1947515 -0.073423445 0.15792924 0.31774157 0.36498833 -0.039247066 0.0743624
0.30933213 -0.38036892 -0.15933704 -0.27911192 0.2969029 -0.34783238 -0.4029186 0.08247852

lstm.weight_hh_l0 f4 [20, 5]
00000000: 355b 753e 88e9 593e 9e60 61be 54a0 7fbe
00000010: a505 cd3e 400c 11be 501c b23e 2c30 603e
00000020: 8ff0 85be 66c8 a43c 47f6 c5be b551 d6be
00000030: 92c4 9d3c 63a7 7ebe d6a0 533d d96b 23bd
00000040: 0491 4cbe f074 82be 2886 163e 641a b33e
00000050: 60fd 3d3d 9091 79be e010 c5bd fd55 9abe
00000060: 6941 c4be f349 cfbe 4ff3 8b3e cd05 b0be
00000070: 696f b0bd edf2 013e f7f0 dbbb 9fa4 463e
00000080: b4bf 3abe af49 8cbd 4889 593d 5211 51be
00000090: 0aae 803e ce6c 8abe ec3c 3c3e 712f b4be
000000a0: ef38 1abe ee6a b83e ffce acbe 0d84 b63e
000000b0: 87ed 8fbe 9c7f d13e 9d32 863e dbb9 dd3d
000000c0: 61ef 753b 6202 87be d4b3 86be 7a26 d0be
000000d0: a8f4 cc3d 7eb8 87be b083 cabd c8ea 3b3e
000000e0: 23f2 bebe e4c5 223e 3e4a aa3e b452 2b3e
000000f0: b0ce 81be fc40 423e 20c4 9ebc 1e54 da3e
00000100: 00dc 1c3b ab5b 32be 6889 953e e834 2a3d
00000110: 948c d4be 3bfb b93e b5b9 753c 2914 3abe
00000120: 180c 64bd 7e05 84bc c766 91be 0936 9c3e
00000130: ac47 3b3d 20be 9f3c dd5a 743e dab9 cbbd
00000140: ddf8 bbbd a743 4b3e 9cf8 b43e ad9e a2be
00000150: ef02 ccbe c06d fa3b 7ea5 933e fd2d a2be
00000160: 0e5c 36be a01d f53d f013 cc3e 27db cdbe
00000170: 8cf3 e33e 8d73 043e 8d27 81be 76a6 4f3b
00000180: 0c82 dc3e 0cdd 54be ef8d 4f3e 2791 bc3e
0.23960574 0.21280491 -0.22009513 -0.24963504 0.4004337 -0.14164829 0.34787226 0.21893376
-0.26160094 0.020115089 -0.38664457 -0.41859213 0.019258771 -0.2486854 0.051667057 -0.039897773
-0.19977194 -0.2547984 0.14699614 0.34981072 0.046384215 -0.24371934 -0.09622359 -0.3014373
-0.38331154 -0.40486106 0.27334067 -0.34379426 -0.08615 0.12690325 -0.006712075 0.19398735
-0.18237191 -0.068499915 0.053109437 -0.20416763 0.2513278 -0.27036136 0.18382615 -0.35192445
-0.15060781 0.3601908 -0.33751675 0.35647622 -0.28110906 0.4091767 0.2621049 0.10826465
0.0037526714 -0.26369005 -0.26309073 -0.40654355 0.10007602 -0.26507944 -0.09888399 0.1835128
-0.3729411 0.15895802 0.33259767 0.16730767 -0.25353003 0.18970102 -0.019380629 0.426423
0.002393484 -0.17417781 0.29206395 0.04155436 -0.41513503 0.36324486 0.014997889 -0.18171753
-0.055675596 -0.0161159 -0.28398725 0.30509976 0.04572265 0.019499838 0.23862787 -0.09947558
-0.09178326 0.19850026 0.35345924 -0.31761685 -0.39845988 0.0076424778 0.28837198 -0.3167571
-0.17808554 0.11968541 0.3985896 -0.40206262 0.4452175 0.12934704 -0.25225487 0.0031684912
0.43067968 -0.20787448 0.20268987 0.36829492

lstm.bias_ih_l0 f4 [20]
00000000: 9c79 76be 18de 44bd 1afe aebe f6e5 febc
00000010: 4dac bbbe 4536 bfbe 66de 71bd 562b 993e
00000020: 9f4f 4fbe ed30 94be 4855 c73d 0ad2 983e
00000030: 1f52 b1be d670 e53e 48ae 4b3e 197c 193e
00000040: 1f6a 99be abb4 cfbe 49e8 d13d d316 423e
-0.24069828 -0.048063368 -0.3417824 -0.031115513 -0.36654893 -0.37346092 -0.059049986 0.29915875
-0.20245217 -0.28943577 0.09733063 0.29847747 -0.34632966 0.4481265 0.19890702 0.14988746
-0.29963776 -0.40567526 0.10249383 0.18954019

lstm.bias_hh_l0 f4 [20]
00000000: d028 e7bc fe9c 99be b9cd dc3b af42 b63d
00000010: 2488 94be e194 cebe 16b9 6bbd 2885 113e
00000020: 4e03 0abe 4c41 98be 70c8 89be e912 b4be
00000030: 2031 5f3c 763e 033e 396c 4ebd 8d77 03be
00000040: 1e2c 67ba a04d 9a3e e7f4 86be abd7 993e
-0.028217703 -0.30002588 0.0067383912 0.08899438 -0.29010117 -0.4034796 -0.05754956 0.14210951
-0.13477823 -0.29737318 -0.26910734 -0.35170677 0.013622552 0.12816796 -0.050396178 -0.12838574
-0.00088185247 0.30137348 -0.2635872 0.30047354

linear.weight f4 [2, 5]
00000000: 92ff 443e ad73 03be d4a5 73be 512e c83e
00000010: 2809 3cbe ed86 e6be 83eb bfbe e305 1a3e
00000020: d260 47bc cef5 a83e
0.19238117 -0.12837096 -0.23793727 0.39097837 -0.18362868 -0.45024815 -0.3748437 0.15041308
-0.01216908 0.33000034

linear.bias f4 [2]
00000000: dae0 d33d e729 adbe
0.103456214 -0.3382103

exp_avg f4 [20, 34]
00000000: 1550 e0ae b43b 11af 8318 5bae a6ca 08af
00000010: 8585 afae 0323 9eae 2955 74ad 0000 0000
00000020: 667e df2c 0126 22ae 48d3 29ab e969 2bad
00000030: 3733 82ae f57f 11af 6bd5 adae 94c4 63ad
00000040: baee a1af 44bf 49ad bf30 12af 1e0d 80ab
00000050: bf86 a9ac 62c2 25af f941 20ac 946e 2cac
00000060: e153 92ac 5200 c2ac e86e ccac 6eb8 0dab
00000070: f306 18ae 1711 47ad 060c 34ae 0943 a7ad
00000080: af9f 62af b1f7 43b0 e1c3 d238 9a29 d638
00000090: 8af0 2038 61ec d838 c10a 8d38 cff0 7b38
000000a0: 2dea 9937 0000 0000 3b99 64b6 6cb8 b537
000000b0: 2c99 3d35 bfa3 fe36 ca55 2938 3baa b238
000000c0: 2aee b839 2eb0 aa37 ee2e 5f38 dddf 2437
000000d0: 78a8 f438 0a0d 1e36 eee9 0c37 a095 d738
000000e0: a40e 8536 4295 1236 84cb c136 6204 9e36
000000f0: a806 0537 4142 9436 6e73 f537 aca9 2837
00000100: 4e20 5338 42a4 1d37 d409 6439 e851 d638
00000110: b370 22ba 4d2b 3dba 8eca 90b9 fdc3 4dba
00000120: 6e32 0dba a1af f9b9 b5b2 2db9 0000 0000
00000130: fb1d 1737 be6b 2bb9 ca88 80b6 639c 66b8
00000140: e322 aab9 5c2a 2eba 483c 0fba 6534 83b9
00000150: d71e 4dbb a50e 80b8 12cf 44ba d59c 91b7
00000160: 602e 3cb7 4af5 7dba 2261 bbb7 0cb2 81b7
00000170: 5ce8 2bb8 a58e 08b8 c7ce ccb7 24c6 44b9
00000180: 6033 89b9 0228 b7b8 99e8 84b9 64af 8db8
00000190: e581 2cba d1f3 35ba aa67 d1b7 873b 9fb7
000001a0: e394 07b7 cf25 19b8 579e bcb7 ec77 e4b6
000001b0: 0161 ebb6 0000 0000 5582 5d35 00fe b3b6
000001c0: ea2c 31b4 09a7 c7b5 b160 3eb7 0da6 8fb7
000001d0: 6c31 c9b8 d9de 41b6 a9ae 4fb7 2888 ddb5
000001e0: c5a4 bcb7 9aff 04b4 1c52 31b3 0c61 91b7
000001f0: b472 0ab5 f59a e8b4 898b 15b5 9b74 52b5
00000200: c23a b1b3 2af0 84b3 a624 f7b6 57d6 2fb6
00000210: dd75 aeb6 5712 1bb6 7843 05b8 c49e d6b7
00000220: 7fad 8eb6 c591 87b6 38d9 c9b5 dbba d1b6
00000230: a74b 90b6 4f8b 31b6 9450 4bb5 0000 0000
00000240: 7828 05b4 f85d a5b5 4d8b 31b3 f800 a6b4
00000250: 0f49 cdb5 d6dd 39b6 5d30 c2b5 f3fe abb5
00000260: 3093 eeb5 fc2c ccb4 4192 8ab6 0b09 0eb3
00000270: 0b09 8eb2 8675 c2b6 4d8b b1b3 e9c6 97b3
00000280: bf96 40b4 c317 25b4 920d 55b3 1e77 edb4
00000290: 618a a3b5 11c4 d9b4 9647 8cb5 0525 21b5
000002a0: 1249 4db6 f9e1 02b8 be8c 91bb 6d3e abbb
000002b0: da47 01bb 5455 cebb 6078 87bb 4bd4 53bb
000002c0: 22b5 77ba 0000 0000 9035 1536 48fb b0ba
000002d0: c776 eeb7 fa9c ceb9 2209 17bb 6820 9ebb
000002e0: 40cf 60bb b8b6 7fba c85e 89bb 346d e6b9
000002f0: 5fab b9bb daf1 9db8 7d10 a3b9 f169 c3bb
00000300: 666d c3b8 3070 e8b8 053d 53b9 ebb0 6cb9
00000310: d624 f3b8 f56d 09ba 7a65 e4ba 42f6 1cba
00000320: 610a e7ba daf9 1dba 788d 3fbc 73f3 30bc
00000330: 67ed 9039 4d35 ae39 89e5 0539 3ab9 e839
00000340: a620 9739 50a6 5e39 9e28 7e38 0000 0000
00000350: dfa8 66b6 38be ab38 0c19 3536 cf2b d337
00000360: 40cc 1939 ed21 a539 3b4c 933a 9a08 8638
00000370: 35ed 9739 3c09 fc37 e1aa b939 326f 9a36
00000380: d3c5 3e37 374a 2c3a e305 d836 55d5 d536
00000390: 5028 5537 2cc1 6d37 2700 8836 c63b 3e38
000003a0: 5a4a e638 f761 1c38 be47 cf38 395d 2b38
000003b0: 3d6c 1b3a 02dd 4c3a 0000 0000 0000 0000
000003c0: 0000 0000 0000 0000 0000 0000 0000 0000
000003d0: 0000 0000 0000 0000 0000 0000 0000 0000
000003e0: 0000 0000 0000 0000 0000 0000 0000 0000
000003f0: 0000 0000 0000 0000 0000 0000 0000 0000
-1.0200566e-10 -1.3208884e-10 -4.9816606e-11 -1.2441123e-10 -7.9817965e-11 -7.1912275e-11 -1.38887036e-11 0.0
6.3520742e-12 -3.686829e-11 -6.0334073e-13 -9.743741e-12 -5.920813e-11 -1.3233133e-10 -7.90504e-11 -1.2947105e-11
-2.9455355e-10 -1.1467997e-11 -1.3295941e-10 -9.098588e-13 -4.8182287e-12 -1.5075721e-10 -2.277399e-12 -2.4504053e-12
-4.158882e-12 -5.513847e-12 -5.810342e-12 -5.034921e-13 -3.456697e-11 -1.1315635e-11 -4.093794e-11 -1.9015471e-11
-2.0611311e-10 -7.129258e-10 0.000100500656 0.00010212064 3.8370992e-05 0.000103437116 6.725407e-05 6.0067334e-05
1.8348068e-05 0.0 -3.406384e-06 2.166276e-05 7.063088e-07 7.5888524e-06 4.0372637e-05 8.519409e-05
0.0003527266 2.034762e-05 5.321105e-05 9.827284e-06 0.000116662064 2.3551424e-06 8.399116e-06 0.00010279869
3.9654133e-06 2.1842575e-06 5.7755406e-06 4.709277e-06 7.9289675e-06 4.4184567e-06 2.9260027e-05 1.0053085e-05
5.0336406e-05 9.3961735e-06 0.00021747436 0.000102195714 -0.0006196603 -0.000721623 -0.00027616735 -0.0007849334
-0.0005386238 -0.00047623835 -0.00016565139 0.0 9.007282e-06 -0.00016347968 -3.8306216e-06 -5.498192e-05
-0.0003245092 -0.0006643885 -0.00054639997 -0.00025025304 -0.00312989 -6.1062434e-05 -0.00075076625 -1.7358378e-05
-1.1216471e-05 -0.0009687735 -2.2337368e-05 -1.5460908e-05 -4.098598e-05 -3.2557775e-05 -2.4414983e-05 -0.0001876583
-0.00026168954 -8.733572e-05 -0.000253503 -6.756073e-05 -0.0006580635 -0.00069409335 -2.4963014e-05 -1.8981997e-05
-8.081292e-06 -3.6513255e-05 -2.248508e-05 -6.8088902e-06 -7.0148385e-06 0.0 8.2518574e-07 -5.364185e-06
-1.6500749e-07 -1.4875269e-06 -1.1347395e-05 -1.7124252e-05 -9.5936324e-05 -2.8888956e-06 -1.2378828e-05 -1.650541e-06
-2.2488073e-05 -1.2386445e-07 -4.1285702e-08 -1.7330538e-05 -5.157592e-07 -4.3326114e-07 -5.5709876e-07 -7.840078e-07
-8.252893e-08 -6.1904146e-08 -7.36544e-06 -2.6201794e-06 -5.199325e-06 -2.3107475e-06 -3.1772506e-05 -2.5584719e-05
-4.2521274e-06 -4.0402833e-06 -1.5038886e-06 -6.250438e-06 -4.3003415e-06 -2.6456144e-06 -7.574065e-07 0.0
-1.2401313e-07 -1.2320806e-06 -4.1337717e-08 -3.0920614e-07 -1.5294953e-06 -2.7696274e-06 -1.4468202e-06 -1.2814693e-06
-1.7775219e-06 -3.8030691e-07 -4.1297467e-06 -3.3070176e-08 -1.6535088e-08 -5.795332e-06 -8.2675434e-08 -7.067667e-08
-1.7936235e-07 -1.5375467e-07 -4.960527e-08 -4.423136e-07 -1.218472e-06 -4.0562057e-07 -1.0451647e-06 -6.0031044e-07
-3.0589913e-06 -3.120487e-05 -0.0044418266 -0.0052259476 -0.0019726665 -0.006296793 -0.004134223 -0.0032322581
-0.0009449293 0.0 2.2233908e-06 -0.0013502622 -2.8427121e-05 -0.00039408338 -0.0023046215 -0.0048256405
-0.0034303218 -0.0009754705 -0.004192207 -0.0004395038 -0.005666181 -7.531392e-05 -0.00031102067 -0.005963557
-9.3187016e-05 -0.000110835186 -0.0002014526 -0.00022572621 -0.00011594004 -0.000524252 -0.0017425262 -0.0005987623
-0.0017626995 -0.00060263055 -0.011691444 -0.01080023 0.000276427 0.00033227578 0.00012769377 0.00044388493
0.0002882529 0.00021233526 6.0596147e-05 0.0 -3.4370967e-06 8.1893464e-05 2.698568e-06 2.517356e-05
0.00014667306 0.0003149653 0.0011237928 6.39122e-05 0.00028977697 3.0045041e-05 0.00035413264 4.6025025e-06
1.1370942e-05 0.0006572338 6.437987e-06 6.37273e-06 1.2705175e-05 1.4171277e-05 4.0531336e-06 4.53552e-05
0.00010981104 3.7284535e-05 9.883892e-05 4.0856397e-05 0.00059289095 0.0007814915 0.0 0.0
0.0 0.0 0.0 0.0 0.0 0.0 0.0 0.0
0.0 0.0 0.0 0.0 0.0 0.0 0.0 0.0

exp_avg_sq f4 [20, 34]
00000000: 9b45 9a1f 4456 0120 442c 931e de9f e51f
00000010: b305 3d1f aa50 191f e210 b71c 0000 0000
00000020: 0d13 991b 9036 211e 1b09 3118 ca2c 341c
00000030: d3dd cf1e 97cf 0120 3431 391f 1d16 9f1c
00000040: 5ca1 2021 25a2 791c 7c0f 0320 d941 c918
00000050: b438 301b 436b 2820 4190 1d1a 4f5e 361a
00000060: bf2b 031b a1da 661b 1c00 801b 8fa8 0318
00000070: eed3 0d1e fc28 731c 09bf 461e 1dad 2b1d
00000080: b075 9d20 2993 6b22 9c20 f932 4eea f232
00000090: f856 8831 2402 f332 f8ed 5f32 ec95 1c32
000000a0: fbf9 8730 0000 0000 bb52 2a2e 34c7 c730
000000b0: 63b7 b72b 69c7 2a2f 73c2 9531 8a15 ac32
000000c0: 9e1c 2135 6536 c930 f800 da31 7538 982f
000000d0: 7b68 1b33 9b63 8b2d 1acf 4930 f0e5 e232
000000e0: c5b2 892e 7135 762d 58de ed2e 5c35 8c2e
000000f0: e19b 8b2f 8db2 062f 4413 2631 914f a02f
00000100: bc42 dc31 f52c 782f ea06 4134 f6bd 1333
00000110: 15b5 6a35 904c 9335 a5bc 2c34 c446 a335
00000120: 434d 1f35 381b 0b35 8090 8333 0000 0000
00000130: 5dee dd31 4ead 5733 b398 162e 2613 dd31
00000140: 3a21 5f34 c916 7435 0325 de35 2188 8834
00000150: 1ac5 a437 4fc5 0332 3e65 9f35 dc56 a430
00000160: 85b5 3b30 b5dc 0636 a6f1 6d31 b0ba 0a30
00000170: deab 9b31 c71a 1d31 cc4d 4e31 c0bb 9e33
00000180: 317b 3534 a6aa a232 50af 2434 2520 4632
00000190: a01b 6135 7ee4 7035 f6cc 5631 0567 f830
000001a0: 7a15 b42f ecbb e531 403e 2e31 b5ed 7f2f
000001b0: fca9 872f 0000 0000 03fb 702c cea7 1e2f
000001c0: 5dba 192a c441 432d 177d 3130 942e ca30
000001d0: c646 4633 c473 392e 355b 5330 835b 702d
000001e0: 1652 2e31 1072 af29 7e1b 1a28 9ea4 cf30
000001f0: 19c6 bb2b b681 842b f327 db2b 76fd 582c
00000200: 0868 1a29 de55 ad28 b79f 952f 887a 172e
00000210: 3818 152f 0690 eb2d 0ff6 ad31 588d 6131
00000220: 9385 3a2f 4966 282f 80a7 ba2d ae83 c92f
00000230: 34c6 3e2f 4069 902e 3d60 bd2c 0000 0000
00000240: 5c76 222a f48f 7a2d 4069 9028 c17e 7c2b
00000250: 9e10 c12d 4a44 9e2e d8c1 ac2d b686 872d
00000260: f860 022e affb be2b 93f0 2f2f 95d8 3828
00000270: 95d8 3827 e73c ad2f 4069 9029 4912 5329
00000280: faeb a92a 55bb 792a aef3 cf28 342b 012c
00000290: ca0e 752d f240 d92b b64d 342d e7ed 6d2c
000002a0: 9e10 c12e 16f5 1c32 4c48 6437 72d2 a137
000002b0: aa1a 3836 cca0 e737 8c57 4737 b412 fa36
000002c0: 39c6 2835 0000 0000 812e 9331 bce5 ab35
000002d0: 5d33 1e30 e520 eb33 2fe9 7936 5aca 8a37
000002e0: b714 1d37 364f 4d35 f991 5237 c1a3 1234
000002f0: 5b87 bd37 5556 b231 593c 6834 5cfe cb37
00000300: f036 e431 4c88 1432 da29 0133 4235 1d33
00000310: 8434 5732 c035 eb34 492c 1136 1329 8934
00000320: 730d 1836 a596 8a34 fbd9 cc38 0183 b638
00000330: 71bc c233 581a 0034 c633 9932 7d36 6b34
00000340: 4538 c833 542d 4c33 5564 9431 0000 0000
00000350: 773d 8f2e 70cc f631 a57f 0a2d 97e5 3c30
00000360: a264 cd32 e494 e733 1dce 0536 8a34 9d31
00000370: c3e4 e533 b8ff 8530 4949 1434 5eef 032e
00000380: df65 0230 366d f534 b9d4 872e 5e47 452e
00000390: 79aa 3d2f 828d 6f2f 4db2 b52d c3f1 9e31
000003a0: f858 7c32 55b6 eb30 6f49 2e32 0acd 0a31
000003b0: 9d56 d434 b17a 4335 0000 0000 0000 0000
000003c0: 0000 0000 0000 0000 0000 0000 0000 0000
000003d0: 0000 0000 0000 0000 0000 0000 0000 0000
000003e0: 0000 0000 0000 0000 0000 0000 0000 0000
000003f0: 0000 0000 0000 0000 0000 0000 0000 0000
6.533669e-20 1.0955268e-19 1.5582538e-20 9.724975e-20 4.002702e-20 3.2465734e-20 1.2114288e-21 0.0
2.5324038e-22 8.534552e-21 2.288131e-24 5.9614893e-22 2.2008722e-20 1.0995411e-19 3.9215974e-20 1.0527454e-21
5.4423666e-19 8.2596756e-22 1.1101255e-19 5.202377e-24 1.45767e-22 1.4265643e-19 3.2583366e-23 3.77129e-23
1.0850201e-22 1.9095797e-22 2.1175894e-22 1.7016454e-24 7.508304e-21 8.0454927e-22 1.0521538e-20 2.272116e-21
2.6674714e-19 3.1926345e-18 2.9002244e-08 2.8279057e-08 3.968008e-09 2.8289897e-08 1.3034416e-08 9.114483e-09
9.893592e-10 0.0 3.8727004e-11 1.4535773e-09 1.3053832e-12 1.5532255e-10 4.358577e-09 2.003323e-08
6.001882e-07 1.4640135e-09 6.344745e-09 2.7688754e-10 3.6183774e-08 1.5846704e-11 7.3417683e-10 2.6414426e-08
6.2617946e-11 1.3995347e-11 1.08170084e-10 6.3759414e-11 2.539471e-10 1.2250663e-10 2.416713e-09 2.9160366e-10
6.4104295e-09 2.257144e-10 1.7977041e-07 3.4398873e-08 8.74353e-07 1.0974636e-06 1.6087377e-07 1.2165042e-06
5.9344546e-07 5.1821144e-07 6.126447e-08 0.0 6.4590453e-09 5.0216208e-08 3.4241675e-11 6.4341235e-09
2.0780581e-07 9.093024e-07 1.6551061e-06 2.543102e-07 1.9642106e-05 7.670066e-09 1.1875889e-06 1.1957257e-09
6.828816e-10 2.0096024e-06 3.46254e-09 5.0469406e-10 4.5306328e-09 2.2861728e-09 3.0021168e-09 7.3916e-08
1.6901755e-07 1.8936884e-08 1.5337469e-07 1.1532426e-08 8.385923e-07 8.9739467e-07 3.1257605e-09 1.8073655e-09
3.275707e-10 6.6861414e-09 2.5355718e-09 2.3276565e-10 2.4677138e-10 0.0 3.424539e-12 1.4429632e-10
1.3653788e-13 1.109907e-11 6.456999e-10 1.4710673e-09 4.6164836e-08 4.216695e-11 7.6890966e-10 1.366274e-11
2.5366993e-09 7.791348e-14 8.554679e-15 1.5108019e-09 1.3342132e-12 9.415166e-13 1.5571974e-12 3.0836145e-12
3.4285102e-14 1.9244097e-14 2.7216426e-10 3.4442255e-11 1.3560075e-10 2.6780366e-11 5.0629363e-09 3.2822154e-09
1.6964057e-10 1.531585e-10 2.1220137e-11 3.665525e-10 1.7350815e-10 6.567058e-11 5.3823877e-12 0.0
1.4429555e-13 1.4242819e-11 1.6032856e-14 8.970429e-13 2.194894e-11 7.197139e-11 1.964022e-11 1.5407547e-11
2.9644703e-11 1.3570168e-12 1.6001626e-10 1.02610156e-14 2.5652539e-15 3.151179e-10 6.4131426e-14 4.686727e-14
3.0184172e-13 2.2180637e-13 2.3087296e-14 1.8355985e-12 1.39299215e-11 1.5436803e-12 1.0249071e-11 3.3811788e-12
8.779576e-11 9.136121e-09 1.3606692e-05 1.9290692e-05 2.7433657e-06 2.7612223e-05 1.1881708e-05 7.452758e-06
6.287333e-07 0.0 4.28355e-09 1.2807354e-06 5.7553057e-10 1.0949024e-07 3.7239622e-06 1.654511e-05
9.362752e-06 7.648372e-07 1.2550962e-05 1.3656883e-07 2.2593586e-05 5.1902966e-09 2.1628638e-07 2.4317931e-05
6.641919e-09 8.645724e-09 3.0073217e-08 3.660285e-08 1.2526588e-08 4.381127e-07 2.163246e-06 2.5548124e-07
2.2657593e-06 2.581411e-07 9.76808e-05 8.702838e-05 9.068106e-08 1.1930513e-07 1.7835088e-08 2.1905903e-07
9.323461e-08 4.7538677e-08 4.3187733e-09 0.0 6.5138055e-11 7.182784e-09 7.872735e-12 6.872027e-10
2.3910903e-08 1.0783859e-07 1.9938518e-06 4.5752744e-09 1.0705255e-07 9.749703e-10 1.3810235e-07 2.9998552e-11
4.743849e-10 4.5714268e-07 6.1768764e-11 4.4856e-11 1.7250014e-10 2.1787197e-10 2.0656499e-11 4.6258903e-09
1.468856e-08 1.7150322e-09 1.014483e-08 2.0198194e-09 3.9551097e-07 7.28217e-07 0.0 0.0
0.0 0.0 0.0 0.0 0.0 0.0 0.0 0.0
0.0 0.0 0.0 0.0 0.0 0.0 0.0 0.0

exp_avg f4 [20, 5]
00000000: 3573 8fab 91b0 061d 0000 0000 8d26 5529
00000010: d65c bc2b 3a42 1135 93c4 c5b4 b37e 1913
00000020: 3ba3 16b3 12ef 362f ece5 6c98 05c1 8c20
00000030: ed2b f035 5d10 0080 e2ad b5b6 dbb6 28b4
00000040: f086 5d34 0000 0000 1577 46ae 0000 0000
00000050: 7337 07b3 20d8 2533 0000 0000 e8e5 2033
00000060: 01e7 822e f5f1 3ab8 2928 5936 dc99 c70a
00000070: 0245 1334 994d 4db6 fd46 d135 ed82 4ab6
00000080: 0000 0000 3d70 06ad db38 36ae 0000 0000
00000090: 0000 0000 0000 0000 0000 0000 0000 0000
000000a0: b8ed 1636 6703 0ab4 8d00 0080 e15b 08b6
000000b0: c16c 88b2 c2c2 0935 ddf7 c5b4 2ee0 5dab
000000c0: e43d a032 8699 f637 1e07 d90b 2116 0000
000000d0: 4442 0600 0000 0000 cd72 4520 0000 0000
000000e0: 0000 0000 0000 0000 0000 0000 0000 0000
000000f0: 7810 440f deba 3e8e 0000 0000 0000 0000
00000100: 0d8d 730f 184b 59b5 a4a2 4233 0400 0000
00000110: 87c5 c134 0a20 839b e56d 6038 434f ceb2
00000120: 6a1c eb88 a746 02af e572 0a38 fc55 35b9
00000130: f2ed 0c38 329e a616 c940 b1ad a4d1 d2b7
00000140: d233 8837 0536 7fb7 7483 79a0 5b8f 59b5
00000150: e9bd b7b5 0000 0000 0000 0000 0000 0000
00000160: 0000 0000 0000 0000 f666 8238 a1e7 28b7
00000170: 160b 0000 6ed7 deb7 263e 0fb6 a6df 99b7
00000180: 6470 05b4 8b6e b798 8dd7 0f36 37b9 aa38
-1.0192737e-12 1.7826035e-21 0.0 4.732894e-14 1.3383971e-12 5.411308e-07 -3.6837136e-07 1.9373782e-27
-3.5073054e-08 1.6637738e-10 -3.0618366e-24 2.3844652e-19 1.7894178e-06 -5.87e-42 -5.414463e-06 -1.5712742e-07
2.0631319e-07 0.0 -4.5125754e-11 0.0 -3.1482568e-08 3.861362e-08 0.0 3.7462e-08
5.95275e-11 -4.4571196e-05 3.2358896e-06 1.9220878e-32 1.3715547e-07 -3.0592548e-06 1.5592374e-06 -3.0176554e-06
0.0 -7.64194e-12 -4.1432507e-11 0.0 0.0 0.0 0.0 0.0
2.2490112e-06 -1.285349e-07 -1.98e-43 -2.031906e-06 -1.588194e-08 5.1319887e-07 -3.6874454e-07 -7.8826084e-13
1.8654596e-08 2.9396975e-05 8.359607e-32 7.938e-42 5.74785e-40 0.0 1.6724533e-19 0.0
0.0 0.0 0.0 0.0 9.666718e-30 -2.3509281e-30 0.0 0.0
1.20079904e-29 -8.0948075e-07 4.5317066e-08 6e-45 3.6092771e-07 -2.1692837e-22 5.350811e-05 -2.40176e-08
-1.4150228e-33 -1.1848532e-10 3.3008768e-05 -0.00017293537 3.3600205e-05 2.6918582e-25 -2.015134e-11 -2.5131572e-05
1.6236594e-05 -1.5211762e-05 -2.1134615e-19 -8.104741e-07 -1.3689834e-06 0.0 0.0 0.0
0.0 0.0 6.218061e-05 -1.0067511e-05 3.977e-42 -2.656478e-05 -2.1344836e-06 -1.8343166e-05
-1.2427478e-07 -4.741601e-24 2.1434128e-06 8.140731e-05

exp_avg_sq f4 [20, 5]
00000000: ed0e fc18 5c59 cf11 0000 0000 e4ab b514
00000010: cf8e 5919 aba1 c42b a9ba 1c2b 0000 0000
00000020: f273 2928 b1a6 cd1f 0000 0000 2cac 1009
00000030: ca4f 302d 0000 0000 24aa 842e 9462 0b2a
00000040: db62 702a 0000 0000 a83e 401e 0000 0000
00000050: 1986 2728 7f11 7c28 0000 0000 2935 6d28
00000060: 8cab 1c1f 3352 c330 3314 e92d 0000 0000
00000070: 28ed 282b 4d2b 1d2e 5847 a52c fcef 2f2d
00000080: 0000 0000 4631 ab21 bc47 821e 0000 0000
00000090: 0000 0000 0000 0000 0000 0000 0000 0000
000000a0: 9ae8 5b2d fe3e 0c2b 0000 0000 9b85 312d
000000b0: 9800 0028 1e18 292e 43b1 342b b192 0018
000000c0: a433 8e28 2c40 8230 0000 0000 0000 0000
000000d0: 0000 0000 0000 0000 747f 0703 0000 0000
000000e0: 0000 0000 0000 0000 0000 0000 0000 0000
000000f0: 0000 0000 0000 0000 0000 0000 0000 0000
00000100: 0000 0000 17f0 192c 1284 aa29 0000 0000
00000110: 5140 8c2b 7c8a 2225 03c2 8231 badc b82a
00000120: 0000 0000 4414 8a25 97aa e731 c4e0 d032
00000130: 1bdf 9830 0000 0000 4923 ce25 4888 ec30
00000140: 2bfe 1130 8eb3 d12f 80dd e708 7267 a92c
00000150: 5335 312f 0000 0000 0000 0000 0000 0000
00000160: 0000 0000 0000 0000 67c7 9531 ef9b 162f
00000170: 0000 0000 a212 5330 89a7 c62d 8258 ce2f
00000180: e565 a82f 0000 0000 0feb 892d f81c b631
6.5155544e-24 3.2713913e-28 0.0 1.8344128e-26 1.1247477e-23 1.397151e-12 5.5681376e-13 0.0
9.406526e-15 8.7096645e-20 0.0 1.7414324e-33 1.00221585e-11 0.0 6.032888e-11 1.2379881e-13
2.135058e-13 0.0 1.0177352e-20 0.0 9.29944e-15 1.3992604e-14 0.0 1.316767e-14
3.3176185e-20 1.421148e-09 2.6498003e-11 0.0 6.001471e-13 3.5736126e-11 4.697503e-12 1.00008855e-11
0.0 1.1600453e-18 1.3793954e-20 0.0 0.0 0.0 0.0 0.0
1.2500357e-11 4.982541e-13 0.0 1.00909515e-11 7.105556e-15 3.844757e-11 6.4194846e-13 1.6617672e-24
1.5787563e-14 9.476984e-10 0.0 0.0 0.0 0.0 3.9819243e-37 0.0
0.0 0.0 0.0 0.0 0.0 0.0 0.0 0.0
0.0 2.1875884e-12 7.572427e-14 0.0 9.96545e-13 1.409818e-16 3.8055545e-09 3.2838126e-13
0.0 2.3952916e-16 6.7423787e-09 2.4316599e-08 1.1122866e-09 0.0 3.5759214e-16 1.7209993e-09
5.3111887e-10 3.814446e-10 1.3954881e-33 4.8147536e-12 1.6117001e-10 0.0 0.0 0.0
0.0 0.0 4.35914e-09 1.3697819e-10 0.0 7.678783e-10 2.2584394e-11 3.753407e-10
3.0631422e-10 0.0 1.5679484e-11 5.3001905e-09

exp_avg f4 [20]
00000000: d65c bcab f69e 8a35 61cb fab6 3887 5db4
00000010: 4d8b 31b3 78ea 5fb8 d6ab 6536 0000 0000
00000020: a55f 1c36 bb7b 4b37 b8f4 24a2 0000 0000
00000030: 27d7 800f 1bad 80b5 5d43 f838 33f4 bcb9
00000040: b4b0 0a38 0000 0000 1cf7 8d38 2ae5 07b7
-1.3383971e-12 1.0328065e-06 -7.474257e-06 -2.0631421e-07 -4.1337717e-08 -5.338571e-05 3.422368e-06 0.0
2.3301484e-06 1.2128551e-05 -2.2355698e-18 0.0 1.2704648e-29 -9.587123e-07 0.00011838109 -0.00036040097
3.306633e-05 0.0 6.769432e-05 -8.0999835e-06

exp_avg_sq f4 [20]
00000000: 6b90 5919 3e3f 492c 6a22 032f 1a63 702a
00000010: 4069 9028 7915 0a31 2011 602d 0000 0000
00000020: 474e 642d f080 2830 1c2d bd06 0000 0000
00000030: 0000 0000 f001 752c 7d81 a932 894b e133
00000040: e81f 0331 0000 0000 15d5 ad31 4a9c af30
1.1247802e-23 2.8598924e-12 1.1926607e-10 2.1350665e-13 1.6032856e-14 2.0093849e-09 1.2736728e-11 0.0
1.29776806e-11 6.1301275e-10 7.116018e-35 0.0 0.0 3.481767e-12 1.9733074e-08 1.0491119e-07
1.9081146e-09 0.0 5.0591873e-09 1.2777346e-09

exp_avg f4 [20]
00000000: d65c bcab f69e 8a35 61cb fab6 3887 5db4
00000010: 4d8b 31b3 78ea 5fb8 d6ab 6536 0000 0000
00000020: a55f 1c36 bb7b 4b37 b8f4 24a2 0000 0000
00000030: 27d7 800f 1bad 80b5 5d43 f838 33f4 bcb9
00000040: b4b0 0a38 0000 0000 1cf7 8d38 2ae5 07b7
-1.3383971e-12 1.0328065e-06 -7.474257e-06 -2.0631421e-07 -4.1337717e-08 -5.338571e-05 3.422368e-06 0.0
2.3301484e-06 1.2128551e-05 -2.2355698e-18 0.0 1.2704648e-29 -9.587123e-07 0.00011838109 -0.00036040097
3.306633e-05 0.0 6.769432e-05 -8.0999835e-06

exp_avg_sq f4 [20]
00000000: 6b90 5919 3e3f 492c 6a22 032f 1a63 702a
00000010: 4069 9028 7915 0a31 2011 602d 0000 0000
00000020: 474e 642d f080 2830 1c2d bd06 0000 0000
00000030: 0000 0000 f001 752c 7d81 a932 894b e133
00000040: e81f 0331 0000 0000 15d5 ad31 4a9c af30
1.1247802e-23 2.8598924e-12 1.1926607e-10 2.1350665e-13 1.6032856e-14 2.0093849e-09 1.2736728e-11 0.0
1.29776806e-11 6.1301275e-10 7.116018e-35 0.0 0.0 3.481767e-12 1.9733074e-08 1.0491119e-07
1.9081146e-09 0.0 5.0591873e-09 1.2777346e-09

exp_avg f4 [2, 5]
00000000: 9629 4dbd 6c69 543c 6ead bd3a 9993 763b
00000010: 1470 06bb 9629 4d3d 6a69 54bc 69ad bdba
00000020: 9793 76bb 1570 063b
-0.050088488 0.012964588 0.0014471242 0.0037624596 -0.002051358 0.050088488 -0.012964586 -0.0014471236
-0.0037624591 0.0020513583

exp_avg_sq f4 [2, 5]
00000000: 650c e33a 079e fc38 7473 9136 7e95 5937
00000010: 6bca 4537 650c e33a 069e fc38 7373 9136
00000020: 7e95 5937 69ca 4537
0.001732242 0.00012045731 4.3347773e-06 1.2969014e-05 1.1789244e-05 0.001732242 0.000120457305 4.334777e-06
1.2969014e-05 1.1789242e-05

exp_avg f4 [2]
00000000: 466b b7be 456b b73e
-0.3582403 0.35824028

exp_avg_sq f4 [2]
00000000: 0f9e a63d 0e9e a63d
0.08135616 0.08135615
