MimicApp/lightning_logs/version_28/checkpoints/epoch=9-step=99.ckpt (torch, 15916 bytes, 18 tensors)

lstm.weight_ih_l0 f4 [20, 34]
0	0x3e3a5569	0.18196644
1	0x3ec3b76d	0.3822588
2	0x3ec2b729	0.38030365
3	0x3e87a2ac	0.26491296
4	0x3ddf51b6	0.10904257
5	0x3e42d515	0.19026597
6	0xbe84663d	-0.25859252
7	0xbe0dad06	-0.13835534
8	0x3e862c67	0.2620575
9	0xbe703571	-0.23457886
10	0x3e348d6c	0.17632073
11	0x3e9c4e97	0.3052871
12	0xbeda6452	-0.42654663
13	0x3ec552fd	0.38539878
14	0x3e12b9e3	0.14328723
15	0x3ebbe0ca	0.36694938
16	0xbe90f4f1	-0.28311875
17	0x3eea8380	0.45803452
18	0x3e89ea7e	0.26936716
19	0xbe99cbb0	-0.30038214
20	0x3e774b1f	0.2414975
21	0x3ea7cc47	0.3277304
22	0xbe885402	-0.26626593
23	0x3ed14fad	0.408811
24	0x3e09334c	0.13398474
25	0x3ea5e99b	0.3240479
26	0xbe9aae55	-0.3021113
27	0x3d0ad4bc	0.033894286
28	0x3e2c0fb8	0.16802871
29	0xbb3baaa0	-0.0028635636
30	0x3e30a93e	0.17252061
31	0x3edcbb46	0.43111628
32	0xbdbfc4e8	-0.09363729
33	0xbea19e1a	-0.31565934
34	0x3e1a518c	0.1507017
35	0xbe7a841f	-0.24464463
36	0xbec7595c	-0.38935363
37	0xbe47cb4e	-0.19511148
38	0xbed36182	-0.4128533
39	0x3d5b9270	0.05360645
40	0x3eb56ff2	0.3543697
41	0x3ecbb478	0.39786124
42	0x3e0c5010	0.13702416
43	0x3e8fe424	0.28103745
44	0x3e3002fc	0.17188638
45	0xbe24de5e	-0.16100451
46	0x3dd85ba8	0.10564357
47	0xbedebf83	-0.43505487
48	0xbe8f518b	-0.279919
49	0x3db9dd88	0.09075457
50	0xbe04b934	-0.12961274
51	0x3ea18f9c	0.31554878
52	0xbd7cf0c8	-0.061753064
53	0x3dd0aec8	0.10189587
54	0x3e9da7ba	0.30792028
55	0x3e7cd204	0.2468949
56	0x3e75424c	0.23951072
57	0xbe409386	-0.18806276
58	0x3e81e2f2	0.25368458
59	0xbe168602	-0.14699557
60	0xbc0db380	-0.008648753
61	0xbd2071e0	-0.0391711
62	0xbededbc9	-0.43527058
63	0xbe0d9cf4	-0.13829404
64	0x3ebc7618	0.36808848
65	0xbea803b0	-0.32815313
66	0x3da7c7f8	0.08192438
67	0xbedbda5c	-0.42940032
68	0x3ec103b8	0.3769815
69	0x3e32e764	0.17471081
70	0x3e04764d	0.12935753
71	0xbda8511e	-0.08218597
72	0xbedef3bd	-0.43545333
73	0xbece3578	-0.40275168
74	0x3e5cafd1	0.21551444
75	0x3e20ad78	0.15691173
76	0x3e849a2b	0.2589887
77	0x3d99c694	0.07508579
78	0x3e9f4ffa	0.31115705
79	0xbea2679c	-0.31719673
80	0x3e6ced80	0.23137474
81	0xbed0f729	-0.40813568
82	0x3e990ea2	0.29893976
83	0x3e0bbaac	0.13645428
84	0x3e0c93ba	0.13728228
85	0x3eba3242	0.3636647
86	0x3e909358	0.28237414
87	0xbe2d7fd6	-0.16943297
88	0x3ee42c62	0.4456511
89	0xbe3d1ec9	-0.18468775
90	0x3e9b3556	0.3031413
91	0xbdba65e3	-0.091014646
92	0xbeb97f75	-0.36230054
93	0xbebb66b6	-0.366018
94	0x3edb25be	0.42802233
95	0xbda31e2a	-0.07964738
96	0x3e94047d	0.28909674
97	0xbd12b2a4	-0.035814896
98	0x3e912b4a	0.2835334
99	0x3e847a01	0.25874332
100	0xbece6bc5	-0.40316597
101	0x3e14b015	0.14520295
102	0x3ef82ecc	0.48473203
103	0xbe8fb700	-0.28069305
104	0x3e3658e1	0.17807342
105	0x3e8fd9ca	0.28095847
106	0x3e2321a4	0.15930802
107	0x3ed1317f	0.40858075
108	0x3eee0de9	0.46494988
109	0xbede21ea	-0.4338525
110	0xbecd8ad3	-0.40144977
111	0xbec2b551	-0.38028958
112	0x3ece6099	0.40308073
113	0x3ea5d85f	0.3239164
114	0xbeafde9a	-0.3434952
115	0x3dd1ed6a	0.10250361
116	0xbc147054	-0.009059984
117	0x3e984ff6	0.29748505
118	0xbe8f595f	-0.27997872
119	0x3e16cd7a	0.1472682
120	0xbe8edf55	-0.27904764
121	0xbe3e203b	-0.18566982
122	0xbe020ce9	-0.12700237
123	0x3eb6ba9f	0.35689256
124	0xbeb392c0	-0.350729
125	0x3e0c310c	0.13690585
126	0x3dc92020	0.098205805
127	0x3e02ad74	0.1276148
128	0x3d5a7b93	0.053340506
129	0x3eac1f2f	0.3361754
130	0x3dc3e2e2	0.09564759
131	0xbde3aeb7	-0.111173086
132	0x3efb9375	0.49135938
133	0xbdf0f444	-0.1176534
134	0x3e873664	0.26408684
135	0xbeb59890	-0.35467958
136	0xbe561f8b	-0.2091047
137	0xbcc36a70	-0.023854464
138	0x3d5e4ac0	0.054270506
139	0xbee1b65a	-0.44084436
140	0x3e6da810	0.23208642
141	0xbe7dbb9c	-0.24778599
142	0xbcdd29f0	-0.026997536
143	0xbe0c651a	-0.13710442
144	0xbedb0601	-0.42778018
145	0x3ebaaa40	0.36458015
146	0x3e147dd0	0.14501119
147	0xbe8b32e6	-0.2718727
148	0xbe47cf22	-0.19512609
149	0x3e91743c	0.28408992
150	0xbd8770d0	-0.06613314
151	0x3e732700	0.23745346
152	0xbea2fb32	-0.31832272
153	0xbece386b	-0.40277418
154	0x3de2c3e0	0.110725164
155	0x3dc0e3d0	0.09418452
156	0xbebcf946	-0.3690893
157	0x3dad07d8	0.08448762
158	0xbec06f88	-0.37585092
159	0xbe9ca792	-0.30596596
160	0xbaefc700	-0.001829356
161	0x3ea44116	0.32080907
162	0xbea1731e	-0.3153314
163	0xbe00af0e	-0.12566778
164	0x3c99ad80	0.018759489
165	0xbeb2df13	-0.34935817
166	0x3e8d9a38	0.27656722
167	0xbdee3504	-0.11631206
168	0x3d899d18	0.067194164
169	0xbe2a16d0	-0.16610265
170	0x3ebd7aba	0.37007695
171	0xbe3df2d8	-0.18549669
172	0x3c9c5530	0.01908359
173	0xbe017d19	-0.12645377
174	0xbe230796	-0.15920863
175	0xbe39b09a	-0.18133774
176	0x3e9fae14	0.311875
177	0x3e934bda	0.28768808
178	0x3e28f000	0.16497803
179	0x3ccb7be2	0.024839345
180	0xbec9605c	-0.3933133
181	0x3c245aa1	0.010031373
182	0x3eb62739	0.355768
183	0xbea51280	-0.32240677
184	0x3e25dd73	0.16197757
185	0xbea0f81c	-0.31439292
186	0xbca1e940	-0.019764543
187	0x3e13a3f3	0.1441801
188	0x3d46d043	0.048538458
189	0xbec71c96	-0.38888997
190	0xbe757891	-0.23971774
191	0x3de44dc9	0.11147649
192	0xbe0bd48d	-0.136553
193	0xbe759f51	-0.23986556
194	0xbe5a3565	-0.21309431
195	0xbe7366a7	-0.23769628
196	0xbecc7714	-0.399346
197	0x3eae3c54	0.34030402
198	0x3e9eaf0f	0.30992934
199	0x3e753fdf	0.23950146
200	0x3ee2971e	0.44255918
201	0xbd8cab91	-0.06868661
202	0x3e795d63	0.2435203
203	0x3e366898	0.17813337
204	0xbee3dbf8	-0.4450376
205	0x3ecec150	0.4038186
206	0x3deb1058	0.11477727
207	0x3eb755ac	0.3580755
208	0xbd216558	-0.03940329
209	0x3e845432	0.25845486
210	0x3e901f82	0.2814904
211	0x3eacc9a4	0.3374759
212	0xbeb71ada	-0.35762674
213	0x3ec9e6e4	0.39433968
214	0x3e7e35c4	0.24825197
215	0x3ed86efe	0.4227218
216	0x3e8af430	0.27139425
217	0x3edb06b8	0.42778563
218	0xbe2e109e	-0.16998526
219	0xbebf6ec0	-0.37389183
220	0xbd75cce8	-0.060009867
221	0xbe968db0	-0.29404974
222	0x3d61e0b0	0.05514592
223	0xbe3b0b3e	-0.18266007
224	0x3e6022a4	0.21888214
225	0xbdb30e48	-0.08742958
226	0xbc8d59d0	-0.01725474
227	0x3e86a342	0.2629643
228	0x3e590f9c	0.21197361
229	0x3da240a0	0.079224825
230	0x3dca7ee8	0.09887487
231	0x3e8ad236	0.27113503
232	0x3e21a6dc	0.15786308
233	0x3d326998	0.043557733
234	0xbe258b3e	-0.16166398
235	0x3ea79352	0.32729584
236	0xbe986fb4	-0.29772723
237	0xbeafe388	-0.3435328
238	0x3ecd8bcb	0.40145716
239	0xbedd42f9	-0.4321516
240	0xbed1530b	-0.4088367
241	0x3e4d7e16	0.20067629
242	0xbdba0274	-0.09082499
243	0x3db35d2d	0.08758006
244	0x3d3653d9	0.044513557
245	0xbece0bec	-0.4024347
246	0x3e9d1415	0.30679384
247	0xbeda0877	-0.42584583
248	0xbea2e5f3	-0.31816062
249	0x3ea2daa2	0.3180743
250	0xbd48c01d	-0.04901134
251	0x3e5dda2e	0.2166526
252	0x3e355988	0.17709935
253	0xbee0ea28	-0.43928647
254	0x3e836284	0.256611
255	0x3dba2fdb	0.09091159

lstm.weight_hh_l0 f4 [20, 5]
0	0x3dadb8a3	0.08482482
1	0xbe03dace	-0.12876436
2	0x3d975335	0.07388917
3	0xbdf6c666	-0.1204956
4	0xbe22667c	-0.15859407
5	0xbee1e8e6	-0.44123
6	0xbed0af92	-0.4075895
7	0x3e5d1990	0.21591783
8	0x3edfdda8	0.43723798
9	0xbeb6271c	-0.35576713
10	0xbe74ed4a	-0.23918644
11	0x3e17fc90	0.14842439
12	0x3ea25aa2	0.31709772
13	0x3e8842c8	0.2661345
14	0xbd00c1a8	-0.031434685
15	0x3e7509bb	0.23929493
16	0x3ec645d4	0.3872515
17	0x3d82c1ff	0.06384658
18	0xbd1d9052	-0.038467713
19	0xbebfbc74	-0.37448466
20	0x3e82e384	0.25564206
21	0xbea6834a	-0.3252204
22	0x3d3149e0	0.043283343
23	0xbe21f5aa	-0.1581637
24	0xbdc83edc	-0.097776145
25	0x3e736823	0.23770194
26	0x3ec5aa6e	0.3860659
27	0xbdccbc10	-0.099968076
28	0xbe90f190	-0.28309298
29	0xbebfdf37	-0.37474987
30	0xbd7f34a8	-0.062306076
31	0xbca27330	-0.019830316
32	0x3e0e9764	0.13924938
33	0xbe923a2b	-0.28560004
34	0xbba0d840	-0.0049085915
35	0xbeeb6dba	-0.45982152
36	0x3d89d030	0.06729162
37	0xbea24941	-0.31696513
38	0x3ea05b60	0.31319714
39	0xbdf8d1f4	-0.121494204
40	0x3e1811ca	0.14850536
41	0x3ea12c14	0.3147894
42	0xbd0f5150	-0.034989655
43	0xbd5e0162	-0.054200538
44	0xbee4029e	-0.44533247
45	0xbeab1526	-0.33414572
46	0x3e9e757c	0.30949008
47	0xbeab9b1e	-0.33516783
48	0x3e79e3fc	0.24403375
49	0xbe9c550a	-0.3053363
50	0xbdee9aaa	-0.116505936
51	0x3e90349c	0.28165138
52	0x3eae5c8f	0.34054992
53	0x3e8caefb	0.2747725
54	0x3ee45406	0.44595355
55	0xbec38a44	-0.38191426
56	0xbece5efa	-0.40306836
57	0x3ea2bcca	0.3178466
58	0xbe851119	-0.25989607
59	0xbdff8c14	-0.1247789
60	0xbe193438	-0.14961326
61	0xbcd3de60	-0.025862873
62	0xbe32179f	-0.17391823
63	0xbeccaada	-0.399741
64	0xbdb9038c	-0.0903388
65	0xbe24c982	-0.16092494
66	0x3e0beb8c	0.13664073
67	0x3ed49590	0.41520357
68	0xbeaa0731	-0.33208612
69	0x3d640850	0.05567199
70	0x3e0677f8	0.13131702
71	0xbb728e00	-0.0037010908
72	0x3e026b08	0.12736142
73	0xbec5ea22	-0.38655192
74	0xbd12a7a0	-0.03580439
75	0x3e52f361	0.20600654
76	0x3ed7e582	0.42167288
77	0xbbb02218	-0.005375158
78	0x3eeed6bd	0.46648207
79	0x3e322a2c	0.173989
80	0xbe69d1b5	-0.22833903
81	0xbea39c4e	-0.3195519
82	0xbe6d9be2	-0.23203996
83	0xbe6877ca	-0.22701946
84	0x3ded82f0	0.1159724
85	0xbeace445	-0.33767906
86	0x3d2f34b8	0.042774886
87	0x3e868de7	0.26280138
88	0x3e226421	0.15858509
89	0xbdb83014	-0.08993545
90	0x3e1b3bc1	0.15159513
91	0xbe41693a	-0.18887797
92	0xbd9f1aa1	-0.07768751
93	0x3d22630e	0.039645247
94	0x3ea9782e	0.33099502
95	0x3e466dcc	0.19377822
96	0x3e850ec8	0.2598784
97	0x3ec87b24	0.3915645
98	0x3da5dfa0	0.08099294
99	0x3e4eb1a4	0.20184952

lstm.bias_ih_l0 f4 [20]
0	0xbeba4b2f	-0.36385486
1	0xbdc32e74	-0.095303446
2	0xbe314191	-0.17310168
3	0x3ef18f53	0.4717966
4	0xbed138d4	-0.4086367
5	0x3eacf3f0	0.3377986
6	0x3ea23302	0.3167954
7	0x3d81b714	0.063337475
8	0x3eae775d	0.34075442
9	0x3ebfdd08	0.3747332
10	0x3dbdf3d2	0.09275021
11	0xbdbe022c	-0.09277758
12	0x3c62de65	0.013846968
13	0xbeac40eb	-0.33643278
14	0xbe7b523b	-0.24543087
15	0x3e9156fc	0.28386676
16	0x3ccb0b30	0.024785608
17	0xbe854ef4	-0.260368
18	0x3ea036f4	0.31291926
19	0x3eba4578	0.36381125

lstm.bias_hh_l0 f4 [20]
0	0xbe5658b3	-0.20932274
1	0xbe815a8a	-0.25264388
2	0x3eb59d34	0.354715
3	0xbe88c741	-0.2671452
4	0xbedcea1a	-0.43147355
5	0xbda7bc55	-0.08190218
6	0xbebcc090	-0.36865664
7	0xbdeff260	-0.11716151
8	0x3d9abd4d	0.075556375
9	0xbe450176	-0.19238839
10	0x3e04cd6a	0.12968984
11	0x3e64477c	0.22292894
12	0x3ee507a1	0.44732383
13	0xbe310820	-0.17288256
14	0xbed62832	-0.41827542
15	0x3ee837ce	0.45355076
16	0xbea3205e	-0.31860632
17	0xbc18d917	-0.009329102
18	0xbc903392	-0.017602716
19	0xbebe2066	-0.37134093

linear.weight f4 [2, 5]
0	0x3eb50551	0.3535562
1	0xbe14896a	-0.14505544
2	0x3e9ff707	0.31243154
3	0x3f0ace9d	0.54221517
4	0x3e489e78	0.19591701
5	0xbe04fb07	-0.12986384
6	0xbde4bb28	-0.1116851
7	0xbebc7267	-0.36806032
8	0xbea51201	-0.32240298
9	0x3d9449d0	0.07240641

linear.bias f4 [2]
0	0x3d008f7f	0.03138685
1	0x3dfc502e	0.123199806

exp_avg f4 [20, 34]
0	0xb8a6e7a6	-7.958645e-05
1	0xb8f7e919	-0.000118212956
2	0xb839b366	-4.4274515e-05
3	0xb8f4af1d	-0.00011667444
4	0xb896ab8a	-7.184509e-05
5	0xb89896d0	-7.276016e-05
6	0xb7a94b80	-2.0181527e-05
7	0x00000000	0.0
8	0xb632f6c2	-2.66677e-06
9	0xb810e530	-3.4545723e-05
10	0xb58b1cd9	-1.0364703e-06
11	0xb716e60f	-8.994261e-06
12	0xb81a540d	-3.679474e-05
13	0xb897053c	-7.201216e-05
14	0xb9b8d0ed	-0.00035250877
15	0xb72e0052	-1.0371283e-05
16	0xba420781	-0.0007401631
17	0xb7201559	-9.541714e-06
18	0xb9095911	-0.00013098518
19	0xb4068477	-1.2527913e-07
20	0x34e3fa28	4.2464058e-07
21	0xb8e9b50b	-0.00011144028
22	0xb6321dd2	-2.6541425e-06
23	0xb5f0acdd	-1.7931703e-06
24	0xb6913815	-4.3278656e-06
25	0xb66c5d06	-3.5220887e-06
26	0xb5918f9b	-1.0845137e-06
27	0xb528af7e	-6.284025e-07
28	0xb80d06d8	-3.3623393e-05
29	0xb7287032	-1.0039703e-05
30	0xb8621ef0	-5.391141e-05
31	0xb6281117	-2.5043898e-06
32	0xba1658b8	-0.0005735266
33	0xb7fef7a4	-3.0394476e-05
34	0x800000ac	-2.41e-43
35	0x80000065	-1.42e-43
36	0x80000037	-7.7e-44
37	0x80000072	-1.6e-43
38	0x8000005d	-1.3e-43
39	0x80000064	-1.4e-43
40	0x8000001d	-4e-44
41	0x00000000	0.0
42	0x00000005	7e-45
43	0x80000028	-5.6e-44
44	0x80000004	-6e-45
45	0x8000000b	-1.5e-44
46	0x80000041	-9.1e-44
47	0x80000090	-2.02e-43
48	0x8000000e	-2e-44
49	0x8000001f	-4.3e-44
50	0x80000039	-8e-44
51	0x8000000c	-1.7e-44
52	0x80000092	-2.05e-43
53	0x80000004	-6e-45
54	0x80000021	-4.6e-44
55	0x800000d2	-2.94e-43
56	0x80000004	-6e-45
57	0x80000004	-6e-45
58	0x80000007	-1e-44
59	0x80000007	-1e-44
60	0x80000004	-6e-45
61	0x80000014	-2.8e-44
62	0x80000031	-6.9e-44
63	0x80000010	-2.2e-44
64	0x800000de	-3.11e-43
65	0x8000002a	-5.9e-44
66	0x8000011c	-3.98e-43
67	0x80000067	-1.44e-43
68	0xaadf2f74	-3.9645685e-13
69	0xaacc5bb0	-3.63013e-13
70	0xaa18872a	-1.3547206e-13
71	0xab2e987e	-6.2028843e-13
72	0xaac7e3ba	-3.5507518e-13
73	0xaa8dc6aa	-2.5184482e-13
74	0xa96d6ce3	-5.2719016e-14
75	0x00000000	0.0
76	0x22e0643a	6.082144e-18
77	0xa9dda174	-9.842379e-14
78	0xa7035952	-1.8228323e-15
79	0xa8f10660	-2.675914e-14
80	0xaa491d03	-1.7862452e-13
81	0xaaa22245	-2.880076e-13
82	0xab222239	-5.7601455e-13
83	0xa9fe744a	-1.1300039e-13
84	0xaa7e7d04	-2.2603105e-13
85	0xa90d3390	-3.1353013e-14
86	0xaae7e93e	-4.1195687e-13
87	0xa7c505fa	-5.4684964e-15
88	0xa6d228c5	-1.4582728e-15
89	0xab17dea4	-5.395495e-13
90	0xa80a0125	-7.660787e-15
91	0xa8107893	-8.019751e-15
92	0xa889efc8	-1.5314044e-14
93	0xa89a575e	-1.7135324e-14
94	0xa8f99016	-2.770704e-14
95	0xa71d9e5f	-2.187398e-15
96	0xa9bb2cca	-8.312238e-14
97	0xa9084643	-3.025901e-14
98	0xaa0012c0	-1.1375189e-13
99	0xa8f99420	-2.7708792e-14
100	0xab11b23b	-5.1761693e-13
101	0xaa61c2f4	-2.0051652e-13
102	0xbc24a56a	-0.010049203
103	0xbc356068	-0.011070348
104	0xbb88dd3b	-0.0041767634
105	0xbc8b9108	-0.01703693
106	0xbc3b1fa9	-0.011421123
107	0xbbca5d3a	-0.0061756643
108	0xbb337e81	-0.0027388635
109	0x00000000	0.0
110	0xb888abe8	-6.5170054e-05
111	0xbb504530	-0.003177952
112	0xb8626a5c	-5.3981654e-05
113	0xba5adde4	-0.00083491043
114	0xbb958fe9	-0.0045642746
115	0xbc2fffcc	-0.010742139
116	0xbd2c9128	-0.04213062
117	0xbb0b017b	-0.00212106
118	0xbc99e03a	-0.018783677
119	0xba827f68	-0.0009956183
120	0xbc3af289	-0.011410364
121	0xb8f1755a	-0.00011513634
122	0xb989829d	-0.0002622799
123	0xbcb77659	-0.0223953
124	0xb9360176	-0.00017357417
125	0xb96bb37b	-0.00022478208
126	0xb9ef16b0	-0.00045602536
127	0xb9fa9428	-0.000477941
128	0xb913af70	-0.00014084368
129	0xba63aebf	-0.0008685402
130	0xbb789fb4	-0.0037936987
131	0xba9e2da8	-0.001206805
132	0xbb8081fb	-0.003921745
133	0xbac0a3f8	-0.0014697304
134	0xbc8f826e	-0.017518248
135	0xbd4e38e9	-0.050347243
136	0x00000000	0.0
137	0x00000000	0.0
138	0x00000000	0.0
139	0x00000000	0.0
140	0x00000000	0.0
141	0x00000000	0.0
142	0x00000000	0.0
143	0x00000000	0.0
144	0x00000000	0.0
145	0x00000000	0.0
146	0x00000000	0.0
147	0x00000000	0.0
148	0x00000000	0.0
149	0x00000000	0.0
150	0x00000000	0.0
151	0x00000000	0.0
152	0x00000000	0.0
153	0x00000000	0.0
154	0x00000000	0.0
155	0x00000000	0.0
156	0x00000000	0.0
157	0x00000000	0.0
158	0x00000000	0.0
159	0x00000000	0.0
160	0x00000000	0.0
161	0x00000000	0.0
162	0x00000000	0.0
163	0x00000000	0.0
164	0x00000000	0.0
165	0x00000000	0.0
166	0x00000000	0.0
167	0x00000000	0.0
168	0x00000000	0.0
169	0x00000000	0.0
170	0xb6689234	-3.4655795e-06
171	0xb6a31817	-4.860583e-06
172	0xb5ec0337	-1.7584306e-06
173	0xb697e872	-4.527211e-06
174	0xb647ef98	-2.9792773e-06
175	0xb61c3b60	-2.3280372e-06
176	0xb564598d	-8.506693e-07
177	0x00000000	0.0
178	0x34b4005b	3.352787e-07
179	0xb4d08ce5	-3.8845533e-07
180	0xb2d0c6e7	-2.4304837e-08
181	0xb4c135c4	-3.598817e-07
182	0xb5a49574	-1.2262449e-06
183	0xb68d57de	-4.2123565e-06
184	0xb577ec36	-9.23584e-07
185	0xb6ec74a4	-7.046927e-06
186	0xb56adfbc	-8.749737e-07
187	0xb4b94a1e	-3.4512863e-07
188	0xb6ab4329	-5.1040156e-06
189	0xb494c0eb	-2.7707515e-07
190	0xb594c0eb	-1.1083006e-06
191	0xb68f88bf	-4.2776514e-06
192	0xb390dd87	-6.745818e-08
193	0xb3bbf1d2	-8.751853e-08
194	0xb4e30b84	-4.2290424e-07
195	0xb47ab0e4	-2.3347417e-07
196	0xb5c4617e	-1.4631512e-06
197	0xb53175dc	-6.6109146e-07
198	0xb5b4a794	-1.3459817e-06
199	0xb4f4e92a	-4.561819e-07
200	0xb60e8e35	-2.1242424e-06
201	0xb56c2dcf	-8.798351e-07
202	0xb712cbdc	-8.749743e-06
203	0xb61fd849	-2.381874e-06
204	0x80000004	-6e-45
205	0x80000004	-6e-45
206	0x80000004	-6e-45
207	0x80000004	-6e-45
208	0x80000004	-6e-45
209	0x80000004	-6e-45
210	0x80000004	-6e-45
211	0x00000000	0.0
212	0x00000004	6e-45
213	0x80000004	-6e-45
214	0x00000000	0.0
215	0x80000004	-6e-45
216	0x80000004	-6e-45
217	0x80000004	-6e-45
218	0x80000004	-6e-45
219	0x80000004	-6e-45
220	0x80000004	-6e-45
221	0x80000004	-6e-45
222	0x80000004	-6e-45
223	0x00000000	0.0
224	0x80000004	-6e-45
225	0x80000004	-6e-45
226	0x80000004	-6e-45
227	0x00000000	0.0
228	0x80000004	-6e-45
229	0x80000004	-6e-45
230	0x00000000	0.0
231	0x80000004	-6e-45
232	0x80000004	-6e-45
233	0x80000004	-6e-45
234	0x80000004	-6e-45
235	0x80000004	-6e-45
236	0x80000004	-6e-45
237	0x80000004	-6e-45
238	0x38455f84	4.7057416e-05
239	0x38505bf7	4.9676713e-05
240	0x379ba5b7	1.8554607e-05
241	0x38a03a94	7.6403056e-05
242	0x384d076f	4.888273e-05
243	0x3802473b	3.1060754e-05
244	0x37156f7f	8.907052e-06
245	0x00000000	0.0
246	0xb5b57a31	-1.3521113e-06
247	0x37578c0a	1.2847604e-05
248	0x349cb24f	2.9187e-07
249	0x367ff8af	3.8142714e-06
250	0x3798269c	1.813779e-05
251	0x385412e4	5.0562332e-05
252	0x398e178b	0.00027101891
253	0x36e5883b	6.840591e-06
254	0x38003e62	3.0575677e-05
255	0x36a00d91	4.769951e-06

exp_avg_sq f4 [20, 34]
0	0x33f66e81	1.1475368e-07
1	0x344fb4fe	1.9344222e-07
2	0x32ea00d1	2.7241557e-08
3	0x34ceb1d3	3.8499874e-07
4	0x343a38ac	1.7343217e-07
5	0x3390da32	6.745212e-08
6	0x31d8772f	6.299977e-09
7	0x00000000	0.0
8	0x2f911d36	2.6396102e-10
9	0x32600c5a	1.30413245e-08
10	0x2d47454e	1.1327229e-11
11	0x3097e779	1.1052484e-09
12	0x33242e0f	3.8226116e-08
13	0x3435a5f0	1.6917306e-07
14	0x35b4a5d0	1.3459303e-06
15	0x3184ba0d	3.862857e-09
16	0x366c920f	3.5251758e-06
17	0x30d6e70e	1.5636219e-09
18	0x347c1a2d	2.3478852e-07
19	0x2dcc92ca	2.3257302e-11
20	0x2f15a51a	1.3610127e-10
21	0x3461e988	2.1039716e-07
22	0x2e513246	4.756575e-11
23	0x2e9eb1b7	7.2165766e-11
24	0x2f6134f5	2.0482445e-10
25	0x2fd6c7c9	3.906833e-10
26	0x2eba697b	8.477038e-11
27	0x327313fe	1.4149007e-08
28	0x32c8332c	2.3306335e-08
29	0x312e7870	2.5388793e-09
30	0x339d3e6d	7.3222374e-08
31	0x3194e5c9	4.3334905e-09
32	0x359e2b98	1.1784605e-06
33	0x365ef9a8	3.3225897e-06
34	0x00000000	0.0
35	0x00000000	0.0
36	0x00000000	0.0
37	0x00000000	0.0
38	0x00000000	0.0
39	0x00000000	0.0
40	0x00000000	0.0
41	0x00000000	0.0
42	0x00000000	0.0
43	0x00000000	0.0
44	0x00000000	0.0
45	0x00000000	0.0
46	0x00000000	0.0
47	0x00000000	0.0
48	0x00000000	0.0
49	0x00000000	0.0
50	0x00000000	0.0
51	0x00000000	0.0
52	0x00000000	0.0
53	0x00000000	0.0
54	0x00000000	0.0
55	0x00000000	0.0
56	0x00000000	0.0
57	0x00000000	0.0
58	0x00000000	0.0
59	0x00000000	0.0
60	0x00000000	0.0
61	0x00000000	0.0
62	0x00000000	0.0
63	0x00000000	0.0
64	0x00000000	0.0
65	0x00000000	0.0
66	0x00000000	0.0
67	0x00000000	0.0
68	0x232081bb	8.701089e-18
69	0x230691cf	7.295031e-18
70	0x2195ee64	1.0159734e-18
71	0x23c47412	2.129952e-17
72	0x2300bfa2	6.979474e-18
73	0x228189cd	3.5111422e-18
74	0x2035a502	1.5385893e-19
75	0x00000000	0.0
76	0x1321cb29	2.0421223e-27
77	0x211e4751	5.362687e-19
78	0x1b5e5ea7	1.8393993e-22
79	0x1f3b3112	3.963938e-20
80	0x22025485	1.766303e-18
81	0x22a9690b	4.591876e-18
82	0x23a9690b	1.8367504e-17
83	0x2150a1e9	7.068743e-19
84	0x2250b053	2.8282602e-18
85	0x1f807d95	5.4417867e-20
86	0x232d4d95	9.3947774e-18
87	0x1cfa2a7c	1.6554594e-21
88	0x1b0e510e	1.1772155e-22
89	0x2394a3c7	1.6115555e-17
90	0x1d7579e1	3.248849e-21
91	0x1d868295	3.5604523e-21
92	0x1e753c25	1.298263e-20
93	0x1e99846f	1.6254278e-20
94	0x1f48b04b	4.2497473e-20
95	0x1ba01b2e	2.6487344e-22
96	0x20e1c80b	3.824886e-19
97	0x1f6f5c30	5.0686474e-20
98	0x21536ab0	7.163078e-19
99	0x1f48b6cb	4.250285e-20
100	0x2388cd16	1.4832007e-17
101	0x22243bc7	2.225779e-18
102	0x382078de	3.825954e-05
103	0x3836b1aa	4.3557644e-05
104	0x36d2916d	6.2754175e-06
105	0x38b9a072	8.851373e-05
106	0x382295b8	3.8763246e-05
107	0x37a5b6de	1.9754687e-05
108	0x36171036	2.251019e-06
109	0x00000000	0.0
110	0x3306d341	3.139144e-08
111	0x36537e29	3.1514885e-06
112	0x30dff074	1.6293726e-09
113	0x34864166	2.500703e-07
114	0x371275e3	8.729726e-06
115	0x3826f582	3.980613e-05
116	0x39761a71	0.00023470238
117	0x361a0f06	2.2956533e-06
118	0x38a29316	7.752159e-05
119	0x34b559a6	3.3779105e-07
120	0x3853b096	5.047078e-05
121	0x31dd27e1	6.4364802e-09
122	0x34b5cb3e	3.3861755e-07
123	0x38d297ee	0.000100418794
124	0x332b0e39	3.9826975e-08
125	0x3292f7a4	1.7109251e-08
126	0x338fd785	6.698159e-08
127	0x33a7ca06	7.813291e-08
128	0x32e21a9a	2.632196e-08
129	0x34d8f1e4	4.0409134e-07
130	0x36ab46c1	5.104434e-06
131	0x351bec4e	5.808587e-07
132	0x36bdaa00	5.6524295e-06
133	0x35622479	8.4244635e-07
134	0x395b14b0	0.00020893174
135	0x3a092e64	0.0005233048
136	0x00000000	0.0
137	0x00000000	0.0
138	0x00000000	0.0
139	0x00000000	0.0
140	0x00000000	0.0
141	0x00000000	0.0
142	0x00000000	0.0
143	0x00000000	0.0
144	0x00000000	0.0
145	0x00000000	0.0
146	0x00000000	0.0
147	0x00000000	0.0
148	0x00000000	0.0
149	0x00000000	0.0
150	0x00000000	0.0
151	0x00000000	0.0
152	0x00000000	0.0
153	0x00000000	0.0
154	0x00000000	0.0
155	0x00000000	0.0
156	0x00000000	0.0
157	0x00000000	0.0
158	0x00000000	0.0
159	0x00000000	0.0
160	0x00000000	0.0
161	0x00000000	0.0
162	0x00000000	0.0
163	0x00000000	0.0
164	0x00000000	0.0
165	0x00000000	0.0
166	0x00000000	0.0
167	0x00000000	0.0
168	0x00000000	0.0
169	0x00000000	0.0
170	0x30259c17	6.024847e-10
171	0x30ac84be	1.2552375e-09
172	0x2f332d75	1.6296105e-10
173	0x309719b4	1.0994001e-09
174	0x2ffff4c5	4.655815e-10
175	0x2f9b280f	2.82228e-10
176	0x2e29130f	3.844308e-11
177	0x00000000	0.0
178	0x2d3aed7f	1.0625611e-11
179	0x2cfb7048	7.146315e-12
180	0x290d551c	3.138211e-14
181	0x2cef2f6d	6.798054e-12
182	0x2eaa9a74	7.7581414e-11
183	0x30843270	9.618599e-10
184	0x2e474d06	4.5315772e-11
185	0x313166dc	2.5815359e-09
186	0x2e32dfb8	4.0671216e-11
187	0x2cdea48a	6.327887e-12
188	0x30be356c	1.3839503e-09
189	0x2c8f7f22	4.078419e-12
190	0x2e8f7f22	6.5254704e-11
191	0x30859a77	9.720925e-10
192	0x2a71244f	2.1417697e-13
193	0x2aeaca66	4.1707192e-13
194	0x2d2725d2	9.501249e-12
195	0x2c5945c5	3.0876285e-12
196	0x2efa184d	1.13730005e-10
197	0x2dcc39b2	2.3217737e-11
198	0x2ee1fe7f	1.0277023e-10
199	0x2d529b2e	1.1971575e-11
200	0x2f83c9a8	2.3972047e-10
201	0x2e34ddeb	4.1124364e-11
202	0x318bbec8	4.0671218e-09
203	0x2fa5b168	3.013938e-10
204	0x00000000	0.0
205	0x00000000	0.0
206	0x00000000	0.0
207	0x00000000	0.0
208	0x00000000	0.0
209	0x00000000	0.0
210	0x00000000	0.0
211	0x00000000	0.0
212	0x00000000	0.0
213	0x00000000	0.0
214	0x00000000	0.0
215	0x00000000	0.0
216	0x00000000	0.0
217	0x00000000	0.0
218	0x00000000	0.0
219	0x00000000	0.0
220	0x00000000	0.0
221	0x00000000	0.0
222	0x00000000	0.0
223	0x00000000	0.0
224	0x00000000	0.0
225	0x00000000	0.0
226	0x00000000	0.0
227	0x00000000	0.0
228	0x00000000	0.0
229	0x00000000	0.0
230	0x00000000	0.0
231	0x00000000	0.0
232	0x00000000	0.0
233	0x00000000	0.0
234	0x00000000	0.0
235	0x00000000	0.0
236	0x00000000	0.0
237	0x00000000	0.0
238	0x3472810f	2.2584958e-07
239	0x34ad9160	3.2329535e-07
240	0x334c769b	4.7605322e-08
241	0x351f5bcc	5.93657e-07
242	0x3483b4c6	2.4532181e-07
243	0x343647ab	1.6976144e-07
244	0x325d6e54	1.2888979e-08
245	0x00000000	0.0
246	0x301b493f	5.649276e-10
247	0x32b185cf	2.0666361e-08
248	0x2db1a7de	2.0197118e-11
249	0x310032f3	1.8655413e-09
250	0x33ac4de4	8.0235424e-08
251	0x34a94d0c	3.1534762e-07
252	0x37227ab4	9.6845215e-06
253	0x32029680	7.601216e-09
254	0x33de1e30	1.0343172e-07
255	0x312ce769	2.5160836e-09

exp_avg f4 [20, 5]
0	0xb4a81470	-3.130731e-07
1	0x00000000	0.0
2	0x3154830a	3.0924547e-09
3	0xb49a8e1e	-2.878814e-07
4	0x00000000	0.0
5	0x00000000	0.0
6	0x00000000	0.0
7	0x00000000	0.0
8	0x80000004	-6e-45
9	0x00000000	0.0
10	0x1abeab52	7.885894e-23
11	0x00000000	0.0
12	0x8c6505a5	-1.7643217e-31
13	0x9d1d2263	-2.0796555e-21
14	0x00000000	0.0
15	0xb7866ef3	-1.602571e-05
16	0x00000000	0.0
17	0x37248f15	9.808476e-06
18	0xb743df93	-1.1674961e-05
19	0x00000000	0.0
20	0x00000000	0.0
21	0x00000000	0.0
22	0x00000000	0.0
23	0x00000000	0.0
24	0x00000000	0.0
25	0xa78320af	-3.639524e-15
26	0x00000000	0.0
27	0x83a47b57	-9.667371e-37
28	0xb34ff348	-4.8417206e-08
29	0x00000000	0.0
30	0x00000000	0.0
31	0x00000000	0.0
32	0x00000000	0.0
33	0x00000000	0.0
34	0x00000000	0.0
35	0x350a2ee1	5.1477224e-07
36	0x00000000	0.0
37	0xb4b5f208	-3.3889978e-07
38	0x35082080	5.071124e-07
39	0x00000000	0.0
40	0xb442a659	-1.8128175e-07
41	0x00000000	0.0
42	0x339e5216	7.37238e-08
43	0xb5938db6	-1.0993597e-06
44	0x00000000	0.0
45	0x00000000	0.0
46	0x00000000	0.0
47	0x00000000	0.0
48	0x00000000	0.0
49	0x00000000	0.0
50	0xb76baa53	-1.4046748e-05
51	0x00000000	0.0
52	0x2a0d853a	1.2569538e-13
53	0xb76af43a	-1.400435e-05
54	0x00000000	0.0
55	0x00000000	0.0
56	0x00000000	0.0
57	0x00000000	0.0
58	0x00000000	0.0
59	0x00000000	0.0
60	0xb5f9fe0e	-1.8625885e-06
61	0x00000000	0.0
62	0xb41cedea	-1.4615185e-07
63	0xb5681f64	-8.6472414e-07
64	0x00000000	0.0
65	0x29571bad	4.7763595e-14
66	0x00000000	0.0
67	0x00000000	0.0
68	0xa93f6472	-4.2497642e-14
69	0x00000000	0.0
70	0x00000000	0.0
71	0x00000000	0.0
72	0x00000000	0.0
73	0x00000000	0.0
74	0x00000000	0.0
75	0xb86876a2	-5.5423596e-05
76	0x00000000	0.0
77	0xaecf2786	-9.420291e-11
78	0xb89b2e39	-7.3995856e-05
79	0x00000000	0.0
80	0x00000000	0.0
81	0x00000000	0.0
82	0x00000000	0.0
83	0x80000004	-6e-45
84	0x00000000	0.0
85	0x378d2bc1	1.6828884e-05
86	0x00000000	0.0
87	0xb75ca60f	-1.3151685e-05
88	0x37a95b8a	2.0188996e-05
89	0x00000000	0.0
90	0xb4956748	-2.782856e-07
91	0x00000000	0.0
92	0x31907b94	4.205001e-09
93	0xb855f5a5	-5.101193e-05
94	0x00000000	0.0
95	0x00000000	0.0
96	0x00000000	0.0
97	0x00000000	0.0
98	0x00000000	0.0
99	0x00000000	0.0

exp_avg_sq f4 [20, 5]
0	0x2b78c138	8.8375444e-13
1	0x00000000	0.0
2	0x2b880eaf	9.667457e-13
3	0x28e0d3af	2.4960799e-14
4	0x00000000	0.0
5	0x00000000	0.0
6	0x00000000	0.0
7	0x00000000	0.0
8	0x00000000	0.0
9	0x00000000	0.0
10	0x0277a45f	1.8193866e-37
11	0x00000000	0.0
12	0x00000000	0.0
13	0x0002a22f	2.41852e-40
14	0x00000000	0.0
15	0x2f97f46e	2.7640418e-10
16	0x00000000	0.0
17	0x2ed57891	9.7075355e-11
18	0x2edb61f5	9.9763676e-11
19	0x00000000	0.0
20	0x00000000	0.0
21	0x00000000	0.0
22	0x00000000	0.0
23	0x00000000	0.0
24	0x00000000	0.0
25	0x1600d0d3	1.0405651e-25
26	0x00000000	0.0
27	0x00000000	0.0
28	0x27d5a023	5.9292997e-15
29	0x00000000	0.0
30	0x00000000	0.0
31	0x00000000	0.0
32	0x00000000	0.0
33	0x00000000	0.0
34	0x00000000	0.0
35	0x2e15f6a6	3.4097745e-11
36	0x00000000	0.0
37	0x2df5f7c9	2.7963314e-11
38	0x2c789ed1	3.533108e-12
39	0x00000000	0.0
40	0x2cdbcb48	6.246923e-12
41	0x00000000	0.0
42	0x2beb7e2e	1.6732776e-12
43	0x2de97ab1	2.6543519e-11
44	0x00000000	0.0
45	0x00000000	0.0
46	0x00000000	0.0
47	0x00000000	0.0
48	0x00000000	0.0
49	0x00000000	0.0
50	0x2e28146c	3.8216916e-11
51	0x00000000	0.0
52	0x1e758592	1.2997814e-20
53	0x2e2059e5	3.645963e-11
54	0x00000000	0.0
55	0x00000000	0.0
56	0x00000000	0.0
57	0x00000000	0.0
58	0x00000000	0.0
59	0x00000000	0.0
60	0x2f39b149	1.6888636e-10
61	0x00000000	0.0
62	0x2f08f0d1	1.2454683e-10
63	0x2cca2457	5.74522e-12
64	0x00000000	0.0
65	0x1e83dc86	1.3961371e-20
66	0x00000000	0.0
67	0x00000000	0.0
68	0x1e682205	1.2289013e-20
69	0x00000000	0.0
70	0x00000000	0.0
71	0x00000000	0.0
72	0x00000000	0.0
73	0x00000000	0.0
74	0x00000000	0.0
75	0x2fa5108e	3.0025088e-10
76	0x00000000	0.0
77	0x2a251dfa	1.4665344e-13
78	0x2fb18ed7	3.2297606e-10
79	0x00000000	0.0
80	0x00000000	0.0
81	0x00000000	0.0
82	0x00000000	0.0
83	0x00000000	0.0
84	0x00000000	0.0
85	0x300fbccf	5.229141e-10
86	0x00000000	0.0
87	0x2f139e83	1.3425887e-10
88	0x2f83b8d4	2.396009e-10
89	0x00000000	0.0
90	0x2e351a84	4.1178186e-11
91	0x00000000	0.0
92	0x2cb6ce1d	5.1956343e-12
93	0x319765b7	4.406242e-09
94	0x00000000	0.0
95	0x00000000	0.0
96	0x00000000	0.0
97	0x00000000	0.0
98	0x00000000	0.0
99	0x00000000	0.0

exp_avg f4 [20]
0	0xb5a1714c	-1.2028408e-06
1	0x80000004	-6e-45
2	0xa7835950	-3.6456637e-15
3	0xb8ec90a0	-0.000112802954
4	0x00000000	0.0
5	0xb350c6e7	-4.8609675e-08
6	0x00000000	0.0
7	0x350aac20	5.165948e-07
8	0xb5a29997	-1.2114641e-06
9	0x00000000	0.0
10	0xb85ba921	-5.2371182e-05
11	0x00000000	0.0
12	0xb63b1393	-2.7876565e-06
13	0xab49e7f4	-7.1731445e-13
14	0x00000000	0.0
15	0xb87a8068	-5.9724232e-05
16	0x80000004	-6e-45
17	0x3794495f	1.7677141e-05
18	0xb8cdfaa4	-9.821847e-05
19	0x00000000	0.0

exp_avg_sq f4 [20]
0	0x2db2945c	2.0302142e-11
1	0x00000000	0.0
2	0x1c5e5ea5	7.3575964e-22
3	0x319e719c	4.611321e-09
4	0x00000000	0.0
5	0x2a0d551c	1.2552844e-13
6	0x00000000	0.0
7	0x2e17d47d	3.4522152e-11
8	0x2e3514b4	4.1173023e-11
9	0x00000000	0.0
10	0x2f8d5179	2.570564e-10
11	0x00000000	0.0
12	0x2f53250a	1.9203497e-10
13	0x227a526a	3.3924948e-18
14	0x00000000	0.0
15	0x3028a58b	6.1353295e-10
16	0x00000000	0.0
17	0x301a6063	5.616185e-10
18	0x32a56753	1.9255515e-08
19	0x00000000	0.0

exp_avg f4 [20]
0	0xb5a1714d	-1.202841e-06
1	0x80000004	-6e-45
2	0xa7835950	-3.6456637e-15
3	0xb8ec90a0	-0.000112802954
4	0x00000000	0.0
5	0xb350c6e4	-4.8609664e-08
6	0x00000000	0.0
7	0x350aac20	5.165948e-07
8	0xb5a29997	-1.2114641e-06
9	0x00000000	0.0
10	0xb85ba921	-5.2371182e-05
11	0x00000000	0.0
12	0xb63b1396	-2.7876572e-06
13	0xab49e7f4	-7.1731445e-13
14	0x00000000	0.0
15	0xb87a8068	-5.9724232e-05
16	0x80000004	-6e-45
17	0x3794495f	1.7677141e-05
18	0xb8cdfaa4	-9.821847e-05
19	0x00000000	0.0

exp_avg_sq f4 [20]
0	0x2db2945c	2.0302142e-11
1	0x00000000	0.0
2	0x1c5e5ea5	7.3575964e-22
3	0x319e719c	4.611321e-09
4	0x00000000	0.0
5	0x2a0d551a	1.2552841e-13
6	0x00000000	0.0
7	0x2e17d47c	3.452215e-11
8	0x2e3514b5	4.1173027e-11
9	0x00000000	0.0
10	0x2f8d5179	2.570564e-10
11	0x00000000	0.0
12	0x2f532508	1.9203494e-10
13	0x227a526a	3.3924948e-18
14	0x00000000	0.0
15	0x3028a58a	6.135329e-10
16	0x00000000	0.0
17	0x301a6062	5.616184e-10
18	0x32a56752	1.9255513e-08
19	0x00000000	0.0

exp_avg f4 [2, 5]
0	0xbc87a022	-0.01655585
1	0x0000002c	6.2e-44
2	0x3bc60e56	0.0060441894
3	0xbd935f12	-0.071958676
4	0x00000000	0.0
5	0x3c87a022	0.01655585
6	0x8000002c	-6.2e-44
7	0xbbc60e56	-0.0060441894
8	0x3d935f12	0.071958676
9	0x00000000	0.0

exp_avg_sq f4 [2, 5]
0	0x38076645	3.2281754e-05
1	0x00000000	0.0
2	0x373fd95e	1.1435097e-05
3	0x39c7c2b5	0.00038101306
4	0x00000000	0.0
5	0x38076645	3.2281754e-05
6	0x00000000	0.0
7	0x373fd95d	1.1435096e-05
8	0x39c7c2b6	0.0003810131
9	0x00000000	0.0

exp_avg f4 [2]
0	0xbeeee87d	-0.4666175
1	0x3eeee87c	0.46661747

exp_avg_sq f4 [2]
0	0x3cca5b0e	0.024701621
1	0x3cca5b0e	0.024701621
