MimicApp/lightning_logs/version_0/checkpoints/epoch=0-step=12.ckpt (torch, 16172 bytes, 18 tensors)

lstm.weight_ih_l0 f4 [20, 34]
0	0x3dca9a08	0.098926604
1	0x3cd78d90	0.02631262
2	0xbcfccb60	-0.030858696
3	0x3e0682b4	0.13135797
4	0xbe0c5cf8	-0.1370734
5	0x3c4680a0	0.0121156275
6	0xbe8249d4	-0.2544695
7	0x3e2317b4	0.15927011
8	0x3da88dc0	0.08230162
9	0xbd073ae0	-0.033015132
10	0xbed5b8d1	-0.41742566
11	0x3e7f49f4	0.24930555
12	0xbed0ddcb	-0.40794215
13	0xbe52d9b7	-0.20590864
14	0xbe93dd90	-0.28879976
15	0x3ec572e6	0.38564223
16	0xbe2ff2ee	-0.17182514
17	0x3db9bb28	0.090689
18	0x3e3b3e78	0.18285549
19	0x3ebc6898	0.3679855
20	0x3eb8a15e	0.36060613
21	0xbe326a3e	-0.1742334
22	0xbe194b78	-0.14970195
23	0xbe9f862d	-0.31157055
24	0x3d1583c8	0.03650263
25	0xbe9c05d9	-0.3047321
26	0xbe8386fe	-0.25688928
27	0xbe53eacf	-0.20695041
28	0xbed5638d	-0.41677514
29	0xbe582347	-0.21107207
30	0xbe43a7e2	-0.19107011
31	0x3dcec108	0.100954115
32	0xbed3c28c	-0.41359365
33	0xbd9583b4	-0.07300511
34	0x3eb103b9	0.34573153
35	0x3d7783a2	0.06042827
36	0x3ebf7f4d	0.3740181
37	0x3e0dc9f7	0.13846575
38	0x3dd26392	0.10272898
39	0x3eb9ac79	0.362644
40	0xbe8b8622	-0.27250773
41	0xbe9fec6c	-0.31235063
42	0xbd8cadc4	-0.06869081
43	0x3e9c832a	0.3056882
44	0xbed80f43	-0.42199144
45	0xbbdc8e2c	-0.0067308154
46	0xbebf24a2	-0.37332636
47	0x3e0fd92b	0.14047687
48	0xbdf7be4f	-0.12096845
49	0xbe61df47	-0.2205783
50	0xbe0df06a	-0.13861242
51	0xbe9c6b5e	-0.30550665
52	0xbe4d62bd	-0.20057197
53	0x3ec67f33	0.3876892
54	0xbdf36855	-0.11885134
55	0xbe85c1a4	-0.261243
56	0x3e1d4249	0.15357317
57	0xbed9e4a1	-0.42557243
58	0xbee49e45	-0.44652
59	0x3b919bb8	0.004443612
60	0x3b22010c	0.0024719862
61	0xbee28c10	-0.44247484
62	0x3e9cbafb	0.30611405
63	0x3edea8c5	0.43488136
64	0xbe251008	-0.16119397
65	0x3e7e0057	0.24804817
66	0x3e8b7283	0.27235803
67	0xbc8109af	-0.015751688
68	0x3e8d9366	0.2765152
69	0xbe8042fa	-0.250511
70	0x3edd2cdd	0.4319829
71	0x3c93de60	0.018050373
72	0x3ed9576f	0.4244952
73	0xbebc0244	-0.3672048
74	0x3e3bab70	0.18327117
75	0x3b2b9e80	0.0026187003
76	0xbe91a4e2	-0.28446108
77	0x3ddc560b	0.10758599
78	0x3d84b3bd	0.06479595
79	0xbd900520	-0.070322275
80	0x3ebe174a	0.37127143
81	0xbc23fc4a	-0.010008881
82	0xbec65e5d	-0.38743868
83	0xbe653a13	-0.22385435
84	0x3e5138ba	0.20431796
85	0xbeca92ee	-0.39565223
86	0x3cfa0b0a	0.030522842
87	0xbdc93386	-0.098242804
88	0xbcf30817	-0.029666943
89	0x3e62474f	0.22097515
90	0xbee07985	-0.43842712
91	0xbe7573ba	-0.23969927
92	0x3e4a70b5	0.19769557
93	0xbedbefa7	-0.42956278
94	0x3ed6bd25	0.4194118
95	0xbec7c266	-0.39015502
96	0xbebdf39b	-0.3709992
97	0x3eaecd93	0.34141216
98	0xbe3eb08e	-0.18622038
99	0xbee5abfb	-0.44857773
100	0x3cc7908d	0.02436092
101	0x3db276b4	0.08714047
102	0x3e583e84	0.21117598
103	0xbecfc096	-0.4057662
104	0x3ed635b9	0.41837862
105	0x3d639504	0.055562034
106	0x3e900185	0.2812616
107	0x3eb0b136	0.345102
108	0x3e2b1818	0.1670841
109	0xbee3cfee	-0.44494575
110	0xbdf5d9c9	-0.1200443
111	0xbe5d08c0	-0.21585369
112	0xbe631fe0	-0.22180128
113	0xbb0133dd	-0.001971475
114	0xbe855988	-0.2604487
115	0xbec2bfec	-0.3803705
116	0xbdac2400	-0.08405304
117	0xbe7742d7	-0.24146591
118	0x3e771358	0.24128473
119	0xbe9992c0	-0.29994774
120	0xbccad8c0	-0.024761558
121	0x3ea1dd6f	0.31614253
122	0xbe04cf06	-0.12969598
123	0xbe7d9650	-0.24764371
124	0xbc851c16	-0.016248744
125	0xbede3f8b	-0.43407854
126	0xbe6a209c	-0.22864002
127	0x3df716a3	0.120648645
128	0xbe5541b9	-0.20825852
129	0x3dedfa28	0.11619979
130	0x3ea7ec21	0.3279734
131	0x3e925977	0.2858388
132	0x3d2e582f	0.042564567
133	0x3da2a2e2	0.07941224
134	0x3dc54169	0.096316166
135	0x3bb431ad	0.005499086
136	0xbca01ff8	-0.019546494
137	0xbe735770	-0.23763824
138	0x3dcf9b02	0.10136987
139	0xbe45ce3f	-0.19316958
140	0xbcf6c158	-0.03012149
141	0x3eae3d19	0.3403099
142	0xbe16fc98	-0.14744794
143	0xbe742ad5	-0.23844464
144	0x3edf185f	0.4357328
145	0xbee5c97a	-0.44880277
146	0xbecb8530	-0.39750051
147	0x3c4ef0cf	0.012630655
148	0x3e075363	0.13215403
149	0xbe3cbce9	-0.18431439
150	0x3eab9d8f	0.33518645
151	0xbe029386	-0.12751588
152	0xbeba504d	-0.3638939
153	0x3ecbc65b	0.3979977
154	0x3e934798	0.2876556
155	0xbee1680d	-0.44024697
156	0xbe8b495b	-0.27204403
157	0xbde38f03	-0.11111262
158	0x3e0af15c	0.13568634
159	0xbd31442c	-0.043277904
160	0xbe6e6359	-0.23280086
161	0x3eaef3aa	0.34170276
162	0x3e880357	0.26565048
163	0xbe99bd8f	-0.30027434
164	0xbe545327	-0.20734845
165	0x3d951e51	0.07281173
166	0xbe7ec2cb	-0.24878995
167	0xbeb3bb63	-0.35103902
168	0xbea8966b	-0.3292726
169	0x3ddf882c	0.109146446
170	0xbe3291c2	-0.17438415
171	0x3ea6deca	0.3259185
172	0xbe6a9173	-0.22907047
173	0xbe72f6d8	-0.23726976
174	0xbee42eec	-0.4456705
175	0xbe5605a2	-0.20900586
176	0xbd2a6350	-0.041598618
177	0xbe87648e	-0.26443905
178	0xbe639d4e	-0.22227976
179	0x3e55ae6c	0.20867318
180	0xbe5e16b6	-0.21688351
181	0xbe854eeb	-0.26036772
182	0x3e9e073c	0.30864894
183	0xbda71120	-0.08157563
184	0x3c2e0f40	0.010623753
185	0x3e20cb5c	0.15702575
186	0x3eb4d58e	0.3531918
187	0x3e9789a6	0.29597205
188	0x3ee260ba	0.44214422
189	0xbea7ff68	-0.32812047
190	0x3e0ca4c4	0.13734728
191	0x3e608010	0.21923852
192	0xbe2ef5fe	-0.17086026
193	0x3e45df48	0.19323456
194	0xbeda01dc	-0.42579544
195	0x3ec4f81a	0.38470536
196	0xbd8499a8	-0.0647462
197	0xbeb1ba2b	-0.34712347
198	0xbe96ea72	-0.29475743
199	0xbc72f1c0	-0.0148281455
200	0x3ecdf86a	0.40228587
201	0x3cfcd700	0.030864239
202	0xbe1f6352	-0.15565231
203	0x3e85b688	0.26115823
204	0x3e95e933	0.2927948
205	0xbe7e40ec	-0.24829453
206	0x3e492205	0.19641884
207	0x3ea62121	0.3244715
208	0x3e9c85ee	0.3057093
209	0x3e062539	0.13100137
210	0x3e875b40	0.26436806
211	0xbdb41f04	-0.08794978
212	0xbd0ca39b	-0.034335714
213	0xbdaf7ba6	-0.08568506
214	0xbe53208c	-0.20617884
215	0xbd72574e	-0.05916529
216	0x3e3f451c	0.18678707
217	0x3e2204bf	0.15822123
218	0xbed62216	-0.4182288
219	0xbec9af0e	-0.3939137
220	0xbeaa1e41	-0.33226207
221	0xbed15c32	-0.40890652
222	0xbd1af801	-0.03783417
223	0x3d7437bf	0.059623476
224	0xbee5abd8	-0.4485767
225	0xbd976386	-0.073920295
226	0x3d1ccf2b	0.03828351
227	0xbec96023	-0.3933116
228	0xbeba036b	-0.36330733
229	0xbedcd005	-0.43127456
230	0xbeaa6db3	-0.3328682
231	0xbe478949	-0.19485964
232	0xbe493af1	-0.1965139
233	0xbeb9b12b	-0.3626798
234	0x3ea6c874	0.3257481
235	0x3cd2f7bd	0.025752896
236	0x3d81ebf0	0.0634383
237	0x3d844828	0.06459075
238	0x3e86fa1a	0.26362687
239	0x3ebb64f6	0.36600465
240	0x3eda4ec8	0.4263823
241	0xbdc30b40	-0.0952363
242	0xbed6e6eb	-0.4197305
243	0xbe03b1d0	-0.12860799
244	0xbd11d9a0	-0.035607934
245	0xbd95e0dc	-0.07318279
246	0xbebd817e	-0.37012857
247	0xbe039cce	-0.12852785
248	0x3ed04b66	0.40682524
249	0x3e3f0488	0.18654072
250	0x3d6d1430	0.05788058
251	0x3d2027b8	0.03910038
252	0x3e6d95fc	0.23201746
253	0x3c9837e0	0.01858133
254	0xbd866010	-0.06561291
255	0xbdf62b78	-0.1202001

lstm.weight_hh_l0 f4 [20, 5]
0	0xbe94929a	-0.29018098
1	0xbbd3a0c0	-0.006458372
2	0x3e883588	0.2660334
3	0xbdebdc68	-0.115166485
4	0xbd31bde8	-0.043394
5	0xbed22bbc	-0.41048992
6	0xbe2f95d4	-0.17146999
7	0x3e9b1247	0.30287382
8	0xbe9bf3fb	-0.3045958
9	0xbd37ca84	-0.04487087
10	0xbeb08b16	-0.34481114
11	0xbe51231b	-0.20423548
12	0x3dd1a089	0.10235698
13	0xbe9d95b3	-0.30778274
14	0xbe99d4d6	-0.30045193
15	0xbea82923	-0.32843885
16	0xbee1caf8	-0.44100165
17	0x3e003cf7	0.12523256
18	0xbeae4a9c	-0.34041297
19	0x3e0c9444	0.13728434
20	0xbda1579c	-0.07878038
21	0x3e0ce532	0.13759306
22	0xbe88cff0	-0.26721144
23	0x3ed5281e	0.4163217
24	0x3e7095cc	0.23494643
25	0x3dfc65b8	0.12324089
26	0xbe7ef24f	-0.24897121
27	0xbe27372c	-0.1632964
28	0x3e7f03e4	0.24903828
29	0x3e2d0028	0.16894591
30	0x3e0821f8	0.13294208
31	0xbc84a61a	-0.016192485
32	0x3dd31769	0.103071995
33	0x3e638a94	0.22220832
34	0x3ec342c3	0.38136873
35	0xbe1f622a	-0.1556479
36	0xbeaa39aa	-0.3324712
37	0xbe1eeae8	-0.15519297
38	0x3ed040b8	0.40674376
39	0xbe06d2ba	-0.13166323
40	0x3eddcb4a	0.4331916
41	0xbea82fb8	-0.32848907
42	0xbe34ba38	-0.17649162
43	0x3edefbe4	0.43551552
44	0xbccf53e0	-0.02530855
45	0xbe5bc928	-0.21463454
46	0x3ed3a28c	0.4133495
47	0xbeb6f40b	-0.35733065
48	0x3ead6d66	0.33872527
49	0xbe8bc514	-0.27298796
50	0xbea228de	-0.31671804
51	0xbe60857c	-0.2192592
52	0x3e3aff48	0.18261445
53	0xbd9f11d0	-0.07767069
54	0xbdef9e9c	-0.11700174
55	0x3ea11dcc	0.31468046
56	0x3dbe2361	0.09284092
57	0xbda5c65c	-0.08094475
58	0x3e6d8798	0.23196256
59	0xbdcedb20	-0.101003885
60	0x3e1bca24	0.1521383
61	0xbe9c7f19	-0.30565718
62	0xbe744d1e	-0.23857543
63	0x3e81059c	0.25199592
64	0xbea389e8	-0.31941152
65	0xbe2455be	-0.16048333
66	0xbe956107	-0.29175588
67	0xbe976686	-0.29570407
68	0x3e3e8c1f	0.1860814
69	0xbebc19fd	-0.36738577
70	0xbe3fcea4	-0.18731171
71	0xbd7e5ddd	-0.062101234
72	0xbe7ec8ea	-0.2488133
73	0x3dcc5598	0.09977263
74	0x3ec9c374	0.3940693
75	0xbbfd9840	-0.007739097
76	0xbe2c6146	-0.16833982
77	0x3d733eb0	0.059385955
78	0xbeaa6bda	-0.3328541
79	0x3ed6b448	0.4193442
80	0xbd01d7d0	-0.031699955
81	0xbed5a07c	-0.41724002
82	0x3e4db296	0.20087656
83	0xbe251548	-0.161214
84	0xbe8f3ead	-0.27977505
85	0x3ebc8a52	0.3682428
86	0x3e7358cd	0.23764344
87	0xbed5a5df	-0.41728112
88	0x3eddf004	0.4334718
89	0xbb92ba40	-0.004477769
90	0x3e95df0a	0.29271728
91	0xbd0f32ad	-0.034960438
92	0x3d22ede8	0.039777666
93	0x3ed3661a	0.41288835
94	0xbdb4f4fc	-0.088357896
95	0xbdb985c8	-0.0905872
96	0xbcbc6990	-0.022999555
97	0xbea38c5a	-0.31943017
98	0xbeb93dc8	-0.36179948
99	0xbd2bb128	-0.041916996

lstm.bias_ih_l0 f4 [20]
0	0x3d02ba90	0.0319162
1	0x3e680ff3	0.22662334
2	0xbe1571e5	-0.14594229
3	0xbc4d7490	-0.012539998
4	0x3eda1c63	0.42599782
5	0xbda51f1c	-0.08062574
6	0x3ea9b671	0.33147004
7	0x3db1d438	0.08683056
8	0x3e375850	0.17904782
9	0x3e7a2de0	0.24431562
10	0xbec2b59e	-0.38029188
11	0x3ed78319	0.42092207
12	0x3e40aa38	0.18814933
13	0xbe88e2f0	-0.2673564
14	0xbd5d5441	-0.05403543
15	0xbedcc9e8	-0.43122792
16	0x3ead3846	0.33831996
17	0xbd2b853a	-0.0418751
18	0xbea7acf4	-0.3274914
19	0xbeb5087e	-0.35358042

lstm.bias_hh_l0 f4 [20]
0	0xbe6d5baa	-0.23179498
1	0xbe716c15	-0.23576386
2	0x3da69e79	0.08135695
3	0x3d9e6d86	0.07735734
4	0xbe1af128	-0.15131056
5	0x3d0fd098	0.03511104
6	0xbc17ad69	-0.009257653
7	0x3e913dfc	0.28367603
8	0x3e1af058	0.15130746
9	0x3e893848	0.26800752
10	0x3eab8926	0.33503073
11	0x3eca8575	0.39554945
12	0x3e2b2580	0.16713524
13	0xbc85d809	-0.016338365
14	0x3e2a039d	0.16602941
15	0x3ed41708	0.4142382
16	0xbe4f724b	-0.20258443
17	0x3da48e44	0.080349475
18	0x3e9bb4ea	0.30411464
19	0x3e86555c	0.26237

linear.weight f4 [2, 5]
0	0x3d5b9650	0.053610146
1	0xbe9db87b	-0.3080481
2	0xbd2eed2a	-0.042706646
3	0x3e6ca4bf	0.2310972
4	0xbedc961a	-0.43083268
5	0x3ca0e850	0.019642025
6	0xbebe74a4	-0.37198365
7	0xbe0354e2	-0.12825349
8	0x3dda95b9	0.106730886
9	0x3da87863	0.08226087

linear.bias f4 [2]
0	0xbd30e8cc	-0.043190762
1	0xbe0f2b77	-0.13981424

exp_avg f4 [20, 34]
0	0x883e1e1e	-5.721145e-34
1	0x8850272d	-6.2638774e-34
2	0x87973b61	-2.2754855e-34
3	0x88c59d1f	-1.1893445e-33
4	0x886a6d6d	-7.0545443e-34
5	0x8805c3bd	-4.025332e-34
6	0x86e6a748	-8.676218e-35
7	0x00000000	0.0
8	0x8685a1c7	-5.026675e-35
9	0x8737be74	-1.3823359e-34
10	0x8485a1c7	-3.141672e-36
11	0x867ae4e1	-4.7187928e-35
12	0x87ab374a	-2.5761716e-34
13	0x884c9fba	-6.1576775e-34
14	0x8705a1c7	-1.005335e-34
15	0x8850ccca	-6.283345e-34
16	0x8807b851	-4.0841748e-34
17	0x8683f62a	-4.963843e-35
18	0x886bf1a6	-7.1001797e-34
19	0x85a70a3c	-1.5708364e-35
20	0x8485a1c7	-3.141672e-36
21	0x8822dd2c	-4.901009e-34
22	0x853b15b2	-8.7966825e-36
23	0x85a70a3c	-1.5708364e-35
24	0x8612fec5	-2.7646723e-35
25	0x862a6177	-3.2045052e-35
26	0x8485a1c7	-3.141672e-36
27	0x84bb15b2	-4.3983413e-36
28	0x87682f80	-1.7467699e-34
29	0x86a2075d	-6.0948447e-35
30	0x877ebc65	-1.91642e-34
31	0x86b7be74	-6.9116795e-35
32	0x888174bb	-7.791348e-34
33	0x88a4f3b5	-9.927686e-34
34	0x391ab45c	0.00014753774
35	0x38f92169	0.000118794684
36	0x3842a4e0	4.6406756e-05
37	0x39226863	0.00015488411
38	0x38db7dbf	0.00010466156
39	0x38b55d93	8.648182e-05
40	0x37d57de0	2.5450194e-05
41	0x00000000	0.0
42	0xb71dc5c3	-9.403974e-06
43	0x37b79b0e	2.1887503e-05
44	0x35050343	4.955111e-07
45	0x37185149	9.078832e-06
46	0x382229a2	3.8662583e-05
47	0x390098a2	0.00012263891
48	0x3a12c812	0.0005599271
49	0x3880cd6e	6.14178e-05
50	0x38e49d92	0.00010901237
51	0x3703762e	7.835724e-06
52	0x3912d1cd	0.00014001802
53	0x367348bb	3.6252156e-06
54	0x35264410	6.1938863e-07
55	0x39ae5236	0.00033249118
56	0x36238157	2.4364178e-06
57	0x36166537	2.2410657e-06
58	0x369a170a	4.5922397e-06
59	0x36aca657	5.145364e-06
60	0x35e8c5d9	1.7342928e-06
61	0x3568c5bd	8.671448e-07
62	0x3855f5a8	5.1011943e-05
63	0x37952e97	1.778388e-05
64	0x380aff3e	3.3139477e-05
65	0x374e7cea	1.2307641e-05
66	0x392111ee	0.00015360836
67	0x39110af2	0.00013832355
68	0x3ba0108a	0.004884784
69	0x3bd2a0c3	0.0064278557
70	0x3b1a05ea	0.002350206
71	0x3c1765d6	0.009240588
72	0x3be1dc27	0.0068926993
73	0x3bdd1c20	0.0067477375
74	0x3a899fa7	0.0010499851
75	0x00000000	0.0
76	0x376c8763	1.4098218e-05
77	0x3ae33f93	0.0017337672
78	0x38585a81	5.15827e-05
79	0x39fc94fa	0.00048176182
80	0x3b475119	0.0030413328
81	0x3bd0998e	0.0063659614
82	0x3c8998ed	0.016796554
83	0x3a722d9c	0.0009238364
84	0x3bcfeaa5	0.0063451105
85	0x3a03d7d8	0.00050294166
86	0x3be3b57f	0.0069491263
87	0x38299ab5	4.0436822e-05
88	0x386cb523	5.643548e-05
89	0x3c09e9a5	0.008417522
90	0x39028b92	0.0001244976
91	0x38ed4bb4	0.000113151415
92	0x3904c80c	0.00012663024
93	0x39845bf5	0.00025245515
94	0x38ae3f55	8.308763e-05
95	0x391c06c4	0.0001487984
96	0x3b0e85da	0.0021747262
97	0x3a43a2e6	0.00074629334
98	0x3ad257a8	0.0016047852
99	0x3a7e4e91	0.00097010384
100	0x3cc3b676	0.023890715
101	0x3c808038	0.01568614
102	0xba41f25a	-0.0007398479
103	0xba50f859	-0.0007971577
104	0xb9a158e7	-0.0003077455
105	0xba904ee5	-0.001100984
106	0xba1daf03	-0.00060151535
107	0xb9db694f	-0.00041849396
108	0xb988d69d	-0.0002609984
109	0x00000000	0.0
110	0xb887aa08	-6.4689724e-05
111	0xb9898a3e	-0.00026233675
112	0xb689a53f	-4.1021553e-06
113	0xb881c2fe	-6.1875195e-05
114	0xb9b1d885	-0.0003392139
115	0xba53c518	-0.00080783805
116	0xb90c484e	-0.00013378376
117	0xb98434b9	-0.00025216283
118	0xba0ca82a	-0.00053656346
119	0xb8be8a90	-9.085715e-05
120	0xba562208	-0.0008168523
121	0xb6f6b6a7	-7.352635e-06
122	0xb68b7341	-4.15594e-06
123	0xb9e5c76b	-0.00043826862
124	0xb7402794	-1.1453307e-05
125	0xb7ac23fd	-2.0520756e-05
126	0xb7a82233	-2.0043086e-05
127	0xb803c6d2	-3.1418e-05
128	0xb68eeec6	-4.2597267e-06
129	0xb6cca61c	-6.0990114e-06
130	0xb9692169	-0.00022233058
131	0xb89d8f5f	-7.513048e-05
132	0xb9838b76	-0.00025090174
133	0xb8b0a937	-8.423853e-05
134	0xba8831c8	-0.0010390813
135	0xbb838245	-0.004013332
136	0x325b9865	1.2782128e-08
137	0x320575f7	7.768441e-09
138	0x3152c47d	3.0670713e-09
139	0x32509e42	1.2143177e-08
140	0x3210651d	8.404894e-09
141	0x31ea0d10	6.8117814e-09
142	0x313e6196	2.770411e-09
143	0x00000000	0.0
144	0xb086be60	-9.803891e-10
145	0x3091f8e8	1.0620882e-09
146	0x2ec073af	8.751699e-11
147	0x30223437	5.900946e-10
148	0x31481637	2.9116458e-09
149	0x320af454	8.088211e-09
150	0x331e9ac0	3.6927986e-08
151	0x31bee308	5.5555383e-09
152	0x31f707ae	7.189519e-09
153	0x30047f79	4.820247e-10
154	0x321e9ac0	9.2319965e-09
155	0x2faaacdf	3.1045652e-10
156	0x2e33a880	4.0849546e-11
157	0x32b8921b	2.148686e-08
158	0x2f459fc0	1.79738e-10
159	0x2f2aacdf	1.5522826e-10
160	0x2faaacdf	3.1045652e-10
161	0x2fce9b5e	3.7581577e-10
162	0x2efb8582	1.1437874e-10
163	0x2e7b8582	5.718937e-11
164	0x317ca4f5	3.6764594e-09
165	0x30b16997	1.2908455e-09
166	0x31155745	2.173196e-09
167	0x3050da48	7.5980156e-10
168	0x322e0b3c	1.0130687e-08
169	0x3111f8e8	2.1241764e-09
170	0x00000000	0.0
171	0x00000000	0.0
172	0x00000000	0.0
173	0x00000000	0.0
174	0x00000000	0.0
175	0x00000000	0.0
176	0x00000000	0.0
177	0x00000000	0.0
178	0x00000000	0.0
179	0x00000000	0.0
180	0x00000000	0.0
181	0x00000000	0.0
182	0x00000000	0.0
183	0x00000000	0.0
184	0x00000000	0.0
185	0x00000000	0.0
186	0x00000000	0.0
187	0x00000000	0.0
188	0x00000000	0.0
189	0x00000000	0.0
190	0x00000000	0.0
191	0x00000000	0.0
192	0x00000000	0.0
193	0x00000000	0.0
194	0x00000000	0.0
195	0x00000000	0.0
196	0x00000000	0.0
197	0x00000000	0.0
198	0x00000000	0.0
199	0x00000000	0.0
200	0x00000000	0.0
201	0x00000000	0.0
202	0x00000000	0.0
203	0x00000000	0.0
204	0x390764c9	0.00012912149
205	0x391ea4b5	0.00015129412
206	0x3868406f	5.537312e-05
207	0x394ad830	0.00019344757
208	0x39154700	0.00014236197
209	0x38f4bfbf	0.00011670542
210	0x37e65a76	2.746026e-05
211	0x00000000	0.0
212	0x36c1b90e	5.7733914e-06
213	0x381f6bca	3.800894e-05
214	0x352e7e94	6.5004247e-07
215	0x373da598	1.1303833e-05
216	0x386d3700	5.6556426e-05
217	0x391c32d7	0.00014896259
218	0x395f4761	0.00021293528
219	0x378e8eb5	1.6994172e-05
220	0x3997e199	0.00028969048
221	0x374768f6	1.1885762e-05
222	0x392df839	0.00016591036
223	0x3534d062	6.735846e-07
224	0x3583cb01	9.819342e-07
225	0x3957074a	0.00020506713
226	0x368286a9	3.8899784e-06
227	0x3641fc00	2.8905924e-06
228	0x36c2278d	5.786255e-06
229	0x36e5f034	6.852695e-06
230	0x372d5e45	1.0333552e-05
231	0x3666a8ee	3.4371e-06
232	0x382c0d93	4.1020638e-05
233	0x3765e8bc	1.3703651e-05
234	0x384deff9	4.90993e-05
235	0x3716e90e	8.994959e-06
236	0x39c38756	0.00037294131
237	0x39c00286	0.00036622974
238	0x00000000	0.0
239	0x00000000	0.0
240	0x00000000	0.0
241	0x00000000	0.0
242	0x00000000	0.0
243	0x00000000	0.0
244	0x00000000	0.0
245	0x00000000	0.0
246	0x00000000	0.0
247	0x00000000	0.0
248	0x00000000	0.0
249	0x00000000	0.0
250	0x00000000	0.0
251	0x00000000	0.0
252	0x00000000	0.0
253	0x00000000	0.0
254	0x00000000	0.0
255	0x00000000	0.0

exp_avg_sq f4 [20, 34]
0	0x00000000	0.0
1	0x00000000	0.0
2	0x00000000	0.0
3	0x00000000	0.0
4	0x00000000	0.0
5	0x00000000	0.0
6	0x00000000	0.0
7	0x00000000	0.0
8	0x00000000	0.0
9	0x00000000	0.0
10	0x00000000	0.0
11	0x00000000	0.0
12	0x00000000	0.0
13	0x00000000	0.0
14	0x00000000	0.0
15	0x00000000	0.0
16	0x00000000	0.0
17	0x00000000	0.0
18	0x00000000	0.0
19	0x00000000	0.0
20	0x00000000	0.0
21	0x00000000	0.0
22	0x00000000	0.0
23	0x00000000	0.0
24	0x00000000	0.0
25	0x00000000	0.0
26	0x00000000	0.0
27	0x00000000	0.0
28	0x00000000	0.0
29	0x00000000	0.0
30	0x00000000	0.0
31	0x00000000	0.0
32	0x00000000	0.0
33	0x00000000	0.0
34	0x32e79cc4	2.6963228e-08
35	0x32962887	1.7480728e-08
36	0x313751b0	2.6676439e-09
37	0x32ff4080	2.9715238e-08
38	0x32691c02	1.3568753e-08
39	0x321f2911	9.2643555e-09
40	0x305c8a43	8.0232015e-10
41	0x00000000	0.0
42	0x2ef0e3d9	1.095441e-10
43	0x30231dcd	5.9341404e-10
44	0x2aab3713	3.0413917e-13
45	0x2ee08522	1.020999e-10
46	0x30fe7b6a	1.8516009e-09
47	0x32a008ae	1.8630399e-08
48	0x34d07f10	3.883547e-07
49	0x31a08c3c	4.6725557e-09
50	0x327ce49e	1.4720312e-08
51	0x2ea73ec2	7.605429e-11
52	0x32d09ab7	2.4284743e-08
53	0x2d8f318a	1.6279218e-11
54	0x2b05c2fc	4.7521687e-13
55	0x34130966	1.3693861e-07
56	0x2d015b4c	7.353073e-12
57	0x2cdae3a4	6.221206e-12
58	0x2de5c6a5	2.6122502e-11
59	0x2e103b0e	3.279426e-11
60	0x2c83161e	3.7256994e-12
61	0x2b83161e	9.314249e-13
62	0x315d8206	3.2233642e-09
63	0x2fd75f1d	3.9175854e-10
64	0x30baf7b4	1.3603683e-09
65	0x2f4e4ebb	1.8763562e-10
66	0x32fb1078	2.9227735e-08
67	0x32cb95f4	2.3700501e-08
68	0x35f52c91	1.8266893e-06
69	0x3657d420	3.216097e-06
70	0x34e595f8	4.276369e-07
71	0x36e2956d	6.7527203e-06
72	0x36792bce	3.712939e-06
73	0x3653a7d5	3.1539141e-06
74	0x33ac4b0a	8.023024e-08
75	0x00000000	0.0
76	0x2f1d7101	1.4319214e-10
77	0x348264a6	2.4287618e-07
78	0x2f78717f	2.259579e-10
79	0x329b6abb	1.809291e-08
80	0x354c717d	7.616107e-07
81	0x365439b2	3.1624045e-06
82	0x37ceace9	2.4637631e-05
83	0x339425b2	6.898644e-08
84	0x365b230b	3.265394e-06
85	0x32aad67b	1.988814e-08
86	0x3678e37a	3.7087289e-06
87	0x2f0ad6e5	1.2627373e-10
88	0x2f705e2d	2.1861331e-10
89	0x36c4bd2a	5.863277e-06
90	0x30a674e2	1.211131e-09
91	0x308628f8	9.761427e-10
92	0x309cafe6	1.1400487e-09
93	0x31aaaec0	4.967518e-09
94	0x300d6ee6	5.14531e-10
95	0x30edf06b	1.731235e-09
96	0x34ccbc92	3.8135164e-07
97	0x33410df6	4.494901e-08
98	0x34482e54	1.8643306e-07
99	0x33b00761	8.196981e-08
100	0x384bef21	4.8621678e-05
101	0x37b24864	2.1252963e-05
102	0x352cba9b	6.434654e-07
103	0x354a7561	7.542167e-07
104	0x33f16324	1.12404706e-07
105	0x35c28100	1.449167e-06
106	0x34e5f04b	4.282941e-07
107	0x345cc5e1	2.0561085e-07
108	0x33b26faa	8.3090825e-08
109	0x00000000	0.0
110	0x31b14fc6	5.160447e-09
111	0x33b15445	8.257533e-08
112	0x2db15fa6	2.0165047e-11
113	0x319c4793	4.5483346e-09
114	0x34118f1c	1.355624e-07
115	0x354fe7ce	7.745083e-07
116	0x32b15a84	2.0646674e-08
117	0x33a66935	7.7491144e-08
118	0x34b6ed10	3.4072627e-07
119	0x322ab276	9.93588e-09
120	0x35542bf0	7.904009e-07
121	0x2e8fa293	6.531766e-11
122	0x2db1591d	2.0162145e-11
123	0x34616feb	2.0995473e-07
124	0x2f2dc979	1.5805836e-10
125	0x300a8a8d	5.0401e-10
126	0x2fff67db	4.6458024e-10
127	0x30a00dff	1.164551e-09
128	0x2db1653c	2.0167527e-11
129	0x2e2de4a7	3.953873e-11
130	0x337aa6fb	5.835953e-08
131	0x31e57a09	6.678651e-09
132	0x33a11980	7.501785e-08
133	0x320a8fa3	8.065316e-09
134	0x35a671e8	1.2401115e-06
135	0x37a119b6	1.9204668e-05
136	0x256954b0	2.0238222e-16
137	0x24ac5ee7	7.475388e-17
138	0x2356f2ac	1.1652351e-17
139	0x2552961f	1.826546e-16
140	0x24c9c58b	8.7504505e-17
141	0x248487e6	5.7476096e-17
142	0x232f60af	9.5072426e-18
143	0x00000000	0.0
144	0x21afb34c	1.1905921e-18
145	0x21ce3431	1.3972918e-18
146	0x1e3336a1	9.487478e-21
147	0x20fe9cb0	4.313296e-19
148	0x2341b6fb	1.05012986e-17
149	0x24bada6c	8.103466e-17
150	0x26f36fee	1.6891851e-15
151	0x24304f7a	3.8231236e-17
152	0x2493a318	6.402738e-17
153	0x20a9e47b	2.878091e-19
154	0x24f36fee	1.0557407e-16
155	0x200cf364	1.1938992e-19
156	0x1d1c2d97	2.0669997e-21
157	0x2624d5fc	5.7188933e-16
158	0x1f3cf9b9	4.0017114e-20
159	0x1f0cf364	2.984748e-20
160	0x200cf364	1.1938992e-19
161	0x204e8ba7	1.7495086e-19
162	0x1e990df5	1.6205278e-20
163	0x1d990df5	4.0513194e-21
164	0x239a6c97	1.6742703e-17
165	0x22184c4d	2.0640235e-18
166	0x22d7d4b2	5.8501067e-18
167	0x21530f5e	7.150992e-19
168	0x251291cb	1.2712878e-16
169	0x22ce3431	5.589167e-18
170	0x00000000	0.0
171	0x00000000	0.0
172	0x00000000	0.0
173	0x00000000	0.0
174	0x00000000	0.0
175	0x00000000	0.0
176	0x00000000	0.0
177	0x00000000	0.0
178	0x00000000	0.0
179	0x00000000	0.0
180	0x00000000	0.0
181	0x00000000	0.0
182	0x00000000	0.0
183	0x00000000	0.0
184	0x00000000	0.0
185	0x00000000	0.0
186	0x00000000	0.0
187	0x00000000	0.0
188	0x00000000	0.0
189	0x00000000	0.0
190	0x00000000	0.0
191	0x00000000	0.0
192	0x00000000	0.0
193	0x00000000	0.0
194	0x00000000	0.0
195	0x00000000	0.0
196	0x00000000	0.0
197	0x00000000	0.0
198	0x00000000	0.0
199	0x00000000	0.0
200	0x00000000	0.0
201	0x00000000	0.0
202	0x00000000	0.0
203	0x00000000	0.0
204	0x30f4c221	1.7808511e-09
205	0x31211bc2	2.3444362e-09
206	0x2fabd27f	3.1254285e-10
207	0x317c8c2f	3.6750512e-09
208	0x3109005f	1.9936335e-09
209	0x30b8dedc	1.3451102e-09
210	0x2ea56b76	7.52242e-11
211	0x00000000	0.0
212	0x2c8cade3	3.9983446e-12
213	0x2f2031e0	1.4569634e-10
214	0x2973a133	5.4096657e-14
215	0x2d65ac7b	1.3055441e-11
216	0x2fb6df7c	3.3264402e-10
217	0x311c75a4	2.2767859e-09
218	0x31be83f4	5.544729e-09
219	0x2ea229ca	7.37433e-11
220	0x3273046c	1.4145467e-08
221	0x2d7de353	1.4431861e-11
222	0x313e14d6	2.7660483e-09
223	0x295cd018	4.9030306e-14
224	0x29d537ed	9.468802e-14
225	0x31b81a64	5.358105e-09
226	0x2bdda780	1.5749485e-12
227	0x2b6ca679	8.407507e-13
228	0x2c8ffd59	4.0924317e-12
229	0x2cc2bd35	5.534818e-12
230	0x2d896255	1.5618765e-11
231	0x2baa3f75	1.2096839e-12
232	0x2f362040	1.6564261e-10
233	0x2da286aa	1.847707e-11
234	0x2f82b0b3	2.3772415e-10
235	0x2d0a3c3c	7.8577665e-12
236	0x3295bbee	1.7431343e-08
237	0x32c88a36	2.3345915e-08
238	0x00000000	0.0
239	0x00000000	0.0
240	0x00000000	0.0
241	0x00000000	0.0
242	0x00000000	0.0
243	0x00000000	0.0
244	0x00000000	0.0
245	0x00000000	0.0
246	0x00000000	0.0
247	0x00000000	0.0
248	0x00000000	0.0
249	0x00000000	0.0
250	0x00000000	0.0
251	0x00000000	0.0
252	0x00000000	0.0
253	0x00000000	0.0
254	0x00000000	0.0
255	0x00000000	0.0

exp_avg f4 [20, 5]
0	0x00000000	0.0
1	0x85054f20	-6.268163e-36
2	0x05054f20	6.268163e-36
3	0x00000000	0.0
4	0x00000000	0.0
5	0x00000000	0.0
6	0xb4d86737	-4.0308234e-07
7	0xa9f2d471	-1.07838116e-13
8	0x02cb7720	2.9896544e-37
9	0xb4a2d4bf	-3.0329645e-07
10	0x00000000	0.0
11	0xb7c3b0e5	-2.3328184e-05
12	0xb66b8fd7	-3.5101455e-06
13	0x1c793b5a	8.24639e-22
14	0xb693ca76	-4.404511e-06
15	0x00000000	0.0
16	0x36f5bf2e	7.3238252e-06
17	0x36f5bf2e	7.3238252e-06
18	0xb5b9436d	-1.3803198e-06
19	0x14442535	9.902809e-27
20	0x00000000	0.0
21	0xadedf67b	-2.705324e-11
22	0x149f3ce8	1.607892e-26
23	0x93a9284c	-4.2701334e-27
24	0x2df3e78b	2.7728727e-11
25	0x00000000	0.0
26	0x00000000	0.0
27	0x00000000	0.0
28	0x00000000	0.0
29	0x00000000	0.0
30	0x00000000	0.0
31	0xb5b05d8d	-1.3140249e-06
32	0xb552af9c	-7.848664e-07
33	0x342eb421	1.6270543e-07
34	0xb560b7b8	-8.371385e-07
35	0x00000000	0.0
36	0x00000000	0.0
37	0x00000000	0.0
38	0x00000000	0.0
39	0x00000000	0.0
40	0x00000000	0.0
41	0x00000000	0.0
42	0x00000000	0.0
43	0x00000000	0.0
44	0x00000000	0.0
45	0x00000000	0.0
46	0x112f8c91	1.3848381e-28
47	0x112f8c91	1.3848381e-28
48	0x908ba64e	-5.5082066e-29
49	0x00000000	0.0
50	0x00000000	0.0
51	0x00000000	0.0
52	0x00000000	0.0
53	0x00000000	0.0
54	0x00000000	0.0
55	0x00000000	0.0
56	0xb8a30394	-7.773112e-05
57	0x38aeb1f5	8.3301136e-05
58	0xa2961b25	-4.068632e-18
59	0x00006b2f	3.845e-41
60	0x00000000	0.0
61	0x00000000	0.0
62	0x00000000	0.0
63	0x00000000	0.0
64	0x00000000	0.0
65	0x00000000	0.0
66	0x31747a9e	3.5576373e-09
67	0x31747a9e	3.5576373e-09
68	0xab7f4181	-9.0685104e-13
69	0x00000000	0.0
70	0x00000000	0.0
71	0xb752ccad	-1.256463e-05
72	0x93606c05	-2.8326033e-27
73	0x00000000	0.0
74	0x37856a93	1.5904463e-05
75	0x00000000	0.0
76	0x00000000	0.0
77	0x00000000	0.0
78	0x00000000	0.0
79	0x00000000	0.0
80	0x00000000	0.0
81	0xb85744ee	-5.132419e-05
82	0x38844f60	6.309035e-05
83	0xb607cc2d	-2.0235414e-06
84	0x35b2f7c3	1.3334142e-06
85	0x00000000	0.0
86	0x2faa7ad5	3.1010097e-10
87	0xafaa6d0a	-3.1000297e-10
88	0x00000000	0.0
89	0x00000000	0.0
90	0x00000000	0.0
91	0xb7993604	-1.8264174e-05
92	0x3849905c	4.805658e-05
93	0xb79be192	-1.858248e-05
94	0x144c7543	1.0322494e-26
95	0x00000000	0.0
96	0x13901d9c	3.6379908e-27
97	0x13901d9c	3.6379908e-27
98	0x92934646	-9.294328e-28
99	0x00000000	0.0

exp_avg_sq f4 [20, 5]
0	0x00000000	0.0
1	0x00000000	0.0
2	0x00000000	0.0
3	0x00000000	0.0
4	0x00000000	0.0
5	0x00000000	0.0
6	0x2a6298a1	2.0125786e-13
7	0x13836b73	3.3175002e-27
8	0x00000000	0.0
9	0x2a004ab3	1.13946e-13
10	0x00000000	0.0
11	0x2e318e14	4.037133e-11
12	0x2b8a29ff	9.817146e-13
13	0x00000031	6.9e-44
14	0x2c4fa6eb	2.9509127e-12
15	0x00000000	0.0
16	0x2e8ec19e	6.491806e-11
17	0x2e8ec19e	6.491806e-11
18	0x2c1dfe6c	2.2452274e-12
19	0x00000000	0.0
20	0x00000000	0.0
21	0x1c88ff7e	9.065768e-22
22	0x00000000	0.0
23	0x00000000	0.0
24	0x1c8fecbe	9.524143e-22
25	0x00000000	0.0
26	0x00000000	0.0
27	0x00000000	0.0
28	0x00000000	0.0
29	0x00000000	0.0
30	0x00000000	0.0
31	0x2a4a17f2	1.7949512e-13
32	0x2a12314d	1.298451e-13
33	0x2808170e	7.554516e-15
34	0x29f00a7d	1.06599605e-13
35	0x00000000	0.0
36	0x00000000	0.0
37	0x00000000	0.0
38	0x00000000	0.0
39	0x00000000	0.0
40	0x00000000	0.0
41	0x00000000	0.0
42	0x00000000	0.0
43	0x00000000	0.0
44	0x00000000	0.0
45	0x00000000	0.0
46	0x00000000	0.0
47	0x00000000	0.0
48	0x00000000	0.0
49	0x00000000	0.0
50	0x00000000	0.0
51	0x00000000	0.0
52	0x00000000	0.0
53	0x00000000	0.0
54	0x00000000	0.0
55	0x00000000	0.0
56	0x30a5ecd6	1.2072643e-09
57	0x30b8e7bc	1.3453625e-09
58	0x0444e8de	2.3146617e-36
59	0x00000000	0.0
60	0x00000000	0.0
61	0x00000000	0.0
62	0x00000000	0.0
63	0x00000000	0.0
64	0x00000000	0.0
65	0x00000000	0.0
66	0x233e07c7	1.03015676e-17
67	0x233e07c7	1.03015676e-17
68	0x169604e9	2.4236906e-25
69	0x00000000	0.0
70	0x00000000	0.0
71	0x2f570364	1.955534e-10
72	0x00000000	0.0
73	0x00000000	0.0
74	0x2fac417a	3.1333142e-10
75	0x00000000	0.0
76	0x00000000	0.0
77	0x00000000	0.0
78	0x00000000	0.0
79	0x00000000	0.0
80	0x00000000	0.0
81	0x2f1ee462	1.4451154e-10
82	0x2f86129a	2.4387675e-10
83	0x2c19d21e	2.1859246e-12
84	0x2adafb6a	3.8899033e-13
85	0x00000000	0.0
86	0x1fe40ba1	9.6580994e-20
87	0x1fe3e6bf	9.651998e-20
88	0x00000000	0.0
89	0x00000000	0.0
90	0x00000000	0.0
91	0x2f0399d6	1.1969034e-10
92	0x2f1bf4a0	1.4184076e-10
93	0x2dcc2c83	2.3211882e-11
94	0x00000000	0.0
95	0x00000000	0.0
96	0x00000000	0.0
97	0x00000000	0.0
98	0x00000000	0.0
99	0x00000000	0.0

exp_avg f4 [20]
0	0x8505a1c7	-6.283344e-36
1	0x35a6440d	1.2387769e-06
2	0x38896054	6.5506116e-05
3	0xb70a4a7e	-8.242785e-06
4	0x2eb3a880	8.169909e-11
5	0x00000000	0.0
6	0x35cb16b4	1.5131286e-06
7	0x00000000	0.0
8	0x00000000	0.0
9	0x913101a1	-1.396334e-28
10	0x00000000	0.0
11	0xb8b2b289	-8.520956e-05
12	0x00000000	0.0
13	0xb174fc48	-3.5650078e-09
14	0x378a64e7	1.6497868e-05
15	0x00000000	0.0
16	0xb82b6757	-4.086582e-05
17	0x30271a45	6.079158e-10
18	0xb849c756	-4.810778e-05
19	0x93a64a80	-4.1977754e-27

exp_avg_sq f4 [20]
0	0x00000000	0.0
1	0x2c05c2fc	1.9008675e-12
2	0x2fb874c4	3.3552372e-10
3	0x2eb156b5	8.0644304e-11
4	0x1e1c2d97	8.267999e-21
5	0x00000000	0.0
6	0x2a83faf2	2.3444403e-13
7	0x00000000	0.0
8	0x00000000	0.0
9	0x00000000	0.0
10	0x00000000	0.0
11	0x30c6941a	1.4448489e-09
12	0x00000000	0.0
13	0x233ed0ae	1.034411e-17
14	0x2fb95979	3.3714878e-10
15	0x00000000	0.0
16	0x2faf2355	3.185742e-10
17	0x20db198f	3.7116956e-19
18	0x2f1c5033	1.421661e-10
19	0x00000000	0.0

exp_avg f4 [20]
0	0x8505a1c7	-6.283344e-36
1	0x35a6440c	1.2387768e-06
2	0x38896054	6.5506116e-05
3	0xb70a4a7e	-8.242785e-06
4	0x2eb3a880	8.169909e-11
5	0x00000000	0.0
6	0x35cb16b4	1.5131286e-06
7	0x00000000	0.0
8	0x00000000	0.0
9	0x913101a1	-1.396334e-28
10	0x00000000	0.0
11	0xb8b2b287	-8.520955e-05
12	0x00000000	0.0
13	0xb174fc48	-3.5650078e-09
14	0x378a64e7	1.6497868e-05
15	0x00000000	0.0
16	0xb82b675a	-4.086583e-05
17	0x30271a45	6.079158e-10
18	0xb849c756	-4.810778e-05
19	0x93a64a80	-4.1977754e-27

exp_avg_sq f4 [20]
0	0x00000000	0.0
1	0x2c05c2fa	1.900867e-12
2	0x2fb874c4	3.3552372e-10
3	0x2eb156b8	8.0644325e-11
4	0x1e1c2d98	8.268e-21
5	0x00000000	0.0
6	0x2a83faf0	2.3444397e-13
7	0x00000000	0.0
8	0x00000000	0.0
9	0x00000000	0.0
10	0x00000000	0.0
11	0x30c69417	1.4448486e-09
12	0x00000000	0.0
13	0x233ed0ae	1.034411e-17
14	0x2fb95979	3.3714878e-10
15	0x00000000	0.0
16	0x2faf2356	3.1857422e-10
17	0x20db198f	3.7116956e-19
18	0x2f1c5034	1.4216611e-10
19	0x00000000	0.0

exp_avg f4 [2, 5]
0	0x8775e0aa	-1.8497774e-34
1	0xbc7dbc02	-0.015486719
2	0x3e3396f0	0.17538047
3	0xbc3c26d4	-0.011483867
4	0x3bb6ce1d	0.00557877
5	0x0775e0aa	1.8497774e-34
6	0x3c7dbc08	0.015486725
7	0xbe3396f0	-0.17538047
8	0x3c3c26d4	0.011483867
9	0xbbb6ce1d	-0.00557877

exp_avg_sq f4 [2, 5]
0	0x00000000	0.0
1	0x394da09d	0.00019610157
2	0x3a481b53	0.0007633466
3	0x374811c8	1.1925069e-05
4	0x36706de2	3.5826747e-06
5	0x00000000	0.0
6	0x394da098	0.0001961015
7	0x3a481b50	0.00076334644
8	0x374811c7	1.1925068e-05
9	0x36706de2	3.5826747e-06

exp_avg f4 [2]
0	0xbeb39a42	-0.35078627
1	0x3eb39a42	0.35078627

exp_avg_sq f4 [2]
0	0x3b3b1415	0.0028545905
1	0x3b3b1415	0.0028545905
