MimicApp/lightning_logs/version_56/checkpoints/epoch=499-step=4999.ckpt (torch, 15605 bytes, 18 tensors)

lstm.weight_ih_l0 f4 [20, 34]
0	0xbd62bac8	-0.05535391
1	0xbea7535b	-0.32680783
2	0x3e1461b0	0.1449039
3	0xbdef3ab8	-0.116811216
4	0x3dd27828	0.10276824
5	0x3e50ae5c	0.20379013
6	0xbe80e3e3	-0.25173864
7	0xbeca2bf7	-0.39486668
8	0xbe8f0f34	-0.27941287
9	0x3da7eff0	0.08200061
10	0xbdc644bc	-0.09681079
11	0x3e53514c	0.20636481
12	0x3e29653c	0.16542524
13	0xbebbed08	-0.36704278
14	0xbea67880	-0.3251381
15	0x3ea8d98e	0.3297848
16	0xbed558b9	-0.41669253
17	0x3dc43c70	0.0958184
18	0xbe4ce16b	-0.20007865
19	0xbe22a6c6	-0.15883932
20	0x3ded1210	0.11575711
21	0x3e0134c8	0.1261779
22	0x3ea0fc44	0.31442463
23	0xbe17f6f2	-0.14840296
24	0x3d775d40	0.060391665
25	0x3e9e49da	0.3091572
26	0x3d9674f0	0.07346523
27	0x3e5645e8	0.20925105
28	0xbead815e	-0.33887762
29	0x3ee15656	0.44011182
30	0xbe82f2aa	-0.25575763
31	0xbe174b2c	-0.1477477
32	0x3def0b88	0.11672121
33	0xbec9f2fd	-0.39443198
34	0x3c87d011	0.016578706
35	0xbea90567	-0.33011934
36	0x3ecf87c1	0.4053326
37	0xbe1bd093	-0.15216284
38	0xbe60bc54	-0.21946841
39	0x3ef216a7	0.47282907
40	0x3eb642f9	0.3559797
41	0x3e64bf64	0.22338635
42	0xbeb7c44d	-0.35891953
43	0xbe2335b7	-0.1593846
44	0xbe9b7268	-0.30360723
45	0xbed40976	-0.41413468
46	0x3ea500bf	0.32227132
47	0x3eb93c6e	0.36178917
48	0x3e845b48	0.25850892
49	0xbe9894d5	-0.2980105
50	0xbe385a0d	-0.18003102
51	0xbeb0bf17	-0.3452079
52	0x3ec300d4	0.3808657
53	0x3dfd89aa	0.12379773
54	0x3e8151b7	0.25257656
55	0x3d98aef6	0.07455246
56	0x3eba2c02	0.363617
57	0xbe8bb719	-0.2728813
58	0x3ee7a0ca	0.4523986
59	0xbcc97b53	-0.024594938
60	0xbedbdd8f	-0.42942473
61	0xbdf750e9	-0.12075979
62	0xbd2a3a73	-0.041559648
63	0x3e858e4c	0.26085126
64	0x3ee56147	0.4480078
65	0xbda373f4	-0.07981101
66	0x3eb1b393	0.34707317
67	0x3ea35a3a	0.31904775
68	0xbf0819f7	-0.5316462
69	0x3e4e05c6	0.2011939
70	0xbea664ed	-0.32498875
71	0xbdd09d04	-0.10186198
72	0xbe653f15	-0.22387345
73	0x3e6c48c7	0.23074637
74	0xbc9cb19d	-0.019127661
75	0xbe29a5c0	-0.16567135
76	0x3ebbba9c	0.3666581
77	0x3cb216f4	0.02173946
78	0xbe673229	-0.22577728
79	0xbb48728f	-0.003058586
80	0x3e59c5aa	0.21266809
81	0x3ec340e8	0.38135457
82	0x3ec85dbc	0.39134014
83	0xbf147530	-0.57991314
84	0x3e83a6f7	0.25713322
85	0xbe8cee69	-0.27525643
86	0x3eb8ba23	0.3607951
87	0xbebf7f3f	-0.3740177
88	0x3f0a749d	0.5408419
89	0xbe06776a	-0.1313149
90	0x3e3c9db4	0.18419534
91	0xbebbba6a	-0.3666566
92	0xbe628690	-0.22121644
93	0xbe268ebe	-0.1626539
94	0xbb834d35	-0.0040070065
95	0x3e7af4ea	0.2450749
96	0x3ed16b66	0.4090225
97	0x3e98aef5	0.29820982
98	0xbe5f09a9	-0.21781029
99	0xbe4c9f64	-0.19982678
100	0x3e74fb42	0.23923972
101	0x3e8b0ddb	0.27159008
102	0xbed936a4	-0.424245
103	0xbd6aa29c	-0.057283983
104	0x3e98bf6a	0.29833537
105	0x3d9aef12	0.0756513
106	0x3e1ff055	0.15619023
107	0x3e954d6a	0.29160625
108	0xbe46b61a	-0.19405404
109	0xbe9404d4	-0.28909934
110	0x3f19488a	0.5987631
111	0x3e4beb0f	0.19913886
112	0xbec95222	-0.39320475
113	0x3c4b3d81	0.0124048
114	0x3d12f493	0.035877775
115	0xbcb2a24b	-0.021805903
116	0x3c2bcb66	0.010485506
117	0xbe70e25e	-0.23523852
118	0xbe7bc501	-0.2458687
119	0x3d89ef2d	0.06735072
120	0xbe81ecfb	-0.25376114
121	0xbdfdcad7	-0.12392204
122	0xbed42e4d	-0.41441575
123	0x3e1f29a0	0.15543222
124	0xbec28a45	-0.37996116
125	0xbe8ec483	-0.27884302
126	0x3e9335ac	0.28751886
127	0xbe93940f	-0.28823897
128	0xbec06e10	-0.3758397
129	0xbe61b758	-0.22042596
130	0x3e96fbc1	0.29488948
131	0x3e4b3139	0.19842996
132	0xbe6848ae	-0.22683975
133	0x3ea8fbe8	0.3300469
134	0xbe4c0e4d	-0.1992733
135	0xbccd61b5	-0.025071004
136	0x3e943025	0.2894298
137	0x3e4073d5	0.18794186
138	0xbdddedff	-0.1083641
139	0xbdb56e8b	-0.08858975
140	0xbe887f97	-0.26659843
141	0xbed5f406	-0.41787738
142	0x3e10f24b	0.14154927
143	0x3dc02f08	0.093839705
144	0x3ea1a869	0.315738
145	0xba846c84	-0.0010103141
146	0xbe97d7b6	-0.29656762
147	0x3d14b8ef	0.03630918
148	0xbe58cb30	-0.2117126
149	0xbe06fbc5	-0.1318198
150	0xbc525bd0	-0.012839273
151	0x3eae995f	0.34101388
152	0xbebe81c3	-0.37208375
153	0x3d478d5d	0.0487188
154	0xbe93aadf	-0.28841302
155	0xbd0ca41b	-0.03433619
156	0xbd0d4da7	-0.034497883
157	0x3e585480	0.21125984
158	0xbe18c06e	-0.14917156
159	0x3e95fc55	0.29294077
160	0x3ea3f82e	0.32025284
161	0xbec278fd	-0.37982932
162	0xbe0a8729	-0.13528122
163	0x3ed5461f	0.4165506
164	0xbe7e4ba6	-0.24833545
165	0xbe94c380	-0.29055405
166	0xbee5c43f	-0.44876286
167	0xbe699171	-0.22809388
168	0xbe97db0e	-0.29659313
169	0x3e460971	0.19339539
170	0xbe9537fc	-0.29144275
171	0x3df6e568	0.120554745
172	0x3e37da8c	0.17954463
173	0xbe215bae	-0.1575763
174	0x3e3385c0	0.1753149
175	0x3e836146	0.2566015
176	0xbeb610cc	-0.3555969
177	0xbe4ae0df	-0.19812344
178	0xbe372fd0	-0.17889333
179	0xbe6994f5	-0.22810729
180	0xbc0e0d00	-0.008670092
181	0xbe832dcc	-0.25620878
182	0x3ec303f2	0.38088948
183	0x3e5d9220	0.21637774
184	0xbc496f20	-0.012294561
185	0x3e372934	0.17886811
186	0x3e0415f8	0.12899005
187	0xbe159fa2	-0.14611676
188	0x3e6f16f4	0.233486
189	0xbdb80c44	-0.089867145
190	0x3eb5f2c4	0.35536778
191	0x3d73ef20	0.05955422
192	0x3de4f780	0.111800194
193	0xbe912916	-0.2835166
194	0x3e823080	0.25427628
195	0xbec8a1cc	-0.3918594
196	0x3d0b78f8	0.03405091
197	0x3e29ccb0	0.16581988
198	0x3eae0744	0.33989918
199	0x3e83a032	0.25708157
200	0xbeb8f102	-0.36121374
201	0x3ebe3586	0.3715021
202	0x3e89b278	0.26893973
203	0xbdf4f248	-0.11960274
204	0xbe64dcc9	-0.22349848
205	0x3d123d2a	0.03570286
206	0x3ea3919b	0.31947026
207	0x3e938d40	0.28818703
208	0xbe43f420	-0.19136095
209	0x3e2bfbb2	0.16795233
210	0xbe41b23e	-0.1891565
211	0x3e560698	0.20900953
212	0x3eacb57e	0.33732218
213	0x3ec2166a	0.37907726
214	0xbe38f8f2	-0.18063715
215	0xbeb1b3d3	-0.34707507
216	0x3c6fa6cc	0.01462717
217	0xbc00423e	-0.007828293
218	0xbe47b2e0	-0.19501829
219	0x3d3b2dde	0.04569804
220	0xbe7af889	-0.24508871
221	0xbed2c675	-0.41167036
222	0x3e5a34fc	0.21309274
223	0x3d27ff08	0.0410147
224	0xbdfa3093	-0.12216296
225	0xbecc8ef1	-0.39952806
226	0xbd816ba1	-0.06319357
227	0x3e3aa4af	0.18226884
228	0xbcd6792c	-0.026180826
229	0xbeb18cf1	-0.34677842
230	0xbde34dfc	-0.11098859
231	0x3dc47cd0	0.095941186
232	0x3eb79b27	0.3586056
233	0xbe6a9139	-0.2290696
234	0xbed76b83	-0.42074212
235	0xbce558fe	-0.027996536
236	0xbe9b70c4	-0.3035947
237	0xbd589102	-0.052872665
238	0xbddb666c	-0.10712895
239	0xbdfe4b60	-0.124167204
240	0x3e196760	0.1498084
241	0xbde20d60	-0.11037707
242	0xbe5612e5	-0.20905645
243	0xbe7f61f9	-0.24939717
244	0xbd04bc78	-0.0324063
245	0xbc3a6b40	-0.011378109
246	0xbe9d4699	-0.30717924
247	0x3ee4e832	0.447084
248	0xbe03bd94	-0.12865287
249	0xbee4b880	-0.44672012
250	0x3ed66c36	0.41879433
251	0xbec1d46a	-0.37857372
252	0xbded47bc	-0.11585948
253	0xbdbfb19c	-0.09360048
254	0xbcd0ba50	-0.025479466
255	0x3dc17668	0.09446412

lstm.weight_hh_l0 f4 [20, 5]
0	0x3e2ac0a0	0.16675043
1	0xbe71f23e	-0.23627564
2	0xbe8c55cc	-0.27409208
3	0xbe0360b2	-0.12829855
4	0xbe63b94f	-0.22238658
5	0x3e4c9ef8	0.19982517
6	0xbeb7b7a5	-0.35882297
7	0xbc9dad6e	-0.019247737
8	0xbe05ef4e	-0.13079569
9	0x3ebc9c10	0.36837816
10	0x3e78feb4	0.24315912
11	0xbd0d18ea	-0.034447588
12	0x3f7e2426	0.9927391
13	0xbe69374f	-0.22775005
14	0x3e6d00f6	0.23144898
15	0xbe294760	-0.16531134
16	0x3c2b27ae	0.010446472
17	0xbdc3f7ec	-0.09568772
18	0xbe6a7959	-0.22897853
19	0xbe829df9	-0.2551115
20	0xbebdfc81	-0.37106708
21	0x3e146384	0.14491087
22	0xbed0906a	-0.4073518
23	0xbe83b836	-0.2572648
24	0x3c15c450	0.009141043
25	0x3d845368	0.06461221
26	0x3d4b0268	0.04956284
27	0x3e0ebde8	0.13939631
28	0x3e68c1a8	0.22730124
29	0xbded7c18	-0.11595935
30	0xbe598025	-0.2124029
31	0xbe628718	-0.22121847
32	0x3e12b748	0.14327729
33	0x3df184b8	0.11792892
34	0x3ebfdb28	0.3747189
35	0x3d618ba0	0.055064797
36	0xbc35f580	-0.011105895
37	0x3dcb3208	0.09921652
38	0xbeaeacee	-0.3411631
39	0x3ed6c43c	0.4194659
40	0xbc954f90	-0.018226415
41	0xbeb00ba3	-0.34383878
42	0x3e777ab0	0.24167895
43	0xbf0ff328	-0.562304
44	0xbdc6ba88	-0.09703547
45	0x3eb195f6	0.34684724
46	0xbedcad68	-0.43101048
47	0xbcc0fdf0	-0.023558587
48	0xbdd9311c	-0.1060507
49	0xbee05954	-0.43818152
50	0x3bac6240	0.0052607358
51	0xbe4874ec	-0.19575852
52	0xbdcf69ec	-0.10127625
53	0x3ee462b6	0.4460656
54	0xbee46ce7	-0.44614336
55	0x3ebe087a	0.37115842
56	0x3dac02d0	0.08398974
57	0xbd2e8bb0	-0.042613685
58	0x3df14250	0.11780226
59	0x3d566400	0.05234146
60	0x3ebdd4d6	0.37076443
61	0x3e041a0b	0.1290056
62	0x3d9847c4	0.07435563
63	0x3e90cbeb	0.28280577
64	0xbe81686f	-0.2527499
65	0xbdd90a4c	-0.10597667
66	0xbee28838	-0.44244552
67	0x3ec399c4	0.3820325
68	0xbcbac136	-0.022797208
69	0x3da04ed2	0.07827534
70	0x3db780f8	0.08960146
71	0x3ea9ac40	0.3313923
72	0xbd8ad5f0	-0.067790866
73	0x3e9895fe	0.29801935
74	0x3e563fbc	0.2092275
75	0xbb9aadc0	-0.0047204196
76	0x3e003974	0.12521917
77	0xbe98c440	-0.29837227
78	0x3e860590	0.2617612
79	0xbec22841	-0.37921336
80	0x3dff1a20	0.12456155
81	0x3e965906	0.29364794
82	0xbeff02a3	-0.498067
83	0xbec4ce08	-0.3843844
84	0x3e70284f	0.23452877
85	0xbd9122ec	-0.07086739
86	0xbe952548	-0.29130006
87	0x3f0b1d76	0.5434183
88	0x3bff437a	0.0077900263
89	0xbd518158	-0.051148742
90	0x3eacef86	0.33776492
91	0x3ed7f4cc	0.42178953
92	0x3e900b1c	0.28133476
93	0x3e5c3932	0.21506193
94	0x3e3bb26f	0.18329786
95	0x3e703304	0.23456961
96	0x3e37666d	0.17910166
97	0x3df61f22	0.12017657
98	0x3ea9c608	0.33158898
99	0xbec1ef47	-0.37877867

lstm.bias_ih_l0 f4 [20]
0	0xbea3374a	-0.3187812
1	0x3c8f4dd2	0.017493162
2	0xbeb3475c	-0.3501538
3	0xbd818d38	-0.063257635
4	0x3d5cedb3	0.053937625
5	0x3ec4fe66	0.3847534
6	0xbea86bdd	-0.32894793
7	0xbd2de820	-0.0424577
8	0x3ece5994	0.40302718
9	0x3e8c12d0	0.27358103
10	0xbede28c4	-0.43390477
11	0x3e80c704	0.25151837
12	0x3eb20e54	0.34776556
13	0xbe9a7999	-0.30170897
14	0x3e509198	0.2036804
15	0x3e8d771a	0.2762993
16	0x3e69dfeb	0.22839324
17	0x3e12efed	0.14349337
18	0xbe04659a	-0.12929383
19	0xbef6968d	-0.48161736

lstm.bias_hh_l0 f4 [20]
0	0xbd59daf0	-0.05318731
1	0xbe7bf95e	-0.24606845
2	0x3ec0af1a	0.37633592
3	0xbe25f5c3	-0.16207032
4	0xbea75619	-0.32682875
5	0x3ecaaa6e	0.39583153
6	0xbe3eb01a	-0.18621865
7	0xbda1a598	-0.078929126
8	0xbe8c46e0	-0.27397823
9	0x3e3d98d8	0.18515337
10	0x3d944280	0.07239246
11	0x3d70cd40	0.05878949
12	0x3d92c3c7	0.07166248
13	0x3d69e339	0.057101462
14	0xbd937984	-0.07200912
15	0x3d9b05c8	0.07569462
16	0x3e09d25b	0.1345915
17	0xbcd54384	-0.02603317
18	0xbe9d48cf	-0.3071961
19	0x3dd3d3a9	0.10343105

linear.weight f4 [2, 5]
0	0xbea891a7	-0.32923624
1	0x3e47f026	0.19525203
2	0xbe532217	-0.20618473
3	0x3f06df6a	0.5268465
4	0x3eb5423e	0.354021
5	0x3dec6110	0.11541951
6	0x3da281ca	0.079349115
7	0xbe7742a3	-0.24146514
8	0xbeba6a2b	-0.36409125
9	0x3d3874aa	0.045033135

linear.bias f4 [2]
0	0x3ff1282b	1.8840383
1	0xc01ad3f7	-2.4191873

exp_avg f4 [20, 34]
0	0x1fb83df5	7.802953e-20
1	0x2001a25f	1.0980449e-19
2	0x1f3bf9db	3.9805466e-20
3	0x1ff12754	1.0213253e-19
4	0x1f9fb6a7	6.764129e-20
5	0x1f7aa90b	5.3079388e-20
6	0x1eb57e85	1.9216448e-20
7	0x00000000	0.0
8	0x9e04d2e7	-7.031635e-21
9	0x1e264a3b	8.803317e-21
10	0x1c25f002	5.4904123e-22
11	0x1e19bba0	8.1385525e-21
12	0x1f03b488	2.788966e-20
13	0x1fdfbae3	9.475335e-20
14	0x1ec50d05	2.0863571e-20
15	0x203b7e36	1.5881276e-19
16	0x1ebaae06	1.976549e-20
17	0x1e135cab	7.8012785e-21
18	0x20081242	1.1525689e-19
19	0x1dec0ff6	6.2485183e-21
20	0x1eec7605	2.5036284e-20
21	0x1fe59980	9.723922e-20
22	0x1ce73b3e	1.5301611e-21
23	0x1d158730	1.9789876e-21
24	0x1e341434	9.5332986e-21
25	0x1dc78842	5.281575e-21
26	0x1f1c15c3	3.3052286e-20
27	0x1e8d0c02	1.4933922e-20
28	0x1f0d4292	2.9912977e-20
29	0x1e3ed15e	1.0101812e-20
30	0x1f629bc6	4.7986214e-20
31	0x1ebbb784	1.9875295e-20
32	0x20695983	1.9765485e-19
33	0x1f7e1783	5.380604e-20
34	0x36716ac2	3.597394e-06
35	0x367be70b	3.75364e-06
36	0x35bcbbb4	1.406172e-06
37	0x36b278fc	5.318898e-06
38	0x3668f0de	3.4710897e-06
39	0x363a1bb3	2.7732283e-06
40	0x354f249b	7.7166777e-07
41	0x00000000	0.0
42	0xb3ba0fc2	-8.664166e-08
43	0x355a2c8c	8.127615e-07
44	0x3289bbb9	1.6034265e-08
45	0x34985390	2.8373006e-07
46	0x35a64149	1.2386964e-06
47	0x367edbcc	3.7976888e-06
48	0x36a05a06	4.7788517e-06
49	0x358b5c0e	1.0383098e-06
50	0x38aa0da9	8.108776e-05
51	0x349ac5ce	2.8828657e-07
52	0x368d176f	4.2048555e-06
53	0x32fcb8c0	2.9420676e-08
54	0x32c50ac7	2.293872e-08
55	0x3680e6c0	3.84156e-06
56	0x339237b7	6.808789e-08
57	0x338be14d	6.513674e-08
58	0x33f3692e	1.13347014e-07
59	0x3419f5e2	1.4338687e-07
60	0x33835ff8	6.1176195e-08
61	0x33ee17b1	1.1087048e-07
62	0x3596eaa1	1.1244157e-06
63	0x34d557be	3.9738183e-07
64	0x35874587	1.0078519e-06
65	0x34aaabe9	3.179005e-07
66	0x37c39eb3	2.3319712e-05
67	0x36e99a23	6.961885e-06
68	0x32e772ec	2.69442e-08
69	0xb22a8b83	-9.927024e-09
70	0x303d7654	6.8925954e-10
71	0x3048f866	7.311257e-10
72	0xb2b6e13c	-2.1290013e-08
73	0x30030471	4.7663834e-10
74	0x31b37992	5.2234066e-09
75	0x00000000	0.0
76	0xae44e3f5	-4.4767707e-11
77	0xaff678e5	-4.483304e-10
78	0x2cf6e179	7.016773e-12
79	0x2e7eedde	5.7964182e-11
80	0x2f81732d	2.35468e-10
81	0x301876dc	5.5466187e-10
82	0x2e96520c	6.835785e-11
83	0x328e0a6e	1.6535719e-08
84	0x301094a0	5.2598104e-10
85	0x2e92f69f	6.68312e-11
86	0x318431a3	3.8473487e-09
87	0x308fda94	1.0466743e-09
88	0x2d793027	1.4164703e-11
89	0xb210fc53	-8.439275e-09
90	0x2cab394e	4.8664744e-12
91	0x2d9ce724	1.7837794e-11
92	0x2e2c7c6f	3.921879e-11
93	0x304b3454	7.392533e-10
94	0xadb4b1f4	-2.0542658e-11
95	0xadfc72eb	-2.8700117e-11
96	0xb0b23f2f	-1.2969162e-09
97	0x2ebfafe1	8.716917e-11
98	0x2f3f737e	1.741238e-10
99	0x2ea0f012	7.318603e-11
100	0x3066892d	8.386845e-10
101	0x3063d54f	8.288525e-10
102	0x38a0caac	7.667145e-05
103	0x38d6cdf8	0.0001024268
104	0x38190e8d	3.6491594e-05
105	0x3931dd09	0.00016962377
106	0x38edbf72	0.000113367
107	0x38b4b93f	8.6175736e-05
108	0x37d90e8c	2.587519e-05
109	0x00000000	0.0
110	0xb67327c5	-3.623297e-06
111	0x37de4941	2.6498574e-05
112	0x34ddd686	4.1320544e-07
113	0x37003bd8	7.643328e-06
114	0x3821bd10	3.856147e-05
115	0x38c9ba3c	9.619116e-05
116	0x3825baa8	3.9512903e-05
117	0x37dc4e99	2.6262644e-05
118	0x384665f2	4.7301823e-05
119	0x37154be8	8.898765e-06
120	0x38e3fd92	0.00010871435
121	0x35a76fc7	1.2475001e-06
122	0x368829a9	4.0579657e-06
123	0x394c68ee	0.00019494045
124	0x361193ec	2.1692786e-06
125	0x3608e60a	2.039948e-06
126	0x36820afe	3.8755816e-06
127	0x368c94cf	4.1896487e-06
128	0x35bb02c2	1.3933388e-06
129	0x35a05977	1.1946967e-06
130	0x3825484b	3.9406394e-05
131	0x376803e2	1.3829182e-05
132	0x37e4e86c	2.7287948e-05
133	0x372be3bd	1.0245419e-05
134	0x38cb3069	9.6888114e-05
135	0x393e0ae8	0.00018123875
136	0x2f130244	1.3370377e-10
137	0x2f100baa	1.3100868e-10
138	0x2e5cab83	5.017454e-11
139	0x2f199abc	1.3970242e-10
140	0x2eccab41	9.307267e-11
141	0x2ea0c57b	7.311037e-11
142	0x2e067095	3.0568065e-11
143	0x00000000	0.0
144	0xad376643	-1.0425052e-11
145	0x2dd30a34	2.3992454e-11
146	0x2b5b1f02	7.784746e-13
147	0x2d2eba57	9.932131e-12
148	0x2e44aac3	4.4716907e-11
149	0x2f0e0ad3	1.291867e-10
150	0x2eb851ad	8.38186e-11
151	0x2f082d8b	1.2385308e-10
152	0x2eb2a4d1	8.12378e-11
153	0x2d3fc198	1.09000795e-11
154	0x2f1c1a80	1.4197532e-10
155	0x2cc7c758	5.6780518e-12
156	0x2bc11843	1.3720209e-12
157	0x2fa5b16e	3.0139397e-10
158	0x2c2eff0b	2.4868464e-12
159	0x2c6f0986	3.396923e-12
160	0x2d7438b9	1.3882389e-11
161	0x2d0b1084	7.904902e-12
162	0x2ae5f807	4.0850675e-13
163	0x2e462ebb	4.5061493e-11
164	0x2e2f15d1	3.980977e-11
165	0x2d63d193	1.2949991e-11
166	0x2e34af2e	4.1082852e-11
167	0x2da02708	1.8207227e-11
168	0x2f9c5b09	2.844092e-10
169	0x2feb5db1	4.2812823e-10
170	0x00000000	0.0
171	0x00000000	0.0
172	0x00000000	0.0
173	0x00000000	0.0
174	0x00000000	0.0
175	0x00000000	0.0
176	0x00000000	0.0
177	0x00000000	0.0
178	0x00000000	0.0
179	0x00000000	0.0
180	0x00000000	0.0
181	0x00000000	0.0
182	0x00000000	0.0
183	0x00000000	0.0
184	0x00000000	0.0
185	0x00000000	0.0
186	0x00000000	0.0
187	0x00000000	0.0
188	0x00000000	0.0
189	0x00000000	0.0
190	0x00000000	0.0
191	0x00000000	0.0
192	0x00000000	0.0
193	0x00000000	0.0
194	0x00000000	0.0
195	0x00000000	0.0
196	0x00000000	0.0
197	0x00000000	0.0
198	0x00000000	0.0
199	0x00000000	0.0
200	0x00000000	0.0
201	0x00000000	0.0
202	0x00000000	0.0
203	0x00000000	0.0
204	0x00000004	6e-45
205	0x00000004	6e-45
206	0x00000004	6e-45
207	0x00000004	6e-45
208	0x00000004	6e-45
209	0x00000004	6e-45
210	0x00000004	6e-45
211	0x00000000	0.0
212	0x80000004	-6e-45
213	0x00000004	6e-45
214	0x00000004	6e-45
215	0x00000004	6e-45
216	0x00000004	6e-45
217	0x00000004	6e-45
218	0x00000004	6e-45
219	0x00000004	6e-45
220	0x00000004	6e-45
221	0x00000004	6e-45
222	0x00000004	6e-45
223	0x00000004	6e-45
224	0x00000004	6e-45
225	0x00000004	6e-45
226	0x00000004	6e-45
227	0x00000004	6e-45
228	0x00000004	6e-45
229	0x00000004	6e-45
230	0x00000004	6e-45
231	0x00000004	6e-45
232	0x00000004	6e-45
233	0x00000004	6e-45
234	0x00000004	6e-45
235	0x00000004	6e-45
236	0x00000004	6e-45
237	0x00000004	6e-45
238	0x88842e38	-7.955327e-34
239	0x88dd5f7f	-1.3323405e-33
240	0x882390a7	-4.9221066e-34
241	0x88d22726	-1.2648119e-33
242	0x888292a8	-7.858569e-34
243	0x884348d9	-5.876631e-34
244	0x87606060	-1.6880209e-34
245	0x00000000	0.0
246	0x04e0660d	5.2755866e-36
247	0x87d470c4	-3.1964492e-34
248	0x8508209c	-6.400679e-36
249	0x87027634	-9.81485e-35
250	0x884b4fc3	-6.118185e-34
251	0x889f2fc4	-9.580694e-34
252	0x88b7ecdd	-1.1069598e-33
253	0x87df6a53	-3.3615803e-34
254	0x88bdb9f3	-1.141874e-33
255	0x8716c646	-1.1343013e-34

exp_avg_sq f4 [20, 34]
0	0x01fde2d6	9.3263016e-38
1	0x027b6156	1.8468502e-37
2	0x010423ed	2.4270346e-38
3	0x02597abe	1.5977867e-37
4	0x01bec84d	7.0082395e-38
5	0x016af57d	4.3155141e-38
6	0x003d979b	5.656351e-39
7	0x00000000	0.0
8	0x00083f73	7.57445e-40
9	0x000ced3a	1.187127e-39
10	0x00000da0	4.888e-42
11	0x000b0c33	1.014567e-39
12	0x0081bcbc	1.1914484e-38
13	0x023b30bc	1.3752576e-37
14	0x00489a85	6.667587e-39
15	0x0303760f	3.8632965e-37
16	0x00412988	5.984206e-39
17	0x000a26b6	9.32242e-40
18	0x028a7b78	2.0348145e-37
19	0x0006832c	5.98069e-40
20	0x00688c9c	9.601333e-39
21	0x02452507	1.44839e-37
22	0x0000636a	3.5663e-41
23	0x0000a731	5.9977e-41
24	0x000f289b	1.392099e-39
25	0x0004a719	4.27285e-40
26	0x00b63727	1.6733845e-38
27	0x002532e1	3.416165e-39
28	0x00953f53	1.3706205e-38
29	0x00110569	1.563144e-39
30	0x01400958	3.5271534e-38
31	0x0041e35b	6.050867e-39
32	0x034ba1cd	5.9842076e-37
33	0x0171712e	4.4345912e-38
34	0x2fb6d29c	3.3255254e-10
35	0x2fae43a0	3.1698466e-10
36	0x2e510ff5	4.753527e-11
37	0x303a7238	6.782872e-10
38	0x2f9830f9	2.7683436e-10
39	0x2f3da9de	1.7249799e-10
40	0x2d6c11d8	1.3419009e-11
41	0x00000000	0.0
42	0x2a867f45	2.3891493e-13
43	0x2db76021	2.0847381e-11
44	0x27d32e1f	5.861427e-15
45	0x2c0001ce	1.8190896e-12
46	0x2e8dd8b0	6.450429e-11
47	0x2f9f5f68	2.8989722e-10
48	0x300dffd6	5.1659066e-10
49	0x2d3bf028	1.0683045e-11
50	0x34200141	1.4901617e-07
51	0x2c0e4600	2.0218272e-12
52	0x2fcbec64	3.709345e-10
53	0x28bd96a7	2.104855e-14
54	0x28580bad	1.19929404e-14
55	0x300bc835	5.0852417e-10
56	0x2b104454	5.12539e-13
57	0x29fb8801	1.1170232e-13
58	0x2a9cd535	2.785911e-13
59	0x2b04449b	4.699103e-13
60	0x29d4b69e	9.44637e-14
61	0x2a9db89c	2.80169e-13
62	0x2e1b9304	3.5373496e-11
63	0x2c91ebcd	4.147327e-12
64	0x2de63982	2.6173511e-11
65	0x2ccc4b51	5.8063905e-12
66	0x3246553d	1.1544498e-08
67	0x3106c305	1.9610422e-09
68	0x31afab09	5.1126148e-09
69	0x31831724	3.8152326e-09
70	0x302163d8	5.8713345e-10
71	0x31cac7a0	5.9016685e-09
72	0x30fd0c6b	1.8411702e-09
73	0x30ec5273	1.7194693e-09
74	0x2f8317d9	2.3845706e-10
75	0x00000000	0.0
76	0x2cc6d8bd	5.6515613e-12
77	0x2f3b7843	1.7050276e-10
78	0x2a43e9b5	1.7400563e-13
79	0x2dd36df2	2.4036748e-11
80	0x30017675	4.7098264e-10
81	0x311ead40	2.3090507e-09
82	0x2f875c28	2.4621838e-10
83	0x31a977ab	4.932152e-09
84	0x31026124	1.8972708e-09
85	0x2e17d529	3.452275e-11
86	0x31a2fdf6	4.7436925e-09
87	0x2d445d28	1.1161995e-11
88	0x2d5171bb	1.1905528e-11
89	0x3282c713	1.522452e-08
90	0x2ba114ed	1.1445546e-12
91	0x2c1e366e	2.2483365e-12
92	0x2d38c32a	1.0502524e-11
93	0x2d4fe7b8	1.181804e-11
94	0x2d0918b9	7.793038e-12
95	0x2d86ad4d	1.5310997e-11
96	0x2fb9b85e	3.3782305e-10
97	0x2e44699b	4.4659037e-11
98	0x2fe679b3	4.192323e-10
99	0x2dd7edea	2.4548325e-11
100	0x31b9f2df	5.41182e-09
101	0x31206c66	2.3344682e-09
102	0x34dcce8e	4.1128482e-07
103	0x352703ed	6.221806e-07
104	0x33bfaffd	8.926143e-08
105	0x359aacd7	1.1524197e-06
106	0x35161e40	5.5923374e-07
107	0x34a65f7d	3.0989386e-07
108	0x32ba295d	2.167206e-08
109	0x00000000	0.0
110	0x301a230c	5.607468e-10
111	0x332bf52f	4.0037033e-08
112	0x2de74ec5	2.629664e-11
113	0x3175a65d	3.5746759e-09
114	0x33e2a863	1.05545745e-07
115	0x350b7f46	5.196674e-07
116	0x347cd939	2.3548354e-07
117	0x32d10a59	2.4335508e-08
118	0x3473f599	2.2720486e-07
119	0x319c6c0a	4.55248e-09
120	0x3546e061	7.408726e-07
121	0x2ec0545c	8.7461344e-11
122	0x318205f0	3.784173e-09
123	0x35ebf02b	1.7578762e-06
124	0x2fc3b645	3.5599804e-10
125	0x2f85ca2c	2.433621e-10
126	0x30524339	7.6493084e-10
127	0x309af470	1.1274448e-09
128	0x2fa81812	3.0576125e-10
129	0x317f5ea7	3.7161187e-09
130	0x33913630	6.761945e-08
131	0x3204ac5c	7.722601e-09
132	0x338e87c2	6.6370845e-08
133	0x32622504	1.3163348e-08
134	0x35c2bb00	1.450855e-06
135	0x368fb7d4	4.2831325e-06
136	0x32902507	1.6780644e-08
137	0x32b579e5	2.1126604e-08
138	0x314b2ad0	2.9564724e-09
139	0x32e9099f	2.7129145e-08
140	0x3232124f	1.03651265e-08
141	0x31dd1e7a	6.4354113e-09
142	0x307b91e4	9.152059e-10
143	0x00000000	0.0
144	0x2e61371d	5.1208027e-11
145	0x309fb77c	1.1620922e-09
146	0x2b4305f7	6.9286195e-13
147	0x2f0180e2	1.177827e-10
148	0x315de0bd	3.2287482e-09
149	0x32823a27	1.5160436e-08
150	0x32566287	1.2478842e-08
151	0x318a8033	4.030903e-09
152	0x320c08fd	8.151116e-09
153	0x2f3739dc	1.6664309e-10
154	0x32c4d73b	2.2915279e-08
155	0x2d4dc6aa	1.1697013e-11
156	0x2ef89ceb	1.13056085e-10
157	0x3419f852	1.4339574e-07
158	0x2dbce84a	2.1476283e-11
159	0x2d1de227	8.974633e-12
160	0x2e8a7952	6.297064e-11
161	0x2e2cf325	3.9324228e-11
162	0x2d843fa3	1.5034923e-11
163	0x2fe7ae3f	4.2142465e-10
164	0x311a5e38	2.2463507e-09
165	0x2f8c1f42	2.5488062e-10
166	0x30f3ee8d	1.7748377e-09
167	0x30203d30	5.8294614e-10
168	0x33416624	4.502921e-08
169	0x34328943	1.6627477e-07
170	0x00000000	0.0
171	0x00000000	0.0
172	0x00000000	0.0
173	0x00000000	0.0
174	0x00000000	0.0
175	0x00000000	0.0
176	0x00000000	0.0
177	0x00000000	0.0
178	0x00000000	0.0
179	0x00000000	0.0
180	0x00000000	0.0
181	0x00000000	0.0
182	0x00000000	0.0
183	0x00000000	0.0
184	0x00000000	0.0
185	0x00000000	0.0
186	0x00000000	0.0
187	0x00000000	0.0
188	0x00000000	0.0
189	0x00000000	0.0
190	0x00000000	0.0
191	0x00000000	0.0
192	0x00000000	0.0
193	0x00000000	0.0
194	0x00000000	0.0
195	0x00000000	0.0
196	0x00000000	0.0
197	0x00000000	0.0
198	0x00000000	0.0
199	0x00000000	0.0
200	0x00000000	0.0
201	0x00000000	0.0
202	0x00000000	0.0
203	0x00000000	0.0
204	0x126e40bf	7.5179364e-28
205	0x12a8ea5c	1.0660065e-27
206	0x113c58d6	1.485796e-28
207	0x13550ce2	2.6890731e-27
208	0x12a5e48f	1.0469308e-27
209	0x120c4704	4.4263744e-28
210	0x10d47dc2	8.3813017e-29
211	0x00000000	0.0
212	0x0d0c5379	4.3241307e-31
213	0x110c4773	1.106607e-28
214	0x0b8978ba	5.295213e-32
215	0x0eea3fb0	5.7746783e-30
216	0x11a11e29	2.5419909e-28
217	0x122ca575	5.447757e-28
218	0x1045d0e7	3.9012332e-29
219	0x0f5b360a	1.0807941e-29
220	0x1210b20d	4.5657853e-28
221	0x0f16ff4f	7.444742e-30
222	0x12c40cdd	1.237251e-27
223	0x0b0c84c5	2.7062904e-32
224	0x0d1aa9e7	4.7659426e-31
225	0x110c48e7	1.1066517e-28
226	0x0c4a02bb	1.5562336e-31
227	0x0d29bc93	5.2304134e-31
228	0x0d9dd0d1	9.726143e-31
229	0x0e39846a	2.2866766e-30
230	0x0bb38e54	6.9162444e-32
231	0x0bb38ebb	6.916305e-32
232	0x10fd794b	9.9977786e-29
233	0x0f72964d	1.1960468e-29
234	0x10d54500	8.412e-29
235	0x0f3f3483	9.4271404e-30
236	0x12aeaf95	1.1024228e-27
237	0x13659a5a	2.8979965e-27
238	0x00000000	0.0
239	0x00000000	0.0
240	0x00000000	0.0
241	0x00000000	0.0
242	0x00000000	0.0
243	0x00000000	0.0
244	0x00000000	0.0
245	0x00000000	0.0
246	0x00000000	0.0
247	0x00000000	0.0
248	0x00000000	0.0
249	0x00000000	0.0
250	0x00000000	0.0
251	0x00000000	0.0
252	0x00000000	0.0
253	0x00000000	0.0
254	0x00000000	0.0
255	0x00000000	0.0

exp_avg f4 [20, 5]
0	0x8025aaac	-3.459139e-39
1	0x80000004	-6e-45
2	0x1c79ed22	8.2693676e-22
3	0x0000ea85	8.413e-41
4	0x80000072	-1.6e-43
5	0x00000000	0.0
6	0xb28079f2	-1.4956616e-08
7	0x32f2c0bb	2.8260152e-08
8	0x00000000	0.0
9	0x00000000	0.0
10	0x0a0cd7ab	6.7813174e-33
11	0x80000004	-6e-45
12	0xb0ba509f	-1.3556195e-09
13	0x173cd587	6.1015586e-25
14	0x8c9d1a3d	-2.4205472e-31
15	0x81f00ec3	-8.818326e-38
16	0x838b58a7	-8.190039e-37
17	0x350ca50b	5.2394233e-07
18	0x330599ce	3.110636e-08
19	0x977814b2	-8.0159243e-25
20	0x800003db	-1.383e-42
21	0x00000004	6e-45
22	0x2b911d2a	1.0310964e-12
23	0xa2cc6575	-5.5401733e-18
24	0x82fc9b3d	-3.7117174e-37
25	0x00000000	0.0
26	0x00000000	0.0
27	0x00000000	0.0
28	0x00000000	0.0
29	0x00000000	0.0
30	0x00000000	0.0
31	0x00000004	6e-45
32	0x00000004	6e-45
33	0x00000004	6e-45
34	0x80000004	-6e-45
35	0x00000000	0.0
36	0x80000004	-6e-45
37	0x8557ea9a	-1.0152341e-35
38	0x0410a20e	1.700153e-36
39	0x00000004	6e-45
40	0x80000004	-6e-45
41	0x00000004	6e-45
42	0x31e0d428	6.5433774e-09
43	0x32da637f	2.5423786e-08
44	0xab663036	-8.177932e-13
45	0x00000000	0.0
46	0x00000004	6e-45
47	0x00000004	6e-45
48	0x00000004	6e-45
49	0x00000000	0.0
50	0x00000000	0.0
51	0x00000000	0.0
52	0x00000000	0.0
53	0x00000000	0.0
54	0x00000000	0.0
55	0x00000000	0.0
56	0x00000004	6e-45
57	0x80e4564c	-2.096945e-38
58	0x00000000	0.0
59	0x00000000	0.0
60	0x00000000	0.0
61	0x80000004	-6e-45
62	0xac97e751	-4.3173594e-12
63	0x95db34a7	-8.8536466e-26
64	0x00000004	6e-45
65	0x80000004	-6e-45
66	0x00000004	6e-45
67	0xaaaee239	-3.1065583e-13
68	0x273e087a	2.6372392e-15
69	0x124a0e73	6.375777e-28
70	0x00000000	0.0
71	0x00000000	0.0
72	0x00000000	0.0
73	0x00000000	0.0
74	0x00000000	0.0
75	0x000055b3	3.0743e-41
76	0x80000004	-6e-45
77	0x974d1027	-6.625946e-25
78	0x0000ec83	8.4844e-41
79	0x00000020	4.5e-44
80	0x00000004	6e-45
81	0xb287341b	-1.5739763e-08
82	0xb292e591	-1.7101032e-08
83	0x80000fd5	-5.68e-42
84	0x80000004	-6e-45
85	0x00000004	6e-45
86	0xafd90904	-3.9478476e-10
87	0xafe16a2c	-4.10027e-10
88	0x87a84eca	-2.5324139e-34
89	0x00000004	6e-45
90	0x80087004	-7.74868e-40
91	0x838aa10c	-8.147886e-37
92	0x31d96f46	6.3281815e-09
93	0xb1d68e0c	-6.2443686e-09
94	0x8766d48f	-1.7365742e-34
95	0x80000004	-6e-45
96	0x00000004	6e-45
97	0x2f34b548	1.6435309e-10
98	0xaf5e89a5	-2.0239684e-10
99	0xa810508b	-8.011071e-15

exp_avg_sq f4 [20, 5]
0	0x00000000	0.0
1	0x000001f4	7e-43
2	0x00001d39	1.0483e-41
3	0x00000000	0.0
4	0x00000000	0.0
5	0x00000000	0.0
6	0x27f63c36	6.8343997e-15
7	0x28a70102	1.8541162e-14
8	0x00000000	0.0
9	0x00000000	0.0
10	0x00000000	0.0
11	0x26aa9309	1.1835974e-15
12	0x29fe34f1	1.128905e-13
13	0x251a278b	1.3370768e-16
14	0x24c1a662	8.398227e-17
15	0x00000000	0.0
16	0x2bbf6e40	1.3601967e-12
17	0x2da5de8b	1.8857157e-11
18	0x2c94ae98	4.225797e-12
19	0x2b22f1d6	5.7889576e-13
20	0x00000000	0.0
21	0x2a75a086	2.1816064e-13
22	0x2afd0872	4.4947688e-13
23	0x2ac4261f	3.4843046e-13
24	0x28905e45	1.6028094e-14
25	0x00000000	0.0
26	0x00000000	0.0
27	0x00000000	0.0
28	0x00000000	0.0
29	0x00000000	0.0
30	0x00000000	0.0
31	0x0b353962	3.4902502e-32
32	0x0ba2ba2a	6.268024e-32
33	0x04ceb7ee	4.859928e-36
34	0x00000000	0.0
35	0x00000000	0.0
36	0x00000000	0.0
37	0x00000000	0.0
38	0x00000000	0.0
39	0x00000000	0.0
40	0x00000000	0.0
41	0x28e11695	2.4989811e-14
42	0x2c85ca73	3.8025637e-12
43	0x2c979e7c	4.3092734e-12
44	0x2855228f	1.1831369e-14
45	0x00000000	0.0
46	0x00000000	0.0
47	0x00000000	0.0
48	0x00000000	0.0
49	0x00000000	0.0
50	0x00000000	0.0
51	0x00000000	0.0
52	0x00000000	0.0
53	0x00000000	0.0
54	0x00000000	0.0
55	0x00000000	0.0
56	0x036c4bf2	6.9441348e-37
57	0x07e2f827	3.4150551e-34
58	0x00000000	0.0
59	0x00000000	0.0
60	0x00000000	0.0
61	0x2872bc13	1.3474481e-14
62	0x2a37bdd3	1.6319524e-13
63	0x2b05490e	4.7352476e-13
64	0x29f7af15	1.09993754e-13
65	0x00000000	0.0
66	0x2356dab0	1.1647272e-17
67	0x2c32329a	2.532341e-12
68	0x2aa2f5d9	2.8947572e-13
69	0x1b4149af	1.5988394e-22
70	0x00000000	0.0
71	0x00000000	0.0
72	0x00000000	0.0
73	0x00000000	0.0
74	0x00000000	0.0
75	0x00000000	0.0
76	0x00000000	0.0
77	0x00000000	0.0
78	0x00000000	0.0
79	0x00000000	0.0
80	0x00000002	3e-45
81	0x2c15dabd	2.1295598e-12
82	0x2d14b661	8.453322e-12
83	0x2a555fc3	1.8951424e-13
84	0x279eb567	4.4050486e-15
85	0x00000000	0.0
86	0x2a37b915	1.6317878e-13
87	0x298d01de	6.261982e-14
88	0x28d5a7f9	2.3720597e-14
89	0x25b240f7	3.09221e-16
90	0x00000000	0.0
91	0x2a585107	1.9212766e-13
92	0x2aa37b87	2.904033e-13
93	0x2a7111ae	2.1411234e-13
94	0x284d535c	1.1397862e-14
95	0x00000000	0.0
96	0x246ee035	5.1797934e-17
97	0x2911a9db	3.2343794e-14
98	0x28b69944	2.0272527e-14
99	0x2904d287	2.949249e-14

exp_avg f4 [20]
0	0x1ca5f002	1.0980825e-21
1	0x332433a6	3.82312e-08
2	0x2d0a6e55	7.8688904e-12
3	0x358b7074	1.0389035e-06
4	0x2bbee292	1.3563198e-12
5	0x00000000	0.0
6	0x00000004	6e-45
7	0x858dc0c0	-1.3330381e-35
8	0x3213b524	8.597713e-09
9	0x00000004	6e-45
10	0x00000000	0.0
11	0x8115e846	-2.7533626e-38
12	0xacc77762	-5.6691743e-12
13	0xaae5a118	-4.0790353e-13
14	0x00000000	0.0
15	0x97873a4f	-8.73889e-25
16	0xb119cd37	-2.2381081e-09
17	0x2e84c32c	6.0373345e-11
18	0x320ebfec	8.309126e-09
19	0x2f6d6e3e	2.159419e-10

exp_avg_sq f4 [20]
0	0x0000346b	1.8804e-41
1	0x2916082d	3.3313782e-14
2	0x2af7038d	4.3878478e-13
3	0x2e8fcbc4	6.539083e-11
4	0x2c18d395	2.171795e-12
5	0x00000000	0.0
6	0x0c0c4745	1.0806655e-31
7	0x00000000	0.0
8	0x2ceacb84	6.6732748e-12
9	0x00000000	0.0
10	0x00000000	0.0
11	0x0843a790	5.8877647e-34
12	0x2c6ef7de	3.3959428e-12
13	0x2d4be5eb	1.1590266e-11
14	0x00000000	0.0
15	0x00000000	0.0
16	0x2d91c5d6	1.6572448e-11
17	0x2addd050	3.9402032e-13
18	0x2b66c124	8.198045e-13
19	0x29e1e856	1.0032311e-13

exp_avg f4 [20]
0	0x1ca5f002	1.0980825e-21
1	0x332433a6	3.82312e-08
2	0x2d0a6e55	7.8688904e-12
3	0x358b7074	1.0389035e-06
4	0x2bbee292	1.3563198e-12
5	0x00000000	0.0
6	0x00000004	6e-45
7	0x858dc0c0	-1.3330381e-35
8	0x3213b524	8.597713e-09
9	0x00000004	6e-45
10	0x00000000	0.0
11	0x8115e846	-2.7533626e-38
12	0xacc77762	-5.6691743e-12
13	0xaae5a118	-4.0790353e-13
14	0x00000000	0.0
15	0x97873a4f	-8.73889e-25
16	0xb119cd37	-2.2381081e-09
17	0x2e84c32c	6.0373345e-11
18	0x320ebfec	8.309126e-09
19	0x2f6d6e3e	2.159419e-10

exp_avg_sq f4 [20]
0	0x0000346b	1.8804e-41
1	0x2916082d	3.3313782e-14
2	0x2af7038d	4.3878478e-13
3	0x2e8fcbc4	6.539083e-11
4	0x2c18d395	2.171795e-12
5	0x00000000	0.0
6	0x0c0c4745	1.0806655e-31
7	0x00000000	0.0
8	0x2ceacb84	6.6732748e-12
9	0x00000000	0.0
10	0x00000000	0.0
11	0x0843a790	5.8877647e-34
12	0x2c6ef7de	3.3959428e-12
13	0x2d4be5eb	1.1590266e-11
14	0x00000000	0.0
15	0x00000000	0.0
16	0x2d91c5d6	1.6572448e-11
17	0x2addd050	3.9402032e-13
18	0x2b66c124	8.198045e-13
19	0x29e1e856	1.0032311e-13

exp_avg f4 [2, 5]
0	0x9d3a9748	-2.4695106e-21
1	0xb74667db	-1.18259e-05
2	0x3afd7dd8	0.0019339873
3	0xb8fd7cfb	-0.000120872595
4	0x3041ab77	7.0456657e-10
5	0x1d3a9752	2.4695126e-21
6	0x374667ba	1.182587e-05
7	0xbafd7e15	-0.0019339944
8	0x38fd7cfc	0.0001208726
9	0xb041ab61	-7.0456535e-10

exp_avg_sq f4 [2, 5]
0	0x00010449	9.3373e-41
1	0x35ba9683	1.3901885e-06
2	0x3799912a	1.8306619e-05
3	0x346b0c67	2.1890592e-07
4	0x318691bc	3.9164814e-09
5	0x00010449	9.3373e-41
6	0x35ba9684	1.3901886e-06
7	0x3799912e	1.8306626e-05
8	0x346b0c71	2.1890607e-07
9	0x318691ba	3.9164805e-09

exp_avg f4 [2]
0	0xbbe4c21c	-0.0069811475
1	0x3be4c1f3	0.0069811284

exp_avg_sq f4 [2]
0	0x3a7f2c7d	0.00097341073
1	0x3a7f2c73	0.00097341015
