MimicApp/lightning_logs/version_35/checkpoints/epoch=9-step=99.ckpt (torch, 15916 bytes, 18 tensors)

lstm.weight_ih_l0 f4 [20, 34]
000000 a8 42 7a 3e ae 69 8e 3e ea 84 a1 be 60 1c b7 3e
       0.2443949 0.27815002 -0.31546718 0.35763836
000010 20 33 6a bd a0 20 1c 3e fa 13 e1 be 54 ab 46 3e
       -0.057177663 0.1524682 -0.43960553 0.19401294
000020 a2 6f 90 be 86 c2 9a be 2e a4 b5 be c0 d2 10 be
       -0.2821017 -0.30226535 -0.35476822 -0.14142895
000030 a4 31 e3 bd a8 ea d3 3e 90 b9 a6 3d 8c bd b2 be
       -0.110934526 0.41389966 0.08140862 -0.34910238
000040 d0 0f df 3e e8 32 ab be 18 20 ab bd 08 ff 7e 3e
       0.4356675 -0.33437276 -0.08355731 0.24901974
000050 10 0a da bc 00 3a db 3e 3c 53 f5 bd 28 7f 16 3d
       -0.026616126 0.42817688 -0.11978766 0.03674236
000060 82 91 06 be ad f9 60 be a8 35 2c bd b0 3a b6 bd
       -0.13141444 -0.21970244 -0.042043358 -0.088979125
000070 cb 4d 7f be 18 eb 2a 3e 8e ca e0 3e 74 ed 90 be
       -0.2493202 0.16691244 0.43904537 -0.28306162
000080 9e 3b b8 3e 28 a5 84 bd 11 0d 3a be 79 f7 9e be
       0.35982984 -0.064768136 -0.18169047 -0.31048182
000090 27 62 aa be d0 f3 b5 3e 4e 43 9a 3e a9 2a c0 3e
       -0.3327801 0.35537577 0.30129474 0.37532547
0000a0 a0 27 04 3e 99 0f de be ab 64 10 be 19 ae 17 be
       0.1290574 -0.43371275 -0.14100902 -0.14812507
0000b0 4f 9d 9c 3b d4 c2 5b 3e 83 ae a4 3e f3 cf 93 be
       0.004779495 0.2146104 0.32164392 -0.2886959
0000c0 e2 d4 d4 3b 88 c7 9d 3e a2 55 d5 be 7c 75 2a be
       0.006495104 0.30816293 -0.41666895 -0.16646379
0000d0 4c 65 48 be 41 d5 94 be b1 19 da 3c 4b de a0 3e
       -0.19569892 -0.2906895 0.026623579 0.31419596
0000e0 b8 ff df 3e ab 06 8f be e2 18 99 3e 92 a2 10 3d
       0.43749785 -0.27934775 0.29901797 0.03531129
0000f0 f4 61 94 bd 7d be c7 3e d4 81 b6 bd d7 47 7e bd
       -0.072452456 0.3901252 -0.089114815 -0.06208023
000100 9f c6 19 3e c9 ee 8c 3e 68 39 c1 be 49 9b 9b be
       0.15017174 0.2752593 -0.3773911 -0.3039191
000110 88 f5 5c 3e b6 29 8b 3e 1a a0 a5 be 1b 67 8e be
       0.21578038 0.2718026 -0.3234871 -0.27813038
000120 27 6d ab be a8 8c cd bd 8c da e2 3e 44 40 79 be
       -0.33481714 -0.10036594 0.44307363 -0.24340922
000130 7c 1c 38 be 94 cc c5 be 9e 00 83 be 09 42 75 be
       -0.17979616 -0.38632643 -0.25586408 -0.23950972
000140 cc 46 7a be 80 29 7c bc 7e 38 47 be dc f3 7e be
       -0.2444107 -0.015390754 -0.19455144 -0.24897712
000150 04 72 30 be 00 6f a6 3d d6 7d 41 be e4 3f 11 3e
       -0.17230994 0.0812664 -0.18895659 0.14184529
000160 80 17 a2 3c e0 66 9e bc c0 d0 a3 bd 68 21 f8 bd
       0.019786596 -0.019336164 -0.079988 -0.12115747
000170 50 ac ea 3c 38 99 36 bd 10 b0 db 3d 70 5b 96 be
       0.028646618 -0.044579715 0.10726941 -0.29366636
000180 3f 92 d3 be 00 a3 dc ba 39 56 8e be 00 01 09 3e
       -0.41322514 -0.0016833246 -0.27800158 0.13379288
000190 11 fa b2 be e0 7a 18 3e 0c 57 53 3e 40 99 bd 3e
       -0.3495641 0.14890623 0.20638674 0.37030983
0001a0 64 98 48 be 5e 27 a5 3e 49 d5 ba be 40 b8 29 be
       -0.19589382 0.32256597 -0.3649085 -0.16574192
0001b0 88 d1 13 3e 50 ed 9d bd 8d 53 89 be ee 4c 87 be
       0.14435399 -0.077112794 -0.26821557 -0.2642588
0001c0 08 bd 7b bd 1a c2 0e be 48 f8 c7 bd a0 50 22 bc
       -0.06145957 -0.13941231 -0.09764153 -0.009906918
0001d0 ae 7e a6 3e f0 7b 15 be 7c 0b 3c be 85 60 60 be
       0.32518524 -0.1459806 -0.18363756 -0.2191182
0001e0 74 fd 60 3e 70 2b 82 bc ae 0b 97 be 5c f0 20 3e
       0.21971685 -0.015889853 -0.29501098 0.1571669
0001f0 a4 3a 81 3e 46 89 c4 be 88 99 80 be 08 5f 99 bd
       0.25240052 -0.3838598 -0.25117135 -0.07488829
000200 78 cc 87 3e 0c 5e 49 3e 68 a9 2e be 26 5f b0 3e
       0.26523185 0.19664782 -0.17056811 0.34447592
000210 14 89 cb bd b8 1e 5d 3e 5a 9b c5 3e a2 f0 de 3e
       -0.09938255 0.2159375 0.38595086 0.43542963
000220 9a db 78 be 9c 63 3b 3e 50 3d 03 bd 24 1f bf 3e
       -0.24302521 0.18299717 -0.032040894 0.37328446
000230 10 64 bb 3c 4c 22 bb 3e a4 1e 59 be 14 bf 80 bd
       0.022874862 0.36549604 -0.21203095 -0.06286445
000240 32 b7 c5 3e 16 a8 d1 be ec c4 8a 3e de 56 79 be
       0.3861633 -0.40948552 0.27103364 -0.24349543
000250 18 7a d2 3d dc 44 bf 3e d0 77 7f 3d 12 2c b1 3e
       0.10277194 0.37357223 0.06237012 0.34603935
000260 b0 a5 d5 bc 1c 3c 95 bd b7 38 75 be 70 59 a2 3d
       -0.026079983 -0.072868556 -0.23947416 0.07927215
000270 61 17 6c be 32 48 87 be 68 ff 09 3e 72 1c ba 3e
       -0.23055793 -0.26422268 0.13476336 0.36349827
000280 10 28 b2 3e 80 0c 3f bd 70 de 3a bd a4 e3 18 be
       0.3479619 -0.04664278 -0.04562229 -0.14930588
000290 60 5f fb bc c4 19 10 3e 3d 12 82 be 60 e3 99 3e
       -0.030685127 0.14072329 -0.2540454 0.30056286
0002a0 87 bf 6a be b8 73 be 3d 9e 1c e8 3e 7d af 8f be
       -0.22924624 0.09299415 0.45334333 -0.28063574
0002b0 0e 8e af be 90 ad 9c 3e 14 c5 69 3e d6 7e 98 3b
       -0.34288067 0.30601168 0.22829086 0.004653792
0002c0 e8 7d 8f be 74 c0 42 3e c5 be d1 be a6 b6 d2 3e
       -0.28025746 0.19018728 -0.40965858 0.41154975
0002d0 09 d9 79 bc 89 23 c1 bc 52 45 58 be 39 38 e5 3c
       -0.015249499 -0.023576515 -0.21120194 0.02798091
0002e0 79 4f 54 bd 95 83 9c be ef b0 aa 3e 20 1e 00 be
       -0.051833604 -0.3056914 0.33338115 -0.12511492
0002f0 ec 23 78 3d 56 29 8a bd d9 2d 89 3e c9 59 8c 3c
       0.060581133 -0.067461655 0.2679279 0.017132657
000300 b0 5b 88 3d 37 a6 60 be 57 be b1 3e 8f d6 2a 3e
       0.06658113 -0.21938406 0.3471553 0.1668341
000310 f6 79 8e 3e db e1 7f be e6 77 71 3c 05 0c 08 3c
       0.27827424 -0.24988501 0.014738059 0.008303647
000320 55 50 86 3e 03 26 4e be ec 49 9e bd 2e 9d 14 3d
       0.26233163 -0.20131688 -0.07728943 0.03628271
000330 d4 02 76 3e 1e fe 9a be 74 14 a0 3e 38 82 a7 3e
       0.24024516 -0.30272 0.31265604 0.32716537
000340 d8 a7 c1 3d 90 be d1 bc a2 73 9f 3e 10 c3 ca 3c
       0.09455842 -0.025603563 0.31142908 0.024751216
000350 11 16 5e be e2 6a df 3e 22 92 af 3e d0 7e a4 bd
       -0.21688105 0.43636233 0.34291178 -0.08032
000360 2c f3 56 be 10 08 04 3e 84 3b 08 be b0 37 2b 3d
       -0.209912 0.128937 -0.13303953 0.041801155
000370 00 9e 13 3d 58 99 00 bd 9e cd 9a 3e 78 0b ea bd
       0.036039352 -0.03139624 0.30234998 -0.11427969
000380 46 cd b8 3e e0 ed 8f 3d 10 45 97 3d 74 e8 79 3e
       0.3609411 0.07027793 0.073862195 0.2440508
000390 0d d9 81 be ec 5e 08 be e8 f6 fc 3d 84 b5 dd 3e
       -0.2536091 -0.1331746 0.12351781 0.43302548
0003a0 18 96 12 3d d8 24 d6 bd 02 4e 94 3e 18 96 8b be
       0.03578767 -0.10456246 0.28965765 -0.2726295
0003b0 ce b3 16 be 9c 91 e0 3e 3a a9 82 be 44 b4 53 3e
       -0.14717028 0.4386109 -0.25519735 0.20674235
0003c0 d2 37 0c be a0 11 fa bd b6 af c6 be 84 1f 3d 3e
       -0.13693169 -0.12210393 -0.38805932 0.18469054
0003d0 d0 9d 64 3d 74 95 ca be 2c 6b 75 3e 10 0e 44 3e
       0.055814564 -0.3956715 0.23966664 0.1914599
0003e0 d8 1e e3 3d 38 20 1a be 08 4d 68 3e e0 b0 b5 3e
       0.11089867 -0.15051353 0.22685635 0.35486507
0003f0 86 e5 95 3e 5c 5b 0c be a4 0e e6 bd 87 36 cc be
       0.29276675 -0.13706726 -0.11233261 -0.3988535

lstm.weight_hh_l0 f4 [20, 5]
000000 c0 ec 2f 3e 20 13 bf be 32 57 13 be 06 28 8a 3e
       0.17180157 -0.3731928 -0.14388731 0.2698366
000010 26 9d 94 3e ce c2 59 be 98 e0 c5 3e 10 f7 63 3d
       0.29026145 -0.21265718 0.38647914 0.05565554
000020 0b ac cb 3e 3c a2 ae 3e d8 0e 01 bd f4 42 b0 3e
       0.39779696 0.3410815 -0.031508297 0.3442608
000030 c0 76 a2 bd c4 7e a0 3e f6 bb 3b be 60 7b 83 be
       -0.07932806 0.31346714 -0.1833342 -0.25680065
000040 2e 68 a4 3e 20 53 74 3c 28 0c 81 3d 3c b0 90 be
       0.32110733 0.014912397 0.06301147 -0.28259456
000050 5c 39 87 3e 60 d7 de 3e 70 ee 46 be fb 40 8a be
       0.2641095 0.43523693 -0.19426894 -0.270027
000060 c0 3e b1 3e fd e2 f6 bd 93 06 49 3b 62 71 22 be
       0.34618187 -0.12055013 0.0030674085 -0.15863565
000070 43 ae b5 3e 02 f8 e2 3e a4 d8 9e be 5a 6f a9 3e
       0.35484514 0.4432984 -0.3102466 0.33092767
000080 fc 4b 03 3e 50 87 0c 3d f0 96 56 3d 28 f4 d2 3d
       0.12821954 0.03430873 0.05239004 0.10300475
000090 7c 47 66 3e 00 e9 ed 3c 18 93 d7 3d cb 22 a8 be
       0.22488207 0.029041767 0.10526103 -0.32839045
0000a0 ec eb b5 be 00 30 5b b9 ac f8 62 3e af f3 cd bd
       -0.35531557 -0.00020903349 0.22165173 -0.100562446
0000b0 78 ee b7 3e 80 15 9a 3b a9 ad c4 be 44 ab 34 3e
       0.35924125 0.00470227 -0.38413742 0.17643458
0000c0 68 68 54 bd 3e 83 47 be 36 b2 ae be 39 d6 c2 3e
       -0.051857382 -0.19483659 -0.3412034 0.38054064
0000d0 fd 93 58 be d0 4e 5b be 7c 9a 5f 3e 1e f1 9a 3e
       -0.21150203 -0.21416783 0.21836275 0.30262083
0000e0 f1 3b 05 3e 04 46 e2 bd 33 4d 48 3e 04 56 b7 3e
       0.13011147 -0.11048511 0.19560699 0.35807812
0000f0 55 8c e0 be 40 62 b6 3e a6 61 b0 3e 71 8a 9d be
       -0.43857065 0.35621834 0.344495 -0.30769685
000100 36 bb 99 be 72 32 bd be 3c d3 f9 3d 38 1a 6e be
       -0.30025643 -0.3695255 0.12198493 -0.23252189
000110 52 1c 16 be 00 15 07 3b 00 70 aa b9 cc 59 cf 3e
       -0.14659241 0.0020611882 -0.00032508373 0.40498197
000120 90 ca 57 3d f8 3d bb 3d d6 b0 a4 be a1 1d b3 3d
       0.052683413 0.09142679 -0.32166165 0.08745886
000130 b5 f6 8d 3e 7c 01 c9 bd 6a 10 21 3d 2c cd 14 3e
       0.27727285 -0.09814736 0.039322294 0.14531392
000140 c1 a2 6a be b4 4e 6c 3e 00 61 ec bd 92 c1 2d be
       -0.22913648 0.23076898 -0.11541939 -0.16968372
000150 f2 4a a3 3e ac cd d7 be 2a 6c aa 3e 2a d2 c4 3e
       0.31893116 -0.42149103 0.33285648 0.38441592
000160 5c 42 20 3e e6 a8 bf be 91 8d 22 3e 5f e8 a4 3e
       0.15650314 -0.37433547 0.15874316 0.32208535
000170 a8 0f 1f 3e b1 73 2b 3c 7c 6b 3f 3e ec fb 59 3e
       0.15533316 0.010464595 0.18693346 0.21287507
000180 f4 6f 22 3e 1a 82 ae 3e c3 e8 95 be 00 d4 be 39
       0.15863019 0.34083635 -0.29279146 0.00036397576

lstm.bias_ih_l0 f4 [20]
000000 04 ba e9 bd 89 99 85 be 9a 70 c3 be 7a 6c 8f 3e
       -0.11412433 -0.260937 -0.38171846 0.2801245
000010 fe 21 d1 be a2 98 20 bc 20 65 13 3e e2 52 a2 be
       -0.40846246 -0.0098020155 0.14394045 -0.3170386
000020 6b 5a c2 be 5f 22 b3 be 6f 06 34 3d f7 c1 93 be
       -0.37959608 -0.3498716 0.043951448 -0.2885892
000030 80 fa 93 3b 58 6b 93 bd d0 11 f9 3c 5b 79 aa be
       0.004515946 -0.071982086 0.030404001 -0.33295712
000040 42 12 04 be b8 09 35 3e 10 79 c9 3e 4b 85 62 be
       -0.1289759 0.17679489 0.39350176 -0.2212116

lstm.bias_hh_l0 f4 [20]
000000 1c ee d1 3e 27 50 4f 3e e7 d5 d7 be bc a3 b0 3e
       0.41001976 0.2024542 -0.42155382 0.3449992
000010 36 ee b2 3e e7 0b eb 3d 71 33 9b be 68 09 49 be
       0.34947366 0.114768796 -0.30312684 -0.19632494
000020 16 2f a6 be 79 7a a0 be ba 58 3e 3e d0 f1 c5 bd
       -0.324578 -0.3134344 0.18588534 -0.09665263
000030 77 a4 d3 be 8e 74 41 be b0 c0 f2 bc ff e4 96 bd
       -0.41336414 -0.18892118 -0.029632896 -0.07367896
000040 70 1b 54 3d da 85 18 be 88 52 ad 3e 5c bd 3a 3e
       0.05178398 -0.1489481 0.3385203 0.18236297

linear.weight f4 [2, 5]
000000 73 c7 df 3e 1d d4 1e be b8 7a e9 3d 3d 34 06 be
       0.43706855 -0.15510602 0.1140036 -0.13105865
000010 78 c7 d4 3e a1 ea 8b bd 40 b1 c3 be 44 1f b6 3e
       0.41558433 -0.06831861 -0.3822117 0.3557073
000020 f8 3a d5 3e 5c 48 7e 3e
       0.41646552 0.2483229

linear.bias f4 [2]
000000 28 4b 95 3e 0d 9c 70 be
       0.29158902 -0.23497029

exp_avg f4 [20, 34]
000000 00 00 00 00 00 00 00 00 00 00 00 00 00 00 00 00
       0.0 0.0 0.0 0.0
000010 00 00 00 00 00 00 00 00 00 00 00 00 00 00 00 00
       0.0 0.0 0.0 0.0
000020 00 00 00 00 00 00 00 00 00 00 00 00 00 00 00 00
       0.0 0.0 0.0 0.0
000030 00 00 00 00 00 00 00 00 00 00 00 00 00 00 00 00
       0.0 0.0 0.0 0.0
000040 00 00 00 00 00 00 00 00 00 00 00 00 00 00 00 00
       0.0 0.0 0.0 0.0
000050 00 00 00 00 00 00 00 00 00 00 00 00 00 00 00 00
       0.0 0.0 0.0 0.0
000060 00 00 00 00 00 00 00 00 00 00 00 00 00 00 00 00
       0.0 0.0 0.0 0.0
000070 00 00 00 00 00 00 00 00 00 00 00 00 00 00 00 00
       0.0 0.0 0.0 0.0
000080 00 00 00 00 00 00 00 00 f8 5c b1 b9 16 73 a4 b9
       0.0 0.0 -0.00033829338 -0.00031366263
000090 c0 64 02 b9 7a 9d e3 b9 62 66 a8 b9 7a 5a 8b b9
       -0.00012435298 -0.00043414143 -0.00032119738 -0.00026579556
0000a0 fa ba 16 b8 00 00 00 00 04 75 d8 36 6b 3a ad b8
       -3.5936922e-05 0.0 6.450924e-06 -8.260164e-05
0000b0 85 18 b0 b5 fc 39 ca b7 b2 0e 00 b9 01 24 b9 b8
       -1.3120158e-06 -2.4107278e-05 -0.00012212506 -8.828194e-05
0000c0 a0 d0 8e 3a 4d aa 93 b8 2d f9 6b b9 65 1c e9 b7
       0.0010895915 -7.041227e-05 -0.00022504172 -2.7788987e-05
0000d0 b9 4b c0 b9 e6 38 cc b5 88 a8 bc 36 98 91 a0 38
       -0.00036677512 -1.5215744e-06 5.6224562e-06 7.6565135e-05
0000e0 36 54 65 b7 8f 95 a2 b6 f4 09 76 b7 5d 22 43 b7
       -1.36690705e-05 -4.845387e-06 -1.466506e-05 -1.1630907e-05
0000f0 27 1f c3 b6 ac 53 8c b8 17 e5 c4 b8 ba cd 08 b8
       -5.8150795e-06 -6.691305e-05 -9.3886796e-05 -3.2616525e-05
000100 ec 9f 84 b9 d7 5a 66 b8 40 6e 9f b7 68 4d 07 b9
       -0.00025296153 -5.4920874e-05 -1.9005616e-05 -0.0001290344
000110 70 61 b1 11 d2 59 96 11 2f d5 dc 10 24 df a6 11
       2.7985727e-28 2.3721183e-28 8.710316e-29 2.6327703e-28
000120 38 83 5e 11 75 6a 3a 11 dd 4c 84 10 00 00 00 00
       1.7553147e-28 1.4705617e-28 5.2183246e-29 0.0
000130 6f 87 d8 8f 7d 58 1c 10 87 f8 99 0d 99 5e af 0f
       -2.1351412e-29 3.0833744e-29 9.489184e-31 1.729277e-29
000140 d0 6d c0 10 91 57 93 11 e4 49 04 11 03 8d 6d 11
       7.589984e-29 2.3246478e-28 1.0435733e-28 1.8739456e-28
000150 bd 5b 16 11 6d d7 b6 0f 0f da 94 11 50 b6 06 0f
       1.1861183e-28 1.8029565e-29 2.3484672e-28 6.641822e-30
000160 b5 e9 e6 0d b7 0c f8 11 c3 f9 99 0e 50 88 f0 0e
       1.4231107e-30 3.9135337e-28 3.7957924e-30 5.9295832e-30
000170 97 41 b9 0f 94 c4 6b 0f d5 fb 99 0c 9d 12 1a 0e
       1.8267673e-29 1.1624254e-29 2.3724948e-31 1.8990928e-30
000180 80 5e 9c 10 96 12 ca 0f b9 28 d9 10 92 00 b2 10
       6.167675e-29 1.9925897e-29 8.565415e-29 7.02095e-29
000190 81 62 a5 11 25 2e ea 12 5a b0 aa a4 dd ac e3 a4
       2.6093118e-28 1.4778852e-27 -7.40245e-17 -9.87384e-17
0001a0 0a 86 2e a4 ee 05 36 a5 ec 88 e3 a4 a1 47 9f a4
       -3.784377e-17 -1.5787993e-16 -9.867751e-17 -6.90766e-17
0001b0 3b 99 5a a3 00 00 00 00 50 b6 91 21 e4 9a 08 a4
       -1.18502515e-17 0.0 9.87384e-19 -2.9621497e-17
0001c0 b2 23 e9 a0 63 6b 06 a3 7f 08 2d a4 53 d8 dc a4
       -3.9495357e-19 -7.2868946e-18 -3.752059e-17 -9.577626e-17
0001d0 0b 4c 0e a5 6f b6 11 a3 f1 e7 16 a7 35 6d 0a a3
       -1.2342301e-16 -7.8990976e-18 -2.0942417e-15 -7.5041205e-18
0001e0 04 66 e1 a4 c2 23 69 a1 c7 da 2e a1 89 eb 6d a5
       -9.775102e-17 -7.8990796e-19 -5.924304e-19 -2.0636276e-16
0001f0 ed ec d6 a2 c7 91 da a1 a9 ff 18 a2 2f 36 ab a2
       -5.825567e-18 -1.4810842e-18 -2.0735187e-18 -4.640701e-18
000200 b2 23 e9 a1 5c 48 53 a2 36 1f df a3 a0 88 13 a3
       -1.5798143e-18 -2.863414e-18 -2.4190927e-17 -7.9978174e-18
000210 66 b1 ed a3 c4 da e1 a2 37 9a 2d a6 9c 08 ad a4
       -2.5770723e-17 -6.1218e-18 -6.023043e-16 -7.5041375e-17
000220 00 00 00 00 00 00 00 00 00 00 00 00 00 00 00 00
       0.0 0.0 0.0 0.0
000230 00 00 00 00 00 00 00 00 00 00 00 00 00 00 00 00
       0.0 0.0 0.0 0.0
000240 00 00 00 00 00 00 00 00 00 00 00 00 00 00 00 00
       0.0 0.0 0.0 0.0
000250 00 00 00 00 00 00 00 00 00 00 00 00 00 00 00 00
       0.0 0.0 0.0 0.0
000260 00 00 00 00 00 00 00 00 00 00 00 00 00 00 00 00
       0.0 0.0 0.0 0.0
000270 00 00 00 00 00 00 00 00 00 00 00 00 00 00 00 00
       0.0 0.0 0.0 0.0
000280 00 00 00 00 00 00 00 00 00 00 00 00 00 00 00 00
       0.0 0.0 0.0 0.0
000290 00 00 00 00 00 00 00 00 00 00 00 00 00 00 00 00
       0.0 0.0 0.0 0.0
0002a0 00 00 00 00 00 00 00 00 1c 1d 02 b9 12 92 2d b9
       0.0 0.0 -0.0001240861 -0.00016552981
0002b0 9b 98 82 b8 4d fa 3a b9 c5 6b e3 b8 52 ef ab b8
       -6.227308e-05 -0.00017831587 -0.00010844277 -8.198492e-05
0002c0 b0 b2 e8 b7 00 00 00 00 65 00 b0 35 55 cb 21 b8
       -2.7739763e-05 0.0 1.3113137e-06 -3.857476e-05
0002d0 75 c7 70 b5 2b 66 53 b7 ec 7a 8b b8 5c df 2c b9
       -8.9697215e-07 -1.2600368e-05 -6.6509325e-05 -0.00016486406
0002e0 55 cf dc b8 91 70 c5 b8 b5 11 03 b9 23 3c 74 b7
       -0.00010529036 -9.414659e-05 -0.0001249973 -1.4557535e-05
0002f0 60 31 3b b9 dd dd 9a b6 5d 79 1b b7 33 ff 44 b9
       -0.00017852103 -4.615386e-06 -9.266977e-06 -0.00018787086
000300 24 e6 10 b6 0b 53 70 b6 7a 67 f4 b6 e9 60 01 b7
       -2.1591632e-06 -3.5811124e-06 -7.283813e-06 -7.711563e-06
000310 ab 8f e0 b5 08 78 83 b6 0c b9 53 b8 75 ff 8f b7
       -1.6731113e-06 -3.9180777e-06 -5.047866e-05 -1.7165885e-05
000320 37 46 63 b8 76 54 a3 b7 56 eb b6 ba c9 40 a9 b9
       -5.418641e-05 -1.9470444e-05 -0.0013955634 -0.0003228246
000330 48 be 20 1e 97 df 25 1e 7e 3f 7e 1d 48 f9 36 1e
       8.509679e-21 8.7812646e-21 3.3649445e-21 9.68655e-21
000340 84 cd 08 1e 1d fc eb 1d ba 3e f6 1c 00 00 00 00
       7.24228e-21 6.246466e-21 1.6295129e-21 0.0
000350 d2 29 a4 1c ba 3e 76 1d a9 54 83 1a 3b ee 4c 1c
       1.086342e-21 3.2590258e-21 5.4317106e-23 6.7805844e-22
000360 5e 95 a7 1d 1d fc eb 1d e4 e2 f6 1f 84 cd 88 1d
       4.4358974e-21 6.246466e-21 1.0456041e-19 3.62114e-21
000370 ab f1 c2 1d 3e bf 93 1c d1 64 3a 1e a9 54 03 1b
       5.160125e-21 9.777079e-22 9.867606e-21 1.0863421e-22
000380 39 98 00 1c 03 26 aa 1e 8c 1b 2f 1b df c5 70 1b
       4.254839e-22 1.8015171e-20 1.4484562e-22 1.991627e-22
000390 39 98 00 1c 91 69 d5 1b ab 7b 16 1c 8c 1b af 1a
       4.254839e-22 3.5306115e-22 4.9790674e-22 7.242281e-23
0003a0 06 fe 51 1d e1 d9 97 1c 85 6a 48 1d 64 6d a1 1c
       2.7792247e-21 1.0048662e-21 2.6524849e-21 1.0682363e-21
0003b0 51 47 af 1e 5b 0b d4 1d 86 95 78 86 8d 58 a6 86
       1.8558341e-20 5.6127674e-21 -4.6753468e-35 -6.2572374e-35
0003c0 79 35 ff 85 00 b5 b9 86 d4 dd 7f 86 8f 75 59 86
       -2.3999728e-35 -6.985522e-35 -4.8123143e-35 -4.0899532e-35
0003d0 52 ff 5f 85 00 00 00 00 e3 15 28 84 42 1a b6 85
       -1.05323045e-35 0.0 -1.9758355e-36 -1.7124843e-35
0003e0 f9 77 06 83 8e fc d0 84 d0 91 08 86 28 d6 a9 86
       -3.9516783e-37 -4.91325e-36 -2.5685883e-35 -6.388541e-35
0003f0 6a 1b d2 85 c7 17 36 85 22 99 40 86 91 89 f6 84
       -1.9758375e-35 -8.561966e-36 -3.622369e-35 -5.7960657e-36

exp_avg_sq f4 [20, 34]
000000 00 00 00 00 00 00 00 00 00 00 00 00 00 00 00 00
       0.0 0.0 0.0 0.0
000010 00 00 00 00 00 00 00 00 00 00 00 00 00 00 00 00
       0.0 0.0 0.0 0.0
000020 00 00 00 00 00 00 00 00 00 00 00 00 00 00 00 00
       0.0 0.0 0.0 0.0
000030 00 00 00 00 00 00 00 00 00 00 00 00 00 00 00 00
       0.0 0.0 0.0 0.0
000040 00 00 00 00 00 00 00 00 00 00 00 00 00 00 00 00
       0.0 0.0 0.0 0.0
000050 00 00 00 00 00 00 00 00 00 00 00 00 00 00 00 00
       0.0 0.0 0.0 0.0
000060 00 00 00 00 00 00 00 00 00 00 00 00 00 00 00 00
       0.0 0.0 0.0 0.0
000070 00 00 00 00 00 00 00 00 00 00 00 00 00 00 00 00
       0.0 0.0 0.0 0.0
000080 00 00 00 00 00 00 00 00 db 14 39 34 7c 14 70 34
       0.0 0.0 1.7237055e-07 2.2359194e-07
000090 77 5d 0b 33 67 bd 16 35 25 cf 7f 34 fc 6a 18 34
       3.2448465e-08 5.615497e-07 2.3824084e-07 1.4195024e-07
0000a0 59 e9 14 32 00 00 00 00 ef 05 95 30 5a 20 4b 32
       8.667791e-09 0.0 1.0842863e-09 1.1823511e-08
0000b0 d3 2f 06 2d 19 0b ad 30 6b 0d 34 33 b3 ef 4b 34
       7.627637e-12 1.2590561e-09 4.192172e-08 1.899305e-07
0000c0 bd 37 8a 37 f0 06 82 32 c6 26 81 33 bd 1c e4 30
       1.6476837e-05 1.5137147e-08 6.0140835e-08 1.6597351e-09
0000d0 e4 d4 96 34 ae c5 83 2e bc 22 ab 2f 9f ce d3 35
       2.8094576e-07 5.992305e-11 3.11294e-10 1.578086e-06
0000e0 e8 56 21 30 a9 48 ee 2e 97 7a a9 2f 45 1a 00 30
       5.869496e-10 1.0835894e-10 3.0828026e-10 4.660346e-10
0000f0 ca 91 42 2f 2f 7f 85 30 9d fd e9 32 91 4a 56 31
       1.7695992e-10 9.713171e-10 2.72401e-08 3.1183485e-09
000100 8c e2 0e 33 46 88 87 31 be 89 a1 34 45 d6 42 35
       3.3267995e-08 3.9445096e-09 3.0088808e-07 7.2582435e-07
000110 00 00 00 00 00 00 00 00 00 00 00 00 00 00 00 00
       0.0 0.0 0.0 0.0
000120 00 00 00 00 00 00 00 00 00 00 00 00 00 00 00 00
       0.0 0.0 0.0 0.0
000130 00 00 00 00 00 00 00 00 00 00 00 00 00 00 00 00
       0.0 0.0 0.0 0.0
000140 00 00 00 00 00 00 00 00 00 00 00 00 00 00 00 00
       0.0 0.0 0.0 0.0
000150 00 00 00 00 00 00 00 00 00 00 00 00 00 00 00 00
       0.0 0.0 0.0 0.0
000160 00 00 00 00 00 00 00 00 00 00 00 00 00 00 00 00
       0.0 0.0 0.0 0.0
000170 00 00 00 00 00 00 00 00 00 00 00 00 00 00 00 00
       0.0 0.0 0.0 0.0
000180 00 00 00 00 00 00 00 00 00 00 00 00 00 00 00 00
       0.0 0.0 0.0 0.0
000190 00 00 00 00 00 00 00 00 93 86 60 08 88 bc c7 08
       0.0 0.0 6.756574e-34 1.20212e-33
0001a0 3b ba 6a 07 8d 55 7f 09 7b 7d c7 08 7e 83 43 08
       1.7658932e-34 3.0734734e-33 1.2006377e-33 5.8835246e-34
0001b0 d1 20 b8 05 00 00 00 00 c3 9f 23 02 5c cf 0f 07
       1.7315332e-35 0.0 1.2021198e-37 1.0819062e-34
0001c0 57 70 d1 00 c2 3e 0b 05 4e bc 66 07 9b ee bb 08
       1.9233919e-38 6.5472754e-36 1.7358615e-34 1.1310749e-33
0001d0 4a 0b 1c 09 08 a0 23 05 20 7f 2f 0d ba ab 13 05
       1.8783125e-33 7.693616e-36 5.407906e-31 6.943448e-36
0001e0 fe c2 c3 08 74 70 d1 01 63 9e 6b 01 bb 1d da 09
       1.1781978e-33 7.6935837e-38 4.327632e-38 5.250955e-33
0001f0 0e fe b1 04 42 14 b8 02 cf 65 34 03 38 e7 61 04
       4.1845812e-36 2.7047997e-37 5.3014116e-37 2.6554793e-36
000200 57 70 d1 02 86 02 ac 03 c2 d3 bf 06 94 bd 27 05
       3.077427e-37 1.0109831e-36 7.2157365e-35 7.887122e-36
000210 31 b3 d9 06 ff 8d c4 04 8e 41 68 0b 98 bc 66 08
       8.1889626e-35 4.620978e-36 4.4730893e-32 6.94348e-34
000220 00 00 00 00 00 00 00 00 00 00 00 00 00 00 00 00
       0.0 0.0 0.0 0.0
000230 00 00 00 00 00 00 00 00 00 00 00 00 00 00 00 00
       0.0 0.0 0.0 0.0
000240 00 00 00 00 00 00 00 00 00 00 00 00 00 00 00 00
       0.0 0.0 0.0 0.0
000250 00 00 00 00 00 00 00 00 00 00 00 00 00 00 00 00
       0.0 0.0 0.0 0.0
000260 00 00 00 00 00 00 00 00 00 00 00 00 00 00 00 00
       0.0 0.0 0.0 0.0
000270 00 00 00 00 00 00 00 00 00 00 00 00 00 00 00 00
       0.0 0.0 0.0 0.0
000280 00 00 00 00 00 00 00 00 00 00 00 00 00 00 00 00
       0.0 0.0 0.0 0.0
000290 00 00 00 00 00 00 00 00 00 00 00 00 00 00 00 00
       0.0 0.0 0.0 0.0
0002a0 00 00 00 00 00 00 00 00 97 3d ab 34 aa ef 58 35
       0.0 0.0 3.1896045e-07 8.081503e-07
0002b0 ef 48 ef 33 44 91 7e 35 6a 81 eb 34 63 08 88 34
       1.1142571e-07 9.4833763e-07 4.3866322e-07 2.5338076e-07
0002c0 b0 49 d8 32 00 00 00 00 e5 97 68 32 d7 fc 80 33
       2.5179219e-08 0.0 1.3538714e-08 6.006456e-08
0002d0 79 81 98 2d 13 17 97 31 22 91 b9 33 3b 13 48 35
       1.7337897e-11 4.3973016e-09 8.641133e-08 7.453379e-07
0002e0 c1 b8 62 37 16 27 71 33 db 5e 50 35 85 61 d6 31
       1.3513666e-05 5.6147734e-08 7.762407e-07 6.2393064e-09
0002f0 42 af 64 35 12 17 b2 2f 66 2c 09 33 56 08 21 36
       8.519165e-07 3.2394404e-10 3.193818e-08 2.3995722e-06
000300 46 94 19 31 2c 45 be 2f 14 3e 8e 30 ae 6a bf 30
       2.2348714e-09 3.4609948e-10 1.0349503e-09 1.3927399e-09
000310 ea c9 f8 2e 54 c0 61 31 3a b5 ea 33 22 4b 54 32
       1.13136014e-10 3.2851135e-09 1.0929439e-07 1.2357107e-08
000320 ad 2c 75 33 59 0b 4c 32 77 1b 82 37 12 7f 89 36
       5.708414e-08 1.1876943e-08 1.5509997e-05 4.097711e-06
000330 98 7f 00 00 e6 87 00 00 eb 13 00 00 54 a5 00 00
       4.5772e-41 4.8751e-41 7.145e-42 5.9309e-41
000340 6f 5c 00 00 bf 44 00 00 b4 04 00 00 00 00 00 00
       3.3159e-41 2.4661e-41 1.687e-42 0.0
000350 17 02 00 00 bd 12 00 00 00 00 00 00 d4 00 00 00
       7.5e-43 6.722e-42 0.0 2.97e-43
000360 a7 22 00 00 bf 44 00 00 74 40 4b 00 1c 17 00 00
       1.2431e-41 2.4661e-41 6.910784e-39 8.29e-42
000370 ef 2e 00 00 b7 01 00 00 97 ab 00 00 07 00 00 00
       1.6837e-41 6.15e-43 6.1555e-41 1e-44
000380 52 00 00 00 db 3b 02 00 0a 00 00 00 13 00 00 00
       1.15e-43 2.05143e-40 1.4e-44 2.7e-44
000390 52 00 00 00 3a 00 00 00 71 00 00 00 03 00 00 00
       1.15e-43 8.1e-44 1.58e-43 4e-45
0003a0 a6 0d 00 00 d0 01 00 00 70 0c 00 00 05 02 00 00
       4.896e-42 6.5e-43 4.462e-42 7.24e-43
0003b0 e2 5e 02 00 84 37 00 00 00 00 00 00 00 00 00 00
       2.17709e-40 1.9915e-41 0.0 0.0
0003c0 00 00 00 00 00 00 00 00 00 00 00 00 00 00 00 00
       0.0 0.0 0.0 0.0
0003d0 00 00 00 00 00 00 00 00 00 00 00 00 00 00 00 00
       0.0 0.0 0.0 0.0
0003e0 00 00 00 00 00 00 00 00 00 00 00 00 00 00 00 00
       0.0 0.0 0.0 0.0
0003f0 00 00 00 00 00 00 00 00 00 00 00 00 00 00 00 00
       0.0 0.0 0.0 0.0

exp_avg f4 [20, 5]
000000 00 00 00 00 00 00 00 00 00 00 00 00 00 00 00 00
       0.0 0.0 0.0 0.0
000010 00 00 00 00 e0 4b 07 b3 fc fa a2 b4 00 00 00 00
       0.0 -3.1501145e-08 -3.0357467e-07 0.0
000020 a0 ce 1a 36 00 00 00 00 c2 72 40 0e 8f 76 04 80
       2.306806e-06 0.0 2.3721081e-30 -4.09873e-40
000030 00 00 00 00 d2 8d 3f 8e 00 00 00 00 51 b6 91 21
       0.0 -2.3610852e-30 0.0 9.873841e-19
000040 00 00 00 00 00 00 00 00 46 b6 70 0a 00 00 00 00
       0.0 0.0 1.15898615e-32 0.0
000050 00 00 00 00 00 00 00 00 00 00 00 00 00 00 00 00
       0.0 0.0 0.0 0.0
000060 00 00 00 00 e9 53 d1 b5 3d 96 c3 ae 00 00 00 00
       0.0 -1.5596135e-06 -8.894261e-11 0.0
000070 3b 75 e3 35 00 00 00 00 04 00 00 00 50 92 a5 1a
       1.6946937e-06 0.0 6e-45 6.847878e-23
000080 00 00 00 00 6d e2 da 9a 00 00 00 00 53 1c 60 83
       0.0 -9.05285e-23 0.0 -6.58602e-37
000090 8d 00 00 80 00 00 00 00 ed ec 5b 03 00 00 00 00
       -1.98e-43 0.0 6.4630293e-37 0.0
0000a0 c0 a1 4c b3 38 8f 2a 92 00 00 00 00 f2 a5 4c 33
       -4.7644562e-08 -5.381907e-28 0.0 4.7648378e-08
0000b0 00 00 00 00 00 00 00 00 00 00 00 00 00 00 00 00
       0.0 0.0 0.0 0.0
0000c0 00 00 00 00 00 00 00 00 49 1d 8e b3 30 b2 98 30
       0.0 0.0 -6.617717e-08 1.11101e-09
0000d0 00 00 00 00 3d 70 bf b3 00 00 00 00 1a e2 60 b5
       0.0 -8.9145466e-08 0.0 -8.3775524e-07
0000e0 b7 60 27 35 00 00 00 00 33 99 1e b5 00 00 00 00
       6.2353087e-07 0.0 -5.908252e-07 0.0
0000f0 20 d5 c8 01 00 00 00 00 00 00 00 00 9d f5 c4 81
       7.3774216e-38 0.0 0.0 -7.2351467e-38
000100 00 00 00 00 60 a8 0c 38 4d 16 af 35 1d 00 00 80
       0.0 3.3535413e-05 1.3045006e-06 -4e-44
000110 5d 5b 84 b7 00 00 00 00 00 00 00 00 00 00 00 00
       -1.577817e-05 0.0 0.0 0.0
000120 00 00 00 00 00 00 00 00 00 00 00 00 22 16 05 b7
       0.0 0.0 0.0 -7.932571e-06
000130 71 41 0b 34 00 00 00 00 d4 93 30 b6 00 00 00 00
       1.2969191e-07 0.0 -2.631209e-06 0.0
000140 9a 12 96 80 00 00 00 00 00 00 00 00 9a 12 96 00
       -1.3781997e-38 0.0 0.0 1.3781997e-38
000150 00 00 00 00 9d f5 3f 0e 1a 1b 00 80 00 00 00 00
       0.0 2.3660826e-30 -9.722e-42 0.0
000160 ef ad 3f 8e 00 00 00 00 36 b5 32 b7 6d 3f d6 b0
       -2.3626314e-30 0.0 -1.0651818e-05 -1.5588576e-09
000170 cf 1a 6b 87 f7 1b 4c 37 00 00 00 00 00 00 00 00
       -1.7687313e-34 1.2165859e-05 0.0 0.0
000180 00 00 00 00 00 00 00 00 00 00 00 00 00 00 00 00
       0.0 0.0 0.0 0.0

exp_avg_sq f4 [20, 5]
000000 00 00 00 00 00 00 00 00 00 00 00 00 00 00 00 00
       0.0 0.0 0.0 0.0
000010 00 00 00 00 6d 8a 97 2d 18 e8 e9 2a 00 00 00 00
       0.0 1.7228186e-11 4.1550162e-13 0.0
000020 dd b1 85 2d 00 00 00 00 00 00 00 00 00 00 00 00
       1.5199337e-11 0.0 0.0 0.0
000030 00 00 00 00 00 00 00 00 00 00 00 00 c4 9f 23 02
       0.0 0.0 0.0 1.2021199e-37
000040 00 00 00 00 00 00 00 00 00 00 00 00 00 00 00 00
       0.0 0.0 0.0 0.0
000050 00 00 00 00 00 00 00 00 00 00 00 00 00 00 00 00
       0.0 0.0 0.0 0.0
000060 00 00 00 00 bd 29 ae 2e 5f 64 d6 28 00 00 00 00
       0.0 7.920018e-11 2.3802302e-14 0.0
000070 11 82 8a 2e 00 00 00 00 00 00 00 00 03 00 00 00
       6.298618e-11 0.0 0.0 4e-45
000080 00 00 00 00 03 00 00 00 00 00 00 00 00 00 00 00
       0.0 4e-45 0.0 0.0
000090 00 00 00 00 00 00 00 00 00 00 00 00 00 00 00 00
       0.0 0.0 0.0 0.0
0000a0 6b 77 6c 27 00 00 00 00 00 00 00 00 7b e7 4c 27
       3.2816316e-15 0.0 0.0 2.8436173e-15
0000b0 00 00 00 00 00 00 00 00 00 00 00 00 00 00 00 00
       0.0 0.0 0.0 0.0
0000c0 00 00 00 00 00 00 00 00 6b 7e 6c 2e 36 a9 f2 2b
       0.0 0.0 5.377247e-11 1.72421e-12
0000d0 00 00 00 00 c4 75 40 2d 00 00 00 00 33 87 ce 2b
       0.0 1.0940086e-11 0.0 1.4674706e-12
0000e0 3a 4c a5 2b 00 00 00 00 ac 71 ce 2b 00 00 00 00
       1.1745112e-12 0.0 1.4668731e-12 0.0
0000f0 00 00 00 00 00 00 00 00 00 00 00 00 00 00 00 00
       0.0 0.0 0.0 0.0
000100 00 00 00 00 49 18 f8 30 11 5b 86 2e 00 00 00 00
       0.0 1.8051277e-09 6.109791e-11 0.0
000110 d9 e4 62 30 00 00 00 00 00 00 00 00 00 00 00 00
       8.2543533e-10 0.0 0.0 0.0
000120 00 00 00 00 00 00 00 00 00 00 00 00 88 b2 99 2d
       0.0 0.0 0.0 1.747337e-11
000130 d1 83 a4 29 00 00 00 00 e1 5f 7a 2d 00 00 00 00
       7.3059295e-14 0.0 1.4232144e-11 0.0
000140 00 00 00 00 00 00 00 00 00 00 00 00 00 00 00 00
       0.0 0.0 0.0 0.0
000150 00 00 00 00 00 00 00 00 00 00 00 00 00 00 00 00
       0.0 0.0 0.0 0.0
000160 00 00 00 00 00 00 00 00 1b eb a2 2e 26 7a c8 29
       0.0 0.0 7.40867e-11 8.9029736e-14
000170 00 00 00 00 cb a1 41 2e 00 00 00 00 00 00 00 00
       0.0 4.402682e-11 0.0 0.0
000180 00 00 00 00 00 00 00 00 00 00 00 00 00 00 00 00
       0.0 0.0 0.0 0.0

exp_avg f4 [20]
000000 00 00 00 00 5d 57 5b b6 ff 72 40 0e 51 b6 91 a1
       0.0 -3.2684395e-06 2.3721196e-30 -9.873841e-19
000010 00 00 00 00 92 eb e4 b5 6e e2 da 1a 3e 1d 60 83
       0.0 -1.7055884e-06 9.0528504e-23 -6.586125e-37
000020 35 a7 4c b3 00 00 00 00 68 2e 8f b5 8c 17 90 b5
       -4.7649525e-08 0.0 -1.0667836e-06 -1.0735689e-06
000030 21 d5 c8 01 d0 4c 1f 38 00 00 00 00 f7 27 46 b7
       7.377422e-38 3.798009e-05 0.0 -1.1811025e-05
000040 9a 12 96 80 53 f6 3f 0e a3 f2 96 b6 00 00 00 00
       -1.3781997e-38 2.3661168e-30 -4.498595e-06 0.0

exp_avg_sq f4 [20]
000000 00 00 00 00 32 7b cf 2d 00 00 00 00 c4 9f 23 02
       0.0 2.3587885e-11 0.0 1.2021199e-37
000010 00 00 00 00 3e 10 b7 2e 03 00 00 00 00 00 00 00
       0.0 8.324762e-11 4e-45 0.0
000020 b7 b2 6e 27 00 00 00 00 a7 f7 6a 2f fc 5e 09 2c
       3.3126016e-15 0.0 2.137016e-10 1.9521598e-12
000030 00 00 00 00 7d ca 18 31 00 00 00 00 96 94 73 2e
       0.0 2.2234012e-09 0.0 5.5383774e-11
000040 00 00 00 00 00 00 00 00 f3 8a ca 2e 00 00 00 00
       0.0 0.0 9.210579e-11 0.0

exp_avg f4 [20]
000000 00 00 00 00 62 57 5b b6 fc 72 40 0e 51 b6 91 a1
       0.0 -3.2684407e-06 2.372119e-30 -9.873841e-19
000010 00 00 00 00 92 eb e4 b5 6e e2 da 1a 3c 1d 60 83
       0.0 -1.7055884e-06 9.0528504e-23 -6.5861243e-37
000020 35 a7 4c b3 00 00 00 00 68 2e 8f b5 8c 17 90 b5
       -4.7649525e-08 0.0 -1.0667836e-06 -1.0735689e-06
000030 21 d5 c8 01 d0 4c 1f 38 00 00 00 00 f8 27 46 b7
       7.377422e-38 3.798009e-05 0.0 -1.1811026e-05
000040 9a 12 96 80 52 f6 3f 0e a0 f2 96 b6 00 00 00 00
       -1.3781997e-38 2.3661167e-30 -4.4985936e-06 0.0

exp_avg_sq f4 [20]
000000 00 00 00 00 32 7b cf 2d 00 00 00 00 c4 9f 23 02
       0.0 2.3587885e-11 0.0 1.2021199e-37
000010 00 00 00 00 42 10 b7 2e 03 00 00 00 00 00 00 00
       0.0 8.3247645e-11 4e-45 0.0
000020 ae b2 6e 27 00 00 00 00 a8 f7 6a 2f fb 5e 09 2c
       3.3125997e-15 0.0 2.1370161e-10 1.9521596e-12
000030 00 00 00 00 7e ca 18 31 00 00 00 00 98 94 73 2e
       0.0 2.2234015e-09 0.0 5.538378e-11
000040 00 00 00 00 00 00 00 00 f2 8a ca 2e 00 00 00 00
       0.0 0.0 9.210578e-11 0.0

exp_avg f4 [2, 5]
000000 a2 6f 22 bd 1f dc 82 b8 46 23 47 8f 30 a0 15 3d
       -0.039657243 -6.239884e-05 -9.818251e-30 0.03652972
000010 00 00 00 00 a3 6f 22 3d fd db 82 38 46 23 47 0f
       0.0 0.039657246 6.239859e-05 9.818251e-30
000020 31 a0 15 bd 00 00 00 00
       -0.036529724 0.0

exp_avg_sq f4 [2, 5]
000000 16 ce 91 39 0e a5 07 34 00 00 00 00 2c ba 3c 39
       0.000278101 1.2632901e-07 0.0 0.00017998432
000010 00 00 00 00 16 ce 91 39 0e a5 07 34 00 00 00 00
       0.0 0.000278101 1.2632901e-07 0.0
000020 2e ba 3c 39 00 00 00 00
       0.00017998434 0.0

exp_avg f4 [2]
000000 98 c9 a3 be 98 c9 a3 3e
       -0.3198974 0.3198974

exp_avg_sq f4 [2]
000000 6f d1 3a 3c 6f d1 3a 3c
       0.011402472 0.011402472
