MimicApp/lightning_logs/version_25/checkpoints/epoch=4-step=49.ckpt (torch, 15916 bytes, 18 tensors)

lstm.weight_ih_l0 f4 [20, 34]
00000000: a405 17be a049 b13d 0434 363e d093 44be
00000010: a09d 39bd 9c82 8bbd 989d 473d e4f5 1ebe
00000020: 9cc7 da3e fcb9 c13e 2b5a b7be 303d 42be
00000030: 4004 6a3c e0c6 8dbc 0c29 c63e 767b 8b3e
00000040: bcd5 493e 7ea3 c73e 6864 b83e ecd6 223e
00000050: 88df f73d 5cb7 a73e dbbf 6dbe e00f e2bc
00000060: ae4c a5be 0a8a d53e 9236 4dbe 28e1 ddbe
00000070: 4e21 b4be d486 013e 06d2 91be 0615 e03e
00000080: c44e b23e 78b3 123e 77d2 dbbe 8ad6 d0be
00000090: 72d5 56be 6c12 dabd b8f8 a3be ad8f 52be
000000a0: f847 cd3e 0804 b03e e059 613c 4cd1 533e
000000b0: bd36 bdbe f835 ed3d 6256 a23e 301d 6a3d
000000c0: 4650 9e3e 2003 b5bc 50b6 1e3e 4c25 a9be
000000d0: 90fc 8abc 1c13 39be fa18 b73e 525e 40be
000000e0: c264 1fbe 44e9 de3e 7cb9 4f3e 34d1 633e
000000f0: 3014 afbe 0e17 c8be c2f8 a4be 28ee 7e3e
00000100: 6639 b8be 5203 aabe 7e20 47be aabc 36be
00000110: b078 91bd 4c48 033e dc11 713e 454e 7bbe
00000120: 70c5 0a3e 1050 b4be f1ca 003e a3c8 a3be
00000130: f1fd 9c3e 94a0 c73e c4fe 5c3e 6f3b 89be
00000140: bd49 c1be 1361 8e3e 69cc 05be 21b4 bf3e
00000150: 40c5 213e 82e2 c7be 1302 53be dc2e bfbe
00000160: 4465 ccbd c23c 233e 49d2 e8be 02c0 b7bd
00000170: efc1 5ebb 29db 8e3e df5f 923e 4e26 38bd
00000180: 233a 98be d417 6c3e 4af0 56be 8e27 42be
00000190: 3b45 aebd b389 d7be 6fbd c9be d482 a2be
000001a0: a4f2 a3be cf38 72bd bdb2 b2be 3404 55be
000001b0: 0ce1 c4be 8069 f93d 329c 36be 6e60 bebd
000001c0: 9717 9f3e c803 f83e e7b9 c2bd 560d 663d
000001d0: 6172 b1bd fa5f e53d b3bc c7bd 4e3d f63e
000001e0: e06d 90be 9453 f03e 8195 8bbe 1d1d f53e
000001f0: 9023 733e 8f4e 803e c2c8 03bd 358e 27be
00000200: 960a 73be 81d0 af3e 69e9 4d3e a468 c33e
00000210: 5788 773e 1ad8 ee3b b65f b93e 3fe6 cc3e
00000220: f86e 943e 6fee 223e c534 bebe 110a 9f3e
00000230: dae6 4d3d 25ed 23be 5f05 b9be aa78 96be
00000240: 6b67 23be 6259 ee3e 85cf a5be b6ad d73e
00000250: 0afa c43e 510c 093e 4001 063d f179 0c3e
00000260: 9769 cbbe 3484 79be 0ad0 5d3d 4a93 2e3e
00000270: 1240 e13d 38d0 c73e 2db9 113e b2dd b6be
00000280: fc8c a73e 9f55 b7bd b9e3 56be ce10 8fbc
00000290: 4b70 c6bd cb00 1b3e 2d96 63be 3faa 42be
000002a0: 730e b13e f55b c7be 7e4c afbe e4f7 99be
000002b0: 38a2 b3bd c884 afbe 7c50 b93e c0b1 ad3c
000002c0: 1065 ab3e 800e 37bd 300d a33d c840 77bd
000002d0: 80c2 203b 6aff b03e 9998 8abe 74aa ca3e
000002e0: 988b e43d d0fb 5c3e b0a4 bb3c 62ba 2dbe
000002f0: a07a 583e c47f b5bd 50ab 903e c690 ca3e
00000300: 40cf f23c 8446 c43e 807c e63b e0d2 ccbc
00000310: 6693 0bbe 4042 043d 3c4d 2d3e 52d9 50be
00000320: 04d0 8bbd 973e b0be dc81 3f3e ca41 b4be
00000330: 7d6c aebe de35 c13e 4847 083e b048 cf3c
00000340: 68a1 c43d c87b 4dbd 4559 72be f0e0 3dbd
00000350: 7e8c b7be 284e bf3e 48cf 30be 205e e03c
00000360: 8026 673b 14b2 b4be 62df a4be 1867 cdbd
00000370: 5faf a9be 9458 8ebe 20f6 a73e 7d6c 9bbe
00000380: b032 ec3d 68a1 81be d6cb b33e 00ac 2f3e
00000390: ecd6 a13e 3863 a83d 0c04 293e f8d7 4a3e
000003a0: 742d 003e 381a 773e 90a0 b73e d0c5 733e
000003b0: 7052 4dbe 30e5 cdbd 7f12 dc3e c6d8 6a3d
000003c0: 52b0 be3d 9aa7 dd3e 094d eebd 041f a3be
000003d0: 672e 7d3d 1a0f 91be 6d94 03be 3626 40bd
000003e0: c178 d93e 91b0 df3d fd16 a83d 4557 40be
000003f0: 1c32 31bc 781c 9a3e d312 063e 71be 333d
-0.14748245 0.08656621 0.1779328 -0.19197011 -0.04531634 -0.06812021 0.048734277 -0.15523487
0.42730415 0.37837207 -0.3581098 -0.18968654 0.01428324 -0.017306745 0.3870319 0.2724263
0.1971044 0.38991922 0.36014104 0.15902299 0.12103182 0.3275708 -0.23217718 -0.02759546
-0.32285064 0.41706878 -0.20040348 -0.43335843 -0.3518166 0.12649089 -0.28480548 0.4376604
0.34825718 0.14326274 -0.4293401 -0.4078868 -0.2097986 -0.10648045 -0.32025695 -0.2056262
0.4009397 0.34378076 0.013754338 0.20685309 -0.36955824 0.11582559 0.3170653 0.05715674
0.3092062 -0.022096217 0.15499234 -0.33036268 -0.016966134 -0.18073696 0.35761243 -0.1878598
-0.1556578 0.43537343 0.202856 0.22247773 -0.3419509 -0.3908009 -0.32221037 0.24895537
-0.35981292 -0.33205658 -0.19445989 -0.17845407 -0.071030974 0.12820548 0.23541969 -0.24541576
0.13551879 -0.35217333 0.12577416 -0.3198901 0.30662492 0.389897 0.2158156 -0.26803157
-0.3775157 0.27808437 -0.13066258 0.37442115 0.15797901 -0.3904 -0.2060626 -0.37340438
-0.099802524 0.15941146 -0.45472935 -0.089721695 -0.0033990105 0.2790158 0.2858877 -0.044958405
-0.29731855 0.23055965 -0.209901 -0.18960401 -0.085092984 -0.42097244 -0.3940234 -0.3174044
-0.32021058 -0.05913621 -0.3490199 -0.20802385 -0.38452947 0.12178326 -0.17833021 -0.09295736
0.31072685 0.48440385 -0.09508114 0.056165062 -0.08664394 0.11199947 -0.097527884 0.48093647
-0.28208828 0.46938765 -0.272625 0.47873774 0.23744035 0.25059935 -0.03217388 -0.16362841
-0.23734507 0.34338763 0.2010857 0.38165772 0.24173103 0.007288945 0.36205834 0.40019414
0.28990912 0.15911268 -0.37149635 0.31062368 0.050268985 -0.16008432 -0.3613691 -0.29388934
-0.1595742 0.4655257 -0.32384887 0.42124718 0.38472015 0.13383605 0.032716036 0.13718392
-0.39728996 -0.24366838 0.05415348 0.17048374 0.109985486 0.39026046 0.14230795 -0.35716015
0.3272475 -0.08951878 -0.20985307 -0.017464068 -0.09689387 0.15137021 -0.22225256 -0.19010256
0.34581336 -0.38937345 -0.34238046 -0.30071938 -0.08771175 -0.34280992 0.36194217 0.021202922
0.33475542 -0.044691563 0.079615 -0.060364515 0.0024529994 0.34569865 -0.27069548 0.3958317
0.11159438 0.21580434 0.022905678 -0.1696563 0.21140528 -0.0886226 0.282557 0.39563578
0.02963984 0.3833505 0.0070338845 -0.025002897 -0.13630447 0.032289743 0.16923994 -0.20395401
-0.06826785 -0.34422752 0.18701881 -0.35206443 -0.34067145 0.3773641 0.13308442 0.025303215
0.09601098 -0.050166875 -0.23666866 -0.046357095 -0.35849375 0.37364316 -0.17266572 0.027388632
0.003527075 -0.35292113 -0.32201678 -0.10029429 -0.3314161 -0.27801955 0.32804966 -0.30356207
0.115331054 -0.25318456 0.35116452 0.17155457 0.31609285 0.082220495 0.1650545 0.19808948
0.12517339 0.24131095 0.35864687 0.23805928 -0.20050979 -0.1005348 0.4298286 0.057335638
0.09310974 0.43291932 -0.11635787 -0.318596 0.06181183 -0.28331834 -0.12849589 -0.04691144
0.4247494 0.10922349 0.0820751 -0.1878329 -0.01081517 0.30099845 0.13093118 0.04388279

lstm.weight_hh_l0 f4 [20, 5]
00000000: d87b 55bd e62c 0fbe d000 823e d6df d5be
00000010: 9c2f cfbd 2e5f 0dbe 340a 6ebe 36ac 15be
00000020: d64c 9e3e ea00 e43e 4531 91be 5735 e0be
00000030: 0b19 3cbe 4242 8f3e 0f98 ad3e a1e2 9dbe
00000040: ecc0 cf3e 3840 eebd f175 6fbe 175d c2bd
00000050: ea8e 933e 847d d13e 9f48 0dbe 4bc4 6fbe
00000060: 2e09 a83e d0ae 753d 41e7 7dbe 2147 96be
00000070: fcc8 51be 688f ca3d cc38 943e fc0d 24be
00000080: 985e 943d 3c8e 0a3e 5a2f 9ebe 7876 c03e
00000090: 2081 61be b870 a4be a1c3 813e de80 f13d
000000a0: 7099 e03d c8cd f73d 6e60 a5be 71d6 cf3e
000000b0: 351f 55be ecff 653e 480c 43bd c619 3d3d
000000c0: 83ed f0bd 49bc e13d 72f0 ca3e a82d a23e
000000d0: ec93 aebe fc66 1d3e da04 d83e 34ae afbe
000000e0: ca72 923e bc9f 7d3e 9027 e03e 2819 70bd
000000f0: 550f d7be 706d 0c3e cb0c 913e 06dd 333e
00000100: 940d 883e 4e09 d5be 48a0 953e 0466 0dbe
00000110: dfa0 7b3e c10c 613e c01e aa3e d892 90bd
00000120: 6713 60be 0b0f 1e3e ac37 b63e 6646 2a3e
00000130: 64e6 bebd 94ac 5a3e a97a 2dbe 4c1b 99be
00000140: 9031 bebd a4a3 c63e 9e76 bf3e 9877 633e
00000150: 5054 8dbe a2b8 7fbe ec6d 8b3e abe8 d83e
00000160: e1a5 21bd 35ae 513e ba1b 003e f2d1 cb3e
00000170: c0fa dbbe 09a0 ac3e 6f98 e73e 2a1a 673e
00000180: 24b1 153e a516 2e3e 56b4 c6bc 989b 9abe
-0.05212006 -0.13981971 0.25391245 -0.41772336 -0.10116503 -0.1380584 -0.2324608 -0.14616475
0.30917996 0.44531947 -0.28357902 -0.43790695 -0.18368928 0.27980238 0.33905074 -0.30836967
0.40576875 -0.116333425 -0.23384835 -0.09490412 0.28819972 0.40916073 -0.13797234 -0.23414724
0.32819504 0.059981167 -0.24795248 -0.29351142 -0.20486826 0.09890634 0.28949583 -0.1602096
0.07244605 0.1353082 -0.308955 0.37590384 -0.22021914 -0.32117248 0.25344566 0.117921576
0.10966766 0.120997965 -0.32300133 0.40593293 -0.20812686 0.22460908 -0.047619134 0.046167158
-0.11764052 0.11022241 0.3963657 0.31675458 -0.3409723 0.15371317 0.421912 -0.34312594
0.28603202 0.24767965 0.43780184 -0.05861774 -0.42003885 0.13713622 0.28330073 0.17564783
0.2657286 -0.4160866 0.29223847 -0.13808447 0.24573086 0.21977521 0.33226585 -0.07059258
-0.21882401 0.15435426 0.3558935 0.16628417 -0.09321287 0.21354896 -0.16941322 -0.29903638
-0.09286797 0.38796723 0.37395185 0.2221359 -0.27603388 -0.24972776 0.272323 0.42365012
-0.039464835 0.20476611 0.12510577 0.39808613 -0.42964745 0.33715847 0.45233485 0.22568575
0.14618355 0.17000826 -0.024255913 -0.30196834

lstm.bias_ih_l0 f4 [20]
00000000: 2c70 603e 4c4f cbbd 2cce bfbb f476 bc3e
00000010: ca04 c93e 961d d1be 2c48 e5bd 4ce0 88be
00000020: 0c62 303b 4c8b 8e3e 0c43 e2bd 1cd6 c33e
00000030: bccf 4fbe 4565 023d aed1 e93e f1d2 c03e
00000040: 180c 8f3d f26e e13e 0f94 963c cbe8 34be
0.2191779 -0.09927234 -0.005853435 0.36809504 0.39261466 -0.40842885 -0.11195406 -0.26733625
0.002691391 0.2784065 -0.110479444 0.3824929 -0.20294088 0.03183486 0.45667785 0.37660936
0.069847286 0.44029957 0.018381147 -0.17666928

lstm.bias_hh_l0 f4 [20]
00000000: c656 db3e ec36 dcbe 7420 a63d a303 a33d
00000010: 6c05 a33e 6006 cbbe 35ce 8dbe 15d3 e2be
00000020: 926c ba3e 0b67 9e3e e42e 8a3e eee5 b13e
00000030: 4e34 9a3d 4c07 0a3e 529a 8d3e 0b2f 483d
00000040: 1c11 7c3e 3c82 d6be 8728 0abe af39 6bbe
0.4283964 -0.43010652 0.08111659 0.07959678 0.31840074 -0.396533 -0.27696386 -0.44301668
0.36410958 0.3093799 0.269889 0.34745735 0.075295076 0.13479346 0.276568 0.04887299
0.24615902 -0.41896236 -0.13492022 -0.22971223

linear.weight f4 [2, 5]
00000000: 9be5 c1bc 80e8 a13e a6e2 94be 6f72 02be
00000010: e204 de3e 4dd1 47be 80e8 56bd 8d76 573e
00000020: 91b9 ccbe f431 96be
-0.023669055 0.31622696 -0.2907917 -0.12738965 0.433631 -0.19513436 -0.052467823 0.21041317
-0.39985326 -0.29334986

linear.bias f4 [2]
00000000: cbb8 b63e ecd2 023d
0.3568786 0.031939432

exp_avg f4 [20, 34]
00000000: 0000 0000 0000 0000 0000 0000 0000 0000
00000010: 0000 0000 0000 0000 0000 0000 0000 0000
00000020: 0000 0000 0000 0000 0000 0000 0000 0000
00000030: 0000 0000 0000 0000 0000 0000 0000 0000
00000040: 0000 0000 0000 0000 0000 0000 0000 0000
00000050: 0000 0000 0000 0000 0000 0000 0000 0000
00000060: 0000 0000 0000 0000 0000 0000 0000 0000
00000070: 0000 0000 0000 0000 0000 0000 0000 0000
00000080: 0000 0000 0000 0000 0000 0000 0000 0000
00000090: 0000 0000 0000 0000 0000 0000 0000 0000
000000a0: 0000 0000 0000 0000 0000 0000 0000 0000
000000b0: 0000 0000 0000 0000 0000 0000 0000 0000
000000c0: 0000 0000 0000 0000 0000 0000 0000 0000
000000d0: 0000 0000 0000 0000 0000 0000 0000 0000
000000e0: 0000 0000 0000 0000 0000 0000 0000 0000
000000f0: 0000 0000 0000 0000 0000 0000 0000 0000
00000100: 0000 0000 0000 0000 0000 0000 0000 0000
00000110: c3d0 323a a77f 523a d6eb a039 2e6e 623a
00000120: 571f 263a b369 063a 0358 2539 0000 0000
00000130: 5319 2238 b118 8339 86c0 7d36 61b4 8038
00000140: 94c1 aa39 343f 513a 6199 f939 02d0 0939
00000150: a22e 333b a3e9 8438 c333 643a 21aa 5d36
00000160: 3dc5 bb36 79c2 cc3a 26e0 5437 2a40 6d37
00000170: b159 0438 bcdc 0538 101f 2437 7d95 6d38
00000180: 7def 9339 e341 c738 6aaf 8439 7553 4539
00000190: 7860 373a ea45 3a3a 377c 2bbb f7a4 41bb
000001a0: 4c8b 93ba 4ba0 73bb aa69 1dbb 0625 f4ba
000001b0: a8bc 13ba 0000 0000 f375 9b37 478c 3bba
000001c0: f067 96b7 9569 6bb9 1b95 a6ba a4ce 31bb
000001d0: e5c9 ffbb b1c4 21ba 29bf 54bb 6a2f 84b9
000001e0: d5a6 55bb 63fc 2ab8 02cc f2b8 b6f5 6dbb
000001f0: 7965 83b8 c705 7db8 f620 dab8 f290 03b9
00000200: f002 92b8 1e7e 2eb9 4510 7eba 49b6 aeb9
00000210: 43e7 99ba 21f7 b5b9 462f a0bb 2532 9ebb
00000220: 8aed 15bb bc45 28bb e41c 80ba b2fc 56bb
00000230: 0eb6 03bb 09b1 e3ba 7673 04ba 0000 0000
00000240: fe8c e3b7 b2dd 31ba 1755 96b7 5da6 4cb9
00000250: c15a 92ba 1a8e 1bbb 1235 f7ba e1cf c4b9
00000260: bcac 62bb f9c2 6bb9 a26d 32bb ad22 cbb7
00000270: 60d9 3ab9 fabe 5bbb 485e 5bb8 0899 61b8
00000280: 88c6 aeb8 5a67 ddb8 9cbd f3b8 68ae 57b9
00000290: 5622 5cba a5ba 93b9 ec2a 88ba 2f6b a8b9
000002a0: 1af7 9bbb 70c1 1bbc 3bbc 4d84 9c59 b984
000002b0: 8081 0884 29a7 c584 ffc5 4f84 dcb4 3784
000002c0: d091 4883 0000 0000 bac4 3402 675e 9d83
000002d0: 01ef ef80 26cc d982 f7d4 2184 72fa b184
000002e0: 25da a483 abc6 dc84 9f07 bd84 0add 0983
000002f0: c78c b984 cda7 a782 e0ad aa83 8a17 4884
00000300: 9c7d 9c81 2aed fb81 653c 0b83 43fb 8382
00000310: 0a0e 2881 63b3 6f81 39c7 ab83 c909 e482
00000320: 2d86 f983 fa94 8d83 b18c 3686 72ea f285
00000330: 0000 0000 0000 0000 0000 0000 0000 0000
00000340: 0000 0000 0000 0000 0000 0000 0000 0000
00000350: 0000 0000 0000 0000 0000 0000 0000 0000
00000360: 0000 0000 0000 0000 0000 0000 0000 0000
00000370: 0000 0000 0000 0000 0000 0000 0000 0000
00000380: 0000 0000 0000 0000 0000 0000 0000 0000
00000390: 0000 0000 0000 0000 0000 0000 0000 0000
000003a0: 0000 0000 0000 0000 0000 0000 0000 0000
000003b0: 0000 0000 0000 0000 c66d ed38 4d20 1339
000003c0: bd98 6538 8464 3939 430f e238 88f2 aa38
000003d0: 7dda 0d38 0000 0000 1c3b 3c37 dc22 3738
000003e0: ba79 4a35 bb48 3937 64a9 8338 224f 1639
000003f0: ce11 c838 304b 4a37 a161 ed39 67b4 4937
0.0 0.0 0.0 0.0 0.0 0.0 0.0 0.0
0.0 0.0 0.0 0.0 0.0 0.0 0.0 0.0
0.0 0.0 0.0 0.0 0.0 0.0 0.0 0.0
0.0 0.0 0.0 0.0 0.0 0.0 0.0 0.0
0.0 0.0 0.0 0.0 0.0 0.0 0.0 0.0
0.0 0.0 0.0 0.0 0.0 0.0 0.0 0.0
0.0 0.0 0.0 0.0 0.0 0.0 0.0 0.0
0.0 0.0 0.0 0.0 0.0 0.0 0.0 0.0
0.0 0.0 0.0 0.0 0.0006821269 0.0008029886 0.0003069329 0.0008637634
0.00063370675 0.0005127445 0.00015768413 0.0 3.8647395e-05 0.00025004664 3.7812001e-06 6.137114e-05
0.00032569154 0.0007982135 0.00047607257 0.00013142827 0.0027341028 6.337769e-05 0.0008705223 3.3030594e-06
5.595996e-06 0.0015621922 1.2688373e-05 1.414124e-05 3.1554784e-05 3.1915246e-05 9.782394e-06 5.6644425e-05
0.00028216458 9.501332e-05 0.00025307696 0.00018818474 0.0006995271 0.0007105755 -0.0026166567 -0.002954779
-0.0011256724 -0.00371744 -0.002401928 -0.0018626757 -0.0005635717 0.0 1.8532364e-05 -0.0007154387
-1.7929793e-05 -0.00022450679 -0.0012709232 -0.0027131224 -0.00780605 -0.0006170972 -0.0032462573 -0.00025212328
-0.003260066 -4.0766212e-05 -0.00011577459 -0.0036309785 -6.2654675e-05 -6.032528e-05 -0.000104011895 -0.0001254713
-6.96237e-05 -0.00016640915 -0.00096917554 -0.0003332368 -0.0011741895 -0.00034707136 -0.004888448 -0.004827755
-0.002287718 -0.002567633 -0.0009774235 -0.0032804427 -0.0020097527 -0.0017371486 -0.00050526054 0.0
-2.7126163e-05 -0.00067850493 -1.7921016e-05 -0.00019516931 -0.0011165963 -0.0023735822 -0.0018860421 -0.00037538915
-0.003458782 -0.0002248398 -0.002722599 -2.4215633e-05 -0.00017819321 -0.003353058 -5.2301475e-05 -5.37867e-05
-8.333946e-05 -0.00010557352 -0.000116224604 -0.00020568969 -0.00083974504 -0.00028177086 -0.0010388768 -0.00032123315
-0.0047596814 -0.009506568 -2.4184065e-36 -4.3575584e-36 -1.6046187e-36 -4.646799e-36 -2.4423648e-36 -2.1594593e-36
-5.89421e-37 0.0 1.3280769e-37 -9.249304e-37 -2.2034422e-38 -3.200246e-37 -1.9023248e-36 -4.1842498e-36
-9.689137e-37 -5.19042e-36 -4.4440685e-36 -4.051442e-37 -4.3622575e-36 -2.4634757e-37 -1.0031622e-36 -2.3520696e-36
-5.748559e-38 -9.254315e-38 -4.091776e-37 -1.9392937e-37 -3.08668e-38 -4.402607e-38 -1.0096216e-36 -3.3507205e-37
-1.466571e-36 -8.3214385e-37 -3.433376e-35 -2.2843692e-35 0.0 0.0 0.0 0.0
0.0 0.0 0.0 0.0 0.0 0.0 0.0 0.0
0.0 0.0 0.0 0.0 0.0 0.0 0.0 0.0
0.0 0.0 0.0 0.0 0.0 0.0 0.0 0.0
0.0 0.0 0.0 0.0 0.0 0.0 0.000113214875 0.00014031045
5.4740103e-05 0.0001768042 0.000107793625 8.151407e-05 3.3820503e-05 0.0 1.1219436e-05 4.3663065e-05
7.5428e-07 1.1043793e-05 6.278118e-05 0.00014334594 9.5400595e-05 1.2057644e-05 0.00045276902 1.2022537e-05

exp_avg_sq f4 [20, 34]
00000000: 0000 0000 0000 0000 0000 0000 0000 0000
00000010: 0000 0000 0000 0000 0000 0000 0000 0000
00000020: 0000 0000 0000 0000 0000 0000 0000 0000
00000030: 0000 0000 0000 0000 0000 0000 0000 0000
00000040: 0000 0000 0000 0000 0000 0000 0000 0000
00000050: 0000 0000 0000 0000 0000 0000 0000 0000
00000060: 0000 0000 0000 0000 0000 0000 0000 0000
00000070: 0000 0000 0000 0000 0000 0000 0000 0000
00000080: 0000 0000 0000 0000 0000 0000 0000 0000
00000090: 0000 0000 0000 0000 0000 0000 0000 0000
000000a0: 0000 0000 0000 0000 0000 0000 0000 0000
000000b0: 0000 0000 0000 0000 0000 0000 0000 0000
000000c0: 0000 0000 0000 0000 0000 0000 0000 0000
000000d0: 0000 0000 0000 0000 0000 0000 0000 0000
000000e0: 0000 0000 0000 0000 0000 0000 0000 0000
000000f0: 0000 0000 0000 0000 0000 0000 0000 0000
00000100: 0000 0000 0000 0000 0000 0000 0000 0000
00000110: 3f5a 3f34 6a9f 7634 fa82 0a33 f734 7c34
00000120: 9ce2 fb33 93f8 b733 f480 4c32 0000 0000
00000130: 3671 a630 dc4f 8132 9c93 502d e160 b530
00000140: 0182 2b33 d10d 7c34 a2fd 0f33 308e 5332
00000150: 3d66 f735 e6e0 c530 36f5 8f34 0070 9c2e
00000160: f1e5 be2f d82a 1e35 ec25 4830 95b1 9f2e
00000170: 672e d52f 77d6 cd2f cd6a a02f 5196 6830
00000180: aaea 0f33 bf26 8331 702e 0b33 bfc9 1f32
00000190: 83f4 9834 9678 1d34 456f 0635 74c8 2d35
000001a0: 129b ca33 bc13 8735 eb6b e234 62b2 8d34
000001b0: eb58 cd32 0000 0000 73e0 1730 9cf4 2f33
000001c0: 2c74 ec2d 2f32 8131 6859 0534 d3d3 1535
000001d0: 9419 c736 2493 d632 b6dd 2635 e751 a431
000001e0: 6773 5035 c6ad cd2e 1b65 5431 6c59 9a35
000001f0: 223d e22f 38a6 952f ce68 6230 12c3 a030
00000200: 9f62 972f eadf 1e32 498f 9b33 4daa 1232
00000210: 4e3a ef33 4bf0 1f32 ef8d f235 f137 1636
00000220: c7d4 c435 77ab 0236 fd1c 9834 8252 6236
00000230: 2565 bf35 3418 7335 2467 9e33 0000 0000
00000240: b7c1 9c30 2413 0e34 835f a92e aa11 4232
00000250: 0e4d c134 0ff1 dd35 fbc6 9936 3003 8833
00000260: e9f1 4336 3e85 8332 3b40 1936 dbb2 0030
00000270: e675 8832 3bd3 4c36 c938 9730 fb82 6530
00000280: 8d0d 3631 97d6 7631 ace1 8331 44d5 4533
00000290: 6732 8234 fa89 ed32 41ce 7934 5d93 2933
000002a0: f7c4 de36 0990 b237 0000 0000 0000 0000
000002b0: 0000 0000 0000 0000 0000 0000 0000 0000
000002c0: 0000 0000 0000 0000 0000 0000 0000 0000
000002d0: 0000 0000 0000 0000 0000 0000 0000 0000
000002e0: 0000 0000 0000 0000 0000 0000 0000 0000
000002f0: 0000 0000 0000 0000 0000 0000 0000 0000
00000300: 0000 0000 0000 0000 0000 0000 0000 0000
00000310: 0000 0000 0000 0000 0000 0000 0000 0000
00000320: 0000 0000 0000 0000 0000 0000 0000 0000
00000330: 0000 0000 0000 0000 0000 0000 0000 0000
00000340: 0000 0000 0000 0000 0000 0000 0000 0000
00000350: 0000 0000 0000 0000 0000 0000 0000 0000
00000360: 0000 0000 0000 0000 0000 0000 0000 0000
00000370: 0000 0000 0000 0000 0000 0000 0000 0000
00000380: 0000 0000 0000 0000 0000 0000 0000 0000
00000390: 0000 0000 0000 0000 0000 0000 0000 0000
000003a0: 0000 0000 0000 0000 0000 0000 0000 0000
000003b0: 0000 0000 0000 0000 1ea5 4932 041c 9c32
000003c0: be0e 2e31 1b9a b732 8ed9 1432 a5c4 ac31
000003d0: f9ec 4f30 0000 0000 b5b8 0d2e 3ea2 a930
000003e0: d22c 392b 72f1 e92e 9169 4031 6abe 8e32
000003f0: 7a90 1b33 b14a 7531 7d3e 9833 23ca 1d2f
0.0 0.0 0.0 0.0 0.0 0.0 0.0 0.0
0.0 0.0 0.0 0.0 0.0 0.0 0.0 0.0
0.0 0.0 0.0 0.0 0.0 0.0 0.0 0.0
0.0 0.0 0.0 0.0 0.0 0.0 0.0 0.0
0.0 0.0 0.0 0.0 0.0 0.0 0.0 0.0
0.0 0.0 0.0 0.0 0.0 0.0 0.0 0.0
0.0 0.0 0.0 0.0 0.0 0.0 0.0 0.0
0.0 0.0 0.0 0.0 0.0 0.0 0.0 0.0
0.0 0.0 0.0 0.0 1.7821093e-07 2.296853e-07 3.224975e-08 2.3488597e-07
1.1729318e-07 8.566817e-08 1.1903683e-08 0.0 1.2110266e-09 1.5053892e-08 1.1856207e-11 1.3197018e-09
3.9932278e-08 2.3474355e-07 3.352546e-08 1.2314146e-08 1.8432689e-06 1.4397556e-09 2.681424e-07 7.113954e-11
3.4724182e-10 5.892193e-07 7.2813466e-10 7.262028e-11 3.8777445e-10 3.744167e-10 2.9179717e-10 8.461472e-10
3.3508208e-08 3.8170067e-09 3.2405694e-08 9.30089e-09 2.8490112e-07 1.4665633e-07 5.008081e-07 6.473922e-07
9.434565e-08 1.0064027e-06 4.21743e-07 2.6393087e-07 2.3905576e-08 0.0 5.525244e-10 4.0967834e-08
2.6881684e-11 3.7600993e-09 1.2419116e-07 5.581507e-07 5.93364e-06 2.497979e-08 6.216245e-07 4.7823394e-09
7.765397e-07 9.353189e-11 3.0907532e-09 1.1499919e-06 4.1152598e-10 2.7221048e-10 8.236726e-10 1.1696975e-09
2.7536814e-10 9.247723e-09 7.2438134e-08 8.53704e-09 1.113991e-07 9.309654e-09 1.8071713e-06 2.2384304e-06
1.4665064e-06 1.9471315e-06 2.8333298e-07 3.372465e-06 1.4260046e-06 9.0559774e-07 7.3762095e-08 0.0
1.1405551e-09 1.3231744e-07 7.7021965e-11 1.1296303e-08 3.6005116e-07 1.653594e-06 4.5829197e-06 6.333573e-08
2.9198075e-06 1.5310999e-08 2.2836164e-06 4.68203e-10 1.5886098e-08 3.0521321e-06 1.1002835e-09 8.349585e-10
2.6492188e-09 3.5919692e-09 3.8382577e-09 4.60616e-08 2.425106e-07 2.7653176e-08 2.3264967e-07 3.9482405e-08
6.6390453e-06 2.1286325e-05 0.0 0.0 0.0 0.0 0.0 0.0
0.0 0.0 0.0 0.0 0.0 0.0 0.0 0.0
0.0 0.0 0.0 0.0 0.0 0.0 0.0 0.0
0.0 0.0 0.0 0.0 0.0 0.0 0.0 0.0
0.0 0.0 0.0 0.0 0.0 0.0 0.0 0.0
0.0 0.0 0.0 0.0 0.0 0.0 0.0 0.0
0.0 0.0 0.0 0.0 0.0 0.0 0.0 0.0
0.0 0.0 0.0 0.0 0.0 0.0 0.0 0.0
0.0 0.0 0.0 0.0 0.0 0.0 1.1737283e-08 1.817353e-08
2.5328712e-09 2.1374083e-08 8.6642e-09 5.0282147e-09 7.564292e-10 0.0 3.222374e-11 1.234248e-09
6.5787404e-13 1.06385026e-10 2.7999685e-09 1.6617566e-08 3.622015e-08 3.569465e-09 7.089418e-08 1.435088e-10

exp_avg f4 [20, 5]
00000000: 0000 0000 0000 0000 0000 0000 0000 0000
00000010: 0000 0000 0000 0000 0000 0000 0000 0000
00000020: 0000 0000 0000 0000 c063 79a3 0000 0000
00000030: 02fa bf36 e1e8 6436 c49a f1b6 2da4 36b1
00000040: 0000 0000 687a 03b4 da38 42b7 abb8 c4b7
00000050: 0000 0000 0000 0000 8a54 ed35 bc6a 96b7
00000060: 8035 2eb7 0000 0000 0000 0000 0000 0000
00000070: 0200 0080 6ed6 6f81 0000 0000 0000 0000
00000080: 0000 0000 0000 0000 0000 0000 7bbc 7e1c
00000090: 0000 0000 e25f e935 98d3 6f35 ac51 99b5
000000a0: a34f ab86 0000 0000 0000 0000 b057 8ab4
000000b0: 3abe cdb4 1d10 0080 0000 0000 2b19 5038
000000c0: e6a1 7cb7 bf43 9fb8 0000 0000 0000 0000
000000d0: 0000 0000 0000 0000 0000 0000 0000 0000
000000e0: 0000 0000 0000 0000 0000 0000 0000 0000
000000f0: eb6b bb21 0000 0000 35f0 d4b2 2785 332a
00000100: 1aad aa33 0000 0000 0000 0000 4306 0180
00000110: 5dd9 0c36 f2d5 8cb4 0000 0000 0000 0000
00000120: 111c eeaf c075 85b7 fc47 4137 0b80 d5b5
00000130: 0000 0000 d7f7 f021 6aec 3ab3 8308 21b6
00000140: 0000 0000 0000 0000 0000 0000 0000 0000
00000150: 0000 0000 9a85 95a2 0000 0000 d9e7 0f35
00000160: 3314 e82d 7a1b 4d35 c6ae fdb2 0000 0000
00000170: ba5b 20ad 91fe adb7 8f0c 4eb8 1ef0 1aaa
00000180: 0000 0000 8228 1a30 605c 51b4 f936 b0b6
0.0 0.0 0.0 0.0 0.0 0.0 0.0 0.0
0.0 0.0 -1.351944e-17 0.0 5.7213483e-06 3.41102e-06 -7.200377e-06 -2.6577809e-09
0.0 -1.2244857e-07 -1.1576538e-05 -2.3451013e-05 0.0 0.0 1.768248e-06 -1.7931095e-05
-1.0383665e-05 0.0 0.0 0.0 -3e-45 -4.4051213e-38 0.0 0.0
0.0 0.0 0.0 8.4285156e-22 0.0 1.7387758e-06 8.934235e-07 -1.1423158e-06
-6.4440067e-35 0.0 0.0 -2.5768304e-07 -3.8322634e-07 -5.78e-42 0.0 4.9614504e-05
-1.5058065e-05 -7.5943295e-05 0.0 0.0 0.0 0.0 0.0 0.0
0.0 0.0 0.0 0.0 1.2700179e-18 0.0 -2.4789282e-08 1.594459e-13
7.947729e-08 0.0 0.0 -9.4082e-41 2.0988148e-06 -2.6232698e-07 0.0 0.0
-4.331189e-10 -1.5909667e-05 1.1520457e-05 -1.5907002e-06 0.0 1.6328635e-18 -4.3521517e-08 -2.3995824e-06
0.0 0.0 0.0 0.0 0.0 -4.0527987e-18 0.0 5.3609034e-07
2.6384317e-11 7.6408435e-07 -2.9532554e-08 0.0 -9.115314e-12 -2.0741749e-05 -4.9125923e-05 -1.3761255e-13
0.0 5.608244e-10 -1.9498248e-07 -5.2516084e-06

exp_avg_sq f4 [20, 5]
00000000: 0000 0000 0000 0000 0000 0000 0000 0000
00000010: 0000 0000 0000 0000 0000 0000 0000 0000
00000020: 0000 0000 0000 0000 d908 ab06 0000 0000
00000030: b058 642c ce5a 9f2b 564f 602d 2048 9e21
00000040: 0000 0000 b388 6228 fa26 322d d0cd 372e
00000050: 0000 0000 0000 0000 126a 262c e9e1 472e
00000060: 2781 082e 0000 0000 0000 0000 0000 0000
00000070: 0000 0000 0000 0000 0000 0000 0000 0000
00000080: 0000 0000 0000 0000 0000 0000 b300 0000
00000090: 0000 0000 4afe bf2a 32d0 c429 13c1 932b
000000a0: 0000 0000 0000 0000 0000 0000 11de b128
000000b0: 6a46 5828 0000 0000 0000 0000 23c8 862f
000000c0: e480 d72d b8a2 f72f 0000 0000 0000 0000
000000d0: 0000 0000 0000 0000 0000 0000 0000 0000
000000e0: 0000 0000 0000 0000 0000 0000 0000 0000
000000f0: f4ef 4003 0000 0000 43e5 5625 0335 3114
00000100: 72e9 8127 0000 0000 0000 0000 0000 0000
00000110: 9ec5 a02c ad15 3a29 0000 0000 0000 0000
00000120: 2f71 4d24 213e 522e 450f fa2f 4634 a82a
00000130: 0000 0000 acba 9f03 41b0 9b25 a5de 1f2b
00000140: 0000 0000 0000 0000 0000 0000 0000 0000
00000150: 0000 0000 3521 f604 0000 0000 6dda f92a
00000160: e156 911d 88ed e52b c7d4 ec26 0000 0000
00000170: ba32 c71c bd24 e12d a971 262f 20c4 3613
00000180: 0000 0000 9096 4425 2b73 0f2d dc44 4f2e
0.0 0.0 0.0 0.0 0.0 0.0 0.0 0.0
0.0 0.0 6.433605e-35 0.0 3.244998e-12 1.1322833e-12 1.2750542e-11 1.0725588e-18
0.0 1.2575162e-14 1.0126783e-11 4.179218e-11 0.0 0.0 2.36489e-12 4.544801e-11
3.103753e-11 0.0 0.0 0.0 0.0 0.0 0.0 0.0
0.0 0.0 0.0 2.51e-43 0.0 3.4104864e-13 8.7402646e-14 1.0498567e-12
0.0 0.0 0.0 1.9747253e-14 1.2005677e-14 0.0 0.0 2.4516664e-10
2.4499909e-11 4.5044657e-10 0.0 0.0 0.0 0.0 0.0 0.0
0.0 0.0 0.0 0.0 5.669918e-37 0.0 1.8639218e-16 8.946671e-27
3.6057794e-15 0.0 0.0 0.0 4.5694134e-12 4.1319097e-14 0.0 0.0
4.454816e-17 4.7803653e-11 4.5485585e-10 2.9879067e-13 0.0 9.388038e-37 2.7007648e-16 5.679713e-13
0.0 0.0 0.0 0.0 0.0 5.7864818e-36 0.0 4.4382849e-13
3.847101e-21 1.6337357e-12 1.6433463e-15 0.0 1.3181828e-21 2.5595854e-11 1.5137992e-10 2.3068327e-27
0.0 1.7051303e-16 8.154181e-12 4.712751e-11

exp_avg f4 [20]
00000000: 0000 0000 0000 0000 b6bf 0937 687d ffb7
00000010: 3e14 deb7 10db 6f81 0000 0000 a7d2 c535
00000020: 869b a4b4 1c8a d637 0000 0000 0000 0000
00000030: 48d2 c733 2f30 1fb7 6c65 11b8 5836 86b6
00000040: 0000 0000 e5cd 51b5 3a95 73b8 7ac3 b6b6
0.0 0.0 8.2104725e-06 -3.0456766e-05 -2.6473888e-05 -4.4054537e-38 0.0 1.4738952e-06
-3.066054e-07 2.55751e-05 0.0 0.0 9.3049096e-08 -9.488357e-06 -3.466515e-05 -3.9998376e-06
0.0 -7.8158183e-07 -5.8074693e-05 -5.446779e-06

exp_avg_sq f4 [20]
00000000: 0000 0000 0000 0000 89c5 d62d bdc3 972e
00000010: ef7b 642f 0000 0000 0000 0000 2c47 062c
00000020: 0ffe 1e29 9cda c42f 0000 0000 0000 0000
00000030: bea5 8327 408d 332e 0419 e930 f304 f02b
00000040: 0000 0000 0208 352c e69c 5d2f bcf0 2d2f
0.0 0.0 2.4416707e-11 6.901455e-11 2.0780509e-10 0.0 0.0 1.9082054e-12
3.5303408e-14 3.5807524e-10 0.0 0.0 3.65395e-15 4.0825343e-11 1.6960091e-09 1.7054399e-12
0.0 2.5726092e-12 2.0155574e-10 1.5819784e-10

exp_avg f4 [20]
00000000: 0000 0000 0000 0000 b6bf 0937 6a7d ffb7
00000010: 3d14 deb7 0cdb 6f81 0000 0000 a6d2 c535
00000020: 859b a4b4 158a d637 0000 0000 0000 0000
00000030: 49d2 c733 2f30 1fb7 6c65 11b8 5836 86b6
00000040: 0000 0000 e6cd 51b5 3a95 73b8 79c3 b6b6
0.0 0.0 8.2104725e-06 -3.045677e-05 -2.6473886e-05 -4.4054526e-38 0.0 1.473895e-06
-3.0660536e-07 2.5575087e-05 0.0 0.0 9.30491e-08 -9.488357e-06 -3.466515e-05 -3.9998376e-06
0.0 -7.815819e-07 -5.8074693e-05 -5.4467787e-06

exp_avg_sq f4 [20]
00000000: 0000 0000 0000 0000 8ac5 d62d bdc3 972e
00000010: ee7b 642f 0000 0000 0000 0000 2b47 062c
00000020: 0dfe 1e29 99da c42f 0000 0000 0000 0000
00000030: bfa5 8327 408d 332e 0519 e930 f004 f02b
00000040: 0000 0000 0208 352c e69c 5d2f bbf0 2d2f
0.0 0.0 2.4416708e-11 6.901455e-11 2.0780508e-10 0.0 0.0 1.9082051e-12
3.53034e-14 3.5807515e-10 0.0 0.0 3.6539506e-15 4.0825343e-11 1.6960092e-09 1.7054396e-12
0.0 2.5726092e-12 2.0155574e-10 1.5819783e-10

exp_avg f4 [2, 5]
00000000: af1e 85bb 0000 0000 1768 45bb 6c02 ebbc
00000010: 0837 53bd af1e 853b 0000 0000 1768 453b
00000020: 6c02 eb3c 0737 533d
-0.0040624957 0.0 -0.0030121857 -0.028687678 -0.051566154 0.0040624957 0.0 0.0030121857
0.028687678 0.05156615

exp_avg_sq f4 [2, 5]
00000000: 2e4b da35 0000 0000 8a3b a735 92df de37
00000010: 264d 2b39 2e4b da35 0000 0000 893b a735
00000020: 92df de37 244d 2b39
1.6264146e-06 0.0 1.2459798e-06 2.656857e-05 0.00016336571 1.6264146e-06 0.0 1.2459797e-06
2.656857e-05 0.00016336568

exp_avg f4 [2]
00000000: 4a86 bebe 4a86 be3e
-0.3721183 0.3721183

exp_avg_sq f4 [2]
00000000: 9cd6 f03b 9cd6 f03b
0.007349802 0.007349802
