MimicApp/lightning_logs/version_46/checkpoints/epoch=99-step=999.ckpt (torch, 15980 bytes, 18 tensors)

lstm.weight_ih_l0 f4 [20, 34]
00000000: 0e8b 5f3e 84fa c1be 5b28 c33e 2a3a 3dbe
00000010: 0042 3d3e 1768 a13e 85c8 bd3e fe3e ddbe
00000020: 76ee 8cbe f57c b23e b7aa 1abe 0b2f 97bd
00000030: d777 d53e 546b da3e 863d d3bd 3c3a ccbe
00000040: e6f7 833e 996a 9b3b 3658 8ebe 0fe5 4bbe
00000050: b46e 5b3e 5721 5e3d ed41 3f3e 3c80 48be
00000060: 25ab 493e a269 b5be f1bf 88be aef4 d1be
00000070: 5e01 d1be 623f b83e f11d 0d3d 07f9 883d
00000080: 5912 bb3e df0c 99bd 4e0a 80be ed70 a93e
00000090: 9954 0a3f 617b 92be a962 9a3e 332b 1bb8
000000a0: 782c cd3d fb25 96be fe85 fabe e246 84be
000000b0: 442f 903e ff94 a7be 88e3 96bd c0cc 033e
000000c0: b8e3 44be c6f6 5a3e a5d4 233e 2197 99be
000000d0: 3281 d03e 4559 f13e 9e70 9dbd 398d e53e
000000e0: fc3e ad3e 798e 92be 8e1d a73e 6aa7 cf3e
000000f0: ec46 70be 1401 2dbe 173e 8d3e 3931 2cbe
00000100: 5760 db3e 7138 a73c d120 bcbe 534d ec3e
00000110: be28 0cbe ec83 563e c04f fd3d 122f 893e
00000120: 30ff 6ebd 58d6 9f3e 6417 cdbe e033 5dbe
00000130: 505b 923e 7cd8 99be 20a0 a43d 7453 a03e
00000140: 9861 2cbe b862 173e 7e8b 833e 64f3 eebd
00000150: 8808 8dbd 70d6 9e3c 1035 99bc d27e 79be
00000160: 98cf a1be 50c7 b33c 5246 a93e b82a 8fbe
00000170: d43e bc3e c078 873c edbe d6be 7808 2e3e
00000180: d89f 91be 4492 2a3e 482a 803d b44b 193e
00000190: f8da 823e 284a d4bd 1f83 c2be 447c 9a3e
000001a0: 4b75 a83d fb20 6cbe feea cd3d 1a62 75be
000001b0: 198c 833d 4041 4fbc c12a 25be 9bbc dd3d
000001c0: 6a6f aa3e da9e 1ebe 50a7 71be 427f 6d3d
000001d0: 9f17 b23e c313 ca3e 629d 98be 6418 dc3e
000001e0: 41c3 00be 64cf 233c 2324 a9be a210 323d
000001f0: d853 71bd 03a9 e8be fdc8 5d3e b9f5 a6be
00000200: 1d82 cabe bdef 543e 60bc 913c d75f 8dbe
00000210: cdee 53be 40bd 16be ea7d 3dbe b082 c8bd
00000220: 733d f03e 91dd ac3e e740 a73e 26e0 3fbe
00000230: 825a 50be eec7 13bd f84d abbe c066 6fbe
00000240: 8d07 083e 38f3 e53e f1a0 e83e 256b c4be
00000250: d042 3a3d e174 8c3e c930 0abc 0b28 6ebd
00000260: d049 f23e ebda e4bd 1514 003f 3e76 ad3e
00000270: 5d80 c23d c69b a23d ceee b03e 4692 763e
00000280: e1b3 f13e 8334 723e 2946 d53e bebd 953e
00000290: 4d11 973e befd 973e a555 fa3e 1ae4 c3be
000002a0: e41a 783b 17ff d2bc ad20 9a3e 6bd4 31be
000002b0: d0ab 9cbe 9607 c3be 982c 79bd 5dee 123e
000002c0: 0f76 d7bd f037 a73c edab 6fbe a0e6 2bbc
000002d0: 4048 943e b759 22be 9440 c43e d833 84be
000002e0: 0127 bb3e 3eff 4b3e 90c2 39be 0d0d 9d3e
000002f0: 4bab eb3e 4447 7d3e a68d 103e 2784 4cbe
00000300: 6f82 e23e 3978 4f3c 6e34 a1be c0c5 b73e
00000310: b3ce 2a3d 1da3 9d3d ff92 d53e ec19 c9be
00000320: 75ba 1fbe f1f0 0c3e 73aa cf3e a74a ce3e
00000330: de94 6f3e 223f 413e 588d 67be 5351 f53e
00000340: afcc e63e e1d7 a1be 4fba 83be 5024 293e
00000350: cec6 d23d fc98 d83d d087 21be 9983 023f
00000360: 4ced 3fbc 0100 e0bc ed33 c43d 3d8b 9cbe
00000370: 6fb6 263e a2ce adbe b400 8f3e 2169 4ebe
00000380: 745a 463e 8ee4 73be 2806 9ebe 31ef 7b3e
00000390: 80ae db3d 82ae b3bd 8e26 8d3d 0b53 8b3e
000003a0: 5243 acbe 8f51 623d fe2a 8f3e d13a 0cbe
000003b0: 8c7c a63e 96b1 2cbe d6f4 9a3e 10fb 7d3e
000003c0: 4691 0abe b0fe 4e3d cc00 b8be 6892 92be
000003d0: bc84 553e deed aabe a84a 5c3e e864 92be
000003e0: 60f7 af3c 4a14 5cbe a887 83be 8485 783e
000003f0: 1bb7 cebe a4f6 d33e 4098 db3e 5cee 4c3e
0.21830389 -0.3788644 0.38116726 -0.18479219 0.18482208 0.31524727 0.37067047 -0.43212122
-0.2752568 0.3486096 -0.15104185 -0.073820196 0.41692993 0.4266001 -0.10314469 -0.3988818
0.2577507 0.004742932 -0.27801675 -0.19911598 0.21428949 0.054231014 0.18677492 -0.19580168
0.19694193 -0.35432154 -0.2670894 -0.41006988 -0.40821356 0.35985857 0.034452382 0.06688123
0.36537436 -0.07473158 -0.25007862 0.33093968 0.54035336 -0.28609756 0.30153397 -3.6995112e-05
0.10018247 -0.29325852 -0.48930353 -0.2583533 0.2816106 -0.32730862 -0.07367617 0.12871075
-0.19227493 0.21383199 0.15999086 -0.29998115 0.40723568 0.4713842 -0.07687496 0.44834307
0.33837116 -0.28624323 0.32639736 0.40557414 -0.23464555 -0.16894943 0.27586433 -0.16815652
0.4284694 0.020412656 -0.36743787 0.46152744 -0.13687417 0.20948762 0.12368727 0.26793724
-0.058348835 0.3121822 -0.40056908 -0.2160182 0.2858529 -0.30047977 0.08038354 0.3131367
-0.16834104 0.14783752 0.25692362 -0.11667517 -0.06886393 0.019389361 -0.01870206 -0.24364784
-0.31603694 0.021945626 0.33061463 -0.2796228 0.36766684 0.01653707 -0.4194254 0.16995418
-0.28442264 0.16657358 0.062580645 0.14970285 0.25557685 -0.10365707 -0.37990662 0.30172932
0.08225497 -0.23059456 0.10054587 -0.23963204 0.06423206 -0.012649834 -0.1612959 0.10826989
0.33288127 -0.15490285 -0.23598981 0.05798269 0.34783646 0.39468202 -0.29807574 0.4298736
-0.12574483 0.009998176 -0.33035383 0.043472894 -0.05891785 -0.45441446 0.21658702 -0.32609347
-0.39552394 0.20794578 0.01779002 -0.27612182 -0.20696564 -0.1472063 -0.18505064 -0.09790552
0.46921882 0.33762792 0.32666704 -0.1873785 -0.20347026 -0.03607934 -0.33457923 -0.2337904
0.1328413 0.44912124 0.4543529 -0.38362995 0.045473874 0.27432922 -0.008434483 -0.058143657
0.4732194 -0.11174568 0.5003064 0.33879274 0.094971396 0.07939868 0.34557194 0.24079236
0.4720755 0.23652844 0.4165509 0.29246324 0.29505387 0.29685777 0.48893467 -0.38259965
0.0037857825 -0.025756402 0.30103055 -0.17366187 -0.30599833 -0.38091725 -0.060833544 0.14348741
-0.10520565 0.020412415 -0.23405428 -0.010491997 0.28961372 -0.15854536 0.3833052 -0.25820804
0.36553195 0.19921586 -0.18140626 0.3067402 0.46029124 0.24734217 0.14116535 -0.19972287
0.44240138 0.012662941 -0.31485313 0.3589306 0.04170103 0.07697127 0.41713712 -0.3927759
-0.15598471 0.13763787 0.4055973 0.4029133 0.23396632 0.1887174 -0.22612512 0.47913608
0.45078036 -0.31610015 -0.2572808 0.16517758 0.10291825 0.105760545 -0.15774465 0.5098205
-0.011714291 -0.027343752 0.095802166 -0.3057498 0.1628053 -0.3394671 0.27930224 -0.20157291
0.19370443 -0.23817655 -0.30864072 0.24602963 0.107266426 -0.08773519 0.06892119 0.27211794
-0.3364511 0.05525356 0.27962488 -0.13694312 0.32516897 -0.16864619 0.3026492 0.24802804
-0.1353198 0.050535858 -0.35938108 -0.28627324 0.20851415 -0.33384603 0.21512854 -0.2859261
0.021480262 -0.21492115 -0.25689435 0.24269682 -0.40374073 0.4139911 0.42889595 0.20012802

lstm.weight_hh_l0 f4 [20, 5]
00000000: 87b9 9e3d 614f 443e d495 913e 8d44 2abe
00000010: 8526 e93e a456 dfbe f2eb 06bf c063 d6bc
00000020: a1b1 c1bd 9560 19bd 6fa6 d9be 5897 2f3d
00000030: d813 4dbd bb0e d2be 500f 8a3e 8a06 cd3e
00000040: 80d5 40bd e28a 853e 0d40 d0bc 1cfc be3e
00000050: 6360 c9be 5a20 923e eaa5 45be ae5c 5dbe
00000060: bc85 723e 8d07 953e 8bac 64be 448c 1e3e
00000070: 84f5 46be c3fa cebc a23c 7abe e785 60be
00000080: 7a17 ba3e d481 4dbe 5bc1 98be 44f7 963e
00000090: 8ad0 8bbe e5dc 5cbe 6a26 debe 1564 dbbe
000000a0: 1a5f 3f3e 9e90 a23e 5da4 8cbe 8cf8 c9bd
000000b0: ed9b 03be 88eb 85be 8cd4 b63e fce9 be3e
000000c0: 5cd3 96be c416 7cbe 3b4d c2be d235 ba3e
000000d0: f88f 82be 4225 96be d08a 92be b6e1 53be
000000e0: ea3c a93e 684a 27be 7ad3 91be 1835 683e
000000f0: 2c28 3f3e 82c4 b6be 0ce8 513e 3143 b6be
00000100: fe58 00be ac30 db3e d47a 98be 4223 8a3e
00000110: b683 83be 92c6 73be f4aa 6cbc 91f5 513c
00000120: ba2c 9f3e fba9 e33d bc90 babe a73e 51be
00000130: 5853 933e b153 d6be 881c f3bd 4adf 66bd
00000140: c2e7 51be 6ffa e5be 8989 e0be 166c 84be
00000150: b8f8 8abe 98e9 663e 504c 5e3e a0dc 393e
00000160: d02d a33d 994f 6abe dc55 433e 842c 2b3f
00000170: 9c2a 8e3e cf6e fabe 89fe 99bc 09dd e63e
00000180: 00bd b73d 805a f23b 2429 ca3e 9a78 13bd
0.0775023 0.19170906 0.28434622 -0.16627713 0.455372 -0.4362079 -0.52703774 -0.026170611
-0.09457708 -0.037445623 -0.4250979 0.042868942 -0.050067753 -0.41026863 0.26964808 0.4004405
-0.04707861 0.26082522 -0.025421167 0.3730172 -0.3933135 0.28540307 -0.19301572 -0.21617386
0.23683828 0.29107323 -0.22331445 0.15483195 -0.19429594 -0.025266057 -0.24437192 -0.2192608
0.36346036 -0.20069057 -0.2983502 0.29485524 -0.2730754 -0.2156864 -0.43388683 -0.42849794
0.18688622 0.3175096 -0.2746915 -0.0986186 -0.1285245 -0.2615626 0.35709035 0.3728789
-0.2945813 -0.2461806 -0.37949547 0.36369187 -0.25500464 -0.293253 -0.2862153 -0.2069157
0.33054286 -0.16336977 -0.28481656 0.22676504 0.18667668 -0.356968 0.20498675 -0.35598138
-0.12533948 0.4281057 -0.2978121 0.26980025 -0.25686425 -0.23806217 -0.014445055 0.012814895
0.3108881 0.111164056 -0.3643855 -0.20434056 0.28774524 -0.41860726 -0.11870676 -0.05636529
-0.20498565 -0.44917628 -0.4385493 -0.25863713 -0.27142882 0.22550046 0.21708798 0.18150568
0.079677224 -0.22881927 0.19075722 0.668648 0.27766883 -0.48912665 -0.01879813 0.4509051
0.08971596 0.0073960423 0.39484513 -0.036003686

lstm.bias_ih_l0 f4 [20]
00000000: e794 8c3e 058a 76be e236 983e b964 943c
00000010: 6baf bb3c 35f4 ab3e e4e8 9fbe fd16 98be
00000020: 62f6 813e c075 2ebc 2394 16be 3767 9fbd
00000030: 04d0 82be 6478 04bc 0fb7 7f3b cebe 063d
00000040: e107 37be 8924 d7be db80 0fbd 2634 883d
0.27457353 -0.24076088 0.29729372 0.018114435 0.022910794 0.33584753 -0.3123237 -0.2970504
0.25383288 -0.010648191 -0.14704947 -0.077833585 -0.25549328 -0.008085344 0.0039019024 0.03289681
-0.178741 -0.42020062 -0.035034996 0.066505715

lstm.bias_hh_l0 f4 [20]
00000000: a750 b4be ae9a f0bd 9094 12bd ae7b 7f3d
00000010: 41e1 69be 6ae8 80be 7d9b 573e 80bc 523e
00000020: 164d 45be 61f9 8fbe 7ba7 b73d 9e1e 9c3d
00000030: d801 3ebe 6ae1 abbd 38de 5d3e 4cf0 7abe
00000040: 15dd 853e c0bb 9d3e eda4 a53e 2097 663e
-0.35217783 -0.11748253 -0.03578621 0.06237381 -0.22839834 -0.25177318 0.21055408 0.2057972
-0.19267687 -0.28119949 0.08967491 0.07623027 -0.18555391 -0.08392604 0.21666801 -0.24505728
0.26145235 0.30807304 0.3235239 0.22518587

linear.weight f4 [2, 5]
00000000: 9a05 08bf fe87 2bbf 5004 153e 6fae f4be
00000010: 880a 28bf 9bd4 153f c035 2f3f 18b7 e7bd
00000020: 2d74 633e d982 9abd
-0.5313355 -0.6700438 0.14552426 -0.47789332 -0.6564107 0.58527535 0.6844139 -0.11314219
0.22212286 -0.075444885

linear.bias f4 [2]
00000000: 4f2e 283f daaf 24bf
0.6569566 -0.6433083

exp_avg f4 [20, 34]
00000000: 13e7 db35 37dc f935 7c5e 3535 a408 1936
00000010: fd29 e835 24a0 c435 4a95 f734 0000 0000
00000020: e713 f1b3 6fde b334 8863 2032 0b97 1134
00000030: 0275 5235 03a8 b835 31f4 8137 872f 6735
00000040: 577c 3235 f0f7 1334 1c48 0d36 c72b 6133
00000050: b30b 3133 7f16 2836 c607 7133 9653 4033
00000060: f597 8c33 b371 b433 f2ef e831 0154 7f32
00000070: f89f 4435 870d 8734 49e8 1835 e505 e333
00000080: cb54 3036 01a0 1136 4cbb a4b9 947a 6638
00000090: 4a24 5d37 841c 20b6 35e8 afb8 e99f fab8
000000a0: c7d9 0038 0000 0000 1acc dc37 bc6b 5d38
000000b0: 72fb e535 9530 9536 0ec5 beb6 f2da a338
000000c0: 2059 08bb d255 9eb8 35cf 29ba e723 0eb6
000000d0: a233 4437 f63f b2b6 0c63 9038 9257 673a
000000e0: 8f10 7fb7 7a78 fb36 ab3e 1537 4453 92b6
000000f0: aa13 bbb6 527e 0bb5 5863 76b8 5bac bdb7
00000100: d7f3 4839 673e 04b8 03e7 2e3b 71bd b939
00000110: 1a88 8e24 7615 9b24 9eec e523 c1e7 d824
00000120: a22e 9624 7c77 4b24 e541 6223 0000 0000
00000130: ab8d 1822 b82b a923 b275 4b21 453e be22
00000140: d741 eb23 9e03 5524 fd8b de23 3062 bb23
00000150: 35b5 0824 3596 ec22 970b 9b24 6934 2d21
00000160: 0cc8 a220 608f 0b25 4b77 cb21 9369 b621
00000170: 97dc 7222 9012 5022 8a25 7421 601a 3823
00000180: acab b823 2868 f722 57df 1324 e75e 2a23
00000190: 0f45 6b24 9352 3426 a563 bf1c 6a30 f31c
000001a0: 851b 2c1c 4d65 b21c 17cf 851c 9bd1 461c
000001b0: 05bb 6f1b 0000 0000 3ffa 7a9b eaf5 9d1b
000001c0: 1000 9b19 463d 0c1b 4457 781c 5c5f f01c
000001d0: e370 b31d 803a 931b 4dce 441c 4deb 031b
000001e0: 8f9c 041d 72f9 ba19 819d 3c19 4d2b c01c
000001f0: 1e25 9d19 c0b9 051a 1811 b41a 4424 cf1a
00000200: b650 fc18 6e70 6a1a d7ff 0a1c 0ce7 2e1b
00000210: 2eac 3c1c 0426 6a1b 67e3 7c1d f8c4 261e
00000220: dfec 14a5 f78d 21a5 6ac6 72a4 933f 33a5
00000230: 95b6 e7a4 3bbe b1a4 e60c 0da4 0000 0000
00000240: d34d 2523 e1f3 0ca4 14bf 9fa1 b915 44a3
00000250: 3432 7ca4 1c56 21a5 0a79 45a8 8b2f 3ca4
00000260: 9447 24a5 0e46 67a3 de52 2ca5 197a b0a2
00000270: 8fd0 f3a1 52ad 4ca5 b0b8 e2a2 2f52 60a2
00000280: 2f3b 1aa3 2026 eca2 0a1b e5a1 fd12 68a3
00000290: f386 69a4 c709 9aa3 d187 a4a4 0f7f 90a3
000002a0: f074 02a6 4d19 a6a5 34cd 19b6 dc51 b0b6
000002b0: 7bf7 eab5 7838 bcb6 3d6a 3db6 aa46 f1b5
000002c0: 6a1f 8eb5 0000 0000 3169 6db4 6ed4 10b6
000002d0: 5ab0 3fb3 eba2 cbb4 bb33 11b6 f266 04b7
000002e0: 00e3 13b3 1c78 7db5 a00d cdb6 335c 18b5
000002f0: 4f96 b9b6 ebec 98b3 d6dc 34b4 c859 b735
00000300: b96f 74b4 a682 29b4 94ed 0db5 272e a2b4
00000310: f0d2 d4b3 117b 59b6 76e3 c0b5 9732 d0b4
00000320: 3728 9ab5 2181 63b5 1e2c cb36 3e2f 2db7
00000330: 6f22 1135 4e7c a034 6a3f 2134 9335 4235
00000340: 1e5e 8834 7c71 5334 6c05 3734 0000 0000
00000350: 9ff2 edb2 8b93 9032 a40f 25b1 0f0e f832
00000360: 1863 c933 5841 1e35 e710 d334 bcdd 5e35
00000370: df33 4f34 9ee3 3a32 a793 ae34 2f23 ea32
00000380: 7391 7831 ebba 5736 eefe 7d31 0191 b931
00000390: f951 3132 0be6 9632 fa84 efb1 48d9 88b3
000003a0: 5332 0933 99e2 4232 1926 67b2 11c1 8034
000003b0: 9c97 3335 84da 2db5 5c57 dd10 8eca 1711
000003c0: 3146 5810 9280 0211 31d8 9c10 2460 5d10
000003d0: cac5 d40f 0000 0000 64ab 688f 8702 420f
000003e0: f588 420d 2fbd 320f 0758 1410 7cb5 0611
000003f0: a002 e70f bb41 5c11 12da da0f 59a6 2c0f
1.6384023e-06 1.8616037e-06 6.756525e-07 2.2803806e-06 1.7297567e-06 1.4649745e-06 4.6115957e-07 0.0
-1.1226057e-07 3.350319e-07 9.3358565e-09 1.3559126e-07 7.8401365e-07 1.3757966e-06 1.5491709e-05 8.612337e-07
6.6491106e-07 1.3780641e-07 2.105261e-06 5.242671e-08 4.1221664e-08 2.5047045e-06 5.6119255e-08 4.4779505e-08
6.546899e-08 8.402585e-08 6.7793673e-09 1.4862054e-08 7.3248475e-07 2.5155552e-07 5.696243e-07 1.05715834e-07
2.62754e-06 2.1699818e-06 -0.00031420065 5.4950433e-05 1.3181076e-05 -2.3858456e-06 -8.387902e-05 -0.000119507145
3.07204e-05 0.0 2.6321086e-05 5.279084e-05 1.713501e-06 4.4462017e-06 -5.6853814e-06 7.8132274e-05
-0.0020805076 -7.5500124e-05 -0.00064777146 -2.1180547e-06 1.1694532e-05 -5.3122594e-06 6.884904e-05 0.00088249997
-1.520304e-05 7.4944082e-06 8.895683e-06 -4.3608325e-06 -5.5753235e-06 -5.1965355e-07 -5.874349e-05 -2.2610815e-05
0.00019164324 -3.152937e-05 0.0026687987 0.00035427095 6.181325e-17 6.725689e-17 2.4928441e-17 9.4067674e-17
6.513113e-17 4.4119815e-17 1.2265438e-17 0.0 2.067484e-18 1.8341532e-17 6.8934844e-19 5.1565534e-18
2.5506635e-17 4.6190076e-17 2.4128576e-17 2.0316165e-17 2.9643787e-17 6.4126966e-18 6.724017e-17 5.8684044e-19
2.7576247e-19 1.2104905e-16 1.3787392e-18 1.2360745e-18 3.2913895e-18 2.8199083e-18 8.27201e-19 9.980245e-18
2.0022026e-17 6.7059764e-18 3.206472e-17 9.235815e-18 5.1015997e-17 6.2561954e-16 1.2665077e-21 1.6092906e-21
5.6945594e-22 1.1805238e-21 8.854733e-22 6.5783613e-22 1.9830046e-22 0.0 -2.0760374e-22 2.613239e-22
1.602665e-23 1.1600327e-22 8.2169105e-22 1.5906518e-21 4.7497628e-21 2.4356915e-22 6.51176e-22 1.0912096e-22
1.7550993e-21 1.93327e-23 9.75118e-24 1.2716687e-21 1.6248411e-23 2.7653803e-23 7.447387e-23 8.5671784e-23
6.522197e-24 4.8480886e-23 4.5991035e-22 1.4467598e-22 6.242652e-22 1.936831e-22 3.3469487e-21 8.828699e-21
-1.2917209e-16 -1.4012624e-16 -5.264345e-17 -1.5547315e-16 -1.0048959e-16 -7.708378e-17 -3.0585427e-17 0.0
8.961148e-18 -3.0564234e-17 -1.0824837e-18 -1.0629781e-17 -5.4686313e-17 -1.3993699e-16 -1.0961943e-14 -4.0806272e-17
-1.4248984e-16 -1.253737e-17 -1.4946698e-16 -4.783417e-18 -1.6521525e-18 -1.7752903e-16 -6.145297e-18 -3.0401168e-18
-8.360889e-18 -6.4008295e-18 -1.5524801e-18 -1.2580766e-17 -5.0638128e-17 -1.6700854e-17 -7.1353744e-17 -1.5666323e-17
-4.526129e-16 -2.8813554e-16 -2.291822e-06 -5.2547384e-06 -1.7506385e-06 -5.6094104e-06 -2.8225033e-06 -1.7976465e-06
-1.0588967e-06 0.0 -2.2110613e-07 -2.1581322e-06 -4.4631044e-08 -3.7930235e-07 -2.1636795e-06 -7.891782e-06
-3.443256e-08 -9.4424627e-07 -6.1110622e-06 -5.675858e-07 -5.530928e-06 -7.121147e-08 -1.6844146e-07 1.3660692e-06
-2.2764915e-07 -1.5786881e-07 -5.2872315e-07 -3.0208432e-07 -9.9103886e-08 -3.2407154e-06 -1.4371315e-06 -3.8779828e-07
-1.1485598e-06 -8.4751997e-07 6.0550074e-06 -1.0322603e-05 5.4066817e-07 2.9892766e-07 1.5017363e-07 7.234859e-07
2.5400453e-07 1.9692192e-07 1.7045176e-07 0.0 -2.7700763e-08 1.6830901e-08 -2.401955e-09 2.8877393e-08
9.377817e-08 5.8954674e-07 3.931411e-07 8.302411e-07 1.9297248e-07 1.0878379e-08 3.2517457e-07 2.7257185e-08
3.6171428e-09 3.2146297e-06 3.6961256e-09 5.4006937e-09 1.0321394e-08 1.756691e-08 -6.970933e-09 -6.372517e-08
3.1943568e-08 1.1343809e-08 -1.3454632e-08 2.3982332e-07 6.6903317e-07 -6.4765504e-07 8.730373e-29 1.1974217e-28
4.2652562e-29 1.029481e-28 6.1864246e-29 4.365863e-29 2.0981e-29 0.0 -1.1471492e-29 9.565425e-30
5.994572e-31 8.812513e-30 2.9255667e-29 1.062666e-28 2.277937e-29 1.7375195e-28 2.1580457e-29 8.512292e-30

exp_avg_sq f4 [20, 34]
00000000: b35a bc35 5f07 db35 2d63 7e34 fb54 1c36
00000010: 2965 9c35 43f6 3735 7faa 9d33 0000 0000
00000020: 864d a532 4ebb b533 0f7e 682e 1cac 2132
00000030: dfa0 ab34 e0f1 bf35 266e e538 7943 9134
00000040: 7553 2f36 a1f5 4032 970a 0836 19e6 0730
00000050: 4353 0c32 3bfe 1236 cd4b d330 4c85 3630
00000060: a998 f230 abe4 4731 3c8d a431 56f6 7d33
00000070: 87aa 3134 d3e3 a532 cfc8 6c35 3978 c332
00000080: a1e5 0637 1d7e 1837 98fb 4837 fe75 9f37
00000090: 9afd 3536 9dcb ca37 39f8 5137 6db3 dd36
000000a0: 95c6 2935 0000 0000 ccea c632 b6a5 b035
000000b0: 0bdc 7030 b563 e933 bb5c 7136 614c 8b37
000000c0: e818 7b38 802f a135 a01a 1e38 3117 1834
000000d0: 1854 b937 102e c331 e4c6 4e34 fa04 5038
000000e0: 6aa5 1d32 2e26 0932 5597 e232 5df4 1533
000000f0: 0462 2e33 28e8 8634 deea 0f36 f64c 8734
00000100: 9856 4c36 f7b4 8a34 9f80 033a 2f29 a738
00000110: bd28 9a0c ac99 b60c 0a23 480b ba7f 300d
00000120: a4ab a70c a4df 1c0c 8013 3f0a 0000 0000
00000130: 9b7b b007 4f27 db0a a4df 1c06 8a24 0909
00000140: f1b9 510b d5ec 2b0c 7baa 3b0b 7224 060b
00000150: 5ca1 8d0b acb9 5309 75aa b60c 8f16 e105
00000160: 55cc c804 b71d 8f0d a4df 1c07 cdf9 fb06
00000170: 0076 5e08 bba0 2208 cfe5 6106 b868 f609
00000180: 874c 000b a8ad 6509 9777 a90b 6a55 dd09
00000190: f1b9 510c 1229 f00f 62bb 5f2d d206 212e
000001a0: cfaa b52c 37e5 7a2e 9fd5 b62d 3046 122d
000001b0: 3fba 6b2b 0000 0000 e66f 912b 9fe6 1d2c
000001c0: 6658 ae26 618a 562a 5ee8 b82d 998f 242e
000001d0: fdea b52f ab0d 362b bbd3 d42c 3b93 d22a
000001e0: 4edb 402e 670f 1127 b91b d726 8b17 232e
000001f0: 08d1 bc27 00c3 b228 2e31 3129 02c9 9129
00000200: 24af 3326 963b 9829 9b37 f42c c38a 5e2b
00000210: a67e c12c 7567 8e2a 6d83 442f 1c79 952f
00000220: 2ea0 fd30 1a9c 1231 da38 a92f 456c 4931
00000230: 9648 bb30 da82 5730 88bd cf2e 0000 0000
00000240: 6b70 622d d74e 202f d2e8 b629 8807 5a2d
00000250: 38db f02f 5e24 0b31 5a04 6236 d807 de2e
00000260: ee4c c932 a9ae 952d c993 2b31 951a 4a2b
00000270: 66a8 362c 678e 7531 eeb3 962c 789d 8a2b
00000280: 172c 8b2c a79d 832c e986 a22c fc57 622c
00000290: 279e 6d2f 55ac d72d ca09 1b30 96df 0a2e
000002a0: c12e b732 d541 0632 ea56 cd33 007f 2534
000002b0: 36af ba32 5863 cc34 dea7 2d34 9454 bd33
000002c0: 3962 c131 0000 0000 def6 782f 22a9 2a32
000002d0: 317f 5f2c 398c 7330 1471 e032 c722 ff33
000002e0: 2bdf fc32 b695 1f33 436e 0635 d690 af30
000002f0: d1a8 4134 8115 cc2e 8cf8 c62e 2ad2 0d35
00000300: 4e74 8a2e 6d91 9d2e bff3 b42f 4d96 8b2f
00000310: 7f6e fa2f d077 bd30 626e 9132 c9b0 0e31
00000320: d39d bb32 7f04 ce30 5357 1d34 5048 7234
00000330: 2661 5932 29ec 9f32 0dc5 3531 6b66 ff32
00000340: 3f84 5e32 889b 0232 f9e8 5830 0000 0000
00000350: 49e3 be2d 3fb6 af30 2f9e 222b 1803 ec2e
00000360: 1fad 5431 2bf2 8b32 25ae a831 fcf4 a130
00000370: 240b 1e33 aa08 222f 4dba b232 4338 142c
00000380: 67f9 c92e 7048 6333 350c 062d 74ff 0c2d
00000390: 8c15 042e 9f81 182e c316 9c2d 4a14 ef2f
000003a0: fb85 0631 2715 682f 1e8e e930 083e f62f
000003b0: f582 1933 a6c5 0c35 0000 0000 0000 0000
000003c0: 0000 0000 0000 0000 0000 0000 0000 0000
000003d0: 0000 0000 0000 0000 0000 0000 0000 0000
000003e0: 0000 0000 0000 0000 0000 0000 0000 0000
000003f0: 0000 0000 0000 0000 0000 0000 0000 0000
1.4033488e-06 1.6318917e-06 2.3691673e-07 2.3295277e-06 1.1652347e-06 6.853117e-07 7.341895e-08 0.0
1.9243782e-08 8.46254e-08 5.2862655e-11 9.4105665e-09 3.196828e-07 1.4301004e-06 0.00010940088 2.7057447e-07
2.612561e-06 1.123172e-08 2.0271743e-06 4.94397e-10 8.168004e-09 2.1903677e-06 1.5373814e-09 6.640064e-10
1.7651206e-09 2.9088294e-09 4.7890847e-09 5.9130194e-08 1.6546447e-07 1.931213e-08 8.8209066e-07 2.2755659e-08
8.040487e-06 9.089269e-06 1.1979508e-05 1.9009221e-05 2.7118717e-06 2.4175091e-05 1.2515165e-05 6.607201e-06
6.324638e-07 0.0 2.3157007e-08 1.316125e-06 8.762419e-10 1.08680446e-07 3.5965775e-06 1.6605658e-05
5.986626e-05 1.2009259e-06 3.7694932e-05 1.416454e-07 2.2092878e-05 5.6804836e-09 1.9257601e-07 4.95957e-05
9.176214e-09 7.983131e-09 2.637868e-08 3.4914013e-08 4.0601677e-08 2.512836e-07 2.1445371e-06 2.5201706e-07
3.0448773e-06 2.5836172e-07 0.00050164195 7.9708516e-05 2.3751975e-31 2.8134028e-31 3.854496e-32 5.4387932e-31
2.5833727e-31 1.2085102e-31 9.199983e-33 0.0 2.6554186e-34 2.1103719e-32 2.9504644e-35 1.6507956e-33
4.0391823e-32 1.324463e-31 3.6143145e-32 2.583488e-32 5.455401e-32 2.5485504e-33 2.814413e-31 2.1167185e-35
4.7207423e-36 8.820209e-31 1.1801858e-34 9.4782756e-35 6.6944403e-34 4.893904e-34 4.2486633e-35 5.9320823e-33
2.4709476e-32 2.7646525e-33 6.527637e-32 5.3284138e-33 1.6156729e-31 2.3681647e-29 1.271769e-11 3.661322e-11
5.163293e-12 5.7047003e-11 2.0785871e-11 8.314724e-12 8.374724e-13 0.0 1.0333928e-12 2.2439062e-12
1.2097636e-15 1.9055028e-13 2.102157e-11 3.7416823e-11 3.3090677e-10 6.4678357e-13 6.048909e-12 3.7405655e-13
4.3850527e-11 2.0131142e-15 1.4926136e-15 3.708282e-11 5.2407114e-15 1.9846538e-14 3.934455e-14 6.474163e-14
6.234046e-16 6.7604925e-14 6.9410705e-12 7.9062814e-13 5.4994507e-12 2.5296055e-13 1.7872788e-10 2.7188995e-10
1.8453699e-09 2.133453e-09 3.0781316e-10 2.9310894e-09 1.3626671e-09 7.8402496e-10 9.446938e-11 0.0
1.28715745e-11 1.4579925e-10 8.1228115e-14 1.2393538e-11 4.381151e-10 2.0247835e-09 3.3679157e-06 1.00967845e-10
2.3434463e-08 1.7016904e-11 2.4967781e-09 7.1801706e-13 2.5957235e-12 3.5733139e-09 4.2832326e-12 9.849196e-13
3.9555126e-12 3.740747e-12 4.619295e-12 3.2165373e-12 2.1611211e-10 2.4519201e-11 5.640258e-10 3.157615e-11
2.1325265e-08 7.814795e-09 9.561866e-08 1.5413025e-07 2.1732927e-08 3.8070243e-07 1.617295e-07 8.816383e-08
5.628206e-09 0.0 2.2643173e-10 9.933759e-09 3.1760811e-12 8.8602153e-10 2.6128454e-08 1.1880689e-07
2.9438146e-08 3.7156234e-08 5.007934e-07 1.2774091e-09 1.8035941e-07 9.280666e-11 9.048148e-11 5.283242e-07
6.296173e-11 7.165366e-11 3.2915e-10 2.5390748e-10 4.5553247e-10 1.3785613e-09 1.6930418e-08 2.076421e-09
2.1841435e-08 1.498975e-09 1.4653533e-07 2.2564313e-07 1.2653151e-08 1.861743e-08 2.6450977e-09 2.9732481e-08
1.295217e-08 7.60236e-09 7.8911416e-10 0.0 2.1701434e-11 1.2784723e-09 5.7773485e-13 1.0732587e-10
3.0948468e-09 1.6291855e-08 4.9092415e-09 1.178392e-09 3.6797374e-08 1.4736892e-10 2.0806647e-08 2.1063297e-12
9.1847245e-11 5.2918438e-08 7.619729e-12 8.014801e-12 3.0032463e-11 3.4675925e-11 1.7745255e-11 4.3488263e-10
1.9575725e-09 2.1107792e-10 1.6993373e-09 4.4791215e-10 3.5742193e-08 5.244168e-07 0.0 0.0
0.0 0.0 0.0 0.0 0.0 0.0 0.0 0.0
0.0 0.0 0.0 0.0 0.0 0.0 0.0 0.0

exp_avg f4 [20, 5]
00000000: 6404 6e2d 58bd 412c e14f 5918 3cf4 92b2
00000010: 75e6 5fb2 505d 1bb6 fc0a 4836 0400 0080
00000020: 2186 11ae 5f02 2835 5183 2f9d 7e41 23a1
00000030: 4735 cb8c 0000 0000 0000 0000 de1a 9d99
00000040: de1a 9d99 0000 0000 7734 1700 0400 0000
00000050: 8bb6 d71f 4984 8995 0000 0000 fad4 ca21
00000060: d249 1321 3551 5034 fe3e 5733 0000 0000
00000070: 0000 0000 200a 9b33 5b85 a531 443e f8b0
00000080: 5a30 2121 0400 0000 0400 0080 0d13 c28d
00000090: 1813 c28d 0000 0000 0000 0000 0000 0000
000000a0: 1d8f 5b98 1d8f 5b98 0000 0000 dceb 050c
000000b0: 0400 0000 b6e0 a2af 5dbf 9eaf 0000 0000
000000c0: 0400 0000 dc2d a32f aaa8 3fb5 404a 2a36
000000d0: 8a10 4391 0400 0000 0400 0000 5db5 9cb0
000000e0: 5b33 98a8 0400 0080 bf34 7012 d185 b527
000000f0: 8e09 8f0b 8e09 8f0b 0000 0000 0000 0000
00000100: 0000 0000 55b7 0096 ec8e f995 0000 0000
00000110: 0400 0080 1309 1293 49fa eeb0 17fa eeb0
00000120: 0000 0000 fd9a ea88 7f58 ee30 f7d6 2636
00000130: 2651 afb4 3899 0f1d 5b52 2a27 4fb7 0127
00000140: b435 d734 e234 9735 0400 0000 5394 742d
00000150: dcc8 8634 e434 d2a5 9bf8 d2a5 c8ce 2996
00000160: 0000 0000 0000 0000 42d5 31b4 8e1d e7b4
00000170: 0000 0000 6cdf de34 ab98 5834 20a6 ba33
00000180: 6416 ed34 0100 0080 6679 d22d 98d6 4034
1.3529709e-11 2.7532056e-12 2.8086921e-24 -1.7107702e-08 -1.3032708e-08 -2.3151115e-06 2.9808716e-06 -6e-45
-3.3088313e-11 6.258833e-07 -2.3228946e-21 -5.5313226e-19 -3.1309167e-31 0.0 0.0 -1.6244271e-23
-1.6244271e-23 0.0 2.131037e-39 6e-45 9.1358034e-20 -5.554257e-26 0.0 1.3744427e-18
4.990324e-19 1.9401052e-07 5.011588e-08 0.0 0.0 7.219592e-08 4.817293e-09 -1.8062072e-09
5.4612915e-19 6e-45 -6e-45 -1.1960759e-30 -1.196077e-30 0.0 0.0 0.0
-2.837734e-24 -2.837734e-24 0.0 1.0316924e-31 6e-45 -2.9627295e-10 -2.8876004e-10 0.0
6e-45 2.9682112e-10 -7.1398483e-07 2.5375193e-06 -1.5387884e-28 6e-45 6e-45 -1.140204e-09
-1.6897662e-14 -6e-45 7.579566e-28 5.0382676e-15 5.509597e-32 5.509597e-32 0.0 0.0
0.0 -1.0397607e-25 -1.0079579e-25 0.0 -6e-45 -1.8432265e-27 -1.7387914e-09 -1.7387859e-09
0.0 -1.41198e-33 1.7341931e-09 2.4861054e-06 -3.2655333e-07 1.9005105e-21 2.3636884e-15 1.8001718e-15
4.0085945e-07 1.1265768e-06 6e-45 1.3902729e-11 2.510559e-07 -3.6465033e-16 -3.6597655e-16 -1.371696e-25
0.0 0.0 -1.6561992e-07 -4.3048607e-07 0.0 4.1513283e-07 2.0172108e-07 8.691518e-08
4.416098e-07 -1e-45 2.3928148e-11 1.7959462e-07

exp_avg_sq f4 [20, 5]
00000000: 3878 ff2c 6c3d 792b 8917 6801 00f4 f32c
00000010: 049c 362d 15cb e930 4c2d 1f2f 0000 0000
00000020: edc7 0e2b 2c68 0e2d c019 2e00 7759 b105
00000030: 0000 0000 0000 0000 0000 0000 e092 5d27
00000040: 009f 0607 0000 0000 5f7e 2724 71bd 0d00
00000050: 7d6d 4b29 dd94 f123 0000 0000 c2b2 272a
00000060: cadb e128 684d 552d fe47 692d 0000 0000
00000070: 0000 0000 b909 f42a 7917 232a 6054 c82b
00000080: 09ae 170a 0000 0000 c512 d910 0000 0000
00000090: 0000 0000 0000 0000 0000 0000 0000 0000
000000a0: 0c01 5d24 67bd bf09 0000 0000 174e be22
000000b0: 0fed 811d c14e 4826 cea6 e025 0000 0000
000000c0: 0000 0000 a417 7026 0ae4 9531 0379 5931
000000d0: d237 0000 0196 d114 50f8 7128 352b 8831
000000e0: 2489 2830 0000 0000 0000 0000 bafd 0a0f
000000f0: 0000 0000 0000 0000 0000 0000 0000 0000
00000100: 0000 0000 b5a6 d52a 9058 0000 0000 0000
00000110: e557 fd29 cf7b b329 61d4 3d2c 9bd9 3d2c
00000120: 0000 0000 0837 a521 9da4 292b 6704 a630
00000130: 2a95 0930 d16b bf07 ed3b 612b 56be 252a
00000140: c6e1 a72f 7672 5430 0e59 8908 ffea 1c28
00000150: dafb 322b 304e a60e 92c9 780f 0000 0000
00000160: 0000 0000 0000 0000 4b2d 222c 18ef e12b
00000170: 0000 0000 9e88 902c 7753 8d2a 6934 462a
00000180: 9f77 052a 0000 0000 4238 2629 12d1 362a
7.260883e-12 8.854781e-13 4.2628556e-38 6.933565e-12 1.0380145e-11 1.7010701e-09 1.4477058e-10 0.0
5.0725987e-13 8.094896e-12 4.23367e-39 1.6677864e-35 0.0 0.0 0.0 3.0749532e-15
1.0127765e-34 0.0 3.6319393e-17 1.26182e-39 4.517002e-14 2.6192318e-17 0.0 1.4894599e-13
2.5075336e-14 1.2124836e-11 1.3260502e-11 0.0 0.0 4.3349853e-13 1.4485452e-13 1.4234273e-12
7.303118e-33 0.0 8.562033e-29 0.0 0.0 0.0 0.0 0.0
4.7922623e-17 4.615969e-33 0.0 5.1582284e-18 3.439113e-21 6.949567e-16 3.8970837e-16 0.0
0.0 8.3298766e-16 4.3623958e-09 3.1646443e-09 2.0025e-41 2.1162773e-26 1.3432032e-14 3.963033e-09
6.131293e-10 0.0 0.0 6.852791e-30 0.0 0.0 0.0 0.0
0.0 3.7952077e-13 3.177e-41 0.0 1.1250704e-13 7.970674e-14 2.697641e-12 2.697931e-12
0.0 1.1195402e-18 6.026931e-13 1.2079341e-09 5.0052285e-10 2.8801855e-34 8.001922e-13 1.472098e-13
3.0537545e-10 7.728781e-10 8.266324e-34 8.710696e-15 6.358782e-13 4.099745e-30 1.2266165e-29 0.0
0.0 0.0 2.3046727e-12 1.6053573e-12 0.0 4.1078937e-12 2.5104547e-13 1.7604116e-13
1.1854275e-13 0.0 3.69082e-14 1.6237383e-13

exp_avg f4 [20]
00000000: 5903 a032 26a5 1135 1278 4b21 3536 9d19
00000010: 7095 d6a1 81cb 5cb3 44c7 8631 f488 c20d
00000020: 6312 5c18 ed0a 9f2f 22b8 75b5 f6e5 9f30
00000030: 15d5 bb8b 44df 7a16 4125 f030 e9ef 0535
00000040: ee16 59b5 2114 d325 9fdd 3134 5530 f0b2
1.8627974e-08 5.425703e-07 6.8937987e-19 1.6255314e-23 -1.454076e-18 -5.1407827e-08 3.922567e-09 1.1989143e-30
2.8443616e-24 2.8929695e-10 -9.153756e-07 1.1634131e-09 -7.235039e-32 2.0265289e-25 1.7472886e-09 4.9895476e-07
-8.0872167e-07 3.6616305e-16 1.6565035e-07 -2.7961656e-08

exp_avg_sq f4 [20]
00000000: d512 3e2f ce05 0931 a5df 1c06 fd5f 8c27
00000010: 900d 802a cd33 8e2d e379 092c 0000 0000
00000020: a1a1 6424 a623 7b26 9df9 1133 7ac8 a131
00000030: 0000 0000 2103 1c2b e540 542c 9470 d530
00000040: db0f de30 4cad 1610 6de9 902d 1998 6b2b
1.728709e-10 1.9939423e-09 2.9504647e-35 3.8961877e-15 2.2746778e-13 1.6166535e-11 1.9536532e-12 0.0
4.9576524e-17 8.713143e-16 3.3987465e-08 4.7085082e-09 0.0 5.5426676e-13 3.0163036e-12 1.5529786e-09
1.6157132e-09 2.9715787e-29 1.6474567e-11 8.369985e-13

exp_avg f4 [20]
00000000: 5903 a032 2ea5 1135 1478 4b21 3436 9d19
00000010: 7095 d6a1 80cb 5cb3 4cc7 8631 f588 c20d
00000020: 6312 5c18 ee0a 9f2f 1fb8 75b5 f6e5 9f30
00000030: 15d5 bb8b 44df 7a16 4125 f030 e8ef 0535
00000040: ec16 59b5 2214 d325 9fdd 3134 2030 f0b2
1.8627974e-08 5.425708e-07 6.8937997e-19 1.6255312e-23 -1.454076e-18 -5.1407824e-08 3.9225707e-09 1.1989144e-30
2.8443616e-24 2.8929698e-10 -9.1537544e-07 1.1634131e-09 -7.235039e-32 2.0265289e-25 1.7472886e-09 4.989547e-07
-8.0872155e-07 3.6616308e-16 1.6565035e-07 -2.7961562e-08

exp_avg_sq f4 [20]
00000000: d312 3e2f cd05 0931 a3df 1c06 fd5f 8c27
00000010: 900d 802a cd33 8e2d e079 092c 0000 0000
00000020: a1a1 6424 a623 7b26 9df9 1133 7ac8 a131
00000030: 0000 0000 2103 1c2b e740 542c 9570 d530
00000040: dd0f de30 4bad 1610 6ce9 902d 1a98 6b2b
1.7287087e-10 1.9939421e-09 2.950464e-35 3.8961877e-15 2.2746778e-13 1.6166535e-11 1.9536525e-12 0.0
4.9576524e-17 8.713143e-16 3.3987465e-08 4.7085082e-09 0.0 5.5426676e-13 3.016304e-12 1.5529787e-09
1.6157135e-09 2.9715784e-29 1.6474565e-11 8.3699855e-13

exp_avg f4 [2, 5]
00000000: ddcd 9d3a 4874 3639 91ea cb26 a0f4 4e3a
00000010: 821b 373a f1cd 9dba e674 36b9 8dea cba6
00000020: 9ef4 4eba 821b 37ba
0.0012039501 0.0001740019 1.4149534e-15 0.00078947283 0.0006984995 -0.0012039525 -0.0001740042 -1.414953e-15
-0.0007894727 -0.0006984995

exp_avg_sq f4 [2, 5]
00000000: 1a63 c439 a6d6 4039 6a78 0c12 77e3 2637
00000010: b25e b335 1763 c439 a3d6 4039 6a78 0c12
00000020: 77e3 2637 b45e b335
0.0003745787 0.0001839051 4.4324632e-28 9.947332e-06 1.3364099e-06 0.0003745786 0.00018390505 4.4324632e-28
9.947332e-06 1.3364102e-06

exp_avg f4 [2]
00000000: 06de 1fbe 06de 1f3e
-0.15612039 0.15612039

exp_avg_sq f4 [2]
00000000: 7142 433d 7042 433d
0.047670785 0.04767078
