MimicApp/lightning_logs/version_54/checkpoints/epoch=16-step=169.ckpt (torch, 15605 bytes, 18 tensors)

lstm.weight_ih_l0 f4 [20, 34]
000000 f9 e1 d4 3c 80 71 86 3e eb 09 7a 3e 27 c6 9f 3e
       0.025986658 0.2625847 0.24417846 0.31205866
000010 38 ec 8d 3e 8b 55 c3 3e 06 c0 23 3e ac 3d 7f 3e
       0.27719283 0.38151202 0.1599122 0.2492587
000020 14 12 e4 bd 8a 8f 8f 3e 4f 8b dc be 31 6a 83 be
       -0.11136261 0.280392 -0.43075034 -0.25666955
000030 94 42 bc 39 29 b0 ba be c5 d9 89 3e b2 90 5e be
       0.0003590776 -0.36462525 0.26923957 -0.21734884
000040 d7 61 d1 be 77 98 e4 be d6 bf d0 be de 9a 99 be
       -0.40894958 -0.4464757 -0.4077136 -0.30000967
000050 fb c8 02 3d 4b 37 bb be a7 d2 87 3e 40 25 87 be
       0.03192995 -0.36565623 0.26527902 -0.26395607
000060 6f d3 81 3d a2 fc 82 3e c1 af 8f 3e 32 19 7b 3e
       0.06339156 0.2558337 0.28063777 0.2452133
000070 85 f6 5c be 87 ac 30 3e ae 63 15 be bb a9 86 3e
       -0.21578415 0.17253314 -0.14588806 0.2630137
000080 b5 ec b1 be b8 99 ca be f0 9a 75 3e 2a 15 cf 3e
       -0.34750906 -0.39570403 0.23984885 0.40445834
000090 5d cb 61 be 2c 5f c9 bd 0c f6 4b be 1c bc 3b 3e
       -0.22050233 -0.09832606 -0.19918078 0.18333477
0000a0 b8 a8 cb 3d 05 8c 7b be 34 33 74 3e 80 17 e1 bb
       0.0994429 -0.24565132 0.23847657 -0.0068692565
0000b0 20 5c 0d bc c4 87 d1 3e 94 68 7d be b2 49 b8 be
       -0.008627921 0.40923893 -0.24746925 -0.35993725
0000c0 30 6b 93 3e 44 e9 07 3e 64 63 e6 bd aa 86 18 be
       0.28792715 0.13272578 -0.11249426 -0.1489512
0000d0 08 3d 62 3e 68 08 92 bd a4 d5 3e be 2c 2c 43 3e
       0.22093594 -0.071305096 -0.18636185 0.19059819
0000e0 40 97 3f bd 9b f8 a6 be 92 cf d1 3e 10 a2 ea 3d
       -0.046775103 -0.32611546 0.40978676 0.11456692
0000f0 4c 6b 62 3e a0 76 c6 3d e7 48 e4 be 80 a7 cf bd
       0.22111243 0.09690595 -0.4458687 -0.1013937
000100 42 a8 dd 3e f8 90 76 bd 10 b6 41 3e e8 14 cc 3e
       0.43292433 -0.060196847 0.18917108 0.398597
000110 46 1c d5 bd 51 ad 2f 3d 54 80 9d 3e 7f 69 65 3d
       -0.10405783 0.042889897 0.3076197 0.056008812
000120 00 c1 99 3e b7 95 8a be 45 4a 23 be 9c c6 96 be
       0.3003006 -0.27067348 -0.159463 -0.29448402
000130 17 ef 98 be 03 e6 67 be 0c 2c 21 3e a5 ec 58 be
       -0.2986991 -0.22646336 0.15739459 -0.21184023
000140 42 19 bb 3e d5 02 54 3e 5b 24 b0 3e 81 93 84 3d
       0.36542708 0.20704205 0.34402737 0.06473447
000150 d3 8a c1 be 99 56 8b 3e d1 36 cc 3e e7 d6 97 be
       -0.37801227 0.27214506 0.39885572 -0.29656145
000160 a0 4d c1 3e 3f 3d bb be 5d 6c 78 3d 67 1d 82 be
       0.37754536 -0.36570165 0.06065022 -0.25413057
000170 6c 2f 8d 3b 83 b7 ea bc 86 dd 66 bc c7 e5 d5 3e
       0.0043086316 -0.028651958 -0.014090901 0.4177687
000180 ca f9 bf 3e 63 0b b1 3e 12 bc 97 3d e5 d3 8a bd
       0.3749526 0.34579 0.074089184 -0.06778697
000190 1c bb d1 3e 00 48 ba be 78 14 56 3d 1c 40 56 3e
       0.40963066 -0.36383057 0.052265614 0.20922893
0001a0 48 60 35 bd 6a 57 d6 3e e0 a3 5d be 40 fd 9e bb
       -0.044281274 0.41863567 -0.21644545 -0.004851967
0001b0 32 9e 8b 3e 00 43 e7 3d 60 4f 68 3c 60 3a a8 3d
       0.2726913 0.11292076 0.014179081 0.08214259
0001c0 ba f4 80 be f6 65 1e be 61 18 68 be ec 0b 7c be
       -0.25186712 -0.15468583 -0.2266555 -0.24613923
0001d0 ce 78 9d 3e 02 24 c4 be 58 6d a1 3d 1e 27 7d be
       0.3075623 -0.38308722 0.07882184 -0.24721953
0001e0 a5 b7 70 be 74 19 44 3e 00 84 a5 3d 00 49 dd 3c
       -0.23507555 0.19150335 0.080818176 0.027012348
0001f0 58 62 b3 3e 04 c0 ba be f4 41 fe bd 67 92 83 be
       0.35035968 -0.3647462 -0.12414923 -0.25697634
000200 94 0d 68 3e 10 b6 74 bd 98 4b b6 3e e0 ce 62 3d
       0.2266143 -0.05974394 0.35604548 0.055373073
000210 f0 7a c0 be 78 dd 26 3e 14 59 c7 3e 08 47 8e 3e
       -0.37593794 0.16295421 0.3893515 0.27788568
000220 0e f5 a7 be a2 a9 9b 3e 30 f8 4c be 2e 80 3c 3e
       -0.3280415 0.30402857 -0.20016551 0.18408272
000230 ba f4 01 3f e6 5b 02 3e eb 29 06 3f 48 57 10 3e
       0.5076405 0.12730369 0.5240771 0.14095795
000240 91 aa 9e be 6d f7 9e 3d 88 04 da 3e 89 06 ba bd
       -0.30989507 0.077620365 0.42581582 -0.09083278
000250 b1 c1 8d 3e 1c 65 89 3e 54 22 8e 3d 2f 3f 15 3d
       0.27686837 0.26834953 0.06940141 0.03643721
000260 f5 bd 35 3e 04 b4 e2 3e 38 34 b9 3e ef 6a 6f 3e
       0.17748244 0.44277966 0.36172652 0.23380636
000270 f2 58 e5 3e de 0b cb 3d e1 51 06 3f 68 27 e5 3e
       0.44794422 0.09914373 0.5246869 0.44756627
000280 78 3c 31 3e 22 3a 7a bd b4 eb 1b bd e1 ed 91 be
       0.17308223 -0.061090596 -0.03806658 -0.285018
000290 fe a2 d8 3e e6 a6 94 3e c7 fb e9 3e 9d e3 b5 3b
       0.42311853 0.29033583 0.45699903 0.0055508153
0002a0 48 68 5a be 66 44 8a be 56 60 2a be b0 b3 da be
       -0.21328843 -0.2700531 -0.16638312 -0.42715216
0002b0 c4 63 fa bd a5 fa a6 be 20 bc a0 be 24 b0 52 3e
       -0.1222606 -0.32613102 -0.31393528 0.20575005
0002c0 a6 74 95 be f0 69 dc be b0 f1 96 3e 98 50 9e 3d
       -0.29190558 -0.43049574 0.29481268 0.07730216
0002d0 7b 8c 99 be 48 d5 5e bd 92 e1 88 be f2 c6 b8 3e
       -0.2998999 -0.05440262 -0.26734596 0.36089283
0002e0 d0 ef 4c bd b0 3c ac bc b2 ce d6 3e 5a 44 08 be
       -0.05003339 -0.021025032 0.4195457 -0.13307324
0002f0 b5 00 d7 be 78 96 35 bd f8 f8 da bd 18 c9 40 3e
       -0.41992727 -0.04433295 -0.10692018 0.18826711
000300 6b 66 5a be 70 d7 8b 3d 10 46 be be 5c 02 90 be
       -0.21328132 0.06828201 -0.37162828 -0.281268
000310 7a 69 70 be ef 85 70 be 0c 7c d2 be 96 7d dd 3e
       -0.23477736 -0.23488592 -0.41110265 0.43259877
000320 94 03 3f be c4 41 5b be 32 e7 a7 be 6a 3b 91 be
       -0.18653709 -0.21411806 -0.32793576 -0.28365642
000330 e7 1f d1 3e 23 06 57 be df 04 da 3e 7b 7f f7 bd
       0.40844652 -0.20998435 0.4258184 -0.12084862
000340 be 98 e3 3d da dc 8c bd d5 f1 96 3e 0f 97 94 be
       0.11113118 -0.068780616 0.29481378 -0.290215
000350 96 8a bf be a9 c5 a1 3d fe 26 76 bd d2 e9 11 bd
       -0.3741042 0.07899029 -0.06009578 -0.03562338
000360 48 55 03 3f 6c 2f 97 bd 76 df 72 bd cd 95 b9 3c
       0.51302004 -0.07382092 -0.05929514 0.022654438
000370 4c e5 92 3e 76 c3 07 be b4 f4 b7 be fd 76 e7 3e
       0.28690565 -0.13258156 -0.3592888 0.45207968
000380 af c6 18 3e 41 7e f9 3e 37 c0 a8 3e d1 e6 2c 3e
       0.14919542 0.48729137 0.32959148 0.16884924
000390 56 ff 0e be ed 7b c8 3e da 15 66 bd c6 86 0d 3e
       -0.1396459 0.39157048 -0.056173183 0.13820943
0003a0 f6 27 1e 3e af 3d 31 3e 6f 8c a0 3d 0f 6d 11 bc
       0.15444931 0.17308687 0.078392856 -0.008876099
0003b0 fb 3d 50 be be c3 72 3e 0c 18 92 3e 9f b5 b3 be
       -0.20336144 0.23707482 0.2853397 -0.35099503
0003c0 05 5d e6 be ec 3d 4c 3d 1c 68 c2 3e 9b 6b df be
       -0.44992843 0.04986374 0.37970054 -0.43636784
0003d0 69 66 79 be e0 12 bf be e9 fb f4 bd e0 66 e4 3d
       -0.24355473 -0.37319088 -0.119621105 0.11152434
0003e0 69 7c a9 be 39 6c c7 3e 51 49 e4 bc f4 3a 52 3e
       -0.3310273 0.38949755 -0.027866991 0.20530301
0003f0 9d 7b c3 3d ee 7e 55 3e 07 4b ad be ae a8 d4 be
       0.09545062 0.20849201 -0.33846304 -0.41534942

lstm.weight_hh_l0 f4 [20, 5]
000000 60 5a 44 be 20 fe fb bc f0 bb 10 bd 2a bd c9 3e
       -0.191751 -0.030760825 -0.03533548 0.39402133
000010 2e 2b a6 be 06 b9 9d 3e a4 2a a2 3e b0 8c 1f be
       -0.32454818 0.30805224 0.31673157 -0.15581012
000020 22 90 97 be 56 f9 7c be c0 59 6d 3d 58 4e 8e 3e
       -0.29602152 -0.24704489 0.05794692 0.27794147
000030 ef 39 96 3e e6 d0 89 3e 65 79 cb 3d 24 c1 5d 3e
       0.29341075 0.2691719 0.099352635 0.21655709
000040 7c 35 b5 3e 80 18 44 bd bd af 54 be 28 bf 42 bd
       0.35392368 -0.047874928 -0.20770164 -0.047545582
000050 4c 59 20 3e 3a 6c c8 3d ef 63 68 3e d7 4d e2 3d
       0.15659064 0.097862676 0.22694372 0.11050003
000060 ac c9 8b 3e 83 fa 9a be 02 d7 b7 3e 4a 8a 03 be
       0.273023 -0.3026925 0.35906225 -0.12845722
000070 12 5e b1 3e c2 b3 da be 84 0f 0d 3e c0 98 c7 3e
       0.34642082 -0.4271527 0.1377545 0.38983727
000080 d8 2f c8 bd be 9a a1 be 69 96 4c 3e 4d 33 a3 be
       -0.097747505 -0.3156337 0.19979252 -0.31875077
000090 97 dd 3c 3e f1 7e 15 be c5 31 f9 3d 17 69 d3 3c
       0.18443905 -0.14599206 0.12167696 0.025806947
0000a0 a3 03 dc be af d8 35 be e7 d5 1e 3e f8 09 51 3e
       -0.42971525 -0.1775844 0.15511285 0.20413959
0000b0 57 90 ab 3e 38 1c 7a 3e 5a 32 b9 3d 73 62 73 bd
       0.3350856 0.24424827 0.09042807 -0.05942006
0000c0 d9 e2 b9 3e 78 81 64 be 04 61 90 be 2c 3f 23 3e
       0.36305884 -0.22315013 -0.28199017 0.15942067
0000d0 6c b5 93 3e 54 a2 29 3e ea 93 cd be c8 c4 6a 3e
       0.2884935 0.1656583 -0.40151912 0.22926629
0000e0 cb 57 ba be 56 02 e7 bb 3e ac 85 be 3a 58 03 3e
       -0.36395106 -0.007049839 -0.26107973 0.12826625
0000f0 00 1f b5 3c f0 5a a8 bd 8c f2 c6 3e 9d 00 94 3e
       0.022109509 -0.0822047 0.38856924 0.28906718
000100 67 4e c2 3e 9a f8 d0 3e 97 c1 99 be cc bc 4c 3e
       0.3795044 0.40814668 -0.3003051 0.19993895
000110 a7 24 ea bc 00 fd d9 3a be 76 14 be 37 39 e2 3e
       -0.02858193 0.0016631186 -0.14498422 0.44184276
000120 09 63 0a bd a2 f7 1f be ac 72 fb 3c b8 c9 09 3e
       -0.033785854 -0.15621808 0.030694328 0.13455856
000130 8c a9 3c be bf 75 c9 be 17 a6 77 be ed 6a 75 be
       -0.18424052 -0.39347646 -0.24184452 -0.2396657
000140 93 25 d4 3e df 19 c7 3e 7e 00 4d be a0 0c 62 3d
       0.41434917 0.38886926 -0.20019719 0.05518782
000150 a9 37 9c be 34 29 1f 3e 39 fc 44 3e dc 81 83 3e
       -0.30511215 0.15543061 0.1923684 0.25685012
000160 97 e5 cf 3e 7b 67 a2 be 42 81 18 be d1 87 7b be
       0.4060485 -0.31719574 -0.14893058 -0.24563529
000170 2d a3 7d 3e 55 23 f4 be 3f bd 97 bd f8 9f 3f bd
       0.24769278 -0.47683206 -0.07409143 -0.046783417
000180 c1 93 87 3d ac 38 d1 3d ec ec 8b 3e d0 43 d5 be
       0.06619979 0.102158874 0.27329195 -0.416533

lstm.bias_ih_l0 f4 [20]
000000 8c e7 c9 bd 68 b6 b0 3d fe c6 bc be d8 c4 e3 3e
       -0.09858617 0.08628541 -0.3687057 0.44486117
000010 3d a6 25 3e 70 a5 f9 3d 94 c0 49 bd e6 a4 9b bd
       0.16176696 0.12189758 -0.049255922 -0.07599811
000020 73 60 f8 bd 6c fb f6 3e d0 4f d8 3e c7 55 b1 3e
       -0.12127771 0.48238695 0.42248392 0.34635755
000030 51 03 c9 3c b8 8e c4 bd c4 3e bd bd 38 b0 a4 3e
       0.024537714 -0.09597534 -0.09240487 0.32165694
000040 ec 8d 86 bd f6 9a 41 be 1f 5f 99 be e4 35 59 be
       -0.06570038 -0.18906769 -0.29955384 -0.21211964

lstm.bias_hh_l0 f4 [20]
000000 f8 b8 a2 be 78 82 0b 3e 7e 0a a7 3e dc 60 51 3e
       -0.31781745 0.13623989 0.32625192 0.20447105
000010 cc 51 13 3d 6b b8 6c be 5b af 8a 3e a5 e0 31 be
       0.03596668 -0.23117225 0.2708691 -0.17370851
000020 f1 7a 4b 3e f3 49 a3 bc 1a 94 a9 be 22 2a a2 be
       0.19871117 -0.019932723 -0.33120805 -0.3167277
000030 9a d6 bf bd f9 4d 28 be 37 fa 32 bd 4c a8 5a 3e
       -0.09367104 -0.16435994 -0.043695655 0.21353263
000040 26 d7 54 be ec 18 c1 3e 96 ad 95 be 82 a0 0e be
       -0.20785198 0.37714326 -0.29233998 -0.13928416

linear.weight f4 [2, 5]
000000 57 2f 4d bd 9d 67 8c 3e 95 01 91 bd 7c 3b 12 bc
       -0.050093975 0.274228 -0.0708038 -0.008925315
000010 a9 6a 66 3e 73 bd 23 3e 21 15 de be c5 f5 4c 3d
       0.22501625 0.15990238 -0.43375495 0.05003907
000020 76 09 65 3d 14 14 13 3f
       0.055917226 0.5745251

linear.bias f4 [2]
000000 0e 55 03 3f bc 89 cd be
       0.5130166 -0.40144145

exp_avg f4 [20, 34]
000000 0b 83 f0 2c d2 47 f9 2c 14 3f 3a 2c 07 e0 92 2d
       6.835759e-12 7.0849793e-12 2.6467205e-12 1.6697766e-11
000010 e7 3c 65 2d 7f 4b 45 2d db 7a e1 2b 00 00 00 00
       1.3030666e-11 1.1214917e-11 1.6021311e-12 0.0
000020 a9 12 ae 9e 5e 57 a0 2b 9f 4e 90 29 94 83 13 2b
       -1.8430684e-20 1.1392933e-12 6.408523e-14 5.240749e-13
000030 22 78 5c 2c 0b 83 f0 2c 55 80 eb 2c c5 85 75 2c
       3.1330567e-12 6.835759e-12 6.6933494e-12 3.489085e-12
000040 15 cb 89 2c 14 48 04 2b 15 cb 09 2d d1 5c 2a 2b
       3.916321e-12 4.699585e-13 7.832642e-12 6.052494e-13
000050 7d 7c e4 2b 27 07 f8 2c 57 7a 60 29 e5 45 00 2a
       1.6234927e-12 7.049378e-12 4.9844104e-14 1.1392933e-13
000060 50 7a e0 2a 36 6d c8 2a 54 7a e0 29 42 4a 88 2b
       3.9875265e-13 3.5602917e-13 9.968819e-14 9.683992e-13
000070 de 86 f7 2b a4 5a 26 2b 06 6b 44 2c 2f 55 9c 2a
       1.7587839e-12 5.9100836e-13 2.7912685e-12 2.7770275e-13
000080 ab 87 83 2d f5 fe e8 2c 00 00 00 00 00 00 00 00
       1.4953224e-11 6.6221425e-12 0.0 0.0
000090 00 00 00 00 00 00 00 00 00 00 00 00 00 00 00 00
       0.0 0.0 0.0 0.0
0000a0 00 00 00 00 00 00 00 00 00 00 00 00 00 00 00 00
       0.0 0.0 0.0 0.0
0000b0 00 00 00 00 00 00 00 00 00 00 00 00 00 00 00 00
       0.0 0.0 0.0 0.0
0000c0 00 00 00 00 00 00 00 00 00 00 00 00 00 00 00 00
       0.0 0.0 0.0 0.0
0000d0 00 00 00 00 00 00 00 00 00 00 00 00 00 00 00 00
       0.0 0.0 0.0 0.0
0000e0 00 00 00 00 00 00 00 00 00 00 00 00 00 00 00 00
       0.0 0.0 0.0 0.0
0000f0 00 00 00 00 00 00 00 00 00 00 00 00 00 00 00 00
       0.0 0.0 0.0 0.0
000100 00 00 00 00 00 00 00 00 00 00 00 00 00 00 00 00
       0.0 0.0 0.0 0.0
000110 53 de 1a 35 f2 9f 8a 33 a5 c1 fa 32 68 42 d5 b4
       5.7692995e-07 6.45522e-08 2.919189e-08 -3.972266e-07
000120 95 48 b8 b4 b8 db 17 32 10 ac 81 34 00 00 00 00
       -3.432548e-07 8.839315e-09 2.4153314e-07 0.0
000130 34 32 10 b5 0b d7 bd b4 d6 d3 7f 31 7f fa af b1
       -5.3717235e-07 -3.5360458e-07 3.7227799e-09 -5.1216484e-09
000140 1a 88 7c 33 b6 b2 09 34 94 52 46 b4 c1 48 ba 34
       5.8797106e-08 1.2824134e-07 -1.8470229e-07 3.4698135e-07
000150 c1 5b de 36 cd e2 40 b3 b0 c0 0d 34 d1 7d 91 33
       6.626797e-06 -4.4909758e-08 1.3201748e-07 6.7749745e-08
000160 95 5e 2a 31 da dc aa 35 f5 e2 73 34 f7 e8 bd b1
       2.479202e-09 1.2730263e-06 2.2713705e-07 -5.527109e-09
000170 b7 38 36 33 a3 f8 dd 32 f3 3b 02 b4 63 a3 0d 30
       4.242676e-08 2.5840853e-08 -1.2129003e-07 5.152769e-10
000180 6a 0a 30 35 4f 62 55 34 1c b4 7d b5 0f 40 2f 34
       6.5580264e-07 1.9872935e-07 -9.451194e-07 1.632145e-07
000190 e0 a5 2e 34 f0 b1 e4 b6 00 00 00 00 00 00 00 00
       1.6265358e-07 -6.815644e-06 0.0 0.0
0001a0 00 00 00 00 00 00 00 00 00 00 00 00 00 00 00 00
       0.0 0.0 0.0 0.0
0001b0 00 00 00 00 00 00 00 00 00 00 00 00 00 00 00 00
       0.0 0.0 0.0 0.0
0001c0 00 00 00 00 00 00 00 00 00 00 00 00 00 00 00 00
       0.0 0.0 0.0 0.0
0001d0 00 00 00 00 00 00 00 00 00 00 00 00 00 00 00 00
       0.0 0.0 0.0 0.0
0001e0 00 00 00 00 00 00 00 00 00 00 00 00 00 00 00 00
       0.0 0.0 0.0 0.0
0001f0 00 00 00 00 00 00 00 00 00 00 00 00 00 00 00 00
       0.0 0.0 0.0 0.0
000200 00 00 00 00 00 00 00 00 00 00 00 00 00 00 00 00
       0.0 0.0 0.0 0.0
000210 00 00 00 00 00 00 00 00 00 00 00 00 00 00 00 00
       0.0 0.0 0.0 0.0
000220 3a dc 85 ba ee 8b a1 ba da 13 f2 b9 6e b3 df ba
       -0.0010212727 -0.0012325027 -0.00046172627 -0.0017067024
000230 0e dc 8f ba 1c 2a 47 ba e4 37 86 b9 00 00 00 00
       -0.0010975616 -0.00075975223 -0.00025600113 0.0
000240 be 04 96 b6 5d 33 9c b9 90 98 11 b7 ff 95 c3 b8
       -4.4709004e-06 -0.00029792907 -8.678195e-06 -9.3262635e-05
000250 de 90 03 ba 9c dd 95 ba 06 29 b5 b9 43 89 ae b9
       -0.00050188403 -0.0011433843 -0.00034553575 -0.00033290134
000260 75 38 63 ba 0e 8e dc b8 9d 18 ac ba b9 c5 ad b7
       -0.00086677755 -0.00010516877 -0.0013129894 -2.0715279e-05
000270 7d e3 ae b8 37 0a dc ba b5 ba cf b7 85 fd d2 b7
       -8.3393395e-05 -0.0016787712 -2.4763265e-05 -2.5152005e-05
000280 23 a7 40 b8 28 8c 62 b8 72 7a 3b b7 7e bc 50 b8
       -4.5932025e-05 -5.401313e-05 -1.1174578e-05 -4.976661e-05
000290 24 6b ca b9 0b ea 07 b9 8d b9 fd b9 d2 ca 2b b9
       -0.00038608268 -0.00012961791 -0.00048394167 -0.00016383387
0002a0 f9 5d 04 bc 07 ef 72 bb 00 00 00 00 00 00 00 00
       -0.008079045 -0.003706874 0.0 0.0
0002b0 00 00 00 00 00 00 00 00 00 00 00 00 00 00 00 00
       0.0 0.0 0.0 0.0
0002c0 00 00 00 00 00 00 00 00 00 00 00 00 00 00 00 00
       0.0 0.0 0.0 0.0
0002d0 00 00 00 00 00 00 00 00 00 00 00 00 00 00 00 00
       0.0 0.0 0.0 0.0
0002e0 00 00 00 00 00 00 00 00 00 00 00 00 00 00 00 00
       0.0 0.0 0.0 0.0
0002f0 00 00 00 00 00 00 00 00 00 00 00 00 00 00 00 00
       0.0 0.0 0.0 0.0
000300 00 00 00 00 00 00 00 00 00 00 00 00 00 00 00 00
       0.0 0.0 0.0 0.0
000310 00 00 00 00 00 00 00 00 00 00 00 00 00 00 00 00
       0.0 0.0 0.0 0.0
000320 00 00 00 00 00 00 00 00 00 00 00 00 00 00 00 00
       0.0 0.0 0.0 0.0
000330 05 ed de b9 de e6 07 ba 24 cf 50 b9 98 0b 2b ba
       -0.00042519733 -0.0005184243 -0.00019913592 -0.000652486
000340 c4 c9 d9 b9 55 e5 a1 b9 1f 2d c8 b8 00 00 00 00
       -0.00041539792 -0.0003087918 -9.5451476e-05 0.0
000350 0f ed b4 36 c7 35 04 b9 3e d7 63 b6 cb 25 26 b8
       5.3920153e-06 -0.00012608535 -3.3950923e-06 -3.961268e-05
000360 e5 de 5e b9 fa 2e 00 ba 25 06 b7 b9 da 70 fe b8
       -0.00021254605 -0.00048898126 -0.00034909058 -0.00012132684
000370 95 08 fa b9 6a d4 31 b8 b4 9c 19 ba 11 f4 84 b6
       -0.0004769011 -4.2397915e-05 -0.00058598374 -3.9623196e-06
000380 cf 7e 84 b7 01 33 23 ba d5 72 25 b7 12 ae 24 b7
       -1.5794676e-05 -0.0006225557 -9.861503e-06 -9.815691e-06
000390 04 d0 81 b7 eb 5f ad b7 18 a5 d6 b6 fc 4e 9a b7
       -1.5474863e-05 -2.0667872e-05 -6.3969164e-06 -1.839501e-05
0003a0 64 f7 2c b9 85 21 72 b8 bb 85 29 b9 2e 07 98 b8
       -0.00016495358 -5.7728514e-05 -0.00016166914 -7.249262e-05
0003b0 b2 b9 60 bb 3f c0 86 ba 19 65 68 ad d6 b6 b4 ac
       -0.003429037 -0.0010280682 -1.3210121e-11 -5.1362066e-12
0003c0 6a 1b 80 ac 3c 11 f4 ac a9 93 d4 ac 20 27 01 ad
       -3.6410224e-12 -6.9368105e-12 -6.041796e-12 -7.3414885e-12
0003d0 3e 4d d9 ab 00 00 00 00 b8 41 47 2b 35 00 52 ac
       -1.5440216e-12 0.0 7.0790205e-13 -2.984291e-12
0003e0 2d 4c 11 aa 6e 3c 45 ab 0d 5e a3 ac ac 62 44 ad
       -1.2905016e-13 -7.007232e-13 -4.6431804e-12 -1.116322e-11
0003f0 ed 0f 90 a9 1e a5 c4 ab 58 18 f8 ab 10 90 63 ab
       -6.397647e-14 -1.3972467e-12 -1.7628217e-12 -8.084653e-13

exp_avg_sq f4 [20, 34]
000000 e3 b0 22 1c 1c c5 2e 1c 0b 1e c3 1a dc af 72 1d
       5.3829924e-22 5.782653e-22 8.0698647e-23 3.211935e-21
000010 cc cb 13 1d 16 f4 da 1c 73 fd 0e 1a 00 00 00 00
       1.9560649e-21 1.4489125e-21 2.9569646e-23 0.0
000020 fb 7e 08 00 38 9d 90 19 57 46 6a 15 81 cd 74 18
       7.80236e-40 1.4952751e-23 4.7311412e-26 3.1640014e-24
000030 9d b4 08 1b e2 b0 22 1c 99 fb 1b 1c 51 8a 29 1b
       1.1308016e-22 5.382992e-22 5.161038e-22 1.4024045e-22
000040 32 9a 55 1b 1e db 44 18 32 9a 55 1c 7f 41 a3 18
       1.766877e-22 2.5443032e-24 7.067508e-22 4.2200647e-24
000050 15 d4 12 1a 94 04 2d 1c c8 b8 0d 15 27 1b 39 16
       3.036341e-23 5.7246815e-22 2.862049e-26 1.4952749e-25
000060 c6 b8 0d 18 a3 f5 e1 17 cb b8 0d 16 a0 f7 50 19
       1.831711e-24 1.4602292e-24 1.14482e-25 1.08033554e-23
000070 d1 51 2c 1a dc a9 9b 18 fd 02 d9 1a 53 79 89 17
       3.5634857e-23 4.0238075e-24 8.9753924e-23 8.884044e-25
000080 12 a0 42 1d 7b ae 18 1c 00 00 00 00 00 00 00 00
       2.575844e-21 5.051809e-22 0.0 0.0
000090 00 00 00 00 00 00 00 00 00 00 00 00 00 00 00 00
       0.0 0.0 0.0 0.0
0000a0 00 00 00 00 00 00 00 00 00 00 00 00 00 00 00 00
       0.0 0.0 0.0 0.0
0000b0 00 00 00 00 00 00 00 00 00 00 00 00 00 00 00 00
       0.0 0.0 0.0 0.0
0000c0 00 00 00 00 00 00 00 00 00 00 00 00 00 00 00 00
       0.0 0.0 0.0 0.0
0000d0 00 00 00 00 00 00 00 00 00 00 00 00 00 00 00 00
       0.0 0.0 0.0 0.0
0000e0 00 00 00 00 00 00 00 00 00 00 00 00 00 00 00 00
       0.0 0.0 0.0 0.0
0000f0 00 00 00 00 00 00 00 00 00 00 00 00 00 00 00 00
       0.0 0.0 0.0 0.0
000100 00 00 00 00 00 00 00 00 00 00 00 00 00 00 00 00
       0.0 0.0 0.0 0.0
000110 6f 50 86 32 d9 16 ab 32 bc 7f 46 31 fb 02 b4 32
       1.563623e-08 1.991741e-08 2.88854e-09 2.0956113e-08
000120 be fb 4d 32 24 5e dd 31 0c fb 87 30 00 00 00 00
       1.198981e-08 6.442649e-09 9.893895e-10 0.0
000130 b8 5f 4c 2e 18 5d 96 30 5b d8 07 2b fa ec fe 2e
       4.6469245e-11 1.0940395e-09 4.826189e-13 1.1592678e-10
000140 9e ce 4b 31 81 2b 46 32 42 83 cf 30 ce 69 08 31
       2.9657836e-09 1.15350085e-08 1.5098538e-09 1.9850748e-09
000150 52 3e d9 32 a4 2f 04 2f 71 f5 c0 32 6c 85 80 2c
       2.5290465e-08 1.2022255e-10 2.2463356e-08 3.6527916e-12
000160 98 25 d6 2c 2c 1d 34 34 43 8a d7 2d 8b fa 44 2d
       6.0864196e-12 1.6774419e-07 2.450407e-11 1.1196942e-11
000170 b6 29 95 2d c9 30 15 2e db df 86 2d 35 03 b5 2f
       1.6957862e-11 3.3922008e-11 1.5333448e-11 3.2925987e-10
000180 2e 54 c8 30 61 ab 46 2f 75 19 45 31 e2 80 6c 2e
       1.457584e-09 1.8068881e-10 2.8681744e-09 5.377466e-11
000190 f4 02 49 32 57 70 12 32 00 00 00 00 00 00 00 00
       1.1700411e-08 8.523862e-09 0.0 0.0
0001a0 00 00 00 00 00 00 00 00 00 00 00 00 00 00 00 00
       0.0 0.0 0.0 0.0
0001b0 00 00 00 00 00 00 00 00 00 00 00 00 00 00 00 00
       0.0 0.0 0.0 0.0
0001c0 00 00 00 00 00 00 00 00 00 00 00 00 00 00 00 00
       0.0 0.0 0.0 0.0
0001d0 00 00 00 00 00 00 00 00 00 00 00 00 00 00 00 00
       0.0 0.0 0.0 0.0
0001e0 00 00 00 00 00 00 00 00 00 00 00 00 00 00 00 00
       0.0 0.0 0.0 0.0
0001f0 00 00 00 00 00 00 00 00 00 00 00 00 00 00 00 00
       0.0 0.0 0.0 0.0
000200 00 00 00 00 00 00 00 00 00 00 00 00 00 00 00 00
       0.0 0.0 0.0 0.0
000210 00 00 00 00 00 00 00 00 00 00 00 00 00 00 00 00
       0.0 0.0 0.0 0.0
000220 2a 7b 4b 35 60 39 88 35 d7 27 1a 34 4c 4d f0 35
       7.580262e-07 1.0149488e-06 1.4356861e-07 1.790389e-06
000230 fe 78 5b 35 64 93 ea 34 84 53 42 33 00 00 00 00
       8.1759924e-07 4.3693137e-07 4.5245102e-08 0.0
000240 a2 59 dc 30 a4 23 88 33 2c 09 4d 2e 5d 30 c6 31
       1.6032582e-09 6.3394765e-08 4.661975e-11 5.7680567e-09
000250 b2 f4 53 34 06 c9 64 35 cf c5 a8 35 b8 9c 81 33
       1.9739926e-07 8.5229146e-07 1.2574545e-06 6.0355376e-08
000260 18 aa 55 35 f4 84 00 32 e0 c5 9f 35 8d 1f 43 2f
       7.95962e-07 7.480811e-09 1.1904012e-06 1.7746356e-10
000270 e8 6a 22 32 e9 46 38 36 df 9b 40 30 2f 64 ee 2f
       9.453949e-09 2.7459412e-06 7.00707e-10 4.3363133e-10
000280 7a b1 bd 30 61 a0 fe 30 a6 c5 4a 30 0f ec 3f 32
       1.3802002e-09 1.8526515e-09 7.376805e-10 1.1171337e-08
000290 fb ae e8 33 6a f9 54 32 d3 11 0b 34 46 ad a1 32
       1.08351706e-07 1.2396734e-08 1.2951868e-07 1.8821662e-08
0002a0 66 5a 5b 37 dd 09 06 37 00 00 00 00 00 00 00 00
       1.3074465e-05 7.989319e-06 0.0 0.0
0002b0 00 00 00 00 00 00 00 00 00 00 00 00 00 00 00 00
       0.0 0.0 0.0 0.0
0002c0 00 00 00 00 00 00 00 00 00 00 00 00 00 00 00 00
       0.0 0.0 0.0 0.0
0002d0 00 00 00 00 00 00 00 00 00 00 00 00 00 00 00 00
       0.0 0.0 0.0 0.0
0002e0 00 00 00 00 00 00 00 00 00 00 00 00 00 00 00 00
       0.0 0.0 0.0 0.0
0002f0 00 00 00 00 00 00 00 00 00 00 00 00 00 00 00 00
       0.0 0.0 0.0 0.0
000300 00 00 00 00 00 00 00 00 00 00 00 00 00 00 00 00
       0.0 0.0 0.0 0.0
000310 00 00 00 00 00 00 00 00 00 00 00 00 00 00 00 00
       0.0 0.0 0.0 0.0
000320 00 00 00 00 00 00 00 00 00 00 00 00 00 00 00 00
       0.0 0.0 0.0 0.0
000330 a6 25 59 35 95 f8 88 35 4b 42 21 34 c9 95 b6 35
       8.0893585e-07 1.0205137e-06 1.501841e-07 1.360365e-06
000340 e2 16 27 35 d8 21 c4 34 a6 49 4f 33 00 00 00 00
       6.2245647e-07 3.653247e-07 4.8262926e-08 0.0
000350 20 83 89 30 db 22 93 33 31 63 09 2e cf b6 c9 31
       1.000533e-09 6.851561e-08 3.1238293e-11 5.870653e-09
000360 46 8e 4e 34 a9 f7 5c 35 a7 47 e7 37 fa 2c 2c 33
       1.9237004e-07 8.231678e-07 2.7570712e-05 4.0087777e-08
000370 47 c7 8c 35 8b 47 dd 31 29 7a 9d 35 b2 4f e7 2e
       1.048881e-06 6.44008e-09 1.1732965e-06 1.05188205e-10
000380 90 d6 e0 31 27 13 c4 35 62 63 ff 2f 13 8a f0 2f
       6.543651e-09 1.4608712e-06 4.6454846e-10 4.3753853e-10
000390 9d e6 9d 30 1c e7 de 30 f4 0a 1f 30 85 1f 25 32
       1.1488798e-09 1.6218311e-09 5.785943e-10 9.611431e-09
0003a0 83 fd be 33 99 2f 34 32 c4 be 1d 34 26 04 89 33
       8.893678e-08 1.0488201e-08 1.4691165e-07 6.380314e-08
0003b0 35 64 5b 37 c6 43 8a 36 f1 27 7c 29 b5 65 07 29
       1.30767485e-05 4.1206104e-06 5.5989884e-14 3.006424e-14
0003c0 60 46 ed 27 05 37 27 29 7e 3b b9 28 4e 2f aa 28
       6.5857015e-15 3.712917e-14 2.0564927e-14 1.8894307e-14
0003d0 87 e8 08 27 00 00 00 00 be 50 5e 24 52 5a 85 27
       1.8999845e-15 0.0 4.8206968e-17 3.701284e-15
0003e0 ba 27 7e 22 41 5e 91 25 6b 1f 3c 28 74 a8 4a 29
       3.444445e-18 2.521736e-16 1.0442909e-14 4.499912e-14
0003f0 cb bf 2b 27 92 83 d5 27 9d 92 3d 28 e3 9d c0 25
       2.3834988e-15 5.9262025e-15 1.0523399e-14 3.341368e-16

exp_avg f4 [20, 5]
000000 40 ff d3 08 f1 a4 b2 1c 84 42 ad 00 0a ea 2e 1d
       1.275911e-33 1.1821688e-21 1.5911402e-38 2.3149704e-21
000010 e5 8a 08 9e 00 00 00 00 00 00 00 00 00 00 00 00
       -7.228503e-21 0.0 0.0 0.0
000020 00 00 00 00 00 00 00 00 00 00 00 00 3d ad de b2
       0.0 0.0 0.0 -2.5922981e-08
000030 c9 dc c2 32 44 e6 cd 29 a7 48 8b 2d 00 00 00 00
       2.2684974e-08 9.1437735e-14 1.5834735e-11 0.0
000040 00 00 00 00 00 00 00 00 00 00 00 00 00 00 00 00
       0.0 0.0 0.0 0.0
000050 03 11 2c 10 af 4e 16 b7 10 5d a2 28 35 b8 a4 b4
       3.3934124e-29 -8.959017e-06 1.8025972e-14 -3.068141e-07
000060 03 2f 11 36 00 00 00 00 00 00 00 00 00 00 00 00
       2.1634048e-06 0.0 0.0 0.0
000070 00 00 00 00 00 00 00 00 04 0a 1b 9e c7 03 e9 b6
       0.0 0.0 -8.207703e-21 -6.944381e-06
000080 83 00 b6 27 9c 4d bf 34 ed da 8f 36 00 00 00 00
       5.0515702e-15 3.563299e-07 4.2872184e-06 0.0
000090 5d 73 dd a9 6b b0 7c 25 75 64 ab 26 55 b1 05 2a
       -9.834384e-14 2.1917289e-16 1.1892738e-15 1.1874297e-13
0000a0 1e 66 03 0b 88 1c a2 32 2e d9 fb 28 59 9d 09 34
       2.5306507e-32 1.8872257e-08 2.7960785e-14 1.2816362e-07
0000b0 4b 2d f5 b3 00 00 00 00 00 60 89 b5 70 0b 7d 25
       -1.141694e-07 0.0 -1.0235235e-06 2.1948127e-16
0000c0 32 34 00 a6 8f c0 94 35 00 00 00 00 11 17 1c 91
       -4.447966e-16 1.1082901e-06 0.0 -1.2313338e-28
0000d0 39 66 00 00 c8 a5 51 11 85 6a c4 91 92 45 ba 96
       3.667e-41 1.6538278e-28 -3.0988995e-28 -3.0093826e-25
0000e0 df 73 40 b7 7f 46 ee a3 1e ab 16 b6 1c ca be 37
       -1.147107e-05 -2.5833868e-17 -2.2451345e-06 2.274388e-05
0000f0 83 02 00 00 a0 91 63 b0 22 1f 84 29 48 45 b9 28
       9.01e-43 -8.2789064e-10 5.867378e-14 2.0569172e-14
000100 04 a1 63 30 00 00 00 00 c6 d7 7b a9 04 00 00 00
       8.2810936e-10 0.0 -5.592035e-14 6e-45
000110 ba df b6 29 55 d7 d2 81 fb a3 5c 17 51 9d 24 b6
       8.121234e-14 -7.7450803e-38 7.1292806e-25 -2.4529475e-06
000120 ed 7a 3b aa fb 00 30 36 a7 d9 01 36 17 f3 04 00
       -1.6651585e-13 2.6226614e-06 1.9349188e-06 4.54546e-40
000130 66 0b 4d 9d 00 00 00 00 ef e6 2e 1d 8c a6 7b 9d
       -2.7137417e-21 0.0 2.3148098e-21 -3.3305676e-21
000140 2a 41 43 a0 96 ab e2 b7 6c 44 79 b3 b4 a0 1d 37
       -1.6538703e-19 -2.70212e-05 -5.803706e-08 9.395346e-06
000150 a9 ea 03 38 57 a6 0b 00 f6 f1 35 b3 38 55 98 33
       3.1451378e-05 1.069862e-39 -4.236241e-08 7.093553e-08
000160 95 ca 85 2a ad 02 ad 31 7c a4 a5 1b e9 ff da b4
       2.3766115e-13 5.035267e-09 2.7403256e-22 -4.0791863e-07
000170 d8 5e f7 29 3d 38 c1 35 9c 5f 3f b6 a5 37 16 00
       1.0985456e-13 1.4395988e-06 -2.851687e-06 2.040342e-39
000180 a6 3d 35 b5 ed 3a 0e af 14 b5 97 b5 56 17 15 36
       -6.7517465e-07 -1.293576e-10 -1.1303077e-06 2.2216313e-06

exp_avg_sq f4 [20, 5]
000000 00 00 00 00 e0 c7 00 00 00 00 00 00 58 6b 00 00
       0.0 7.1702e-41 0.0 3.8508e-41
000010 7a 0c 02 00 00 00 00 00 00 00 00 00 00 00 00 00
       1.88147e-40 0.0 0.0 0.0
000020 00 00 00 00 00 00 00 00 00 00 00 00 3f 65 d7 2b
       0.0 0.0 0.0 1.530477e-12
000030 ea 9b 47 2a 49 52 14 2a d2 1d cb 29 00 00 00 00
       1.7728844e-13 1.3173589e-13 9.020184e-14 0.0
000040 00 00 00 00 00 00 00 00 00 00 00 00 00 00 00 00
       0.0 0.0 0.0 0.0
000050 00 00 00 00 7a 63 12 2e 6c 82 a8 27 ef 38 bb 2c
       0.0 3.328491e-11 4.677077e-15 5.3211806e-12
000060 2f e1 a4 2c 00 00 00 00 00 00 00 00 00 00 00 00
       4.6861607e-12 0.0 0.0 0.0
000070 00 00 00 00 00 00 00 00 5a c0 10 05 53 09 f4 2e
       0.0 0.0 6.806177e-36 1.1097492e-10
000080 a8 47 84 1d e8 69 07 2e a8 4c c4 2e 00 00 00 00
       3.50142e-21 3.078951e-11 8.926665e-11 0.0
000090 a1 6b 16 22 e9 48 0f 1e 1b 8b 9b 22 a5 bb 23 22
       2.038577e-18 7.5854344e-21 4.2160118e-18 2.2189957e-18
0000a0 00 00 00 00 3c 02 18 2a ca 6a 52 29 ec 2c e9 2c
       0.0 1.3501087e-13 4.6721992e-14 6.6272456e-12
0000b0 ce 3c f7 29 00 00 00 00 83 0e 03 2b a9 11 0a 21
       1.09795514e-13 0.0 4.656069e-13 4.677959e-19
0000c0 fd 99 35 24 93 0b 11 2b 00 00 00 00 00 00 00 00
       3.9378552e-17 5.153041e-13 0.0 0.0
0000d0 00 00 00 00 00 00 00 00 00 00 00 00 00 00 00 00
       0.0 0.0 0.0 0.0
0000e0 45 cf 53 2f 65 bd ff 1f 0f f7 b3 2f af bc d5 2f
       1.9263975e-10 1.0831003e-19 3.2735456e-10 3.8878542e-10
0000f0 00 00 00 00 f5 63 3c 22 9b c6 a6 26 f6 75 93 27
       0.0 2.5531668e-18 1.1572396e-15 4.092859e-15
000100 cf 7d 2a 28 00 00 00 00 3f 8e 54 2d 00 00 00 00
       9.464176e-15 0.0 1.208239e-11 0.0
000110 88 88 fc 2a 00 00 00 00 34 32 41 06 3d 60 bb 2d
       4.485893e-13 0.0 3.633615e-35 2.1302177e-11
000120 53 fe 2b 24 43 c7 37 2e b9 73 1e 2e 00 00 00 00
       3.7295135e-17 4.1786363e-11 3.6027823e-11 0.0
000130 25 1d 00 00 00 00 00 00 94 22 00 00 fa 28 00 00
       1.0455e-41 0.0 1.2404e-41 1.47e-41
000140 11 bb 61 13 f3 d9 f8 2f 62 f7 4c 28 f7 e7 ef 2e
       2.8491223e-27 4.52658e-10 1.13779174e-14 1.0909667e-10
000150 76 c2 6a 30 00 00 00 00 31 e0 f5 28 a0 57 31 2b
       8.540505e-10 0.0 2.7297692e-14 6.3004636e-13
000160 e8 c7 65 2b 97 69 d5 2b 56 44 c4 0d cc d9 0c 2e
       8.163457e-13 1.5163867e-12 1.2095884e-30 3.2025757e-11
000170 e3 e2 ae 29 a5 5e 81 2f 59 ef a6 2d 00 00 00 00
       7.766511e-14 2.3532212e-10 1.8978307e-11 0.0
000180 04 5a 39 2b f9 11 a1 28 68 a4 64 2b 39 03 bc 2b
       6.5850125e-13 1.7882385e-14 8.123003e-13 1.3359098e-12

exp_avg f4 [20]
000000 5e 57 a0 29 00 00 00 00 40 83 2b 30 00 00 00 00
       7.120583e-14 0.0 6.2395955e-10 0.0
000010 a2 c8 53 b7 00 00 00 00 1a ee b3 b6 65 9c da a9
       -1.26232935e-05 0.0 -5.3623344e-06 -9.708275e-14
000020 2e 37 1c 34 d3 eb b3 b5 7c 29 fe 18 e0 0d f0 b7
       1.4548706e-07 -1.3405173e-06 6.569935e-24 -2.861669e-05
000030 45 23 6e b0 99 67 2f 2b cc af ce 36 34 36 7e 1d
       -8.6634017e-10 6.231626e-13 6.159744e-06 3.3644642e-21
000040 93 44 ee b7 f7 5b e4 b1 bf 11 74 36 6a d2 0a b6
       -2.8403743e-05 -6.6461285e-09 3.6369163e-06 -2.068608e-06

exp_avg_sq f4 [20]
000000 37 9d 90 15 00 00 00 00 45 35 14 2c 00 00 00 00
       5.840918e-26 0.0 2.1061636e-12 0.0
000010 11 76 e9 2e 00 00 00 00 fa 9a eb 2e c6 3b ae 22
       1.0616586e-10 0.0 1.0714092e-10 4.7226082e-18
000020 d0 0b 25 2d 9e 91 61 2b 00 00 00 00 cb 85 69 31
       9.381787e-12 8.013814e-13 0.0 3.3982015e-09
000030 5e 59 9e 28 29 c6 b7 2d 75 30 3e 2f e9 3f 00 00
       1.758028e-14 2.0892692e-11 1.7297615e-10 2.2927e-41
000040 88 25 ca 30 6b e6 88 2c a7 58 94 30 d4 cb 67 2c
       1.4708101e-09 3.890934e-12 1.0793614e-09 3.2940222e-12

exp_avg f4 [20]
000000 5e 57 a0 29 00 00 00 00 40 83 2b 30 00 00 00 00
       7.120583e-14 0.0 6.2395955e-10 0.0
000010 a2 c8 53 b7 00 00 00 00 1a ee b3 b6 65 9c da a9
       -1.26232935e-05 0.0 -5.3623344e-06 -9.708275e-14
000020 2e 37 1c 34 d3 eb b3 b5 7c 29 fe 18 e0 0d f0 b7
       1.4548706e-07 -1.3405173e-06 6.569935e-24 -2.861669e-05
000030 45 23 6e b0 99 67 2f 2b cc af ce 36 34 36 7e 1d
       -8.6634017e-10 6.231626e-13 6.159744e-06 3.3644642e-21
000040 93 44 ee b7 f7 5b e4 b1 bf 11 74 36 6a d2 0a b6
       -2.8403743e-05 -6.6461285e-09 3.6369163e-06 -2.068608e-06

exp_avg_sq f4 [20]
000000 37 9d 90 15 00 00 00 00 45 35 14 2c 00 00 00 00
       5.840918e-26 0.0 2.1061636e-12 0.0
000010 11 76 e9 2e 00 00 00 00 fa 9a eb 2e c6 3b ae 22
       1.0616586e-10 0.0 1.0714092e-10 4.7226082e-18
000020 d0 0b 25 2d 9e 91 61 2b 00 00 00 00 cb 85 69 31
       9.381787e-12 8.013814e-13 0.0 3.3982015e-09
000030 5e 59 9e 28 29 c6 b7 2d 75 30 3e 2f e9 3f 00 00
       1.758028e-14 2.0892692e-11 1.7297615e-10 2.2927e-41
000040 88 25 ca 30 6b e6 88 2c a7 58 94 30 d4 cb 67 2c
       1.4708101e-09 3.890934e-12 1.0793614e-09 3.2940222e-12

exp_avg f4 [2, 5]
000000 8c e2 be aa 2c 4a bc bc 8b ca 65 36 88 56 f1 bb
       -3.3907978e-13 -0.022984587 3.4241555e-06 -0.0073650517
000010 96 33 f4 3c 8c e2 be 2a 2d 4a bc 3c 83 ca 65 b6
       0.029809754 3.3907978e-13 0.022984589 -3.4241536e-06
000020 87 56 f1 3b 95 33 f4 bc
       0.007365051 -0.029809752

exp_avg_sq f4 [2, 5]
000000 08 52 df 17 f4 ca c2 38 c6 79 89 32 9b 17 07 39
       1.4431745e-24 9.288444e-05 1.6004275e-08 0.00012883397
000010 ea ec f0 38 06 52 df 17 f4 ca c2 38 c6 79 89 32
       0.000114882205 1.4431743e-24 9.288444e-05 1.6004275e-08
000020 9a 17 07 39 e9 ec f0 38
       0.00012883396 0.0001148822

exp_avg f4 [2]
000000 27 67 7b be 26 67 7b 3e
       -0.24551068 0.24551067

exp_avg_sq f4 [2]
000000 5b 65 61 3c 58 65 61 3c
       0.013757075 0.013757072
