MimicApp/lightning_logs/version_4/checkpoints/epoch=9-step=129.ckpt (torch, 16172 bytes, 18 tensors)

lstm.weight_ih_l0 f4 [20, 34]
0	0xbd39d6e3	-0.045370948
1	0x3d7fe94d	0.062478352
2	0x3e56cf7f	0.20977591
3	0x3e89e967	0.26935884
4	0xbc475939	-0.012167268
5	0x3e0852d6	0.1331285
6	0xbe3d5f89	-0.18493475
7	0xbed71ae6	-0.4201271
8	0xbe043c82	-0.12913707
9	0x3ea4cfb2	0.3218971
10	0xbec45866	-0.38348693
11	0xbecefa30	-0.40425253
12	0x3eadbc90	0.33932924
13	0xbda3d3a7	-0.07999354
14	0xbe3d756c	-0.18501824
15	0x3e91425a	0.28370935
16	0xbe93a9b9	-0.28840426
17	0xbd8b84ca	-0.06812437
18	0xbd5cf488	-0.05394414
19	0x3e1a0270	0.15039992
20	0x3e7641b7	0.24048506
21	0x3e1f850d	0.15578099
22	0xbdf378a3	-0.11888244
23	0x3ee53755	0.44768777
24	0xbd80c352	-0.062872544
25	0x3e60c44e	0.21949884
26	0xbd8f22d7	-0.06989067
27	0x3e78b25b	0.24286787
28	0xbea2c518	-0.31790996
29	0x3e71a0c5	0.23596485
30	0xbe441f40	-0.19152546
31	0x3e9e07b1	0.30865243
32	0x3ec6f127	0.3885586
33	0xbead704a	-0.33874732
34	0xbd499e39	-0.04922316
35	0x3e0fedb7	0.14055525
36	0xbee51250	-0.44740534
37	0xbda04a08	-0.0782662
38	0x3de1009e	0.10986446
39	0x3e5fe345	0.2186404
40	0x3e53daa1	0.20688869
41	0xbe51ffa1	-0.20507671
42	0xbd933839	-0.07188458
43	0xbec1c1f8	-0.378433
44	0xbd821bf3	-0.06352987
45	0x3e5890cc	0.21148986
46	0xbe2670cd	-0.16253968
47	0xbeacad72	-0.33726078
48	0xbed55bfe	-0.41671747
49	0x3da4f9ab	0.08055433
50	0x3ecf41ad	0.40479794
51	0x3ebf897c	0.3740958
52	0xbdfc8e11	-0.123317845
53	0x3e80c5db	0.25150952
54	0x3dd7b8e6	0.105333135
55	0x3ebce962	0.36896807
56	0x3d9e4d9d	0.07729647
57	0xbe780d0d	-0.24223728
58	0x3ec512b5	0.38490835
59	0xbd5cb9fb	-0.053888302
60	0xbe875a5b	-0.26436123
61	0x3e952d1a	0.29135972
62	0xbdf98475	-0.12183467
63	0x3ddc79ae	0.10765396
64	0x3ed13b54	0.40865576
65	0xbed04b8e	-0.40682644
66	0xbec5b4b8	-0.3861444
67	0x3ebac1dc	0.36476028
68	0xbede25fb	-0.43388352
69	0xbed8c4d3	-0.42337665
70	0x3ecdaa79	0.40169123
71	0xbc11709d	-0.008876947
72	0x3dbbf720	0.09177995
73	0x3e5c8cf3	0.21538143
74	0x3cf8abad	0.030355299
75	0xbe0d27d2	-0.13784721
76	0xbe8b51b9	-0.27210787
77	0xbec9eadb	-0.39436993
78	0x3e90a5a7	0.28251383
79	0x3df511c4	0.11966279
80	0xbea14dd9	-0.31504706
81	0x3e9f2a33	0.31086883
82	0xbe86b3cd	-0.26309052
83	0x3e907de1	0.28221038
84	0x3d330bf9	0.04371259
85	0xbe252de6	-0.1613079
86	0x3e6b6b48	0.22990143
87	0x3e166dba	0.14690295
88	0x3ed87014	0.4227301
89	0x3e8ed90c	0.2789997
90	0x3e4427bc	0.19155782
91	0xbead5bf8	-0.3385923
92	0x3ece7464	0.40323174
93	0xbece1d1e	-0.4025659
94	0x3c1c0768	0.00952325
95	0x3e072aa0	0.13199854
96	0x3e17dfa8	0.14831412
97	0x3e0f6732	0.1400421
98	0xbcf339cb	-0.029690644
99	0xbe3c258f	-0.18373702
100	0x3e951551	0.29117826
101	0xbedd84f9	-0.43265513
102	0xbd8bbb14	-0.06822792
103	0x3daa6b58	0.083212554
104	0xbe85dbb0	-0.2614417
105	0x3d5e6370	0.05429405
106	0x3ca3a9a0	0.019978344
107	0x3e8415d4	0.25797904
108	0x3ec7cbbe	0.3902263
109	0x3e8fa048	0.28051972
110	0x3ed15a3a	0.4088915
111	0x3e0bd780	0.13656425
112	0xbd8f9700	-0.07011223
113	0x3e9c4b1a	0.30526048
114	0xbdcc2bf8	-0.09969324
115	0xbe505e3a	-0.20348445
116	0x3e63cc10	0.22245812
117	0x3c2f8d60	0.010714859
118	0x3d9caa60	0.07649684
119	0x3be4d1c0	0.006983012
120	0x3e9a4298	0.30128932
121	0xbcd859d0	-0.026410013
122	0xbebb3f34	-0.36571658
123	0xbe68257d	-0.2267055
124	0x3e94801a	0.29003984
125	0xbe5b82e0	-0.21436644
126	0x3ebf415c	0.37354553
127	0x3e93511c	0.2877282
128	0x3ee46f2e	0.44616073
129	0x3e535dd4	0.20641261
130	0x3e65e514	0.22450668
131	0x3eb82e4e	0.35972828
132	0x3e5245d4	0.2053445
133	0x3d705950	0.058678925
134	0x3e9ad310	0.30239153
135	0x3e9202de	0.28517812
136	0xbeb054fa	-0.34439832
137	0x3d6caac2	0.057780035
138	0xbec78d71	-0.389751
139	0xbe63ee97	-0.22258984
140	0x3e97f760	0.2968092
141	0x3eb1b1d2	0.3470598
142	0xbe8c56e5	-0.27410045
143	0xbeaf265e	-0.3420896
144	0x3e6ff7fd	0.23434444
145	0xbe04570d	-0.12923832
146	0x3e901b07	0.2814562
147	0xbea39604	-0.3195039
148	0xbec5025b	-0.3847836
149	0xbe837453	-0.25674686
150	0xbecc8ed1	-0.3995271
151	0xbe4692a5	-0.19391878
152	0x3ec3426b	0.3813661
153	0x3eb6a421	0.35672095
154	0xbec99bb2	-0.393766
155	0x3e7ed905	0.24887474
156	0x3e8e0263	0.27736196
157	0xbeae9d64	-0.34104455
158	0x3ecb76ed	0.3973917
159	0x3ea6d1ce	0.32581943
160	0x3d35516c	0.044267103
161	0xbea5b569	-0.32364967
162	0x3e974ac9	0.29549244
163	0x3dd1e75a	0.10249205
164	0x3e9b4765	0.30327907
165	0x3e1399d7	0.14414154
166	0x3eb7251c	0.357705
167	0x3e8a217a	0.26978666
168	0x3d4752b5	0.04866286
169	0x3e6a473a	0.22878733
170	0x3ea81e12	0.32835442
171	0x3e3b803a	0.18310633
172	0x3ebcc50a	0.3686908
173	0x3d5674a9	0.05235735
174	0xbeb39ac6	-0.3507902
175	0x3e019311	0.12653758
176	0xbe964e24	-0.29356492
177	0xbdb5fd2c	-0.08886179
178	0x3dbcfacf	0.092275254
179	0xbe49b3fc	-0.19697565
180	0x3e96cb23	0.29451856
181	0xbe244908	-0.16043484
182	0x3ea4d8a1	0.32196525
183	0xbeca0aea	-0.39461452
184	0xbea0df78	-0.31420493
185	0x3e7bacd5	0.24577649
186	0xbe26a384	-0.16273314
187	0x3aa47364	0.0012546596
188	0x3e5ccb0e	0.21561834
189	0x3e31e445	0.17372234
190	0x3ebfee01	0.3748627
191	0xbd1bf82e	-0.03807848
192	0xbd812119	-0.06305141
193	0xbe08e11c	-0.13367122
194	0x3d469cd8	0.04848942
195	0x3ebe686c	0.37189043
196	0xbe8a7778	-0.27044272
197	0xbdb1e3f4	-0.08686057
198	0x3e127995	0.14304192
199	0xbd7e5cac	-0.062100098
200	0xbd921da6	-0.07134561
201	0xbe5a5500	-0.21321487
202	0x3dd02b8f	0.10164558
203	0x3ec52314	0.38503325
204	0x3e005350	0.12531781
205	0xbd39dc1c	-0.04537593
206	0x3e71e606	0.23622903
207	0x3df47245	0.11935858
208	0x3e555e73	0.20836811
209	0x3e83b40c	0.25723302
210	0xbeab186e	-0.33417076
211	0x3e97e376	0.29665726
212	0xbeaf3f90	-0.34228182
213	0xbd04565f	-0.032308932
214	0xbdd40d87	-0.10354143
215	0xbcdccf85	-0.026954422
216	0xbeaa2aef	-0.3323588
217	0x3bc1a22c	0.005909225
218	0x3e4e8fa8	0.20171988
219	0xbec7b086	-0.39001864
220	0xbe8e2fe6	-0.2777092
221	0x3e2fe8ab	0.171786
222	0x3e7eae2a	0.24871126
223	0x3e8f67a2	0.28008753
224	0x3e4b8244	0.19873911
225	0xbd058f6c	-0.03260748
226	0x3dccbd38	0.09997028
227	0xbc7b53f9	-0.015339845
228	0xbe28a833	-0.16470413
229	0xbe8f2f37	-0.2796571
230	0xbd488690	-0.048956454
231	0xbc91a47d	-0.01777863
232	0xbe31b65b	-0.1735472
233	0x3ea1d6f3	0.31609306
234	0xbe8e0b3c	-0.27742946
235	0xbe8a9d59	-0.27073172
236	0x3e0b11db	0.1358103
237	0xbe585797	-0.21127163
238	0xbe81f858	-0.25384784
239	0x3ed8cc56	0.42343396
240	0xbeaadc33	-0.33371124
241	0x3d12def0	0.03585714
242	0x3e78cc28	0.2429663
243	0xbe0253a8	-0.12727225
244	0xbde29c04	-0.11064914
245	0x3e2c48cc	0.16824645
246	0x3df785e0	0.120860815
247	0x3c0a3f20	0.008437902
248	0x3eb60ff8	0.35559058
249	0x3e94148c	0.28921926
250	0x3e716ef4	0.23577482
251	0xbecb72ea	-0.3973611
252	0xbea5f0e0	-0.32410336
253	0x3d3af870	0.045647085
254	0x3e9a9a22	0.3019572
255	0x3b791900	0.0038009286

lstm.weight_hh_l0 f4 [20, 5]
0	0xbe190f16	-0.14947161
1	0x3e18d74a	0.14925876
2	0x3da6d85b	0.08146735
3	0x3ec4d0c2	0.3844052
4	0xbb2a5cfd	-0.0025995367
5	0x3d5e3c4b	0.05425672
6	0x3ea7072f	0.32622668
7	0xbebe19a3	-0.37128934
8	0xbe2fff0a	-0.17187133
9	0x3eabfbef	0.33590648
10	0xbe0b6afb	-0.13615029
11	0xbd25145c	-0.04030262
12	0xbe0dda17	-0.13852726
13	0x3ede45b2	0.43412548
14	0xbd9f3770	-0.07774246
15	0xbe69bd27	-0.22826062
16	0xbe3a6154	-0.1820119
17	0xbd6edf28	-0.058318287
18	0xbdcd23c8	-0.1001659
19	0xbeb02752	-0.34405
20	0xbe106468	-0.14100802
21	0xbdaf9f4e	-0.08575307
22	0xbe8d767b	-0.27629456
23	0x3e2976ec	0.16549271
24	0x3ddf5228	0.10904342
25	0xbd2dedec	-0.042463228
26	0xbeba6161	-0.3640242
27	0xbeb39b46	-0.35079402
28	0x3ebcf43e	0.36905092
29	0x3e8c11f0	0.27357435
30	0x3e069cec	0.13145798
31	0x3ece77a3	0.4032565
32	0xbe8337a1	-0.2562838
33	0x3dfa84a3	0.1223233
34	0x3ebf21a9	0.37330368
35	0xbeac250b	-0.33622012
36	0x3e175200	0.14777374
37	0xbe852612	-0.26005608
38	0xbeaf1961	-0.3419905
39	0x3dc98280	0.09839344
40	0x3eab84ce	0.3349976
41	0x3cf2d7cd	0.029643917
42	0x3e822171	0.2541614
43	0x3e92d059	0.28674582
44	0xbe5e39ab	-0.21701686
45	0x3c7e9fe7	0.015541053
46	0xbea38d1d	-0.31943598
47	0xbd00a456	-0.031406723
48	0x3ea0a294	0.31374037
49	0x3e0af43f	0.13569735
50	0x3ecf56ee	0.4049601
51	0xbca40dd8	-0.020026132
52	0xbe7baa99	-0.24576797
53	0xbd3bded1	-0.04586679
54	0x3eb5e798	0.35528255
55	0xbe425f90	-0.18981767
56	0xbe186cda	-0.14885274
57	0xbd25a946	-0.040444635
58	0x3df9a121	0.12188936
59	0x3ee00112	0.43750817
60	0x3eb157d9	0.34637335
61	0x3e3d633f	0.1849489
62	0x3ecee829	0.404115
63	0x3e5fbbb2	0.21848944
64	0x3e2c8ada	0.16849843
65	0xbddffd80	-0.10937023
66	0x3d9da400	0.07697296
67	0xbeb18b10	-0.3467641
68	0xbe401a06	-0.18759927
69	0xbe7091a5	-0.23493059
70	0x3e84e262	0.25953966
71	0xbe67018a	-0.22559181
72	0x3dabdb08	0.08391386
73	0x3ea83de2	0.32859713
74	0x3ed0ab12	0.40755516
75	0xbedf46b8	-0.43608642
76	0xbeaef341	-0.34169963
77	0x3ebe58c7	0.37177107
78	0xbe21d53e	-0.15804002
79	0x3e223db3	0.15843849
80	0x3e8d186a	0.2755769
81	0xbe9b4d0a	-0.30332214
82	0x3d36968b	0.044577163
83	0x3e51c2b6	0.20484433
84	0xbd8676af	-0.06565606
85	0xbdea1cf0	-0.11431301
86	0xbc716560	-0.014733642
87	0x3e9846bc	0.29741466
88	0x3ed4dd56	0.41575116
89	0xbe7f0fd0	-0.24908376
90	0x3e55b285	0.20868881
91	0xbeab837c	-0.33498752
92	0xbcf57d88	-0.029967085
93	0xbe7d4e22	-0.24736837
94	0x3ebd2666	0.36943358
95	0xbe04aa64	-0.12955624
96	0x3ed423dc	0.4143361
97	0xbe970342	-0.29494673
98	0xbc2db4a0	-0.010602146
99	0x3e8639fc	0.26216114

lstm.bias_ih_l0 f4 [20]
0	0x3ea3d131	0.31995538
1	0xbe8e0138	-0.27735305
2	0xbecba566	-0.39774626
3	0x3d6dd0d0	0.058060467
4	0xbdb15e05	-0.08660511
5	0xbebc4312	-0.3676992
6	0xbdf879b1	-0.12132586
7	0x3c2bde80	0.01049006
8	0x3e510594	0.20412284
9	0x3e1b4f50	0.15166974
10	0x3e6a7014	0.22894317
11	0xbeb8b211	-0.36073354
12	0xbe1345af	-0.14382051
13	0x3e8088ac	0.25104272
14	0xbc1aae20	-0.009440929
15	0x3e7a89c5	0.24466617
16	0xbe6295b1	-0.22127415
17	0xbeb03551	-0.34415677
18	0x3d0d8e05	0.03455927
19	0x3e79aa48	0.24381363

lstm.bias_hh_l0 f4 [20]
0	0xbeceb402	-0.4037171
1	0x3d77f079	0.060532067
2	0xbeb4437c	-0.35207736
3	0x3d9da578	0.07697576
4	0xbec4c408	-0.3843081
5	0x3c86708f	0.016411094
6	0xbe848622	-0.25883585
7	0x3ecc611a	0.39917833
8	0x3e6cf680	0.23140907
9	0xbd9dad8f	-0.07699119
10	0xbebf08b5	-0.3731133
11	0x3dea9264	0.11453703
12	0x3e3e0673	0.18557148
13	0xbe2ac964	-0.16678387
14	0x3e66d748	0.22543061
15	0x3d8ae72f	0.06782376
16	0xbea1a68e	-0.31572384
17	0x3c180560	0.009278625
18	0x3e965deb	0.2936853
19	0x3ce9d3a0	0.028543293

linear.weight f4 [2, 5]
0	0xbdba2812	-0.09089674
1	0x3e9bf48b	0.3046001
2	0x3e99b591	0.30021337
3	0xbec358c9	-0.38153675
4	0xbdd6b991	-0.10484613
5	0xbe345710	-0.17611337
6	0xbed8e55b	-0.42362484
7	0x3e29d968	0.1658684
8	0xbea1b660	-0.31584454
9	0x3d87d559	0.0663249

linear.bias f4 [2]
0	0x3e94915a	0.29017144
1	0x3e1c707b	0.15277283

exp_avg f4 [20, 34]
0	0x36ee14d9	7.0953797e-06
1	0xb89e6696	-7.553135e-05
2	0xb7c5febc	-2.360285e-05
3	0xb92c4e02	-0.00016432258
4	0xb8f32983	-0.00011594875
5	0xb90a782c	-0.00013205473
6	0xb7363141	-1.0859513e-05
7	0x00000000	0.0
8	0x385d1ba4	5.271625e-05
9	0x381789b9	3.612947e-05
10	0xb4a26afb	-3.025269e-07
11	0xb6aae8bc	-5.0934887e-06
12	0x391a8bee	0.00014738712
13	0xb8bb56d7	-8.93303e-05
14	0xba819c97	-0.0009888586
15	0xb69dd917	-4.704237e-06
16	0xb8135348	-3.5125093e-05
17	0xb5f939ac	-1.856873e-06
18	0xb91ee597	-0.00015153583
19	0xb5cb1953	-1.5132049e-06
20	0xb5837fb1	-9.797424e-07
21	0x392762a5	0.00015963109
22	0xb68ed846	-4.2571073e-06
23	0xb59b377a	-1.1564546e-06
24	0x35cbd87d	1.5187685e-06
25	0xb559f1bc	-8.119057e-07
26	0xb7ff8637	-3.0460867e-05
27	0xb691079e	-4.3222235e-06
28	0xb6ee4685	-7.1011623e-06
29	0xb68116f6	-3.8471726e-06
30	0xb8315166	-4.2275897e-05
31	0xb700eee2	-7.685014e-06
32	0xb8e159fd	-0.00010745598
33	0x3a0e146f	0.0005419915
34	0x3d16cf06	0.036818527
35	0x3d274528	0.040837437
36	0x3c7cb542	0.015424075
37	0x3d4af70a	0.049552
38	0x3d097892	0.03356225
39	0x3ce54097	0.0279849
40	0x3c06c801	0.008226396
41	0x00000000	0.0
42	0xba0cd264	-0.0005371927
43	0x3c21e501	0.009881259
44	0x39a6d795	0.00031822608
45	0x3b4a2c5b	0.0030849192
46	0x3c9c08c8	0.019047156
47	0x3d241d0b	0.04006676
48	0x3c5f424b	0.013626645
49	0x3bc4c131	0.0060044755
50	0x3cd11699	0.02552347
51	0x3b66fecd	0.0035247088
52	0x3d384ad5	0.04499324
53	0x39a505c9	0.00031475563
54	0x39d8d54c	0.0004135765
55	0x3d8dbdb8	0.069209516
56	0x3a4435a5	0.00074848003
57	0x3a3c5712	0.00071846053
58	0x3ab86cf6	0.0014070559
59	0x3aee12d7	0.0018163574
60	0x392afa17	0.00016305629
61	0x3a7c1f09	0.00096176617
62	0x3c57fe60	0.013183206
63	0x3b93ed83	0.0045143976
64	0x3c41b9e6	0.011824107
65	0x3bb639f5	0.0055611082
66	0x3e1186d2	0.14211586
67	0x3de24d67	0.110499196
68	0xbc21481b	-0.009843851
69	0xbc2a481f	-0.010393172
70	0xbb8056eb	-0.0039166114
71	0xbc4ca4bf	-0.01249045
72	0xbc0b2e8c	-0.008494984
73	0xbbed6633	-0.007244849
74	0xbb245198	-0.0025073048
75	0x00000000	0.0
76	0xb940ae65	-0.00018375514
77	0xbb320485	-0.0027163338
78	0xb840a27b	-4.592769e-05
79	0xba4ec58e	-0.00078877143
80	0xbb9ef689	-0.0048511666
81	0xbc26ef90	-0.010188952
82	0xba7b9ffc	-0.00095987297
83	0xbac6defe	-0.0015172658
84	0xbbf3f823	-0.0074453517
85	0xba6f1ab1	-0.0009121104
86	0xbc38e7ff	-0.011285781
87	0xb89253d1	-6.9774345e-05
88	0xb91dd7fe	-0.0001505315
89	0xbc594571	-0.013261185
90	0xb9352ba5	-0.00017277764
91	0xb95f8869	-0.00021317754
92	0xb9ac064a	-0.00032811082
93	0xb9e45a21	-0.000435547
94	0xb8be44d7	-9.0727284e-05
95	0xb98ee3be	-0.00027254032
96	0xbb66431c	-0.0035135215
97	0xba999471	-0.0011717213
98	0xbb4f76ac	-0.0031656427
99	0xba9f778b	-0.0012166364
100	0xbcf15983	-0.029461628
101	0xbcd6e5f0	-0.02623269
102	0x00000000	0.0
103	0x00000000	0.0
104	0x00000000	0.0
105	0x00000000	0.0
106	0x00000000	0.0
107	0x00000000	0.0
108	0x00000000	0.0
109	0x00000000	0.0
110	0x00000000	0.0
111	0x00000000	0.0
112	0x00000000	0.0
113	0x00000000	0.0
114	0x00000000	0.0
115	0x00000000	0.0
116	0x00000000	0.0
117	0x00000000	0.0
118	0x00000000	0.0
119	0x00000000	0.0
120	0x00000000	0.0
121	0x00000000	0.0
122	0x00000000	0.0
123	0x00000000	0.0
124	0x00000000	0.0
125	0x00000000	0.0
126	0x00000000	0.0
127	0x00000000	0.0
128	0x00000000	0.0
129	0x00000000	0.0
130	0x00000000	0.0
131	0x00000000	0.0
132	0x00000000	0.0
133	0x00000000	0.0
134	0x00000000	0.0
135	0x00000000	0.0
136	0x3c2a4ce2	0.010394307
137	0x3c282a08	0.010263927
138	0x3b810988	0.003937904
139	0x3c51458f	0.012772932
140	0x3c0d4b26	0.008623874
141	0x3bd279aa	0.006423195
142	0x3b0a8d0d	0.0021141202
143	0x00000000	0.0
144	0x39eb0595	0.00044826852
145	0x3b3f6f16	0.00292105
146	0x38a7d68f	8.003145e-05
147	0x3a4e9714	0.0007880789
148	0x3bb0de1c	0.0053975713
149	0x3c1786d9	0.009248459
150	0x3b189f94	0.0023288475
151	0x3b5cfe3f	0.0033720878
152	0x3c37dfd1	0.011222796
153	0x3a7a0b97	0.000953847
154	0x3c2d495b	0.010576571
155	0x38fe371b	0.00012121928
156	0x386293b6	5.4020165e-05
157	0x3c40bcde	0.011763779
158	0x392b6e1b	0.00016348848
159	0x3974361d	0.00023289812
160	0x39cc769c	0.00038998283
161	0x39dbe0f3	0.00041938535
162	0x38abc422	8.190448e-05
163	0x39a51b83	0.0003149175
164	0x3b64fd74	0.003494111
165	0x3a985389	0.0011621575
166	0x3b494462	0.0030710925
167	0x3a784898	0.00094712665
168	0x3d48e594	0.049047068
169	0x3d124dbc	0.035718665
170	0xb53ef288	-7.1133445e-07
171	0xb574ebe9	-9.124038e-07
172	0xb4b5faad	-3.3896268e-07
173	0xb5a601d3	-1.2368495e-06
174	0xb56f0cc4	-8.9053015e-07
175	0xb53e0eb7	-7.080193e-07
176	0xb43c82c5	-1.7556438e-07
177	0x00000000	0.0
178	0xb36ccfc4	-5.5136994e-08
179	0xb48045e1	-2.3892702e-07
180	0xb13d7305	-2.75685e-09
181	0xb3943461	-6.901315e-08
182	0xb4b19bd3	-3.3082196e-07
183	0xb571bec3	-9.005709e-07
184	0xb60ac1bc	-2.067637e-06
185	0xb21ddfd8	-9.189499e-09
186	0xb5569c49	-7.994864e-07
187	0xb39be6a6	-7.259705e-08
188	0xb58dd71b	-1.0567923e-06
189	0xb17c995a	-3.6757997e-09
190	0xb1f234d5	-7.0491333e-09
191	0xb56ccfc4	-8.821919e-07
192	0xb2c557ce	-2.2973747e-08
193	0xb29ddfd8	-1.8378998e-08
194	0xb2e4eafa	-2.6649548e-08
195	0xb30e1642	-3.3082195e-08
196	0xb3eec8f6	-1.1119293e-07
197	0xb2b34ead	-2.087412e-08
198	0xb496795a	-2.8027972e-07
199	0xb3c94a35	-9.37329e-08
200	0xb4ca4ca3	-3.7681193e-07
201	0xb3843845	-6.1569644e-08
202	0xb5da4f88	-1.6265412e-06
203	0xb57b9cc1	-9.3732893e-07
204	0x3c8b0844	0.016971715
205	0x3c98937f	0.01862502
206	0x3beb1ae1	0.007174835
207	0x3cd4158f	0.025889186
208	0x3c8ed4eb	0.017435512
209	0x3c4fc14c	0.012680363
210	0x3b639c38	0.0034730565
211	0x00000000	0.0
212	0xb8846a0b	-6.3140025e-05
213	0x3b9428aa	0.004521449
214	0x38b4be9d	8.618573e-05
215	0x3ab82279	0.001404836
216	0x3c058af9	0.008150809
217	0x3c9bc9a8	0.019017056
218	0x3badf6f4	0.00530898
219	0x3b2df8a5	0.0026545909
220	0x3c70e65c	0.014703359
221	0x3ad7a8b5	0.0016453477
222	0x3ca85a8a	0.020550985
223	0x39041028	0.0001259452
224	0x3909d3d4	0.0001314425
225	0x3cf3aee8	0.029746488
226	0x39f14fd8	0.0004602659
227	0x39d9ee5f	0.00041567066
228	0x39eae4dc	0.00044802472
229	0x3a360e50	0.0006944882
230	0x39112ff4	0.00013846142
231	0x39d1bb06	0.0004000293
232	0x3bd41fdc	0.0064735245
233	0x3b1257d6	0.0022330186
234	0x3baad6a3	0.005213575
235	0x3b286c31	0.0025699253
236	0x3d13928b	0.036028426
237	0x3d5dd8f2	0.054161973
238	0x94d1cefd	-2.118525e-26
239	0x94aaaa64	-1.723282e-26
240	0x93f6bde1	-6.2286366e-27
241	0x94bf499f	-1.931511e-26
242	0x94a8c298	-1.7040419e-26
243	0x948f5666	-1.4473388e-26
244	0x938ef6bf	-3.608915e-27
245	0x00000000	0.0
246	0x12e49f67	1.4428119e-27
247	0x93a04f9f	-4.046819e-27
248	0x916e0028	-1.8774938e-28
249	0x92c39f87	-1.2345557e-27
250	0x946bd169	-1.1905767e-26
251	0x94aa12a2	-1.7172963e-26
252	0x923135df	-5.5917753e-28
253	0x128440ce	8.346347e-28
254	0x9393234a	-3.7142815e-27
255	0x92de27d9	-1.4019993e-27

exp_avg_sq f4 [20, 34]
0	0x3486a865	2.5081968e-07
1	0x348603f9	2.4962335e-07
2	0x3319f7be	3.584841e-08
3	0x3489bf61	2.5657485e-07
4	0x342a928f	1.5885801e-07
5	0x33952bdb	6.9463304e-08
6	0x320e5411	8.284602e-09
7	0x00000000	0.0
8	0x3312b256	3.415547e-08
9	0x338ace5a	6.463661e-08
10	0x2c250c57	2.345476e-12
11	0x30ce9cb2	1.5033008e-09
12	0x34b9a274	3.4577135e-07
13	0x346db7d2	2.2139218e-07
14	0x367d9cdb	3.779124e-06
15	0x33414a1b	4.5003713e-08
16	0x348c8b1b	2.6178245e-07
17	0x311dd4f2	2.2967552e-09
18	0x34743278	2.2742631e-07
19	0x2f495c76	1.8313692e-10
20	0x2d152b24	8.4792486e-12
21	0x35a9a8dc	1.2640626e-06
22	0x2eb66589	8.294438e-11
23	0x2eefe730	1.0909529e-10
24	0x2fdda12b	4.0314183e-10
25	0x2ff0d667	4.3808088e-10
26	0x3043340b	7.1014544e-10
27	0x2e1c01de	3.5471952e-11
28	0x3320a4ab	3.7402668e-08
29	0x318b4d15	4.0541956e-09
30	0x32fcbd6f	2.9422806e-08
31	0x30931f61	1.0704576e-09
32	0x34eb4b7e	4.382709e-07
33	0x36822c76	3.879478e-06
34	0x3a1f9e65	0.0006088971
35	0x3a554b48	0.0008136523
36	0x38f4f33b	0.00011680132
37	0x3a9d5e53	0.001200626
38	0x3a0cbc78	0.000536866
39	0x39b7e887	0.00035077726
40	0x37ee7e9f	2.8430773e-05
41	0x00000000	0.0
42	0x3495a67a	2.787454e-07
43	0x384764fa	4.753934e-05
44	0x33671d97	5.381079e-08
45	0x369b6384	4.630945e-06
46	0x397586fd	0.00023415308
47	0x3a513744	0.00079809525
48	0x38f04172	0.00011456282
49	0x3783f3fa	1.5730027e-05
50	0x39bc8469	0.00035956808
51	0x36c9abf1	6.0102834e-06
52	0x3a80fc89	0.0009840886
53	0x334142f5	4.499721e-08
54	0x338f0126	6.659165e-08
55	0x3b351080	0.0027628243
56	0x348b2ff4	2.5925658e-07
57	0x34883b31	2.5375041e-07
58	0x3574d917	9.121299e-07
59	0x35df9dbd	1.6660703e-06
60	0x32b318da	2.0849644e-08
61	0x3504f6fa	4.953323e-07
62	0x38a86bf1	8.03097e-05
63	0x371a1941	9.184995e-06
64	0x3884c7b9	6.331452e-05
65	0x378f9733	1.7117336e-05
66	0x3c3af083	0.0114098815
67	0x3bd3e20e	0.006466157
68	0x381be3c6	3.716701e-05
69	0x38371ad3	4.3655582e-05
70	0x36d06708	6.2108775e-06
71	0x388db9e0	6.758026e-05
72	0x37faccb2	2.9897641e-05
73	0x37a0abb1	1.9153436e-05
74	0x36174597	2.254126e-06
75	0x00000000	0.0
76	0x331ebc35	3.6958415e-08
77	0x364ade87	3.0229874e-06
78	0x307a32d9	9.102173e-10
79	0x34870fa4	2.515709e-07
80	0x37157773	8.9089035e-06
81	0x38315e2b	4.228779e-05
82	0x37eafff5	2.8014163e-05
83	0x35985934	1.1350844e-06
84	0x38045f10	3.1559786e-05
85	0x34aeef1c	3.2584e-07
86	0x3857c6af	5.1445033e-05
87	0x3138620a	2.6831253e-09
88	0x328331a4	1.5272981e-08
89	0x38ae945a	8.324599e-05
90	0x327df703	1.4782702e-08
91	0x329ec2d0	1.8482211e-08
92	0x33246ed1	3.8285012e-08
93	0x339b51af	7.232608e-08
94	0x321f7f7c	9.284005e-09
95	0x32fbd68e	2.9317814e-08
96	0x36a5d6e3	4.9423993e-06
97	0x3516cac9	5.6174446e-07
98	0x369ceacc	4.6764962e-06
99	0x350c535b	5.227536e-07
100	0x39b7d286	0.00035061332
101	0x3968b48d	0.00022192505
102	0x00000000	0.0
103	0x00000000	0.0
104	0x00000000	0.0
105	0x00000000	0.0
106	0x00000000	0.0
107	0x00000000	0.0
108	0x00000000	0.0
109	0x00000000	0.0
110	0x00000000	0.0
111	0x00000000	0.0
112	0x00000000	0.0
113	0x00000000	0.0
114	0x00000000	0.0
115	0x00000000	0.0
116	0x00000000	0.0
117	0x00000000	0.0
118	0x00000000	0.0
119	0x00000000	0.0
120	0x00000000	0.0
121	0x00000000	0.0
122	0x00000000	0.0
123	0x00000000	0.0
124	0x00000000	0.0
125	0x00000000	0.0
126	0x00000000	0.0
127	0x00000000	0.0
128	0x00000000	0.0
129	0x00000000	0.0
130	0x00000000	0.0
131	0x00000000	0.0
132	0x00000000	0.0
133	0x00000000	0.0
134	0x00000000	0.0
135	0x00000000	0.0
136	0x38ae824c	8.321236e-05
137	0x38a06267	7.6477234e-05
138	0x373fb2d7	1.1426127e-05
139	0x39026d4f	0.00012438487
140	0x386566fd	5.469377e-05
141	0x37f4ea60	2.9196206e-05
142	0x3670872b	3.5841465e-06
143	0x00000000	0.0
144	0x3448cf87	1.870195e-07
145	0x36d86562	6.449104e-06
146	0x31ab2f52	4.9821347e-09
147	0x34f4a176	4.556602e-07
148	0x37b7ec17	2.1925238e-05
149	0x3882c4b0	6.235519e-05
150	0x369108df	4.3223695e-06
151	0x3749942e	1.2015034e-05
152	0x38c3985d	9.3267045e-05
153	0x3539e33d	6.9248546e-07
154	0x38a89bed	8.039908e-05
155	0x32415324	1.12529825e-08
156	0x3110df91	2.108184e-09
157	0x38dc632c	0.0001050889
158	0x32a68fb4	1.9390292e-08
159	0x332fc1b4	4.0921535e-08
160	0x34052f79	1.240386e-07
161	0x3404cca9	1.2367913e-07
162	0x31c4b4d1	5.724907e-09
163	0x33b21f09	8.294416e-08
164	0x371d48d2	9.374884e-06
165	0x358cf348	1.0501617e-06
166	0x36e2f7d6	6.7641768e-06
167	0x352821e0	6.263417e-07
168	0x3b01f3c8	0.0019829143
169	0x3a81f9af	0.000991633
170	0x2ac27a28	3.4546086e-13
171	0x2b1ffc9a	5.68387e-13
172	0x29b0a528	7.84462e-14
173	0x2b92fb74	1.0443716e-12
174	0x2b1864a1	5.41409e-13
175	0x2ac0a8a2	3.4223064e-13
176	0x28bd8b97	2.1043753e-14
177	0x00000000	0.0
178	0x27159187	2.0756794e-15
179	0x292f8903	3.8976645e-14
180	0x22bf7299	5.189199e-18
181	0x276a5309	3.2519037e-15
182	0x29a843b8	7.472446e-14
183	0x2b1bdd86	5.537449e-13
184	0x2c4d66ac	2.9189247e-12
185	0x2484f323	5.7657764e-17
186	0x2af5ad87	4.364115e-13
187	0x2781a593	3.598421e-15
188	0x2b56a1a2	7.6252383e-13
189	0x232a2cf8	9.225241e-18
190	0x241c75f3	3.3927015e-17
191	0x2b159187	5.3137394e-13
192	0x25cfbbe3	3.6036093e-16
193	0x2584f323	2.3063106e-16
194	0x260bc372	4.849019e-16
195	0x265760e9	7.4724447e-16
196	0x28181258	8.441673e-15
197	0x25ab7f9c	2.9750243e-16
198	0x29718e43	5.3636142e-14
199	0x27d8205e	5.9987136e-15
200	0x29da51bc	9.6953234e-14
201	0x273a80e8	2.5882566e-15
202	0x2bfe38f9	1.8063599e-12
203	0x2b28d949	5.9987134e-13
204	0x3926d410	0.00015909993
205	0x3951e1b8	0.0002001588
206	0x37f89c8a	2.9636798e-05
207	0x39bbfade	0.0003585433
208	0x39306a5f	0.00016824294
209	0x38d4c122	0.000101449215
210	0x36d1c357	6.251426e-06
211	0x00000000	0.0
212	0x343f964d	1.784294e-07
213	0x3743e3b7	1.1675925e-05
214	0x319ef819	4.6266107e-09
215	0x359794ed	1.129372e-06
216	0x385936ef	5.1787993e-05
217	0x3959714b	0.00020736938
218	0x37aa09d9	2.0270165e-05
219	0x3692f423	4.3795603e-06
220	0x391060d3	0.0001376898
221	0x35d2dc17	1.5710274e-06
222	0x39818bcd	0.00024708957
223	0x322e539c	1.0147144e-08
224	0x3219d368	8.95384e-09
225	0x3a0135cf	0.00049289776
226	0x33bf5aa6	8.9106194e-08
227	0x33c988ee	9.384699e-08
228	0x342cec93	1.6104813e-07
229	0x349d2d6e	2.9276583e-07
230	0x32a07cb0	1.8683153e-08
231	0x33db1f96	1.02037276e-07
232	0x37da9a3b	2.6059444e-05
233	0x3651b0e7	3.1246398e-06
234	0x379532b0	1.7785787e-05
235	0x369b5873	4.629657e-06
236	0x3a6764a3	0.0008826947
237	0x3aebdfff	0.0017995833
238	0x00000000	0.0
239	0x00000000	0.0
240	0x00000000	0.0
241	0x00000000	0.0
242	0x00000000	0.0
243	0x00000000	0.0
244	0x00000000	0.0
245	0x00000000	0.0
246	0x00000000	0.0
247	0x00000000	0.0
248	0x00000000	0.0
249	0x00000000	0.0
250	0x00000000	0.0
251	0x00000000	0.0
252	0x00000000	0.0
253	0x00000000	0.0
254	0x00000000	0.0
255	0x00000000	0.0

exp_avg f4 [20, 5]
0	0xb4f460e0	-4.5519027e-07
1	0xb529d573	-6.3268016e-07
2	0x2d3127d4	1.0070129e-11
3	0xb529ce26	-6.325739e-07
4	0xb0b64ec9	-1.3264635e-09
5	0xb9ab3dfe	-0.0003266185
6	0xb83277a4	-4.254993e-05
7	0x3965a315	0.00021899895
8	0xb9910c2f	-0.00027665633
9	0x3503d532	4.9111543e-07
10	0x389f4f7e	7.5965174e-05
11	0x383f44c9	4.560201e-05
12	0xb84984e8	-4.8045913e-05
13	0x38aa4560	8.119154e-05
14	0xb57f3726	-9.5075154e-07
15	0x00000000	0.0
16	0x00000000	0.0
17	0x00000000	0.0
18	0x00000000	0.0
19	0x00000000	0.0
20	0xb7f4d6fe	-2.918718e-05
21	0xb7c66f85	-2.365537e-05
22	0x3832db37	4.2642667e-05
23	0xb8a4671d	-7.839336e-05
24	0x38201db0	3.817462e-05
25	0xb1f07b43	-6.9989325e-09
26	0x80000003	-4e-45
27	0x24d90162	9.411109e-17
28	0x2d0ac739	7.888628e-12
29	0x00000000	0.0
30	0xb9381df2	-0.00017558763
31	0xb9651367	-0.0002184637
32	0x37aeb863	2.0828278e-05
33	0xb919ef51	-0.0001468037
34	0x3539a7f3	6.916227e-07
35	0x9180053b	-2.0198063e-28
36	0x8fdc6cab	-2.1735532e-29
37	0x912777f5	-1.3210942e-28
38	0x112777f1	1.3210937e-28
39	0x0fdca961	2.1758917e-29
40	0xb2e258d1	-2.6350252e-08
41	0x32d19cd7	2.4402125e-08
42	0xb2ac50a9	-2.0060115e-08
43	0x32d184d7	2.439121e-08
44	0xb1935510	-4.2879336e-09
45	0x2a1e4d82	1.406011e-13
46	0xafe7c573	-4.215895e-10
47	0x2a1e4d82	1.406011e-13
48	0xafe7d93e	-4.2173015e-10
49	0x2fe7c573	4.215895e-10
50	0xb96de0d7	-0.0002268584
51	0x365ee20e	3.321216e-06
52	0xb90945e8	-0.0001309138
53	0x3969f66b	0.0002231241
54	0xab04bc6c	-4.715731e-13
55	0x3865a357	5.4749977e-05
56	0x36565a84	3.1941172e-06
57	0xb78e9d56	-1.7000984e-05
58	0x3943a0bc	0.00018656527
59	0xb869c8d5	-5.573857e-05
60	0xb798b62c	-1.8204642e-05
61	0x364088ff	2.8689972e-06
62	0xb7864bd8	-1.6009362e-05
63	0x38aaa7f7	8.1375176e-05
64	0xb7175ec6	-9.0223675e-06
65	0x00000000	0.0
66	0x00000000	0.0
67	0x00000000	0.0
68	0x00000000	0.0
69	0x00000000	0.0
70	0x00000000	0.0
71	0x00000000	0.0
72	0x00000000	0.0
73	0x00000000	0.0
74	0x00000000	0.0
75	0xb825f47c	-3.956676e-05
76	0xb5821633	-9.692216e-07
77	0x37c5580b	2.3525228e-05
78	0xb7c481e7	-2.3425511e-05
79	0x35fc6a26	1.8806356e-06
80	0xb9f10238	-0.00045968755
81	0xb97e0cf9	-0.0002422816
82	0x399fba50	0.00030465657
83	0xb9c148d0	-0.00036866078
84	0x37917632	1.7340386e-05
85	0x00000000	0.0
86	0x00000000	0.0
87	0x00000000	0.0
88	0x00000000	0.0
89	0x00000000	0.0
90	0xb637cf51	-2.73898e-06
91	0x35c84ed9	1.4924109e-06
92	0xb386d333	-6.278278e-08
93	0xb5905cb8	-1.0755821e-06
94	0xac8fb9df	-4.0849403e-12
95	0x00000000	0.0
96	0x8030a558	-4.467418e-39
97	0x00000000	0.0
98	0x00000000	0.0
99	0x00000000	0.0

exp_avg_sq f4 [20, 5]
0	0x2d091415	7.7920075e-12
1	0x2c89cccb	3.9165108e-12
2	0x1c3b7419	6.202316e-22
3	0x2c89b337	3.913671e-12
4	0x22e7efb2	6.2866463e-18
5	0x3384e2da	6.187993e-08
6	0x3102f52d	1.9056856e-09
7	0x33095b65	3.198092e-08
8	0x332aa0f1	3.9727585e-08
9	0x2b9fc5e0	1.1352551e-12
10	0x3135aa43	2.643575e-09
11	0x3097b62f	1.1038476e-09
12	0x303ea23d	6.935215e-10
13	0x312a6482	2.4795388e-09
14	0x2d63d555	1.2950825e-11
15	0x00000000	0.0
16	0x00000000	0.0
17	0x00000000	0.0
18	0x00000000	0.0
19	0x00000000	0.0
20	0x30f7f563	1.8041358e-09
21	0x308cf687	1.0256408e-09
22	0x31015bb3	1.8824096e-09
23	0x31a17136	4.6985873e-09
24	0x30b1a528	1.2925385e-09
25	0x241a3d43	3.3445318e-17
26	0x00000000	0.0
27	0x09f14e25	5.8092126e-33
28	0x1a4d94a3	4.2513074e-23
29	0x00000000	0.0
30	0x32a90fd5	1.9681389e-08
31	0x32fd54ea	2.949169e-08
32	0x301068f6	5.2536053e-10
33	0x3256cfc0	1.2503676e-08
34	0x2e42cd93	4.429308e-11
35	0x00000000	0.0
36	0x00000000	0.0
37	0x00000000	0.0
38	0x00000000	0.0
39	0x00000000	0.0
40	0x2785f02f	3.7175323e-15
41	0x27654464	3.1817209e-15
42	0x271b3429	2.1538847e-15
43	0x2765102a	3.1788897e-15
44	0x24e09fb4	9.741506e-17
45	0x1f960916	6.35425e-20
46	0x25390480	1.6047717e-16
47	0x1f960916	6.35425e-20
48	0x254072dc	1.6692261e-16
49	0x25390a68	1.6049718e-16
50	0x330634d3	3.124735e-08
51	0x2cc55352	5.608327e-12
52	0x31f6ce2d	7.1829818e-09
53	0x32dc15d9	2.5621306e-08
54	0x282eafc9	9.697058e-15
55	0x3132bde8	2.6010358e-09
56	0x31bff1d3	5.586324e-09
57	0x2f849bd9	2.4121397e-10
58	0x3407c71a	1.2645287e-07
59	0x32e4d85a	2.6641079e-08
60	0x318d4d8a	4.1124553e-09
61	0x3018f46d	5.564463e-10
62	0x30038d29	4.7858123e-10
63	0x320c6170	8.171227e-09
64	0x2fb9b57c	3.3780256e-10
65	0x00000000	0.0
66	0x00000000	0.0
67	0x00000000	0.0
68	0x00000000	0.0
69	0x00000000	0.0
70	0x00000000	0.0
71	0x00000000	0.0
72	0x00000000	0.0
73	0x00000000	0.0
74	0x00000000	0.0
75	0x30133f57	5.35683e-10
76	0x2db19ab3	2.019127e-11
77	0x301926f9	5.571646e-10
78	0x30179e27	5.515823e-10
79	0x2f5c60d7	2.0043288e-10
80	0x33ab6646	7.9814114e-08
81	0x32c5a01a	2.3006624e-08
82	0x330418ca	3.075619e-08
83	0x3347f8b4	4.6559492e-08
84	0x2fda41db	3.9700762e-10
85	0x00000000	0.0
86	0x00000000	0.0
87	0x00000000	0.0
88	0x00000000	0.0
89	0x00000000	0.0
90	0x2d014c36	7.349723e-12
91	0x2c8f84d0	4.0790496e-12
92	0x2bece221	1.6831572e-12
93	0x2c39d863	2.64102e-12
94	0x1a692ee6	4.8221155e-23
95	0x00000000	0.0
96	0x00000000	0.0
97	0x00000000	0.0
98	0x00000000	0.0
99	0x00000000	0.0

exp_avg f4 [20]
0	0xb52cc542	-6.436204e-07
1	0x39dc515e	0.00042022293
2	0xb8dfef15	-0.00010678001
3	0x00000000	0.0
4	0x38df8ee3	0.00010660083
5	0xb21ddfd8	-9.189499e-09
6	0x394a68f0	0.00019303313
7	0x915be45f	-1.7346426e-28
8	0xb30989a0	-3.2022967e-08
9	0x30183673	5.5374655e-10
10	0xb9c6be43	-0.0003790726
11	0xb9807b6a	-0.00024506013
12	0xb8fb3286	-0.000119780234
13	0x198af52e	1.4367893e-23
14	0x00000000	0.0
15	0x37fbc2fd	3.001233e-05
16	0x39fdd262	0.00048412668
17	0x00000000	0.0
18	0x3537c555	6.845997e-07
19	0x0030b208	4.47197e-39

exp_avg_sq f4 [20]
0	0x2df24ed0	2.7547215e-11
1	0x33b9331a	8.624029e-08
2	0x319e498f	4.606768e-09
3	0x00000000	0.0
4	0x320f20cb	8.331152e-09
5	0x2484f323	5.7657764e-17
6	0x32b94817	2.1569617e-08
7	0x00000000	0.0
8	0x27c56ab3	5.4794167e-15
9	0x25a5e57f	2.877845e-16
10	0x338cbb57	6.553335e-08
11	0x346a5512	2.1823897e-07
12	0x32973037	1.760064e-08
13	0x00000000	0.0
14	0x00000000	0.0
15	0x3084365c	9.619714e-10
16	0x33ac78b3	8.031329e-08
17	0x00000000	0.0
18	0x2d051cff	7.566613e-12
19	0x00000000	0.0

exp_avg f4 [20]
0	0xb52cc53b	-6.4362e-07
1	0x39dc515e	0.00042022293
2	0xb8dfef16	-0.00010678002
3	0x00000000	0.0
4	0x38df8ee1	0.00010660082
5	0xb21ddfd8	-9.189499e-09
6	0x394a68f0	0.00019303313
7	0x915be45f	-1.7346426e-28
8	0xb30989a0	-3.2022967e-08
9	0x30183673	5.5374655e-10
10	0xb9c6be43	-0.0003790726
11	0xb9807b68	-0.00024506007
12	0xb8fb3283	-0.00011978021
13	0x198af52e	1.4367893e-23
14	0x00000000	0.0
15	0x37fbc2f9	3.0012323e-05
16	0x39fdd260	0.00048412662
17	0x00000000	0.0
18	0x3537c558	6.8459985e-07
19	0x0030b208	4.47197e-39

exp_avg_sq f4 [20]
0	0x2df24ed2	2.7547218e-11
1	0x33b9331a	8.624029e-08
2	0x319e498e	4.6067674e-09
3	0x00000000	0.0
4	0x320f20cc	8.331153e-09
5	0x2484f323	5.7657764e-17
6	0x32b94818	2.1569619e-08
7	0x00000000	0.0
8	0x27c56ab3	5.4794167e-15
9	0x25a5e57f	2.877845e-16
10	0x338cbb57	6.553335e-08
11	0x346a5512	2.1823897e-07
12	0x32973036	1.7600637e-08
13	0x00000000	0.0
14	0x00000000	0.0
15	0x3084365c	9.619714e-10
16	0x33ac78b3	8.031329e-08
17	0x00000000	0.0
18	0x2d051cff	7.566613e-12
19	0x00000000	0.0

exp_avg f4 [2, 5]
0	0x3d9abcb0	0.075555205
1	0x3d92a42b	0.07160219
2	0xbddc9448	-0.1077047
3	0x3e3fc34c	0.18726844
4	0xbcabdd52	-0.020979557
5	0xbd9abcb0	-0.075555205
6	0xbd92a42b	-0.07160219
7	0x3ddc9446	0.107704684
8	0xbe3fc34c	-0.18726844
9	0x3cabdd52	0.020979557

exp_avg_sq f4 [2, 5]
0	0x3adf0916	0.0017016258
1	0x3ab12919	0.0013516276
2	0x3b046e1d	0.0020207234
3	0x3b8efbcb	0.004363512
4	0x398a0b32	0.00026329752
5	0x3adf0916	0.0017016258
6	0x3ab12919	0.0013516276
7	0x3b046e1d	0.0020207234
8	0x3b8efbcb	0.004363512
9	0x398a0b32	0.00026329752

exp_avg f4 [2]
0	0xbeebbc60	-0.46042156
1	0x3eebbc5f	0.46042153

exp_avg_sq f4 [2]
0	0x3cd60980	0.026127577
1	0x3cd6097d	0.026127571
