MimicApp/lightning_logs/version_8/checkpoints/epoch=9-step=129.ckpt (torch, 16172 bytes, 18 tensors)

lstm.weight_ih_l0 f4 [20, 34]
-0.2198889 0.32855156 -0.13677965 -0.4314181 0.0007489744 0.17836627 -0.08833947 -0.17459103
-0.25535604 -0.32195625 -0.33032808 0.42115754 -0.43861362 0.31376812 0.28840226 0.113776006
0.26140845 0.21812744 0.36882603 -0.43984923 0.16472657 0.36130455 -0.13819548 0.25983134
0.12227028 0.3444178 0.03636458 -0.13242514 0.12686245 -0.32089263 -0.23501818 -0.3621378
-0.39917323 -0.3475691 -0.25179768 -0.4149745 0.30823344 0.102975205 -0.11957934 0.22470993
-0.14623332 0.29636717 0.2246666 -0.39239702 -0.38280657 -0.36362365 0.4038427 -0.023558171
0.057353057 0.14809017 0.2127842 -0.111185946 0.29522848 -0.2334892 0.1888516 0.24228024
-0.029119045 -0.28163153 -0.13030945 -0.21909852 0.21161966 -0.15002988 -0.33907717 0.36018795
-0.38622987 -0.097091086 0.3109584 -0.37604195 -0.11899866 -0.16870521 -0.116183035 0.33081216
0.24868526 0.035675395 0.18863606 0.12912428 -0.3361515 0.19975448 0.23972717 -0.2940841
-0.37736213 0.2934039 -0.25617412 0.41994372 -0.047133856 -0.34099972 -0.3106071 -0.42847702
0.27164435 -0.0625184 0.09004786 -0.3138767 -0.3563896 -0.3917289 0.21000323 -0.2323674
-0.09374981 -0.09685411 0.23107263 0.3228673 -0.2683021 -0.10071841 0.19135734 -0.030080322
-0.122957885 0.4517869 -0.35838258 -0.3317466 0.06680716 0.124269485 0.35315683 -0.23273534
-0.006631355 0.20307525 -0.26192906 0.015418372 0.11692632 0.0038681854 0.23745921 0.2025595
-0.36748672 0.10244453 -0.06554869 -0.3319008 0.24637866 -0.11014545 0.32597494 0.09504788
-0.12725258 0.42457306 0.3126564 -0.3696542 -0.12123512 -0.06429049 0.24663822 0.4387464
0.33688438 0.023502858 -0.14823002 0.3413478 0.001794397 0.28341407 -0.24242683 0.33149093
-0.26460043 -0.13304962 0.073301494 -0.06216818 0.07044231 0.3918264 -0.12361055 0.18830314
0.16870698 -0.24061081 -0.19404303 -0.32192233 0.41405046 0.01610809 0.16657403 -0.05382338
-0.25256395 -0.028793423 -0.20170948 0.42003912 0.2638971 0.3993854 -0.30674723 0.15289834
0.44570875 0.42302555 0.062127054 -0.034605205 -0.16102877 0.32245797 -0.26288348 0.3265726
0.01531899 -0.3957805 0.12463683 0.32487613 -0.30889845 0.035419583 -0.05617571 0.1356849
-0.033955604 0.09841913 -0.33798948 -0.10707176 -0.09591845 -0.43291163 -0.34304506 -0.18887615
-0.4222597 -0.23795721 0.22923923 0.34727168 0.13289839 0.41867197 -0.27784356 0.29912764
0.38099098 -0.30641335 -0.09591332 -0.31553227 -0.38138068 -0.13669041 0.38555455 -0.39073622
0.41604275 0.06701499 -0.18195823 0.09211713 -0.06938195 -0.1369488 -0.18493831 0.09359294
-0.32040712 0.23271596 -0.13246277 -0.3298242 -0.14432058 -0.18803889 -0.31891382 -0.068843186
-0.3317973 -0.0027230084 -0.431672 0.35454214 0.39981955 -0.25450176 -0.41214544 0.4194498
-0.2680841 0.1573618 0.25897926 -0.4404263 -0.4141773 -0.09737226 0.37178564 0.13076967
0.4181503 -0.37565714 -0.16561809 0.3192715 -0.29268914 -0.29597178 -0.2792775 -0.017364085
-0.2137365 0.13812906 0.020704508 0.26434028 -0.2668236 -0.11162138 0.12519348 -0.38890564
00000000: 8e2a 61be e937 a83e f70f 0cbe d5e2 dcbe
00000010: d256 443a a6a5 363e 53eb b4bd fec7 32be
00000020: 07be 82be 73d7 a4be c320 a9be f6a1 d73e
00000030: f791 e0be 37a6 a03e 76a9 933e 6503 e93d
00000040: 54d7 853e cd5c 5f3e c4d6 bc3e eb33 e1be
00000050: 15ae 283e e9fc b83e 1e83 0dbe 9d08 853e
00000060: d768 fa3d 8857 b03e 07f3 143d 759a 07be
00000070: 3be8 013e 0a4c a4be 9ba8 70be 206a b9be
00000080: 6f60 ccbe 94f4 b1be a0eb 80be 8a77 d4be
00000090: c6d0 9d3e aae4 d23d 03e6 f4bd 5c1a 663e
000000a0: 30be 15be 70bd 973e 000f 663e 43e8 c8be
000000b0: 39ff c3be e12c babe 78c4 ce3e 11fd c0bc
000000c0: 0aeb 6a3d f3a4 173e 1ae4 593e 75b5 e3bd
000000d0: 3028 973e cb17 6fbe 5062 413e 5018 783e
000000e0: 108b eebc 0232 90be d76f 05be 5d5b 60be
000000f0: d3b2 583e 6fa1 19be 869b adbe 8e6a b83e
00000100: ecbf c5be b1d7 c6bd f035 9f3e 9288 c0be
00000110: 92b5 f3bd 0fc1 2cbe 5ff1 edbd 3660 a93e
00000120: 59a7 7e3e 5d20 123d d029 413e 2839 043e
00000130: 0d1c acbe 708c 4c3e 0a7b 753e 3192 96be
00000140: 9c35 c1be 0939 963e 4129 83be dd02 d73e
00000150: 6e0f 41bd 8497 aebe e507 9fbe 5761 dbbe
00000160: f814 8b3e a609 80bd 036b b83d 72b4 a0be
00000170: b378 b6be b190 c8be 160b 573e b8f1 6dbe
00000180: e6ff bfbd 735b c6bd 4e9e 6c3e dd4e a53e
00000190: e55e 89be 7445 cebd 2ef3 433e 026b f6bc
000001a0: 58d1 fbbd 9d50 e73e ec7d b7be b1da a9be
000001b0: 31d2 883d 0081 fe3d f9d0 b43e 2c52 6ebe
000001c0: d64b d9bb f5f2 4f3e 911b 86be 579d 7c3c
000001d0: 1177 ef3d 6281 7d3b 8228 733e c26b 4f3e
000001e0: 3827 bcbe 70ce d13d 643e 86bd e7ee a9be
000001f0: b04a 7c3e f093 e1bd 30e6 a63e 77a8 c23d
00000200: 804e 02be a461 d93e 8014 a03e 5143 bdbe
00000210: 1e4a f8bd bbaa 83bd bb8e 7c3e 5ea3 e03e
00000220: 1c7c ac3e 1189 c03c 9cc9 17be 24c5 ae3e
00000230: f931 eb3a a61b 913e bd3e 78be 2eb9 a93e
00000240: b579 87be 293e 08be 181f 963d 10a4 7ebd
00000250: 0f44 903d 789d c83e 8727 fdbd 8ad2 403e
00000260: 86c1 2c3e ae62 76be 37b3 46be 01d3 a4be
00000270: 6cfe d33e 1df5 833c 6292 2a3e e875 5cbd
00000280: 1050 81be 2fe0 ebbc ee8c 4ebe 5e0f d73e
00000290: 851d 873e 3e7c cc3e f90d 9dbe 6291 1c3e
000002a0: f033 e43e ce96 d83e f078 7e3d 30be 0dbd
000002b0: bae4 24be 3619 a53e aa98 86be 8634 a73e
000002c0: 80fc 7a3c bea3 cabe 9841 ff3d 2a56 a63e
000002d0: f027 9ebe 2014 113d 8018 66bd fcf0 0a3e
000002e0: 0815 0bbd f88f c93d f50c adbe 7048 dbbd
000002f0: e470 c4bd 98a6 ddbe 9aa3 afbe c068 41be
00000300: 6c32 d8be 0eab 73be b0bd 6a3e 98cd b13e
00000310: 8416 083e 2c5c d63e 8341 8ebe 4227 993e
00000320: 4011 c33e 36e2 9cbe 346e c4bd 728d a1be
00000330: 5444 c3be 92f8 0bbe 6867 c53e 940e c8be
00000340: 8e03 d53e 283f 893d 4253 3abe e8a7 bc3d
00000350: 2018 8ebd 4e3c 0cbe 7860 3dbe a8ad bf3d
00000360: 670c a4be 184d 6e3e 52a4 07be b8de a8be
00000370: c6c8 13be 448d 40be ac48 a3be a8fd 8cbd
00000380: 56e1 a9be 8074 32bb 1d04 ddbe 8c86 b53e
00000390: 26b5 cc3e 0e4e 82be ba04 d3be 20c2 d63e
000003a0: 5242 89be 7423 213e ee98 843e 8e7f e1be
000003b0: 0c0f d4be 1c6b c7bd b05a be3e 7ce8 053e
000003c0: cc17 d63e 2256 c0be ca97 29be 8e77 a33e
000003d0: 5adb 95be 9d89 97be 76fd 8ebe 203f 8ebc
000003e0: bedd 5abe b471 0d3e 809c a93c 9c57 873e
000003f0: 1a9d 88be c099 e4bd b832 003e a41e c7be

lstm.weight_hh_l0 f4 [20, 5]
-0.2312466 0.15355873 0.25042832 0.22385594 0.43261176 -0.079157166 -0.05096388 -0.16215777
0.15003933 0.41011202 -0.18580249 0.104397714 -0.20278107 0.36119866 0.02451299 -0.4040384
-0.36520088 -0.3854883 0.14911568 0.09358481 0.10959017 0.26898745 -0.20351152 -0.3698822
0.21781749 -0.1689938 -0.43944603 -0.4270736 0.3651231 -0.04956326 -0.115885615 -0.17011741
0.17753804 0.14048064 -0.033369213 -0.00940007 -0.34218574 0.43444628 0.019559115 -0.03414768
-0.35487628 -0.037460953 0.16166538 0.21669257 -0.0385181 0.019088 0.33311394 -0.087515175
0.027960004 0.2351037 0.3768131 -0.3464967 -0.21152496 0.16764772 -0.0069438266 -0.27621818
0.27680314 -0.2227288 0.3398161 -0.28736684 0.24903744 -0.36158633 -0.38650846 0.42642987
-0.24798547 -0.07851954 0.31540123 -0.34809306 -0.1304032 0.2440962 0.28038865 0.43740678
0.093601525 0.29971987 -0.022098482 -0.19516645 -0.3571447 0.26888472 -0.29703814 -0.015779443
0.1378232 0.24717258 0.29555207 0.18290591 -0.17448296 0.36958098 0.3864348 -0.07639995
-0.27672213 -0.40500876 -0.3965634 0.19664602 0.1071257 -0.14951162 -0.33244076 0.21635878
-0.22010909 -0.3896611 -0.33567873 -0.05884432
00000000: e9cb 6cbe 803e 1d3e 2438 803e 7e3a 653e
00000010: 4a7f dd3e 271d a2bd 80bf 50bd b00c 26be
00000020: e9a3 193e 34fa d13e 0243 3ebe 78ce d53d
00000030: d7a5 4fbe 08ef b83e 77cf c83c 1fde cebe
00000040: 9cfb babe b95e c5be c8b1 183e 65a9 bf3d
00000050: d070 e03d b9b8 893e 5365 50be 3361 bdbe
00000060: 8c0b 5f3e b60c 2dbe 12ff e0be 64a9 dabe
00000070: 6af1 ba3e d802 4bbd 7055 edbd 4233 2ebe
00000080: 88cc 353e 28da 0f3e 28ae 08bd c002 1abc
00000090: f832 afbe be6f de3e 703a a03c 70de 0bbd
000000a0: 58b2 b5be a870 19bd 9c8b 253e a8e4 5d3e
000000b0: 28c5 1dbd 705e 9c3c e98d aa3e 283b b3bd
000000c0: 610c e53c 06bf 703e a6ed c03e 0468 b1be
000000d0: 009a 58be d8ab 2b3e 0a89 e3bb 786c 8dbe
000000e0: 24b9 8d3e 0513 64be 60fc ad3e bf21 93be
000000f0: ac03 7f3e d821 b9be 70e4 c5be 0455 da3e
00000100: e7ef 7dbe dace a0bd 457c a13e 4139 b2be
00000110: 6b88 05be 5bf4 793e 1a8f 8f3e c8f3 df3e
00000120: 28b2 bf3d e274 993e e007 b5bc b7d9 47be
00000130: acdb b6be 42ab 893e 6215 98be e443 81bc
00000140: 8621 0d3e cf1a 7d3e 9a52 973e b04b 3b3e
00000150: a9ab 32be b839 bd3e c8da c53e 9477 9cbd
00000160: 86ae 8dbe 4f5d cfbe 5c0a cbbe 935d 493e
00000170: b864 db3d 9319 19be ad35 aabe 288d 5d3e
00000180: 4764 61be a981 c7be 15de abbe be06 71bd

lstm.bias_ih_l0 f4 [20]
0.26753452 0.355124 0.17216933 0.3803822 0.24193636 -0.08424327 -0.39274955 0.4285162
-0.059786826 -0.19105889 -0.052562337 -0.08199623 -0.22087072 -0.17172076 -0.079328716 -0.22201823
0.11029608 -0.072024524 0.06589062 -0.0035356353
00000000: 49fa 883e d0d2 b53e 284d 303e 75c1 c23e
00000010: 2abe 773e bc87 acbd 7816 c9be 7a66 db3e
00000020: 08e3 74bd f1a4 43be 9b4b 57bd a4ed a7bd
00000030: ef2b 62be 91d7 2fbe 1877 a2bd bf58 63be
00000040: e9e2 e13d 9881 93bd a9f1 863d 1eb6 67bb

lstm.bias_hh_l0 f4 [20]
-0.39914647 0.0515425 -0.09213781 -0.097054675 0.32955799 -0.37021258 -0.2598943 -0.3101096
0.03183624 -0.2521723 -0.36389834 0.1458106 0.19010603 0.010726023 0.24552912 -0.41838643
-0.053325668 0.32408786 -0.015636446 0.21464136
00000000: ed5c ccbe 3a1e 533d c0b2 bcbd 9ac4 c6bd
00000010: d3bb a83e 818c bdbe de10 85be afc6 9ebe
00000020: b866 023d ba1c 81be e250 babe 604f 153e
00000030: 28ab 423e 34bc 2f3c fc6b 7b3e bf36 d6be
00000040: 046c 5abd d8ee a53e 0118 80bc f2ca 5b3e

linear.weight f4 [2, 5]
0.1537673 -0.38428092 -0.02497701 0.22060214 -0.41963106 -0.4400423 0.31324857 0.004954349
-0.14636604 0.42813817
00000000: 2d75 1d3e 78c0 c4be 969c ccbc 87e5 613e
00000010: e2d9 d6be 394d e1be 1e62 a03e 1758 a23b
00000020: fbe0 15be ed34 db3e

linear.bias f4 [2]
-0.105243735 0.11272129
00000000: 078a d7bd 6bda e63d

exp_avg f4 [20, 34]
-0.0015643013 -0.001922209 -0.00072084856 -0.0023404052 -0.0012725483 -0.00077313016 -0.00027185446 0.0
1.9222283e-05 -0.00038444562 -7.688914e-06 -0.00014070797 -0.0009225437 -0.0012878929 -0.0052476837 -0.00044211253
-0.001903006 -0.00013647822 -0.0020567842 -2.4988967e-05 -1.474514e-05 -0.005362745 -3.8444567e-05 -3.652234e-05
-4.6133486e-05 -7.112245e-05 -9.611141e-06 -4.3663786e-05 -0.00064682984 -0.00021144512 -0.0006247242 -0.00015185605
-0.0073586367 -0.0026911197 -2.0185478e-13 -1.9480682e-13 -7.221768e-14 -2.8323508e-13 -1.887488e-13 -1.6300162e-13
-4.7707796e-14 0.0 0.0 -5.7646955e-14 -7.951299e-16 -1.459063e-14 -9.342777e-14 -1.9679462e-13
-8.984971e-13 -1.7890425e-14 -1.7492861e-13 -1.1728164e-14 -2.2064855e-13 -1.3914775e-15 -9.939122e-16 -5.8243276e-13
-2.782955e-15 -3.7768695e-15 -7.553739e-15 -7.553739e-15 -2.782955e-15 -1.3914775e-15 -7.335073e-14 -2.4251456e-14
-5.2876147e-14 -2.3853898e-14 -2.4649022e-13 -5.9237196e-13 -9.3847775e-06 -1.5250126e-05 -5.7540774e-06 -2.2130629e-05
-1.1752928e-05 -7.225125e-06 -2.0431044e-06 0.0 -1.2729063e-06 -3.5004996e-06 -7.955692e-08 -1.1949434e-06
-6.5236577e-06 -1.559314e-05 -2.5458173e-06 -1.5911357e-05 -1.0342387e-05 -1.2569978e-06 -1.797984e-05 -3.9778385e-07
-7.955683e-08 -1.2410868e-05 -2.2275897e-07 -3.9778405e-07 -7.0009986e-07 -8.114793e-07 -7.955683e-08 -1.1137955e-07
-4.423359e-06 -1.5434022e-06 -4.8529687e-06 -1.75025e-06 -1.973009e-05 -2.5139969e-05 -1.5355405e-05 -1.2143969e-05
-4.745751e-06 -1.567628e-05 -1.1027338e-05 -9.068328e-06 -1.9444776e-06 0.0 1.5052141e-06 -1.631086e-06
-5.069397e-08 -9.182699e-07 -2.894157e-06 -1.2420074e-05 -5.670362e-05 -8.530222e-06 -1.1039956e-05 -7.4030675e-07
-1.41766905e-05 -4.767173e-07 -6.2731736e-08 -3.2993164e-05 -2.7600552e-07 -2.3834566e-07 -4.7666293e-07 -5.7702306e-07
-1.7563556e-07 -8.782204e-08 -5.6450467e-06 -1.9820857e-06 -3.3372125e-06 -1.1666939e-06 -1.5556583e-05 -3.2633777e-06
-1.6235756e-12 -1.5839626e-12 -5.856392e-13 -2.1290068e-12 -1.6538032e-12 -1.3398554e-12 -3.2481003e-13 0.0
6.335846e-14 -3.0095273e-13 -6.335848e-15 -1.1676262e-13 -5.1965344e-13 -1.5681228e-12 -3.5987612e-11 -4.7518863e-13
-2.5185e-12 -1.330528e-13 -1.7423588e-12 -1.1087735e-14 -7.919807e-15 -1.975655e-12 -3.098758e-14 -3.80151e-14
-9.503777e-14 -7.919812e-14 -1.2671696e-14 -3.5979988e-14 -5.1955174e-13 -1.8373973e-13 -4.7518863e-13 -1.2671691e-13
-3.4847175e-12 -1.9171034e-12 6.1836824e-20 4.5359043e-20 1.8202184e-20 6.05586e-20 3.6979478e-20 3.3939327e-20
1.3965786e-20 0.0 -2.5321818e-21 7.627934e-21 1.9090409e-22 3.5938364e-21 1.2479225e-20 4.8001873e-20
2.1218666e-19 3.223327e-20 4.266722e-20 3.425407e-21 5.3984967e-20 1.7814417e-21 2.5108655e-22 5.469496e-20
1.0768864e-21 8.344041e-22 8.162709e-22 1.3844342e-21 1.0175538e-21 3.8933981e-22 2.182353e-20 7.75976e-21
1.29618225e-20 3.479746e-21 6.179969e-20 1.9580006e-20 0.0 0.0 0.0 0.0
0.0 0.0 0.0 0.0 0.0 0.0 0.0 0.0
0.0 0.0 0.0 0.0 0.0 0.0 0.0 0.0
0.0 0.0 0.0 0.0 0.0 0.0 0.0 0.0
0.0 0.0 0.0 0.0 0.0 0.0 -1.9125843e-26 -2.3761301e-26
-9.23871e-27 -3.5471725e-26 -2.100287e-26 -1.3838836e-26 -6.103943e-27 0.0 -1.6658135e-27 -7.4051336e-27
-1.6403386e-28 -1.8476087e-27 -9.7959245e-27 -2.4143966e-26 -3.9418725e-27 -6.810403e-27 -1.6013856e-26 -2.6970124e-27
00000000: 3e09 cdba a2f2 fbba 54f7 3cba 7c61 19bb
00000010: a3cb a6ba e3ab 4aba b087 8eb9 0000 0000
00000020: 8a3f a137 6b8f c9b9 a2ff 00b7 028b 13b9
00000030: dcd6 71ba 84ce a8ba c3f4 abbb 57cb e7b9
00000040: 496e f9ba 981b 0fb9 1dcb 06bb 669f d1b7
00000050: e561 77b7 f7b9 afbb 8a3f 21b8 902f 19b8
00000060: 747f 41b8 9327 95b8 893f 21b7 a223 37b8
00000070: 0490 29ba 5eb7 5db9 88c4 23ba 8c3b 1fb9
00000080: b820 f1bb 7f5d 30bb ae44 63aa 3e55 5baa
00000090: a89e a2a9 7a72 9faa 2383 54aa 0586 37aa
000000a0: 58db 56a9 0000 0000 0000 0000 35cf 81a9
000000b0: 3b2e 65a6 b46b 83a8 7161 d2a9 3092 5daa
000000c0: 8ae7 7cab 8324 a1a8 bdf3 44aa 9c46 53a8
000000d0: 9d6d 78aa 7588 c8a6 e33c 8fa6 b4f0 23ab
000000e0: 7588 48a7 7913 88a7 7913 08a8 7913 08a8
000000f0: 7588 48a7 7588 c8a6 d12b a5a9 0d70 daa8
00000100: 0c22 6ea9 58db d6a8 fcc2 8aaa e6bc 26ab
00000110: 5073 1db7 cbda 7fb7 2613 c1b6 2aa5 b9b7
00000120: 712e 45b7 5a6f f2b6 441c 09b6 0000 0000
00000130: bad8 aab5 20ea 6ab6 e1d8 aab3 f161 a0b5
00000140: cbe5 dab6 03ce 82b7 cfd8 2ab6 6179 85b7
00000150: 3784 2db7 1eb6 a8b5 6ad3 96b7 ff8e d5b4
00000160: d4d8 aab3 4638 50b7 852f 6fb4 068f d5b4
00000170: 7fee 3bb5 6fd4 59b5 d4d8 aab3 8e2f efb3
00000180: 5d6c 94b6 e526 cfb5 afd6 a2b6 22ea eab5
00000190: 0c82 a5b7 ace3 d2b7 7bcf 80b7 f3bd 4bb7
000001a0: b13d 9fb6 8e80 83b7 0e02 39b7 2c24 18b7
000001b0: df7d 02b6 0000 0000 c306 ca35 b0eb dab5
000001c0: 9cba 59b3 077f 76b5 3d39 42b6 d05f 50b7
000001d0: 0cd5 6db8 061d 0fb7 4038 39b7 7eb9 46b5
000001e0: 6cd8 6db7 87ef ffb4 23b7 86b3 2462 0ab8
000001f0: e92d 94b4 f5eb 7fb4 0ee8 ffb4 b9e4 1ab5
00000200: 5696 3cb4 ad98 bcb3 956a bdb6 f903 05b6
00000210: e0f4 5fb6 4c97 9cb5 827f 82b7 6700 5bb6
00000220: 7a7f e4ab 44ec deab c0d7 24ab c7d0 15ac
00000230: 8ac0 e8ab 6191 bcab 0fda b6aa 0000 0000
00000240: aaab 8e29 dc6b a9aa e245 e4a7 8976 03aa
00000250: fa44 12ab 94b1 dcab 7346 1eae f3c0 05ab
00000260: 4339 31ac dccd 15aa 1737 f5ab 27bd 47a8
00000270: aaab 0ea8 3d06 0bac 3f8e 0ba9 6d34 2ba9
00000280: 8b01 d6a9 9c56 b2a9 e245 64a8 1a0a 22a9
00000290: a63d 12ab 5fdf 4eaa f3c0 05ab aaab 0eaa
000002a0: 1737 75ac 77e7 06ac 1102 921f b833 561f
000002b0: 2eea ab1e 6dfd 8e1f 72a1 2e1f 2146 201f
000002c0: 33e7 831e 0000 0000 8553 3f9d 6d16 101e
000002d0: f4c9 661b 74c5 871d d4b9 6b1e b4ae 621f
000002e0: 7c81 7a20 a237 181f 817d 491f 8168 811d
000002f0: d2ef 7e1f 189a 061d c3c5 971b 1325 811f
00000300: 06bc a21c e42e 7c1c e7b3 761c b435 d11c
00000310: b5c4 991c 6b57 eb1b 0f1e ce1e e693 121e
00000320: 87d7 741e 0a76 831d 9feb 911f 8ded b81e
00000330: 0000 0000 0000 0000 0000 0000 0000 0000
00000340: 0000 0000 0000 0000 0000 0000 0000 0000
00000350: 0000 0000 0000 0000 0000 0000 0000 0000
00000360: 0000 0000 0000 0000 0000 0000 0000 0000
00000370: 0000 0000 0000 0000 0000 0000 0000 0000
00000380: 0000 0000 0000 0000 0000 0000 0000 0000
00000390: 0000 0000 0000 0000 0000 0000 0000 0000
000003a0: 0000 0000 0000 0000 0000 0000 0000 0000
000003b0: 0000 0000 0000 0000 c669 bd94 0e52 eb94
000003c0: d3fd 3694 c1a5 2f95 9a00 d094 9e0d 8994
000003d0: 56cd f193 0000 0000 b6fa 0393 7dac 1294
000003e0: 08f0 4f91 f561 1293 3d07 4294 3a1c ef94
000003f0: 5627 9c93 d9e4 0694 f397 9e94 e9ad 5593

exp_avg_sq f4 [20, 34]
1.1271812e-06 1.7021304e-06 2.3937335e-07 2.5228192e-06 7.4586836e-07 2.7529674e-07 3.4042277e-08 0.0
1.7021644e-10 6.808657e-08 2.7234619e-11 9.120713e-09 3.9207328e-07 7.641014e-07 1.26860605e-05 9.004449e-08
1.6682912e-06 8.580609e-09 1.9488075e-06 2.8766572e-10 1.00158805e-10 1.324849e-05 6.8086575e-10 6.144813e-10
9.804465e-10 2.330263e-09 4.255411e-11 8.782825e-10 1.9273995e-07 2.0596183e-08 1.7979109e-07 1.0623209e-08
2.4945153e-05 3.3362414e-06 2.288034e-15 2.1310445e-15 2.9286762e-16 4.5048287e-15 2.000566e-15 1.4919974e-15
1.2780946e-16 0.0 0.0 1.8661065e-16 3.5502615e-20 1.1954532e-17 4.901582e-16 2.1747573e-15
4.5333312e-14 1.7973205e-17 1.7183281e-15 7.724044e-18 2.7339253e-15 1.0872675e-19 5.5472845e-20 1.9049151e-14
4.34907e-19 8.0102816e-19 3.2041126e-18 3.2041126e-18 4.34907e-19 1.0872675e-19 3.0212948e-16 3.30263e-17
1.570015e-16 3.1952366e-17 3.4118023e-15 1.9704843e-14 2.3022597e-09 5.78417e-09 8.267776e-10 1.4237732e-08
4.106767e-09 1.4364262e-09 1.0037265e-10 0.0 4.0552263e-11 3.0667688e-10 1.5840751e-13 3.5736795e-11
1.0651314e-09 6.085382e-09 1.6220918e-10 6.336298e-09 2.6770868e-09 3.954483e-11 8.090812e-09 3.960186e-12
1.5840745e-13 3.8550048e-09 1.2419146e-12 3.960186e-12 1.226708e-11 1.64807e-11 1.5840745e-13 3.1047867e-13
4.896945e-10 5.961822e-11 5.8943445e-10 7.6669227e-11 9.742697e-09 1.5817944e-08 1.4239313e-06 5.923991e-07
9.063869e-08 1.2548247e-06 5.820707e-07 4.1110354e-07 5.7715695e-08 0.0 8.9598995e-09 1.0973106e-08
5.6728157e-11 3.377863e-09 6.295354e-08 6.284046e-07 1.3099233e-05 2.9321149e-07 4.9651703e-07 2.3017244e-09
8.218199e-07 9.267403e-10 1.6029098e-11 4.4104963e-06 3.103232e-10 2.2778956e-10 9.006226e-10 1.3242308e-09
1.2566805e-10 3.141701e-11 1.2791669e-07 1.5849537e-08 4.5467814e-08 5.5099747e-09 9.858525e-07 4.742128e-08
3.410092e-14 3.2457127e-14 4.436915e-15 5.863735e-14 3.5382494e-14 2.3223973e-14 1.3648336e-15 0.0
5.1931438e-17 1.1717029e-15 5.193146e-19 1.7637134e-16 3.4933993e-15 3.181125e-14 1.6754334e-11 2.9211439e-15
8.205494e-14 2.2901767e-16 3.9273154e-14 1.5904005e-18 8.114287e-19 5.0494436e-14 1.2422137e-17 1.869531e-17
1.1684577e-16 8.114288e-17 2.0772583e-18 1.6747233e-17 3.4920312e-15 4.3674358e-16 2.9211439e-15 2.0772575e-16
1.5709261e-13 4.7545748e-14 2.3177652e-38 1.171335e-38 1.909125e-39 2.059981e-38 7.437223e-39 6.428576e-39
1.172085e-39 0.0 4.8705e-41 3.05029e-40 2.28e-43 7.4106e-41 8.46506e-40 1.3262284e-38
2.7633635e-37 6.816782e-39 1.047884e-38 6.6342e-41 1.6676721e-38 2.0563e-41 3.67e-43 1.7551989e-38
6.541e-42 3.908e-42 3.472e-42 1.0626e-41 2.777e-42 7e-43 2.861076e-39 3.63697e-40
9.01454e-40 7.0275e-41 2.0818805e-38 1.766879e-39 0.0 0.0 0.0 0.0
0.0 0.0 0.0 0.0 0.0 0.0 0.0 0.0
0.0 0.0 0.0 0.0 0.0 0.0 0.0 0.0
0.0 0.0 0.0 0.0 0.0 0.0 0.0 0.0
0.0 0.0 0.0 0.0 0.0 0.0 0.0 0.0
0.0 0.0 0.0 0.0 0.0 0.0 0.0 0.0
0.0 0.0 0.0 0.0 0.0 0.0 0.0 0.0
00000000: a749 9735 c174 e435 3983 8034 b44d 2936
00000010: af37 4835 7fcc 9334 e135 1233 0000 0000
00000020: ab27 3b2f fd36 9233 e98e ef2d 52b1 1c32
00000030: 247e d234 a61c 4d35 37d6 5437 7b5e c133
00000040: 0dea df35 eb69 1332 42c8 0236 5a25 9e2f
00000050: 6540 dc2e d545 5e37 ab27 3b30 47e8 2830
00000060: 65c0 8630 6c22 2031 ab27 3b2e a36b 7130
00000070: f4f3 4e34 7ceb b032 990c 4134 5e81 3632
00000080: 4f41 d137 31e4 5f36 c7de 2427 d58e 1927
00000090: a2d3 a825 b64d a227 ee27 1027 fd04 d726
000000a0: b25a 1325 0000 0000 0000 0000 be25 5725
000000b0: 07a8 271f ae85 5c23 4b47 0d26 31b5 1c27
000000c0: c029 4c29 08c6 a523 1ea3 f726 c47b 0e23
000000d0: 0500 4527 a55c 0020 47fb 821f 5a94 ab28
000000e0: a55c 0021 fa6b 6c21 fa6b 6c22 fa6b 6c22
000000f0: a55c 0021 a55c 0020 712a ae25 934e 1824
00000100: aa02 3525 b25a 1324 a5d8 7527 467c b128
00000110: c835 1e31 19be c631 4d43 6330 359a 7432
00000120: 811b 8d31 c16b c530 c7b8 dc2e 0000 0000
00000130: ca59 322e ef98 a82f db59 322a 0e2c 1d2e
00000140: fb63 9230 9617 d131 d359 322f abb6 d931
00000150: cff7 3731 85eb 2d2e c4ff 0a32 2f56 8b2c
00000160: d759 322a fb74 8431 b0c8 ae2b 2f56 8b2c
00000170: 04ce 572d 3df7 902d d759 322a b1c8 ae2a
00000180: 309b 0630 131a 832e c305 2230 f098 a82e
00000190: d660 2732 07e0 8732 e81d bf35 5b05 1f35
000001a0: 26a5 c233 736b a835 983f 1c35 a4b5 dc34
000001b0: 14e3 7733 0000 0000 0eee 1932 3b84 3c32
000001c0: 3a7e 792e ff1f 6831 1331 8733 a3af 2835
000001d0: c7c4 5b37 ae6a 9d34 6448 0535 5d2c 1e31
000001e0: 099b 5c35 8dbd 7e30 52fe 8c2d e0fd 9336
000001f0: 1c9a aa2f 1075 7a2f ae8f 7730 3b00 b630
00000200: 692c 0a2f 692c 0a2e 7959 0934 8025 8832
00000210: 6448 4333 4052 bd31 a251 8435 40ac 4b33
00000220: af93 1929 852c 1229 51db 9f27 220a 8429
00000230: 3d59 1f29 d62e d128 79b1 c426 0000 0000
00000240: d27d 6f24 35dc a826 4d46 1921 a257 4b25
00000250: d8b9 7b27 e043 0f29 685f 932d 987d 5227
00000260: 74c5 b829 0b05 8425 ddde 3029 a2b3 ea21
00000270: d27d 6f21 1f68 6329 e225 6523 0d6f ac23
00000280: c9b6 0625 4d1a bb24 4d46 1922 4977 9a23
00000290: 9ba0 7b27 fac3 fb25 987d 5227 d27d 6f25
000002a0: ddde 302a 8420 5629 dd61 fc00 0e8c 7f00
000002b0: ddc9 1400 e44f e000 f4fb 5000 4100 4600
000002c0: 4cc3 0c00 0000 0000 c587 0000 4c52 0300
000002d0: a300 0000 94ce 0000 b737 0900 da69 9000
000002e0: 9510 bc02 6a3a 4a00 be1a 7200 efb8 0000
000002f0: ea97 b500 5239 0000 0601 0000 ce1f bf00
00000300: 3c12 0000 e50a 0000 ae09 0000 9f1d 0000
00000310: be07 0000 f401 0000 8427 1f00 d7f5 0300
00000320: e3d0 0900 e6c3 0000 5cb2 e200 573d 1300
00000330: 0000 0000 0000 0000 0000 0000 0000 0000
00000340: 0000 0000 0000 0000 0000 0000 0000 0000
00000350: 0000 0000 0000 0000 0000 0000 0000 0000
00000360: 0000 0000 0000 0000 0000 0000 0000 0000
00000370: 0000 0000 0000 0000 0000 0000 0000 0000
00000380: 0000 0000 0000 0000 0000 0000 0000 0000
00000390: 0000 0000 0000 0000 0000 0000 0000 0000
000003a0: 0000 0000 0000 0000 0000 0000 0000 0000
000003b0: 0000 0000 0000 0000 0000 0000 0000 0000
000003c0: 0000 0000 0000 0000 0000 0000 0000 0000
000003d0: 0000 0000 0000 0000 0000 0000 0000 0000
000003e0: 0000 0000 0000 0000 0000 0000 0000 0000
000003f0: 0000 0000 0000 0000 0000 0000 0000 0000

exp_avg f4 [20, 5]
-3.6545208e-07 0.0 -3.23761e-29 -1.4639579e-05 1.503201e-05 1.5139162e-15 7.9429694e-17 0.0
-1.4769085e-19 1.3824863e-34 4.98242e-37 0.0 1.12737986e-07 -2.5744942e-18 1.1179726e-07 9.522784e-08
9.522784e-08 2.0542618e-24 -9.506409e-08 1.2483848e-07 1.2063369e-14 1.2063369e-14 0.0 1.2063369e-14
1.2063288e-14 -3.6949437e-22 -3.457264e-22 -2.419e-42 -3.1808099e-22 -3.7003168e-22 0.0 0.0
0.0 0.0 0.0 0.0 0.0 0.0 0.0 0.0
0.0 0.0 0.0 0.0 0.0 -1.5234865e-06 1.0296571e-11 4.4245923e-21
-0.00014294958 0.0001744991 -2.1404281e-08 0.0 0.0 -1.7916877e-06 1.9457807e-06 0.0
0.0 0.0 0.0 0.0 0.0 0.0 0.0 0.0
0.0 7.6144984e-12 7.614488e-12 0.0 7.614488e-12 7.614488e-12 0.0 0.0
0.0 0.0 0.0 -9.816666e-08 0.0 -1.323768e-27 -3.953699e-06 4.0499513e-06
1.5367415e-05 1.4954736e-05 0.0 -1.404295e-05 1.5362717e-05 0.0 0.0 0.0
-1.934132e-33 1.932491e-33 7.893734e-06 1.467104e-07 2.5035318e-20 -0.00018646818 0.0002091066 1.9323552e-06
1.932329e-06 3.9194132e-05 -0.0002886387 0.00035121123
00000000: 5a33 c4b4 0000 0000 952a 2490 839c 75b7
00000010: fe31 7c37 a62d da26 0427 b724 0000 0000
00000020: d25c 2ea0 92c3 3707 008b 2903 0000 0000
00000030: 5d1a f233 d2f6 3da2 3215 f033 0f80 cc33
00000040: 0f80 cc33 d9f0 1e18 0926 ccb3 570b 0634
00000050: 7850 5928 7850 5928 0000 0000 7850 5928
00000060: 1950 5928 7c58 df9b 92fa d09b be06 0080
00000070: a644 c09b a1ab df9b 0000 0000 0000 0000
00000080: 0000 0000 0000 0000 0000 0000 0000 0000
00000090: 0000 0000 0000 0000 0000 0000 0000 0000
000000a0: 0000 0000 0000 0000 0000 0000 0000 0000
000000b0: 0000 0000 997a ccb5 a223 352d 0828 a71d
000000c0: bce4 15b9 bff9 3639 83dc b7b2 0000 0000
000000d0: 0000 0000 ec79 f0b5 4294 0236 0000 0000
000000e0: 0000 0000 0000 0000 0000 0000 0000 0000
000000f0: 0000 0000 0000 0000 0000 0000 0000 0000
00000100: 0000 0000 a7f4 052d 9bf4 052d 0000 0000
00000110: 9bf4 052d 9bf4 052d 0000 0000 0000 0000
00000120: 0000 0000 0000 0000 0000 0000 b1cf d2b3
00000130: 0000 0000 69c2 d192 04aa 84b6 d1e4 8736
00000140: 46e9 8037 1ae6 7a37 0000 0000 039a 6bb7
00000150: 2fdf 8037 0000 0000 0000 0000 0000 0000
00000160: 70ae 2089 8a8b 2009 546f 0437 7387 1d34
00000170: af73 ec1e ac86 43b9 a043 5b39 9cad 0136
00000180: 29ad 0136 6164 2438 6e54 97b9 c622 b839

exp_avg_sq f4 [20, 5]
5.855535e-14 0.0 0.0 9.872991e-11 1.03940946e-10 1.2870261e-19 3.5428256e-22 0.0
1.2248734e-27 0.0 0.0 0.0 3.74876e-13 7.1725065e-36 7.038458e-14 1.7313794e-11
1.7313794e-11 0.0 4.8758562e-12 2.1763373e-13 1.8825988e-18 1.8825988e-18 0.0 1.8825988e-18
1.8825758e-18 8.03e-43 8.03e-43 0.0 7.89e-43 8.14e-43 0.0 0.0
0.0 0.0 0.0 0.0 0.0 0.0 0.0 0.0
0.0 0.0 0.0 0.0 0.0 6.831957e-12 5.7974407e-12 5.5727e-41
3.4524177e-09 5.15186e-09 2.1050362e-16 0.0 0.0 1.7277492e-12 1.9964538e-12 0.0
0.0 0.0 0.0 0.0 0.0 0.0 0.0 0.0
0.0 3.1703971e-22 3.1212023e-22 0.0 3.1212023e-22 3.1212023e-22 0.0 0.0
0.0 0.0 0.0 4.2750333e-15 0.0 0.0 7.356937e-12 7.704635e-12
3.1314826e-10 2.287412e-10 0.0 1.9734286e-10 3.0955657e-10 0.0 0.0 0.0
0.0 0.0 3.5101677e-10 1.0372707e-11 3.138495e-39 9.154311e-09 1.5812944e-08 1.3206417e-09
1.3206416e-09 9.082988e-09 3.672204e-08 4.101016e-08
00000000: dcda 8329 0000 0000 0000 0000 001c d92e
00000010: 8d91 e42e faf1 1720 9226 d61b 0000 0000
00000020: c516 c212 0000 0000 0000 0000 0000 0000
00000030: 5309 d32a d78a 1805 f37d 9e29 334b 982d
00000040: 334b 982d 0000 0000 cf8d ab2c a708 752a
00000050: 49e9 0a22 49e9 0a22 0000 0000 49e9 0a22
00000060: dae8 0a22 3d02 0000 3d02 0000 0000 0000
00000070: 3302 0000 4502 0000 0000 0000 0000 0000
00000080: 0000 0000 0000 0000 0000 0000 0000 0000
00000090: 0000 0000 0000 0000 0000 0000 0000 0000
000000a0: 0000 0000 0000 0000 0000 0000 0000 0000
000000b0: 0000 0000 cc60 f02c b4fa cb2c 589b 0000
000000c0: 933f 6d31 3d04 b131 b4b1 7225 0000 0000
000000d0: 0000 0000 ba28 f32b ea7c 0c2c 0000 0000
000000e0: 0000 0000 0000 0000 0000 0000 0000 0000
000000f0: 0000 0000 0000 0000 0000 0000 0000 0000
00000100: 0000 0000 85a3 bf1b 44aa bc1b 0000 0000
00000110: 44aa bc1b 44aa bc1b 0000 0000 0000 0000
00000120: 0000 0000 0000 0000 0000 0000 3906 9a27
00000130: 0000 0000 0000 0000 b36c 012d 978a 072d
00000140: b327 ac2f ed80 7b2f 0000 0000 14fb 582f
00000150: 372e aa2f 0000 0000 0000 0000 0000 0000
00000160: 0000 0000 0000 0000 38f9 c02f 857a 362d
00000170: d92c 2200 1645 1d32 08d5 8732 f381 b530
00000180: f281 b530 670b 1c32 4fb8 1d33 2623 3033

exp_avg f4 [20]
-1.9222283e-05 -1.9878243e-15 -1.5911365e-07 -1.2545532e-07 -1.5839626e-14 4.8518667e-22 0.0 -2.4636703e-28
0.0 -0.00020146293 -2.352549e-06 0.0 4.2563765e-29 -9.998206e-12 0.0 -5.191347e-06
-2.017796e-05 -2.5395837e-33 -0.00047780934 -0.00060403673
00000000: 8a3f a1b7 e33c 0fa7 d4d8 2ab4 e5b4 06b4
00000010: b1ab 8ea8 80a3 121c 0000 0000 5627 9c91
00000020: 0000 0000 cb3f 53b9 7ce0 1db6 0000 0000
00000030: edd2 5710 ebe3 2fad 0000 0000 5531 aeb6
00000040: d743 a9b7 f9fa 5289 7c82 fab9 3858 1eba

exp_avg_sq f4 [20]
1.7021644e-10 2.2189138e-19 6.336297e-13 6.411639e-11 3.2457155e-18 1.338e-42 0.0 0.0
0.0 7.0234254e-09 2.9787466e-12 0.0 0.0 1.2895887e-21 0.0 1.2683811e-11
5.3988686e-10 0.0 6.9257304e-08 1.3125116e-07
00000000: ab27 3b2f 47fb 8220 d559 322b 52fe 8c2e
00000010: d57d 6f22 bb03 0000 0000 0000 0000 0000
00000020: 0000 0000 b452 f131 549c 512c 0000 0000
00000030: 0000 0000 8ce0 c21c 0000 0000 ce22 5f2d
00000040: 2967 1430 0000 0000 9bba 9433 0bee 0c34

exp_avg f4 [20]
-1.9222285e-05 -1.9878243e-15 -1.5911365e-07 -1.2545532e-07 -1.5839626e-14 4.8518667e-22 0.0 -2.4636703e-28
0.0 -0.00020146293 -2.3525488e-06 0.0 4.2563765e-29 -9.998206e-12 0.0 -5.191347e-06
-2.0177962e-05 -2.5395837e-33 -0.00047780934 -0.00060403673
00000000: 8b3f a1b7 e33c 0fa7 d4d8 2ab4 e5b4 06b4
00000010: b1ab 8ea8 80a3 121c 0000 0000 5627 9c91
00000020: 0000 0000 cb3f 53b9 7be0 1db6 0000 0000
00000030: edd2 5710 ebe3 2fad 0000 0000 5531 aeb6
00000040: d843 a9b7 f9fa 5289 7c82 fab9 3858 1eba

exp_avg_sq f4 [20]
1.7021645e-10 2.2189138e-19 6.336297e-13 6.4116414e-11 3.2457155e-18 1.338e-42 0.0 0.0
0.0 7.0234254e-09 2.9787466e-12 0.0 0.0 1.2895887e-21 0.0 1.26838115e-11
5.398869e-10 0.0 6.925731e-08 1.3125117e-07
00000000: ac27 3b2f 47fb 8220 d559 322b 55fe 8c2e
00000010: d57d 6f22 bb03 0000 0000 0000 0000 0000
00000020: 0000 0000 b452 f131 549c 512c 0000 0000
00000030: 0000 0000 8ce0 c21c 0000 0000 cf22 5f2d
00000040: 2a67 1430 0000 0000 9cba 9433 0cee 0c34

exp_avg f4 [2, 5]
0.006339397 0.0040182825 0.0005791601 -0.10030464 0.115858436 -0.006339397 -0.0040182825 -0.0005791601
0.10030464 -0.115858436
00000000: b7ba cf3b ccab 833b c7d2 173a 856c cdbd
00000010: 3047 ed3d b7ba cfbb ccab 83bb c7d2 17ba
00000020: 856c cd3d 3047 edbd

exp_avg_sq f4 [2, 5]
3.234734e-05 1.4820171e-05 2.3393086e-06 0.0012965368 0.001695031 3.234734e-05 1.4820171e-05 2.3393086e-06
0.0012965366 0.0016950308
00000000: b1ac 0738 26a4 7837 04fd 1c36 8ef0 a93a
00000010: cd2b de3a b1ac 0738 26a4 7837 04fd 1c36
00000020: 8df0 a93a cc2b de3a

exp_avg f4 [2]
-0.43194506 0.43194506
00000000: e727 ddbe e727 dd3e

exp_avg_sq f4 [2]
0.023925569 0.023925569
00000000: 8eff c33c 8eff c33c
