MimicApp/lightning_logs/version_40/checkpoints/epoch=9-step=99.ckpt (torch, 15916 bytes, 18 tensors)

lstm.weight_ih_l0 f4 [20, 34]
00000000: 7792 cf3e 92cc 60be 5258 9a3e 7beb ba3e
00000010: 7397 4e3e ee81 95be 60a5 1abe 128b 8a3e
00000020: cf6d a93e 249a 203e 7170 60be 3347 06be
00000030: 31a6 89be e7c5 7f3e 5eb5 a0bd 749a d83e
00000040: 90c4 023e 3122 ee3d e8c3 cb3e a560 983d
00000050: 92fc 29be 4105 8cbe c3b7 0c3d 13fb 40be
00000060: c1fc cabd eb48 47be b17c 22be c5f7 36be
00000070: da3e ca3a 1087 d53d 58f2 4d3e 568d 163d
00000080: 2ca0 803e df53 35be da8e c3be 51c0 efbd
00000090: 2aab c1bd ff1b 193d 07b3 0dbd 299f cd3e
000000a0: 365d 32be ed6e 96be bba8 943e 0c22 89bc
000000b0: 71c6 47be c7d2 65be 35b4 eebe 5e2e 1e3e
000000c0: ca39 dbbe a3d5 8abe 9621 93be 4a85 bf3e
000000d0: f9c6 713e 5c00 b33e 512d 063d 2c5a b53e
000000e0: 934e 2fbe 1c92 8d3b cd29 f8be 8ea5 5e3d
000000f0: 8be1 afbe 9e18 5f3e d15c 42be b3f6 4cbe
00000100: 7f98 e5be 7775 79be f773 1c3e 6da7 c03e
00000110: f574 2bbe dc6a 9e3e 04cd 283e 8a94 d33e
00000120: c806 da3d 6900 993d 10a6 36be e625 c6be
00000130: 1094 b03e edc1 ab3d a268 9dbe 4dae 4e3e
00000140: 4168 f93d 4d55 ae3d bd37 3d3e 6d19 b0be
00000150: dc8f b6be 00a6 c5be 12ea a03e b4ac c8bd
00000160: c148 4c3e 35e1 173e 89f4 6ebe ff96 e03d
00000170: 4083 a4be 2f65 99be 899f a63d a907 1fbe
00000180: a8b8 bfbd d2fb c0be 29e5 e73e 4ff6 3ebe
00000190: c631 3e3b 6b48 77be 99eb 37bd 69f3 543e
000001a0: 5962 b3be e18b 983e d37d f03d 0a24 53be
000001b0: 2e67 293d 90ef ad3d cbb0 da3e 0176 d5bd
000001c0: efea f8bb 06f9 2f3d 9443 8abe 3e5a 643e
000001d0: 1d08 343d fd66 fcbd 762f b5be b7c5 093e
000001e0: 2d81 b0be 3f41 cabe 8675 d5be 5b2c 593e
000001f0: d703 cabe acf5 a23e ff01 773d af2b 3e3e
00000200: 5418 c53e 692b aebe 6b72 903c 678b 31be
00000210: 4327 acbe 0cfe b63d 04b5 9bbe 0478 abbe
00000220: 98f5 05be 5060 7abb 1bd4 4fbe e225 6abe
00000230: 0173 cdbd d372 063e 6a32 afbe 1a50 a93e
00000240: 3fb2 7f3e 30b1 24be 1d22 20be 1463 1ebd
00000250: 7ef0 80be db96 fb3e 06d4 1ebe a11c b23e
00000260: a943 96be 0065 1f3e 6c7f 423d 01f7 32be
00000270: c087 b7bd 2584 f7bd a320 a23e f388 3b3e
00000280: d329 0b3e 63bc 7cbe bde6 ab3d 0a22 b2be
00000290: 266f 81be 0b3a f13d c2c6 c33e 6a88 083e
000002a0: 146b 2bbe 6145 903e d001 613e 5c76 c4be
000002b0: 516c 4e3e 97df dbbe ac64 8b3e 5b1e be3e
000002c0: a427 0dbe 6077 3c3e 4338 a4be bd1b 45be
000002d0: cf7e 3c3e 0aeb aebe 90e6 c6be 535d 5d3e
000002e0: 2bd9 c43e cc20 1e3e ecb0 803e b814 943e
000002f0: 6887 b4be 41d4 72be b38b 703e 0f34 443e
00000300: 3067 363e 5dbc 57bd 86f8 b23e 55c6 b33c
00000310: 70eb 3fbe a853 413d 11c0 c23e 5528 adbe
00000320: 8bb6 8c3e aadc 983d 4e0e a13d 23f5 323e
00000330: bcaf d53d 3a10 91bd b53c 96bd 67b4 6ebe
00000340: f341 d6bd 75bc 9c3e dc04 aebe 8056 e3bd
00000350: 1058 4abe 8926 bebd 627a 0abe 5ccf 28bd
00000360: 0322 efbe 0670 17be c949 97be 3ac7 b43d
00000370: d78e b0be bfd6 a7bd 3a6c eabe 7e8e c5bd
00000380: c850 d8bd a3e4 343e 7d92 af3e 6232 4dbe
00000390: b154 42be 1f71 c2be 4a21 983d 66b0 4c3d
000003a0: 2888 cf3e a054 16be de61 bd3e df22 bebd
000003b0: e693 d33e 6d7c 83be 7b7c 55be e9a9 613e
000003c0: 9391 32be 894c 88bc 0cb5 d63e e6ab 963e
000003d0: fd8e fa3e f896 a33e 0300 c8bc 62bb 18be
000003e0: fe22 19be 0120 013f a90d 2e3e 2bfe adbe
000003f0: b427 acbe f36e 26be 62ee b03e eca7 6e3e
0.4054143 -0.21953037 0.30145508 0.36507782 0.20174961 -0.2920069 -0.15102148 0.27059227
0.3309159 0.156838 -0.21917893 -0.13113098 -0.26884606 0.24977838 -0.07847093 0.42305338
0.12770295 0.11627615 0.39797902 0.074403085 -0.16600254 -0.27347758 0.034354936 -0.18845777
-0.0991149 -0.1946141 -0.15867878 -0.17867954 0.0015430108 0.10426152 0.20111978 0.036755882
0.251222 -0.17707776 -0.38194925 -0.11706603 -0.09456475 0.037380215 -0.034594562 0.40160492
-0.1741837 -0.29381505 0.2903498 -0.016739868 -0.19509293 -0.22443686 -0.46621862 0.15447375
-0.42817527 -0.27116117 -0.28736562 0.3740638 0.23611058 0.34961212 0.03275806 0.35420358
-0.17119817 0.004320396 -0.4846939 0.054357104 -0.34351763 0.21786734 -0.18980719 -0.20015983
-0.44842908 -0.24361216 0.15278612 0.37627736 -0.16743834 0.30940902 0.16484457 0.41324264
0.10645825 0.07470781 -0.17836785 -0.3870079 0.34487963 0.08386598 -0.3074389 0.20183678
0.12178088 0.085123636 0.18478294 -0.34394398 -0.3565663 -0.3860321 0.3142858 -0.097985655
0.19949628 0.14832003 -0.2333547 0.109663 -0.32131386 -0.2996001 0.08135898 -0.15530266
-0.09361392 -0.37692124 0.45292023 -0.18648647 0.0029021366 -0.24148719 -0.044902418 0.20795979
-0.3503597 0.2979422 0.11742749 -0.20619217 0.041358165 0.084929585 0.42713007 -0.10422898
-0.0075963656 0.042962097 -0.27004683 0.2230005 0.04395305 -0.12324331 -0.35387772 0.13454328
-0.34473553 -0.39502904 -0.41691226 0.21208327 -0.39456055 0.31828058 0.060304638 0.18571351
0.38495123 -0.34017494 0.017632684 -0.17338334 -0.33623704 0.08935174 -0.3041154 -0.33490002
-0.13081968 -0.003820438 -0.20295756 -0.22866014 -0.10031701 0.1312974 -0.3421815 0.33068925
0.24970339 -0.16083217 -0.15638013 -0.038668707 -0.2518348 0.4913853 -0.15510568 0.34787467
-0.29348496 0.15565872 0.0474848 -0.17477037 -0.08961439 -0.120857514 0.31665525 0.1831396
0.13590173 -0.24681239 0.08393619 -0.34791595 -0.25280112 0.11778649 0.38237578 0.13333288
-0.16740066 0.28177932 0.21973348 -0.3837155 0.20158507 -0.42944023 0.27225244 0.37132534
-0.13784653 0.18404913 -0.32074174 -0.19248863 0.18407749 -0.34163696 -0.3884778 0.21617632
0.38446936 0.15442199 0.2513498 0.28922057 -0.35259557 -0.23713781 0.23490791 0.19160484
0.178128 -0.05266987 0.34955233 0.021945158 -0.18742156 0.04719892 0.3803716 -0.33819833
0.2748302 0.07463963 0.078640565 0.17476325 0.10433909 -0.07083173 -0.07335798 -0.23311006
-0.104617976 0.3061253 -0.33988082 -0.11100483 -0.19760156 -0.09284694 -0.13523248 -0.04121338
-0.46705636 -0.14788827 -0.2954848 0.08827062 -0.34483978 -0.081952564 -0.45785695 -0.09646319
-0.10562283 0.17665343 0.3429145 -0.20038751 -0.1897762 -0.3797693 0.074282244 0.049972914
0.40533566 -0.1468072 0.3698873 -0.09283995 0.41323775 -0.25680867 -0.20848267 0.22037472
-0.17438345 -0.016638057 0.41935003 0.29428023 0.48937216 0.31951118 -0.024414068 -0.14915231
-0.14954755 0.5043946 0.16997398 -0.33982977 -0.3362404 -0.16253261 0.34556872 0.23306245

lstm.weight_hh_l0 f4 [20, 5]
00000000: 748c e93d 4a05 2fbe 2039 52be fde1 be3d
00000010: 0ea7 85be 8973 063d 8946 83be 1e62 36be
00000020: d0b6 e93d a247 cbbe 000b bd3e 1e0b b83e
00000030: 7150 c63e d86a 263e 911b dfbd 6f7c b8be
00000040: 2c6b 23be ed3a 9ebe 51e7 a03e 3c87 963e
00000050: 100a 0d3e 854b e9bc 556f 2bbe 60ff 5b3e
00000060: 6153 f6be 48d3 333e 5802 98be 91e9 d8bd
00000070: f8b9 0fbe 7860 b9be ab75 adbd f950 b3be
00000080: 17d7 d73e 7879 1b3e fc1c aabd cab6 d63d
00000090: 2cfd 833e 0471 b33e 1a52 a03e e571 b4be
000000a0: ed46 ecbd 0ffd a3bd fb4c cfbe 2888 7a3d
000000b0: 60ad dd3e db6e 6cbe e637 34ba 6680 24be
000000c0: e467 0c3e 8d8e 3c3e 0673 c23e 288a 02bd
000000d0: d210 9b3e 6a42 d1be 14c8 ca3e b49e ab3e
000000e0: 1481 3ebe f6a7 babe 147c 1dbe f01c 733e
000000f0: 9fca ad3e 27f2 673e fd46 ddbe c8ac f73d
00000100: 181a b4be f873 8e3d 3c72 b8be 34b2 d7be
00000110: a8b4 583e d240 a03e 6410 9fbd e014 793d
00000120: f2e0 87be ca88 d13e 30ab b0bd 2218 823e
00000130: dfd4 a63e e072 bc3d 3f2b 903d 9494 2cbe
00000140: 4632 583e ae57 05bc c63f 97bd cd43 0e3d
00000150: 24ec b93e 1d72 ed3d 7bd2 753e 9740 b53d
00000160: 55c8 783e bf6a 863e 89dd 243e 7c1b e6be
00000170: 9381 37be dca8 bbbe f8ff 16bd 4325 ccbe
00000180: 56ce ae3d 6320 73be 1080 8f3e a032 923e
0.114037424 -0.17091861 -0.20529604 0.093204476 -0.26104015 0.032825027 -0.25639752 -0.17810866
0.11411822 -0.3970309 0.36922455 0.35945982 0.38733247 0.16251695 -0.1089393 -0.36032435
-0.15958852 -0.30904332 0.3142648 0.2940005 0.1377337 -0.028478393 -0.16741689 0.21484137
-0.48110488 0.17561066 -0.29689288 -0.10591424 -0.14035785 -0.36206412 -0.08469709 -0.35022715
0.42156288 0.15183055 -0.083063096 0.10484083 0.25779092 0.35047162 0.3131264 -0.35243145
-0.115369655 -0.080072515 -0.4048842 0.061165005 0.43296337 -0.23089163 -0.00068747846 -0.16064605
0.13711506 0.18413754 0.3797838 -0.031870037 0.3028627 -0.40870982 0.39605772 0.33519518
-0.18603927 -0.3645627 -0.15379363 0.23741508 0.3394365 0.22650968 -0.43218222 0.12093502
-0.35176158 0.06955713 -0.36024654 -0.42128146 0.21162665 0.31299454 -0.07766798 0.060810924
-0.26538807 0.40924674 -0.086264014 0.25409037 0.32584283 0.09201598 0.070394985 -0.16853553
0.21112928 -0.00813858 -0.07385211 0.03473263 0.36312973 0.11594031 0.24006073 0.0885021
0.2429517 0.26253316 0.16100134 -0.44942844 -0.17920522 -0.36652267 -0.036865205 -0.39872178
0.08535449 -0.23742823 0.2802739 0.2855425

lstm.bias_ih_l0 f4 [20]
00000000: b680 96be e096 08bd c2aa 15be 93ad 65be
00000010: a2b5 ce3e 29ac cebe ac3b cabe 1d49 01be
00000020: 9062 c03e 128e a7be dcd8 bcbe 14bb 98bd
00000030: 3423 6cbe 4c57 24be a088 ee3d a25a 883e
00000040: ccb1 1bbe 7df7 a43d 2f2b 09bd 9bb6 d83d
-0.29395074 -0.03334701 -0.1461592 -0.22429495 0.4037295 -0.40365723 -0.3949865 -0.12625547
0.37575197 -0.3272558 -0.368842 -0.07457557 -0.23060304 -0.16048926 0.11647153 0.26631647
-0.15204543 0.08055017 -0.03348845 0.10581704

lstm.bias_hh_l0 f4 [20]
00000000: 5afb b3be 8ecd d33d 41a5 98be 3b83 bfbe
00000010: 16ec 5e3c 3045 023e 8736 a0be b834 65be
00000020: 358a 0cbe 12dc d33e a84d b33e 6718 50be
00000030: d4b9 413e 76d7 37be a61b 833e 9ede ae3e
00000040: aa04 80be e57c 3e3e e9b7 01be a370 e13d
-0.35152704 0.10341941 -0.2981358 -0.37404808 0.013606092 0.12721705 -0.312916 -0.22383392
-0.13724597 0.41378838 0.35020185 -0.20321809 0.18918544 -0.17953286 0.25607032 0.34154218
-0.25003558 0.18602331 -0.12667812 0.11007812

linear.weight f4 [2, 5]
00000000: 09e6 17bd bb99 5f3d 144e dbbe 7604 6b3e
00000010: c27e 05bf 802f bb3e f55e 9e3d 437c 313e
00000020: 19a3 4dbe 7bab 62be
-0.037084613 0.05458997 -0.42833006 0.2295092 -0.5214654 0.36559677 0.07732955 0.17332558
-0.20081748 -0.22135727

linear.bias f4 [2]
00000000: 224c 82be 00ed fcbe
-0.2544871 -0.49399567

exp_avg f4 [20, 34]
00000000: 1e17 cbb8 f1c5 e9b8 b29d 33b8 722b 25b9
00000010: 2bdd cab8 b526 8eb8 c19e afb7 0000 0000
00000020: cecf 9bb4 39f0 f3b7 4198 39b5 9872 0fb7
00000030: 5d3b 31b8 aa19 d0b8 76ab f1ba 2a33 c6b7
00000040: ea05 02b9 addc 1fb7 7d20 fab8 2c3e 8bb5
00000050: eada 18b6 a04e 05b9 ef91 e2b5 a940 0eb6
00000060: cf39 90b6 98de 96b6 42ce e1b5 2385 9ab6
00000070: 36dd 11b8 5492 4ab7 5332 41b8 de6e 6eb7
00000080: 4cc9 95b9 504b c7b9 3430 8438 1601 a538
00000090: c973 f937 69b0 c238 f194 7d38 ce16 4938
000000a0: 5cc5 7c37 0000 0000 6a5d 08b6 54b3 a537
000000b0: a89e 2435 0403 c836 6e5d 0738 f6e6 9c38
000000c0: 081a e538 63e0 d237 5651 df38 0644 e836
000000d0: 607b b238 743a a235 852b 5236 5a83 e838
000000e0: bb94 b735 faa0 e535 e168 5836 f85a 5e36
000000f0: 558c 3d36 b6fe 0a36 1129 dc37 88a0 1737
00000100: fb4d 0d38 d856 2f37 5cd4 f638 32da 0d39
00000110: 5f7b 10bb 211a 29bb 76e9 7cba 3a76 58bb
00000120: a0ae 15bb f346 d6ba 76a9 f4b9 0000 0000
00000130: 8099 7ab8 a604 25ba 0c64 72b7 71c0 4bb9
00000140: 9f27 91ba 5831 1cbb e540 e8ba c683 3fba
00000150: 041e bcbb ec6f 66b9 1c0b 31bb 008a 4bb8
00000160: ebf2 d3b8 2fa8 84bb c8d0 45b8 4870 54b8
00000170: e24e cfb8 4f9a e1b8 4f4a 96b8 4142 0fb9
00000180: 772f 60ba 28e2 97b9 66ba 5fba 4fd1 c2b9
00000190: 50d1 0abc 2710 03bc dad3 0fb8 2913 53b7
000001a0: 5a6d 91b6 9df4 56b7 3010 6fb7 1760 9fb7
000001b0: e57c abb6 0000 0000 ac61 3136 e14f 2eb5
000001c0: 03b8 09b3 d72c 57b5 0047 46b7 2475 18b7
000001d0: b98a e0b9 b13d a9b7 6275 5eb6 75c7 4d34
000001e0: cc8d 61b7 261b 2bb6 d08c 11b7 8bc9 10b7
000001f0: 4313 67b5 90c4 0db4 70c8 89b5 6426 77b5
00000200: 2787 74b5 1bf8 c8b3 080b 91b5 a026 27b4
00000210: 44e8 dbb6 79c6 e435 bf5e 46b8 7962 1138
00000220: 2a73 adbb d1cd c9bb bedf 18bb ec3c e0bb
00000230: 3d26 95bb 2f38 85bb 23dd 8aba 0000 0000
00000240: b03e b635 6cfa c6ba 9835 29b8 1b42 f6b9
00000250: 2429 22bb 7a6e c7bb 141a 24bb 21e6 d9ba
00000260: 113c 8cbb bbbd 10ba 94b3 d8bb 79b0 b2b8
00000270: 2b7e afb9 371e f4bb 2776 02b9 0ca0 0db9
00000280: 169f 84b9 24ad 8ab9 b7c5 96b8 4479 e1b9
00000290: cf9b 08bb 6a3e 37ba 82b6 29bb a71a 45ba
000002a0: e7b7 62bc 005f 96bc 1ae3 b1b1 4f37 06b2
000002b0: e0d6 4ab1 e013 5eb2 b0b8 e7b1 f215 a5b1
000002c0: b68f fbb0 0000 0000 c073 16af e215 2bb1
000002d0: 76a6 4eae 716c 22b0 9d52 77b1 6507 e8b1
000002e0: 5d25 e5b0 b81f ccb0 3150 a2b1 c7d3 37b0
000002f0: 557f 0eb2 b7b8 2faf 0b70 40af 3a3a 93b1
00000300: 8f76 03af af2d 31af cf2e 8faf 8b8f bcaf
00000310: ca12 79ae 72b8 2baf f738 17b1 99f9 50b0
00000320: 2b9f 11b1 2260 1cb0 b137 47b2 6a81 6ab2
00000330: b8a6 5b36 e94e 5e36 c2d1 a135 4374 7336
00000340: 2f39 2d36 a717 1a36 c70a 1f35 0000 0000
00000350: 843d 43b4 3810 1c35 0f4f b732 c58e 8334
00000360: 3376 8f35 a4b7 4c36 1cd8 9d35 8de5 0035
00000370: 761d 2936 67a9 9134 5361 6d36 53b5 1533
00000380: 8d3b 0934 f7b7 e036 90b7 c033 0a31 8533
00000390: aa08 bd33 a5f2 1034 665a eb32 ee66 5434
000003a0: 5584 9635 0ec3 cb34 f490 6336 6968 9434
000003b0: 83ef 1f37 efd5 1937 27a0 9ab9 d56c aeb9
000003c0: 97bc 03b9 9eaf d3b9 d333 8bb9 a1d5 50b9
000003d0: 8498 83b8 0000 0000 40bc 9d36 8563 a0b8
000003e0: 746e ffb5 85be d2b7 8b42 15b9 195c a2b9
000003f0: 805e 9bba ff32 b6b8 817c 9fb9 07a2 ecb7
-9.6841e-05 -0.00011147175 -4.282379e-05 -0.00015751811 -9.673306e-05 -6.7782974e-05 -2.0935551e-05 0.0
-2.9022198e-07 -2.907972e-05 -6.913943e-07 -8.550145e-06 -4.2255375e-05 -9.922993e-05 -0.001843794 -2.3627264e-05
-0.0001239997 -9.528519e-06 -0.000119269804 -1.0374401e-06 -2.277719e-06 -0.00012713159 -1.6880784e-06 -2.1197286e-06
-4.2982642e-06 -4.4962617e-06 -1.6823835e-06 -4.605057e-06 -3.4776713e-05 -1.2074208e-05 -4.6061654e-05 -1.4211719e-05
-0.00028569472 -0.0003801235 6.303229e-05 7.8680154e-05 2.973703e-05 9.2835e-05 6.0458613e-05 4.7943373e-05
1.5066322e-05 0.0 -2.0319953e-06 1.9753039e-05 6.1325636e-07 5.9608155e-06 3.227352e-05 7.4816795e-05
0.000109244196 2.5138439e-05 0.000106486186 6.9220578e-06 8.510682e-05 1.2086953e-06 3.131777e-06 0.00011087088
1.3677849e-06 1.710868e-06 3.2247556e-06 3.3133529e-06 2.8244879e-06 2.0711864e-06 2.6245167e-05 9.037678e-06
3.3689645e-05 1.0451033e-05 0.00011769749 0.00013528092 -0.002204619 -0.0025802928 -0.00096478255 -0.0033029453
-0.002283968 -0.0016348049 -0.00046665565 0.0 -5.9747603e-05 -0.0006294943 -1.4447618e-05 -0.00019431279
-0.001107443 -0.0023833122 -0.0017719535 -0.00073057075 -0.005740883 -0.00021976203 -0.0027014678 -4.8527494e-05
-0.00010106511 -0.0040483694 -4.7162903e-05 -5.064931e-05 -9.885222e-05 -0.00010757578 -7.1663984e-05 -0.00013662224
-0.00085519947 -0.00028969464 -0.00085345504 -0.0003715851 -0.008472756 -0.0079994565 -3.429116e-05 -1.2581041e-05
-4.334067e-06 -1.2812347e-05 -1.4249279e-05 -1.8999022e-05 -5.1107368e-06 0.0 2.6431908e-06 -6.493629e-07
-3.2065156e-08 -8.015899e-07 -1.1818251e-05 -9.08718e-06 -0.00042827966 -2.0175097e-05 -3.3148904e-06 1.9164675e-07
-1.344406e-05 -2.5496788e-06 -8.675459e-06 -8.629994e-06 -8.6082235e-07 -1.3203157e-07 -1.026563e-06 -9.2070536e-07
-9.1093756e-07 -9.358356e-08 -1.0806552e-06 -1.5567139e-07 -6.553748e-06 1.7045087e-06 -4.7295118e-05 3.4662404e-05
-0.0052932696 -0.0061585684 -0.002332672 -0.0068432 -0.0045516775 -0.0040655355 -0.0010594468 0.0
1.3578301e-06 -0.0015180833 -4.0342653e-05 -0.0004697003 -0.002474376 -0.006086168 -0.0025039958 -0.001662437
-0.0042796214 -0.0005521436 -0.0066132043 -8.520572e-05 -0.00033472604 -0.007449891 -0.00012441781 -0.0001350643
-0.0002529553 -0.0002645041 -7.1893846e-05 -0.00043005694 -0.0020844822 -0.00069901964 -0.0025896137 -0.0007518925
-0.013837791 -0.018355846 -5.1771964e-09 -7.812402e-09 -2.951701e-09 -1.292662e-08 -6.7439814e-09 -4.804627e-09
-1.8303499e-09 0.0 -1.3683543e-10 -2.4896214e-09 -4.6986824e-11 -5.908936e-10 -3.599019e-09 -6.7529293e-09
-1.6672562e-09 -1.4851969e-09 -4.7239372e-09 -6.6875966e-10 -8.29444e-09 -1.5981781e-10 -1.7502104e-10 -4.2848827e-09
-1.1956501e-10 -1.6114286e-10 -2.6044808e-10 -3.4298994e-10 -5.6632733e-11 -1.5617888e-10 -2.2005773e-09 -7.602466e-10
-2.1190754e-09 -5.688908e-10 -1.1595987e-08 -1.3650018e-08 3.2730586e-06 3.312651e-06 1.2056482e-06 3.6277495e-06
2.5812294e-06 2.2961556e-06 5.92478e-07 0.0 -1.818317e-07 5.813813e-07 2.1339956e-08 2.450453e-07
1.0688731e-06 3.0505262e-06 1.1760308e-06 4.8017756e-07 2.520011e-06 2.713161e-07 3.5372402e-06 3.485668e-08
1.2780784e-07 6.6971365e-06 8.9740865e-08 6.202215e-08 8.802574e-08 1.3499319e-07 2.7398709e-08 1.9781484e-07
1.1214385e-06 3.7953617e-07 3.391001e-06 2.7643117e-07 9.532904e-06 9.169321e-06 -0.00029492492 -0.00033268952
-0.00012563389 -0.000403759 -0.00026550758 -0.00019916009 -6.274975e-05 0.0 4.70088e-06 -7.6479315e-05
-1.9031127e-06 -2.5122668e-05 -0.00014234537 -0.00030967666 -0.0011853725 -8.687935e-05 -0.00030419606 -2.8208842e-05

exp_avg_sq f4 [20, 34]
00000000: bb86 5534 6ba5 8034 ff67 1133 d5df 2335
00000010: 1d17 a234 7cc8 bd33 2327 8932 0000 0000
00000020: 429d 122f 0b7d b132 efdd 912c e2fd ba30
00000030: 68c6 2033 f9f0 6334 d457 1036 ff87 1932
00000040: c0bf aa34 996c 0331 6483 8834 ccb7 a22d
00000050: 1131 412e 4a11 a335 079e 432e 9f23 d92e
00000060: daae e62f fed2 ea2f 7608 342e 41c0 1f32
00000070: 5397 ea32 b2a1 3e31 6c00 d532 8951 8c31
00000080: 962b ad34 e101 0437 a00d e032 228a 2733
00000090: d348 c531 b76b 7233 8a11 d132 1ff0 8f32
000000a0: 872d d530 0000 0000 53a8 3f2e f2f9 1731
000000b0: 3281 f62b 6807 7b2f 7c1e e731 cc6d 2033
000000c0: 2372 c134 dcbc 0631 ca64 2a34 f945 ad2f
000000d0: 7f07 4d33 f129 3e2d 3f72 a42e 36de a833
000000e0: 30e2 c22d 8491 862d 8590 6e2e 52ac a32e
000000f0: 43ac 042f 7cef 4730 30b3 9c31 b727 1130
00000100: a3f8 f031 8e36 3c30 bb5c df33 a421 2934
00000110: 3168 9437 06d5 d137 57e6 6b36 a2bc 3738
00000120: 37e7 a037 5c09 2037 4ae5 6035 0000 0000
00000130: 7332 e432 9ae4 db35 b164 8930 e0f0 1834
00000140: c5d2 9836 bdf7 b537 deb0 f536 61d4 9535
00000150: ff97 2e38 e6ae 4234 ae04 f637 cc0d bd31
00000160: d46c 9934 1db9 3a38 7a48 1a32 85a4 3432
00000170: 67e2 0e33 5c3d 4433 4fe9 ac32 9a34 1535
00000180: 5acb 3936 a8a0 a934 4a88 4e36 782b c934
00000190: 7570 c639 447b 0e39 5afe 0234 7524 4834
000001a0: 946d d932 677d 8b34 9c67 0d34 c3f9 b733
000001b0: 82b4 bb31 0000 0000 d6e1 c22f 97db 2232
000001c0: ef39 9b2d d5ed 9630 cccc ec32 909d 0034
000001d0: b403 a838 dfd0 3332 0a77 e933 4482 b230
000001e0: fa7f 7a34 a629 652e c125 1930 f480 bc34
000001f0: a635 9e2e ae98 512f 6639 492f 0c03 ed2f
00000200: 9696 ea2d 9b5f 8d2d 981c a932 62e0 1931
00000210: 7bd8 1333 24b7 4d31 dd0e 2f35 46de 2035
00000220: 6d4c 5735 76a0 9235 3b3c 2834 4d30 b335
00000230: bd00 1c35 286f ff34 918e 0a33 0000 0000
00000240: 7255 2f30 e31d 8f33 9804 4f2e cce4 d931
00000250: 8458 3f34 9d96 9035 c85f 9834 00f5 c233
00000260: 5972 1035 1771 1232 6a76 a935 c8b5 552f
00000270: 242a bb32 dae4 cc35 b6d3 2330 33ca 0d30
00000280: b4ce ef30 3509 0931 667e 8e2f 860d 2832
00000290: 40e4 f833 15ff 5e32 e9e6 4f34 55e7 9a32
000002a0: d8c0 bc36 8726 3637 458a fe2f 203c 4d30
000002b0: 47b9 ec2e f236 e130 e4da 2430 2854 a62f
000002c0: c41d 4a2e 0000 0000 9b1b 512b 1106 af2e
000002d0: 6929 1b29 bda6 922c a7cc 402f eaa1 f02f
000002e0: 6821 032e c52b 662d 30ff ac2f 4831 bd2c
000002f0: e913 7030 890d 342a 3173 da2a 9ad3 012f
00000300: e803 182a 1584 cc2a fc06 4f2b 34da df2b
00000310: b7c4 4e29 012a 6529 3628 862e ca8a 062d
00000320: 3427 812e 2990 e52c 6da9 7d30 738e 2231
00000330: 6ef6 9632 6ee7 c032 215e 5e31 a900 fd32
00000340: 89f8 6232 864e 1832 6e69 6130 0000 0000
00000350: 5170 d22d 3a9e af30 0f4a 732b ec1b 0e2f
00000360: 868c 8131 2c79 a532 e3d8 6732 6c77 0f31
00000370: 71ad b432 cba0 322f 13ea dc32 6b12 cd2c
00000380: e9a7 e12f 27b4 9933 502c ea2d d455 2f2d
00000390: 1756 202e 823e 392e 49b4 032d 00a5 482f
000003a0: a59d 2331 429c 962f 70a3 aa31 855c d12f
000003b0: 2290 4234 243f cd33 01a9 4e33 6af7 8233
000003c0: b580 1532 3349 c333 8e42 1f33 257d b732
000003d0: 8809 1631 0000 0000 ae6d c42e 4bd9 6a31
000003e0: 35f2 162c 1171 c02f 6bfd 2732 66b1 6833
000003f0: f984 4734 c08e 9f31 eb78 4233 8936 fe2f
1.9886185e-07 2.3962215e-07 3.3855027e-08 6.104795e-07 3.0191669e-07 8.837466e-08 1.5966696e-08 0.0
1.3334492e-10 2.0662375e-08 4.1457874e-12 1.3605439e-09 3.7433352e-08 2.1228688e-07 2.1508795e-06 8.936694e-09
3.1804484e-07 1.912474e-09 2.5427573e-07 1.849889e-11 4.39267e-11 1.2149478e-06 4.4478223e-11 9.874345e-11
4.1960996e-10 4.271427e-10 4.0934776e-11 9.298732e-09 2.731e-08 2.7740552e-09 2.4796655e-08 4.0838057e-09
3.2255474e-07 7.868251e-06 2.6083228e-08 3.900835e-08 5.7417338e-09 5.6442982e-08 2.4338778e-08 1.6756585e-08
1.5510729e-09 0.0 4.3577874e-11 2.211547e-09 1.751521e-12 2.2830948e-10 6.7264505e-09 3.7352763e-08
3.6032097e-07 1.960692e-09 1.586915e-07 3.1518235e-10 4.77371e-08 1.08095624e-11 7.478151e-11 7.8635296e-08
2.2155694e-11 1.5298658e-11 5.4243294e-11 7.442992e-11 1.206653e-10 7.2736106e-10 4.560569e-09 5.280713e-10
7.013186e-09 6.847153e-10 1.0401114e-07 1.575159e-07 1.7691493e-05 2.5013938e-05 3.5151804e-06 4.3806278e-05
1.9181154e-05 9.538922e-06 8.378016e-07 0.0 2.6565635e-08 1.6383303e-06 9.99668e-10 1.4243733e-07
4.55449e-06 2.1692244e-05 7.322159e-06 1.1163175e-06 4.162639e-05 1.8131286e-07 2.9327664e-05 5.5021925e-09
2.8577654e-07 4.4518256e-05 8.980459e-09 1.0514786e-08 3.3267863e-08 4.5690612e-08 2.0129532e-08 5.558337e-07
2.7685514e-06 3.1595596e-07 3.0775723e-06 3.7470795e-07 0.0003784929 0.00013588095 1.2199726e-07 1.8639714e-07
2.5311955e-08 2.598201e-07 1.3169341e-07 8.567033e-08 5.4629377e-09 0.0 3.544886e-10 9.47957e-09
1.7647188e-11 1.0981532e-09 2.7567147e-08 1.197825e-07 8.011554e-05 1.0466663e-08 1.0871561e-07 1.2988228e-09
2.3329622e-07 5.2105563e-11 5.571473e-10 3.5111555e-07 7.194538e-11 1.9062682e-10 1.8301236e-10 4.3112214e-10
2.6669594e-11 1.6072301e-11 1.9687192e-08 2.2391977e-09 3.4422992e-08 2.993553e-09 6.521421e-07 5.9928095e-07
8.0204956e-07 1.0924548e-06 1.5668131e-07 1.3350597e-06 5.8115603e-07 4.7578328e-07 3.2260292e-08 0.0
6.3786054e-10 6.664393e-08 4.707043e-11 6.3415424e-09 1.7820463e-07 1.077267e-06 2.8381896e-07 9.078394e-08
5.381058e-07 8.524032e-09 1.2625944e-06 1.9436819e-10 2.1788829e-08 1.5265789e-06 5.9599914e-10 5.1582844e-10
1.7448287e-09 1.9941357e-09 2.591946e-10 9.781962e-09 1.15899184e-07 1.29801e-08 1.9362382e-07 1.8033157e-08
5.6252866e-06 1.0857016e-05 4.6300577e-10 7.466401e-10 1.07649493e-10 1.6386521e-09 5.9973915e-10 3.025502e-10
4.595592e-11 0.0 7.4290026e-13 7.959156e-11 3.445283e-14 4.1680812e-12 1.7535005e-10 4.3770793e-10
2.9815622e-11 1.3083705e-11 3.146794e-10 5.3771744e-12 8.7339785e-10 1.5991908e-13 3.880451e-13 1.1807658e-10
1.3501667e-13 3.632933e-13 7.3550866e-13 1.5905667e-12 4.591181e-14 5.0884647e-14 6.1007574e-11 7.6478355e-12
5.873205e-11 6.5245765e-12 9.228163e-10 2.3655076e-09 1.7574362e-08 2.2456984e-08 3.2358758e-09 2.9453377e-08
1.3211442e-08 8.865419e-09 8.200435e-10 0.0 2.3924114e-11 1.2777897e-09 8.643372e-13 1.2924745e-10
3.77037e-09 1.926363e-08 1.3495284e-08 2.0877122e-09 2.103363e-08 1.6246131e-10 2.5717815e-08 5.8284952e-12
4.104657e-10 7.157387e-08 2.6622399e-11 9.966656e-12 3.645625e-11 4.2119648e-11 7.486519e-12 1.8248514e-10
2.3809232e-09 2.739587e-10 4.966232e-09 3.8082618e-10 1.8120093e-07 9.5575416e-08 4.811682e-08 6.098601e-08
8.702206e-09 9.09371e-08 3.7080603e-08 2.1360913e-08 2.183329e-09 0.0 8.932531e-11 3.4174998e-09
2.1450734e-12 3.5004935e-10 9.7783e-09 5.4178052e-08 1.8581694e-07 4.643738e-09 4.527912e-08 4.624108e-10

exp_avg f4 [20, 5]
00000000: f27f 5e34 9141 83b4 a09d 1c2d 8e02 4330
00000010: f7d7 a334 9677 51b5 d8e7 a334 c8a9 08b5
00000020: a43e dfa2 a929 11b2 ddb6 a837 a8b0 45b7
00000030: b002 bf36 feca cd04 c483 5036 d2d4 d934
00000040: 9590 0431 bc68 d3af 0fa0 e434 5425 9a89
00000050: b703 6838 c07d b6b7 46f1 5638 2d01 0000
00000060: 186a 4937 8f1c a52e 18ca 46ae d4aa 9e2d
00000070: 37d1 7515 03c2 1628 1ecf 0bb3 5062 ee32
00000080: 3a2e 04b3 d73c a8ac 62d9 10b2 4f04 6236
00000090: f04a 75b4 3e29 4536 f4d7 802e b58b 2529
000000a0: a34f 41b0 6697 d029 420c 15b0 56b5 97ac
000000b0: 6c6b 8389 345f e835 da6e aeb5 c483 a135
000000c0: 5908 0000 f017 8535 0000 0000 0000 0000
000000d0: 0000 0000 0000 0000 0000 0000 e25b 7b80
000000e0: 0000 0000 0000 0000 0000 0000 0000 0000
000000f0: b4d8 92b4 5864 5334 9288 1fb4 0400 0080
00000100: 1711 928b 0000 0000 0000 0000 0000 0000
00000110: 0000 0000 0000 0000 0000 0000 0000 0000
00000120: 0000 0000 0000 0000 0000 0000 65ca e536
00000130: c27b 6bb0 c471 6a37 29b2 bc2c af77 151b
00000140: 950e bdb6 4350 1436 62ed bdb6 4b5e 71ac
00000150: 28d8 09b5 e063 2e38 d6a2 66b7 8f0e 9937
00000160: ed2a 872f 5a54 5636 ab71 a2af 1eec 752f
00000170: 4c8d 73ae 3c3c dead 45dd 0f83 1595 5c36
00000180: 0cd5 34b6 a9de 1035 0400 0000 c1de dd35
2.0721907e-07 -2.4448357e-07 8.902573e-12 7.0944217e-10 3.051825e-07 -7.803259e-07 3.0529804e-07 -5.091101e-07
-6.0510594e-18 -8.449583e-09 2.0112313e-05 -1.1783246e-05 5.6925564e-06 4.8381687e-36 3.1071113e-06 4.0574247e-07
1.9290713e-09 -3.8455095e-10 4.2584767e-07 -3.7109255e-33 5.531657e-05 -2.1754648e-05 5.124628e-05 4.22e-43
1.20052355e-05 7.508404e-11 -4.5199483e-11 1.8038383e-11 4.9642397e-26 8.368742e-15 -3.255183e-08 2.7751554e-08
-3.0775688e-08 -4.7816018e-12 -8.43133e-09 3.3679132e-06 -2.2844665e-07 2.9379294e-06 5.859127e-11 3.6758536e-14
-7.032616e-10 9.263319e-14 -5.4223304e-10 -4.3118105e-12 -3.1638122e-33 1.7313055e-06 -1.2996272e-06 1.2033784e-06
2.995e-42 9.916239e-07 0.0 0.0 0.0 0.0 0.0 -1.1328727e-38
0.0 0.0 0.0 0.0 -2.7352291e-07 1.9687411e-07 -1.4857713e-07 -6e-45
-5.626287e-32 0.0 0.0 0.0 0.0 0.0 0.0 0.0
0.0 0.0 0.0 6.8482937e-06 -8.566837e-10 1.3973975e-05 5.363061e-12 1.2363663e-22
-5.6343365e-06 2.2100437e-06 -5.660274e-06 -3.4300503e-12 -5.1351026e-07 4.157785e-05 -1.37469815e-05 1.82458e-05
2.4586858e-10 3.1937584e-06 -2.9548394e-10 2.2366506e-10 -5.53773e-11 -2.5265227e-11 -4.227793e-37 3.2869332e-06
-2.69461e-06 5.3968193e-07 6e-45 1.6530613e-06

exp_avg_sq f4 [20, 5]
00000000: 4e0e bb2b b132 4a2d 57c7 101b 0417 d329
00000010: 97c3 6e2a e7db 8b2c afa5 1a2b 8e5b 002b
00000020: d974 8e12 0f8f 3b23 4173 af30 042b bc2f
00000030: 11a8 b62e 0000 0000 5dfe b92b bb87 ab2b
00000040: ec35 ab29 dbac d31f f762 e62a 0000 0000
00000050: 3c1d ce2e f89d 9c2d 1855 b92e 0000 0000
00000060: ccff 9c2c 46d3 8f29 4147 4129 13f1 1a27
00000070: 3900 0000 1255 a40f beb9 202c f3c2 ef2b
00000080: b451 182a 6692 fb24 d7d5 3723 8a31 d02c
00000090: 70c7 ee2b 0c24 a42c 660b 3125 f033 a612
000000a0: 1186 9027 e36b 6b1c a5c0 2727 43e4 5b20
000000b0: 0000 0000 f843 a72a a38f 3e2a 32b3 8a2a
000000c0: 0000 0000 e408 5a2a 0000 0000 0000 0000
000000d0: 0000 0000 0000 0000 0000 0000 0000 0000
000000e0: 0000 0000 0000 0000 0000 0000 0000 0000
000000f0: 34a9 0c30 a80b 0c2e c8e5 092f 0000 0000
00000100: 0000 0000 0000 0000 0000 0000 0000 0000
00000110: 0000 0000 0000 0000 0000 0000 0000 0000
00000120: 0000 0000 0000 0000 0000 0000 a327 682e
00000130: 6415 1b2c 0a5a df2e ec2b ba26 0700 0000
00000140: 002c be2e 0cf8 9e2d 3c86 4b2e c6ee ee22
00000150: 46a4 2528 edbd 2731 9942 a830 c414 1230
00000160: 4d6d 3629 4f79 0a2c 41e4 0d29 7089 0329
00000170: 041e 161f 0f96 1727 0000 0000 f531 882b
00000180: 2e72 2e2b eb72 fd29 0000 0000 44c3 322a
1.329112e-12 1.1493626e-11 1.1975811e-22 9.374275e-14 2.1206505e-13 3.9750317e-12 5.4941723e-13 4.5601793e-13
8.990265e-28 1.0167584e-17 1.2765683e-09 3.4227565e-10 8.3062564e-11 0.0 1.3215641e-12 1.2187954e-12
7.6032794e-14 8.964794e-20 4.0924878e-13 0.0 9.3729885e-11 1.7805299e-11 8.427942e-11 0.0
4.462186e-12 6.387126e-14 4.291641e-14 2.150248e-15 8e-44 1.6204416e-29 2.2840475e-12 1.7036081e-12
1.3528658e-13 1.0910191e-16 9.965732e-18 5.9172155e-12 1.6966272e-12 4.6651624e-12 1.5356165e-16 1.0488876e-27
4.0113384e-15 7.789442e-22 2.3280338e-15 1.8625547e-19 0.0 2.9712322e-13 1.6925224e-13 2.4638066e-13
0.0 1.9365374e-13 0.0 0.0 0.0 0.0 0.0 0.0
0.0 0.0 0.0 0.0 5.1172155e-10 3.1842667e-11 1.2541712e-10 0.0
0.0 0.0 0.0 0.0 0.0 0.0 0.0 0.0
0.0 0.0 0.0 5.2785897e-11 2.20387e-12 1.015686e-10 1.2918248e-15 1e-44
8.6480156e-11 1.8072675e-11 4.627608e-11 6.476284e-18 9.194961e-15 2.4409659e-09 1.2242537e-09 5.3144e-10
4.050692e-14 1.967832e-12 3.1506268e-14 2.920705e-14 3.1788564e-20 2.1036807e-15 0.0 9.677247e-13
6.1975674e-13 1.1255392e-13 0.0 1.5877322e-13

exp_avg f4 [20]
00000000: 446b 9ab5 5556 5935 9b04 dcb7 b238 ffb3
00000010: 7d3d 85b8 ead0 afae 7cf8 0e33 a2dc 64b6
00000020: a34f 4130 ee94 e8b5 0000 0000 ef80 7b00
00000030: 56cd 9334 0000 0000 0000 0000 1b5c 6eb7
00000040: 91ce c436 c1e5 35b8 b171 a22f 6a14 7bb6
-1.1505113e-06 8.096443e-07 -2.6228188e-05 -1.18846756e-07 -6.353387e-05 -7.995189e-11 3.3287947e-08 -3.4103073e-06
7.032616e-10 -1.7328691e-06 0.0 1.1342019e-38 2.7530285e-07 0.0 0.0 -1.420735e-05
5.8653027e-06 -4.3367738e-05 2.954841e-10 -3.7413797e-06

exp_avg_sq f4 [20]
00000000: 2499 d82d a9d7 932c 12fd 3231 7f37 ae2d
00000010: a829 ff2e 30b9 ae29 535d 272c 4a74 e22c
00000020: 1186 9027 aa6f a72a 0000 0000 0000 0000
00000030: c6fb 2330 0000 0000 0000 0000 69fa 542f
00000040: a440 d62e 156f 3131 43e4 0d29 4c4a 9c2b
2.4624365e-11 4.2019344e-12 2.6046263e-09 1.9806155e-11 1.1603457e-10 7.759277e-14 2.3783933e-12 6.436217e-12
4.0113384e-15 2.9742642e-13 0.0 0.0 5.9656846e-10 0.0 0.0 1.9370251e-10
9.743076e-11 2.5820033e-09 3.1506275e-14 1.1105088e-12

exp_avg f4 [20]
00000000: 446b 9ab5 5556 5935 9b04 dcb7 c038 ffb3
00000010: 7e3d 85b8 ead0 afae 7df8 0e33 a2dc 64b6
00000020: a34f 4130 ed94 e8b5 0000 0000 ef80 7b00
00000030: 54cd 9334 0000 0000 0000 0000 1c5c 6eb7
00000040: 90ce c436 c1e5 35b8 ab71 a22f 6914 7bb6
-1.1505113e-06 8.096443e-07 -2.6228188e-05 -1.18846856e-07 -6.353388e-05 -7.995189e-11 3.328795e-08 -3.4103073e-06
7.032616e-10 -1.732869e-06 0.0 1.1342019e-38 2.753028e-07 0.0 0.0 -1.4207351e-05
5.8653022e-06 -4.3367738e-05 2.9548394e-10 -3.7413795e-06

exp_avg_sq f4 [20]
00000000: 2599 d82d a9d7 932c 12fd 3231 8137 ae2d
00000010: a829 ff2e 30b9 ae29 535d 272c 4d74 e22c
00000020: 1186 9027 ab6f a72a 0000 0000 0000 0000
00000030: c7fb 2330 0000 0000 0000 0000 67fa 542f
00000040: a540 d62e 156f 3131 42e4 0d29 4d4a 9c2b
2.4624367e-11 4.2019344e-12 2.6046263e-09 1.9806158e-11 1.1603457e-10 7.759277e-14 2.3783933e-12 6.4362183e-12
4.0113384e-15 2.9742644e-13 0.0 0.0 5.965685e-10 0.0 0.0 1.9370248e-10
9.7430765e-11 2.5820033e-09 3.150627e-14 1.1105089e-12

exp_avg f4 [2, 5]
00000000: 9fde 6b3d 169c 2abc 9cb1 523d 7dbf 843a
00000010: a36c a33b 9fde 6bbd 169c 2a3c 9cb1 52bd
00000020: 7dbf 84ba a36c a3bb
0.057585355 -0.01041319 0.051438913 0.0010127869 0.0049873157 -0.057585355 0.01041319 -0.051438913
-0.0010127869 -0.0049873157

exp_avg_sq f4 [2, 5]
00000000: 345f 1d3a 2d34 0539 c89e 8939 644a fa34
00000010: 0712 1935 345f 1d3a 2d34 0539 c89e 8939
00000020: 664a fa34 0812 1935
0.0006003261 0.00012703305 0.00026248978 4.6620255e-07 5.7023175e-07 0.0006003261 0.00012703305 0.00026248978
4.662026e-07 5.702318e-07

exp_avg f4 [2]
00000000: 4c03 c5be 4b03 c53e
-0.38479078 0.38479075

exp_avg_sq f4 [2]
00000000: 9bd7 893c 9ad7 893c
0.016826442 0.01682644
