MimicApp/lightning_logs/version_37/checkpoints/epoch=9-step=99.ckpt (torch, 15916 bytes, 18 tensors)

lstm.weight_ih_l0 f4 [20, 34]
000000 df dd 95 3d e6 75 c3 3e 9f fc 45 3e df 57 95 3c
       0.07317709 0.38175887 0.19334649 0.018230377
000010 15 53 dc 3d 4b aa 1e be d0 29 07 be 34 8f df be
       0.10758034 -0.15494649 -0.13199544 -0.43663943
000020 81 5d 0f be 14 c1 9f 3e 77 d0 a2 be e5 0a 1a bc
       -0.14000513 0.31201994 -0.3179967 -0.0094020115
000030 e8 a9 54 3e 21 79 82 be 2c 5c 9d 3e 86 21 b6 be
       0.20767939 -0.2548304 0.30734384 -0.3557245
000040 df df 68 3e 4d 7d 13 3b 66 72 c7 be 0c 0a 20 be
       0.2274165 0.0022505105 -0.38954467 -0.15628833
000050 08 ad 87 be 58 27 94 3e 0e 26 bd be 2f 19 d8 3e
       -0.264992 0.28936267 -0.36943096 0.42206714
000060 4d bd 9a 3d bb 13 04 3e f0 43 b4 3e 8a 0c c8 3b
       0.075556375 0.12898152 0.35208082 0.0061050104
000070 14 06 b3 be c5 d3 5a 3c c4 b0 bf be d4 ca 7c 3e
       -0.34965575 0.013356154 -0.3743955 0.24686748
000080 d1 d9 59 3e ef 3d 86 3e 18 26 a1 be 50 f9 ac bc
       0.21274497 0.26219127 -0.31474376 -0.021114975
000090 8a d2 9f be e0 2a 3e bd 86 6b 86 be a4 37 e3 3e
       -0.31215316 -0.046427608 -0.2625391 0.44378388
0000a0 5c 74 b3 3e 9e 8c e4 3e 70 5e ec 3c 28 28 e7 3d
       0.35049713 0.44638532 0.028853625 0.11286956
0000b0 50 4e 45 3d b8 39 ff 3d ba 76 2b be 47 f9 4c be
       0.048170388 0.12462181 -0.1674451 -0.20016967
0000c0 8c 33 d4 be 7c 40 6e be 94 85 2f be 4c b7 80 be
       -0.41445577 -0.23266786 -0.171408 -0.25139844
0000d0 48 14 a4 bd c0 9f 54 3d 7b c4 b7 be f0 15 0e be
       -0.08011681 0.051910162 -0.3589209 -0.13875556
0000e0 ce 78 b2 3e 42 b3 b4 be d0 12 51 bd 40 4b b1 3c
       0.34857792 -0.35293013 -0.05104333 0.021642327
0000f0 42 30 e1 3e 10 7c c7 be ae 93 31 be 42 4e 8d 3e
       0.4398213 -0.3896184 -0.17341492 0.27598768
000100 f8 f8 26 3e 3f d9 7c be 4e 5c 1d be e2 88 26 be
       0.16305912 -0.24692248 -0.15367243 -0.16263154
000110 40 f9 bd bd b4 fb 71 be 50 34 24 3d 01 b7 f6 bd
       -0.09276056 -0.23631173 0.04008895 -0.12046624
000120 27 22 aa 3e 21 ae b4 3e ee 5e 65 3d 06 f7 c2 3e
       0.3322918 0.352891 0.055998735 0.3807909
000130 33 41 8c be 60 bc e1 3b 41 8c 5a be 31 b2 52 3e
       -0.27393493 0.006888911 -0.21342565 0.20575787
000140 cd 37 b1 bd 7a b5 07 be d2 7c c5 3e 23 46 cb be
       -0.08653221 -0.13252822 0.38571793 -0.39701948
000150 c0 f1 46 3d 6a 6d 79 3e 4d ce 56 bd c1 c9 f4 be
       0.048570395 0.24358144 -0.052442838 -0.47810176
000160 e4 90 a6 be c5 ab bc 3e b8 d5 dd be de c1 6e 3d
       -0.32532418 0.368498 -0.43327117 0.058290355
000170 46 e8 84 be 5e 4e 85 3c 1a 38 24 3e dc b1 ab 3e
       -0.2595846 0.01627272 0.16037026 0.33534133
000180 46 a1 a9 bc f6 9b 22 3e 38 41 af be 32 34 94 3e
       -0.020706784 0.15879807 -0.34229445 0.28946072
000190 a4 79 a2 be 98 0f 3a be 2e e1 3f be de 18 8c 3e
       -0.3173343 -0.18170011 -0.18738243 0.27362722
0001a0 1b 04 96 3e b4 e9 88 be ee d2 1b bd 86 6e 18 bc
       0.29300007 -0.267408 -0.038042955 -0.009303695
0001b0 94 ed 8c 3e 40 18 df 3b 12 03 0f be 39 9f 25 be
       0.27525008 0.0068083107 -0.13966015 -0.1617402
0001c0 90 a5 8d 3d 55 c8 bb be 1c 09 63 3d e7 0e a5 be
       0.06916344 -0.3667628 0.05542861 -0.32237932
0001d0 b5 c4 cc be 8e 6f 6d 3e 93 ee 90 3e cd 12 d6 bd
       -0.39993826 0.23187086 0.28307018 -0.10452805
0001e0 47 3b 52 be ab 66 5f 3e 08 2b da 3e eb 80 9a 3e
       -0.20530425 0.21816508 0.42610955 0.30176482
0001f0 11 78 b5 be 7c 1c b8 3e 1d d3 25 bd 4e 82 86 3e
       -0.35443166 0.35959232 -0.040484536 0.2627129
000200 a3 c8 ad 3e cd aa 92 be 36 80 09 be 48 1c 57 be
       0.33942136 -0.28645936 -0.13427815 -0.21006882
000210 09 55 0b 3e 97 9f e6 3d d5 1f 63 3e bb 48 e5 3d
       0.13606657 0.11260908 0.22180112 0.11195513
000220 9a 36 ba 3d 16 2d 4c be fc 97 40 3e d4 19 24 3c
       0.09092446 -0.19939074 0.18807977 0.0100159235
000230 6e 58 1e be ad 73 6e 3d 95 74 06 3e 59 ac c1 be
       -0.15463421 0.058215786 0.1313041 -0.37826803
000240 06 6c e9 3d 35 dd 60 3d 6c 80 18 be 21 40 89 be
       0.11397557 0.05489846 -0.14892739 -0.2680674
000250 0e e1 92 be f1 ce 94 3e 4c 28 44 3e d9 69 c0 3e
       -0.28687328 0.29064134 0.19155997 0.37580755
000260 0c 65 53 3e d3 51 48 be 5f a2 29 be f1 ff f5 3d
       0.20644015 -0.19562463 -0.16565846 0.120117076
000270 a1 fc 82 3d 27 00 e0 3e 1d da 19 bd f3 1b 80 3e
       0.063958414 0.43750116 -0.037561525 0.25021324
000280 bc a2 e3 bc 17 a0 73 3e 22 5d b0 be 84 aa 8f be
       -0.027787559 0.23791538 -0.34446055 -0.2805978
000290 55 9f e0 3e 24 92 d8 3e 11 da 95 be bf 51 12 ba
       0.4387156 0.42298996 -0.29267934 -0.0005581639
0002a0 84 b0 02 bd 82 d2 9d bd b6 24 2f 3e 09 4a 3f 3d
       -0.03190662 -0.07706167 0.17103848 0.046701465
0002b0 2e 5d a9 be 6e ce 0a 3e 6c e5 c8 be 3f 4b b0 be
       -0.33078903 0.13555309 -0.39237535 -0.34432408
0002c0 3c ad 98 bd 8a f2 a5 3e 12 0e 85 be a8 0e 11 3e
       -0.07454917 0.32411605 -0.25987297 0.14165747
0002d0 47 ef 9d bd 64 03 7e 3d ae ad b5 3e 04 4d a2 3e
       -0.07711654 0.062014952 0.3548407 0.31699383
0002e0 d4 cf 32 be ca 6b 9c 3e e2 06 a9 3d f9 fc 1c be
       -0.17462093 0.30550987 0.08253266 -0.15330876
0002f0 dc b5 af 3e 43 c8 a3 bd c6 35 e0 bb 21 04 b3 3d
       0.34318435 -0.07997181 -0.006842348 0.08741022
000300 ec a6 eb bd ac 6e d8 be 77 3d 6a be 9c b1 9d be
       -0.11506447 -0.42271936 -0.2287501 -0.30799568
000310 b9 35 b3 be 65 b0 cf 3d b8 3d 4b 3e 92 c2 c0 be
       -0.35001925 0.101410665 0.19847763 -0.37648445
000320 7d 18 8c be ce 4f 43 3e d8 af fb bb 46 71 e2 3e
       -0.27362433 0.19073412 -0.0076808743 0.44227046
000330 62 a4 c8 3e 48 23 43 3d 2a ed b0 be c3 82 9d be
       0.39187914 0.04764107 -0.34555942 -0.30763826
000340 34 6c 8c 3e ec 70 9a be 66 da d0 3e 12 12 bc be
       0.27426302 -0.30164278 0.40791625 -0.36732537
000350 28 f8 1b 3e 10 d0 9d be 4c 11 83 be b0 f6 41 3d
       0.15231383 -0.30822802 -0.25599134 0.0473544
000360 c0 d8 1a 3c 38 02 1f be b7 77 e2 be 8c 04 d4 3e
       0.009451091 -0.1552819 -0.4423196 0.4140972
000370 40 05 dd 3d 1e 61 cb be 90 10 b8 be 80 dd 72 bb
       0.10792017 -0.39722532 -0.35950136 -0.0037058294
000380 6c d9 b0 be a4 99 5b be f0 bf c6 bc b0 d3 9f be
       -0.3454088 -0.21445328 -0.024261445 -0.31216192
000390 08 f4 77 3e 7e 26 bd be ce 06 ba be 84 04 80 3e
       0.24214184 -0.3694343 -0.36333317 0.25003445
0003a0 78 b7 1a be 19 04 bd be d6 f6 89 3e f0 93 b7 bd
       -0.1510905 -0.3691719 0.26946133 -0.08963764
0003b0 b8 e7 2d 3d a0 a6 45 3e 92 40 b1 be 3f ac de 3d
       0.042457312 0.19301844 -0.34619576 0.10872697
0003c0 23 e3 9e be 57 c6 9d be 2b b2 9f 3c e5 25 bc be
       -0.31032667 -0.30815384 0.019494137 -0.3674766
0003d0 32 95 09 3d 58 34 1e bd d9 98 6f be a8 87 b5 be
       0.03358955 -0.038624138 -0.2339815 -0.3545506
0003e0 f1 b9 75 3e 21 fd a3 3e 0a 58 67 bd 3d c6 4a be
       0.23996712 0.3202906 -0.056480445 -0.19802184
0003f0 74 3a e7 be 0c f0 e3 bd 2e cc 6b 3e eb b8 18 3e
       -0.45161784 -0.1112977 0.23027107 0.1491429

lstm.weight_hh_l0 f4 [20, 5]
000000 eb d4 84 3e ea 5a b8 3e 59 06 57 be 8a f5 92 3e
       0.25943694 0.36006862 -0.20998515 0.28702956
000010 a7 d3 4a 3e fb a7 cf be 30 99 a1 3e fa 2d c3 3e
       0.19807301 -0.40557846 0.31562185 0.38121015
000020 b0 16 af bd 7a 6e e4 3e f3 01 88 be be 88 a8 3e
       -0.08549249 0.44615537 -0.26563987 0.32916826
000030 c6 8b 0a 3e 9a 8c c2 be 65 0c c9 3e 3f 9d 3b be
       0.13529882 -0.37997895 0.3926727 -0.18321703
000040 da f6 b5 be 24 5a 2e 3d 14 c0 4b be e9 01 80 3d
       -0.35539895 0.042566434 -0.1989749 0.06250364
000050 e0 7a db 3e 92 52 b8 3e a2 34 9e be 9c 84 13 3e
       0.42867184 0.36000496 -0.3089953 0.14406055
000060 97 23 af 3d df 7c b2 bd 98 0d 3a 3e 6b a6 11 3e
       0.0855171 -0.087152235 0.18169248 0.1422364
000070 07 e0 41 be 24 76 ca 3e 98 73 50 be 00 44 58 3e
       -0.18933116 0.3954326 -0.20356596 0.2111969
000080 0c ba d9 bd c6 c1 81 3e c8 95 56 3e 07 9c a8 be
       -0.10631189 0.2534315 0.20955575 -0.3293154
000090 c0 87 cd 3e fa ea f9 3c 78 bb f7 bd 12 d1 cc 3e
       0.40142632 0.030507553 -0.12096304 0.40003258
0000a0 30 78 96 3d 00 48 68 3b 72 d4 2a be 1c b0 f0 bd
       0.07347143 0.0035443306 -0.16682604 -0.1175234
0000b0 10 8c d8 bc e0 26 af bc ea 92 88 3e 48 66 c6 3e
       -0.026433975 -0.021380842 0.26674587 0.3874991
0000c0 e2 13 bb 3e 32 db 99 be c0 35 5e be b6 9b 85 3e
       0.36538607 -0.30050045 -0.21700191 0.2609536
0000d0 42 3b d3 3e b3 17 7b be b1 9f bb 3d d0 b1 9a be
       0.41256148 -0.2452076 0.09161318 -0.30213785
0000e0 90 80 27 3e 8c 87 00 3e 20 b2 8b 3c d5 d2 a0 be
       0.16357636 0.12551707 0.01705271 -0.31410852
0000f0 88 75 f9 3c 20 e4 3d bc 64 0f 2b bd 88 5a 9f 3d
       0.030451551 -0.011590034 -0.041762725 0.07780939
000100 d8 c2 6e bd da 5f aa 3e 1c ca 9e be 20 5e cd 3e
       -0.058291286 0.33276254 -0.31013572 0.40110874
000110 e5 82 b4 be 10 f0 ac 3d ba d1 38 3e 6d 5b 81 be
       -0.35256115 0.08444226 0.18048754 -0.25265065
000120 b0 03 e3 be 28 13 d0 bd 0e 44 82 be 95 e3 47 3d
       -0.4433875 -0.10159904 -0.25442547 0.048801024
000130 be 55 02 be 4e d4 59 3e f1 14 d2 bc 10 4a 95 3e
       -0.1272802 0.21272394 -0.025644751 0.29158068
000140 a8 2c 9b 3d a8 98 12 bd 60 69 2d bc 90 77 56 3d
       0.07576877 -0.035790116 -0.010584205 0.052360117
000150 28 e9 d3 3e 82 fd 14 be 28 f5 c2 3d 44 91 c2 be
       0.41388822 -0.1454983 0.09519416 -0.38001454
000160 a2 a3 b7 3e fe 2d a1 bd d8 89 58 3e 30 e5 b4 3e
       0.3586703 -0.078701004 0.21146333 0.35331106
000170 b5 1f d9 3e 60 26 e5 3e 58 78 4c be 22 15 3c 3e
       0.42407003 0.4475584 -0.19967782 0.18367437
000180 e0 34 67 bd e3 c4 ea be 29 9a 0e bd 2b e5 b3 3e
       -0.05644691 -0.45853338 -0.034814987 0.3513578

lstm.bias_ih_l0 f4 [20]
000000 04 15 84 be 0a 19 ac be 17 0b 56 3e 45 20 20 3d
       -0.25797284 -0.33612853 0.20902668 0.039093275
000010 d7 83 94 3e 22 ef b3 3c 18 44 14 bd 2e de 30 3e
       0.29006836 0.021964613 -0.03619775 0.17272255
000020 03 99 a6 be 21 18 f9 bd 5d 46 1b 3e f0 f2 a1 bc
       -0.32538614 -0.12162805 0.1516356 -0.019769162
000030 11 75 c6 bd 24 31 49 be 6b 35 5c 3e 5f 1f 33 bd
       -0.096902974 -0.19647652 0.21504752 -0.04373109
000040 e0 5e 12 3c 12 db 8f be 90 d3 ca be 35 71 a6 3e
       0.008933753 -0.28096825 -0.39614534 0.32508245

lstm.bias_hh_l0 f4 [20]
000000 bf 2a 93 3d e6 c8 b9 be 19 b2 b5 3e b1 7e db 3e
       0.071858875 -0.36286086 0.3548744 0.42870095
000010 7d 08 c7 3d 92 58 b8 3b 44 64 15 3e 34 e3 5e 3c
       0.09718416 0.005625793 0.1458903 0.013603974
000020 e2 20 a8 3e ef d8 23 3e 2b af 0c be 9a b7 cf 3e
       0.32837588 0.16000722 -0.13738696 0.40569764
000030 b7 ba e4 3e cc 8d 12 3e 0b 3b 43 3e 9c 71 8f 3d
       0.44673702 0.14311904 0.19065492 0.07004091
000040 70 a3 d6 3d 71 43 04 be 3f 79 ce 3e fc b5 97 be
       0.10480392 -0.12916352 0.40326878 -0.2963103

linear.weight f4 [2, 5]
000000 db 06 b1 be 00 ae 24 bb 1b 4b 0c bd fc ae e6 3d
       -0.34575543 -0.0025128126 -0.034251314 0.11263844
000010 65 da f0 bd dd 34 e6 3e fe a2 ae be 3b f1 44 be
       -0.117604055 0.44962206 -0.34108728 -0.19232647
000020 9f f7 15 be f9 a8 d9 3d
       -0.14645241 0.10627932

linear.bias f4 [2]
000000 af 53 c9 3e 82 1a 06 bf
       0.39321658 -0.523842

exp_avg f4 [20, 34]
000000 f6 23 3d af 6a 79 96 af 57 b7 d3 ae 60 9e 8b af
       -1.7202226e-10 -2.737111e-10 -9.627737e-11 -2.5396485e-10
000010 1f e7 27 af b9 88 f5 ae 4c b1 52 ae 00 00 00 00
       -1.5270672e-10 -1.1165597e-10 -4.7905943e-11 0.0
000020 dc ef 62 2e ea eb 91 ad 19 a2 c0 ab 84 b8 ac ad
       5.159949e-11 -1.6589358e-11 -1.3687412e-12 -1.9636077e-11
000030 c6 74 8a ae 58 74 8a af 7c c0 64 ae c4 ff cf af
       -6.2962566e-11 -2.518472e-10 -5.201216e-11 -3.7834813e-10
000040 5c b6 58 ae 42 f6 aa ad f9 04 9e af 4a 40 89 ad
       -4.927468e-11 -1.9436123e-11 -2.8743566e-10 -1.5603647e-11
000050 4a 40 89 ae 71 6f 84 af d6 5e 42 ac 54 b6 b6 ac
       -6.241459e-11 -2.4089844e-10 -2.7621703e-12 -5.1929936e-12
000060 14 7d d1 ad d3 ed 83 ad 13 32 b5 ae fc bc 23 ae
       -2.3816095e-11 -1.4998591e-11 -8.239822e-11 -3.722976e-11
000070 d1 74 c8 ae 60 dc 0c ae 48 88 03 af 91 ea 59 ae
       -9.115698e-11 -3.2028047e-11 -1.1962797e-10 -4.9548424e-11
000080 fa 71 07 b0 1a 7c 13 af 00 00 00 00 00 00 00 00
       -4.9274684e-10 -1.3413662e-10 0.0 0.0
000090 00 00 00 00 00 00 00 00 00 00 00 00 00 00 00 00
       0.0 0.0 0.0 0.0
0000a0 00 00 00 00 00 00 00 00 00 00 00 00 00 00 00 00
       0.0 0.0 0.0 0.0
0000b0 00 00 00 00 00 00 00 00 00 00 00 00 00 00 00 00
       0.0 0.0 0.0 0.0
0000c0 00 00 00 00 00 00 00 00 00 00 00 00 00 00 00 00
       0.0 0.0 0.0 0.0
0000d0 00 00 00 00 00 00 00 00 00 00 00 00 00 00 00 00
       0.0 0.0 0.0 0.0
0000e0 00 00 00 00 00 00 00 00 00 00 00 00 00 00 00 00
       0.0 0.0 0.0 0.0
0000f0 00 00 00 00 00 00 00 00 00 00 00 00 00 00 00 00
       0.0 0.0 0.0 0.0
000100 00 00 00 00 00 00 00 00 00 00 00 00 00 00 00 00
       0.0 0.0 0.0 0.0
000110 66 f9 2a 38 6f 19 44 38 f6 f2 92 37 02 88 91 38
       4.076343e-05 4.675373e-05 1.7517694e-05 6.939472e-05
000120 58 98 3e 38 3f ef 10 38 ca 95 ff 36 00 00 00 00
       4.544141e-05 3.455509e-05 7.61703e-06 0.0
000130 0f 64 4c b5 45 77 3a 37 a9 cf 74 34 f9 88 67 36
       -7.6141527e-07 1.11142335e-05 2.2799817e-07 3.450141e-06
000140 25 b7 8a 37 0c 5b 39 38 30 ee bd 38 7a 4b 11 37
       1.6536165e-05 4.419223e-05 9.056588e-05 8.660247e-06
000150 7d 58 17 3a 6f 8a 6f 36 4e b0 4d 38 cb 34 00 35
       0.00057733787 3.5694354e-06 4.9040005e-05 4.776054e-07
000160 6f d0 93 34 af 74 b0 38 1f 99 08 36 95 b5 5c 35
       2.753254e-07 8.414068e-05 2.0354707e-06 8.2220623e-07
000170 cc 14 dc 35 72 48 05 36 53 38 3b 35 f2 4a 7e 35
       1.639733e-06 1.9860713e-06 6.974489e-07 9.4731433e-07
000180 6b be 62 37 1b 6b 96 36 95 f0 78 37 b1 7f 8c 36
       1.3514985e-05 4.482817e-06 1.4837967e-05 4.1871904e-06
000190 d9 65 81 39 72 bf 74 38 5e bf ab 2e 58 bd a0 2e
       0.0002468068 5.835243e-05 7.810173e-11 7.309592e-11
0001a0 83 e0 f1 2d 9b b8 fd 2e 99 2e 9d 2e 1b fe 69 2e
       2.7498231e-11 1.15379005e-10 7.147811e-11 5.3203757e-11
0001b0 9b 60 50 2d 00 00 00 00 83 f3 82 ab 13 72 9b 2d
       1.1844882e-11 0.0 -9.304644e-13 1.7672119e-11
0001c0 76 65 c6 2a d5 12 c0 2c e6 a9 23 2e 18 36 89 2e
       3.5242268e-13 5.459059e-12 3.721281e-11 6.239648e-11
0001d0 2d 6c 64 2f 9b 6f ca 2d 91 d2 1e 2f 5d ca e6 2c
       2.0774911e-10 2.3014304e-11 1.4444825e-10 6.55946e-12
0001e0 6b 90 af 2e 2a c2 94 2b 68 a0 ad 2b 86 bd e9 2e
       7.9837324e-11 1.0569924e-12 1.2336911e-12 1.06292794e-10
0001f0 9c 14 21 2c e4 f5 e0 2b 63 13 95 2c 9b ca 81 2c
       2.2890917e-12 1.5984406e-12 4.236987e-12 3.6888942e-12
000200 88 2a c6 2c d5 bd 83 2b ab 90 af 2d e9 96 f4 2c
       5.6322204e-12 9.360799e-13 1.9959442e-11 6.9516515e-12
000210 8e 8b cf 2d 04 f0 0e 2d 6a 6f 47 2f b8 8a 6a 2e
       2.359515e-11 8.12506e-12 1.8138527e-10 5.3328647e-11
000220 12 88 86 b9 1c 5f 91 b9 02 8b df b8 09 53 be b9
       -0.00025659852 -0.00027727417 -0.00010659361 -0.0003630149
000230 e9 3f 70 b9 19 02 2d b9 cc d3 6f b8 00 00 00 00
       -0.00022911992 -0.00016499347 -5.717929e-05 0.0
000240 e6 15 05 36 5e 15 96 b8 3b f1 0b b6 e7 e9 b1 b7
       1.983129e-06 -7.156537e-05 -2.0853029e-06 -2.1208964e-05
000250 a9 22 fb b8 41 d9 7f b9 2a 6b bb b8 e0 88 28 b8
       -0.000119750686 -0.00024399628 -8.936816e-05 -4.0181796e-05
000260 38 7b 1f b9 7d b0 d7 b7 95 d9 a0 b9 d5 36 4b b6
       -0.00015209324 -2.5712181e-05 -0.0003067969 -3.0281274e-06
000270 aa 55 8b b7 22 33 8f b9 4f 14 df b6 ae 6c c4 b6
       -1.6609982e-05 -0.00027313182 -6.648282e-06 -5.853907e-06
000280 5f 50 0d b7 9e e3 4c b7 55 d1 15 b6 bc f0 c7 b7
       -8.422968e-06 -1.2212344e-05 -2.2324577e-06 -2.383475e-05
000290 e3 a5 c6 b8 b0 00 fd b7 8f db cf b8 1c e9 3a b8
       -9.4722745e-05 -3.016027e-05 -9.911425e-05 -4.4562956e-05
0002a0 eb 5f 0b ba 8e 42 a4 ba 19 07 e8 b4 a2 86 d8 b5
       -0.0005316722 -0.0012532042 -4.3218532e-07 -1.6132437e-06
0002b0 f5 47 d1 b4 a8 67 c3 b6 0e b9 d9 b5 40 2c 1b 36
       -3.898164e-07 -5.82352e-06 -1.6221618e-06 2.3122557e-06
0002c0 87 52 75 35 00 00 00 00 91 3d b6 36 3a 6e 99 36
       9.1389705e-07 0.0 5.43119e-06 4.5725874e-06
0002d0 cb e2 2c b2 ad c4 15 b3 00 e2 dc 35 42 0e 0d b7
       -1.0063284e-08 -3.487064e-08 1.6457052e-06 -8.407575e-06
0002e0 3e 7c c7 b8 65 92 e1 36 3b 96 37 b8 ff ff 8d 35
       -9.512201e-05 6.722565e-06 -4.3770513e-05 1.0579823e-06
0002f0 1c ac e3 b5 e0 3f 33 33 96 24 89 33 66 b8 dd 36
       -1.6962908e-06 4.173478e-08 6.3862146e-08 6.60778e-06
000300 23 41 17 33 06 91 42 b3 ca 39 c6 34 16 9d ec b4
       3.521667e-08 -4.5301043e-08 3.692242e-07 -4.407272e-07
000310 d1 86 9a 35 4d bb 83 b4 55 d6 1f b5 12 1e 28 b4
       1.1513131e-06 -2.453693e-07 -5.954401e-07 -1.5657159e-07
000320 7e bb 0a b6 10 c2 ee b5 91 8a 1e b7 a2 1c db b7
       -2.0672737e-06 -1.7788861e-06 -9.449796e-06 -2.6120168e-05
000330 00 00 00 00 00 00 00 00 00 00 00 00 00 00 00 00
       0.0 0.0 0.0 0.0
000340 00 00 00 00 00 00 00 00 00 00 00 00 00 00 00 00
       0.0 0.0 0.0 0.0
000350 00 00 00 00 00 00 00 00 00 00 00 00 00 00 00 00
       0.0 0.0 0.0 0.0
000360 00 00 00 00 00 00 00 00 00 00 00 00 00 00 00 00
       0.0 0.0 0.0 0.0
000370 00 00 00 00 00 00 00 00 00 00 00 00 00 00 00 00
       0.0 0.0 0.0 0.0
000380 00 00 00 00 00 00 00 00 00 00 00 00 00 00 00 00
       0.0 0.0 0.0 0.0
000390 00 00 00 00 00 00 00 00 00 00 00 00 00 00 00 00
       0.0 0.0 0.0 0.0
0003a0 00 00 00 00 00 00 00 00 00 00 00 00 00 00 00 00
       0.0 0.0 0.0 0.0
0003b0 00 00 00 00 00 00 00 00 6e 9e e7 2c 96 43 08 2d
       0.0 0.0 6.583004e-12 7.745712e-12
0003c0 ff 09 41 2c 8d b6 fe 2c 8a 00 e2 2c 56 0d d5 2c
       2.7432499e-12 7.2393814e-12 6.423366e-12 6.0553047e-12
0003d0 2b cf 52 2c 00 00 00 00 11 99 27 ab 4f 87 c8 2b
       2.9957796e-12 0.0 -5.954274e-13 1.424841e-12
0003e0 69 b4 9d 29 98 ec 16 2b e1 c6 a3 2c f1 f1 0f 2d
       7.003497e-14 5.3619045e-13 4.6548186e-12 8.182331e-12
0003f0 d5 63 bb 2b 3a 47 27 2c cb e4 a6 2d b3 ab 22 2b
       1.3314858e-12 2.3771666e-12 1.897362e-11 5.779224e-13

exp_avg_sq f4 [20, 34]
000000 78 bc d8 21 84 0e 6b 22 05 b3 e9 20 29 9b 41 22
       1.4686617e-18 3.1856123e-18 3.95902e-19 2.6238519e-18
000010 46 e0 89 21 cc 55 0e 21 3e f8 e6 1f 00 00 00 00
       9.342846e-19 4.8225023e-19 9.781947e-20 0.0
000020 a4 23 c7 1f d1 06 97 1e 66 12 c1 1a 29 af 9d 1e
       8.433874e-20 1.5990566e-20 7.9852653e-23 1.6695466e-20
000030 bf 4f 49 20 44 64 46 22 75 21 08 20 83 63 ec 22
       1.7051748e-19 2.6887084e-18 1.1530718e-19 6.407329e-18
000040 4a 5b f4 1f 01 13 98 1e a4 eb 81 22 35 07 44 1e
       1.03489045e-19 1.6101486e-20 3.5215014e-18 1.0377644e-20
000050 35 07 44 20 62 83 36 22 71 15 03 1c aa 01 a5 1c
       1.660423e-19 2.4735153e-18 4.3371976e-22 1.0919214e-21
000060 6c 56 e4 1e 5d d8 1f 1e 41 d3 aa 20 93 7e 8b 1f
       2.4176182e-20 8.462133e-21 2.8938916e-19 5.907819e-20
000070 9b c6 cd 20 db a7 4a 1f 6d 08 34 21 41 14 f7 1f
       3.4859777e-19 4.291401e-20 6.0997524e-19 1.04642076e-19
000080 52 e7 3e 23 ad 59 62 21 00 00 00 00 00 00 00 00
       1.0348905e-17 7.6690463e-19 0.0 0.0
000090 00 00 00 00 00 00 00 00 00 00 00 00 00 00 00 00
       0.0 0.0 0.0 0.0
0000a0 00 00 00 00 00 00 00 00 00 00 00 00 00 00 00 00
       0.0 0.0 0.0 0.0
0000b0 00 00 00 00 00 00 00 00 00 00 00 00 00 00 00 00
       0.0 0.0 0.0 0.0
0000c0 00 00 00 00 00 00 00 00 00 00 00 00 00 00 00 00
       0.0 0.0 0.0 0.0
0000d0 00 00 00 00 00 00 00 00 00 00 00 00 00 00 00 00
       0.0 0.0 0.0 0.0
0000e0 00 00 00 00 00 00 00 00 00 00 00 00 00 00 00 00
       0.0 0.0 0.0 0.0
0000f0 00 00 00 00 00 00 00 00 00 00 00 00 00 00 00 00
       0.0 0.0 0.0 0.0
000100 00 00 00 00 00 00 00 00 00 00 00 00 00 00 00 00
       0.0 0.0 0.0 0.0
000110 28 94 f6 32 4f 2e 0e 33 92 98 a3 31 a0 47 80 33
       2.8705543e-08 3.310407e-08 4.7612696e-09 5.973493e-08
000120 63 dd 06 33 ae 3a 97 32 58 be 94 30 00 00 00 00
       3.1400656e-08 1.7605398e-08 1.0822516e-09 0.0
000130 f2 4b 16 2e 07 f5 07 31 6a 3d 85 2b a4 7b 4e 2f
       3.4173504e-11 1.9784367e-09 9.467264e-13 1.8779517e-10
000140 9c da b9 31 b7 aa fd 32 ad f6 a5 33 2b 89 86 30
       5.4090616e-09 2.9530709e-08 7.728281e-08 9.788769e-10
000150 30 96 2d 37 69 f9 79 2f cc a4 2b 33 f8 f8 33 2c
       1.0346572e-05 2.2735026e-10 3.9963922e-08 2.5575635e-12
000160 53 f5 93 2f 4d 78 94 33 13 86 25 2e 32 fa 60 2d
       2.6913458e-10 6.9136696e-08 3.763574e-11 1.278848e-11
000170 ca 96 1e 2e d3 ff 54 2e e5 09 32 2d de b7 cb 2d
       3.605897e-11 4.8430437e-11 1.0120326e-11 2.3160081e-11
000180 a3 6b 5d 31 22 8e ce 2f 7b c7 54 31 f7 16 b0 2f
       3.2220917e-09 3.7572173e-10 3.0963452e-09 3.203053e-10
000190 12 7e 88 35 d1 0b 46 34 cc 02 80 2a cd 38 33 2a
       1.0169481e-06 1.8444486e-07 2.2739308e-13 1.59181e-13
0001a0 dd 59 ca 28 7a c2 df 2a 52 cb 2b 2a 1c a9 bf 29
       2.2465477e-14 3.9747703e-13 1.5258392e-13 8.51144e-14
0001b0 3c 99 b7 27 00 00 00 00 8e 3f 06 24 c2 7e 2e 28
       5.095884e-15 0.0 2.911045e-17 9.6864265e-15
0001c0 cf c4 95 22 19 7d 7d 26 e2 92 4c 29 4e dd ed 29
       4.059491e-18 8.7946547e-16 4.54245e-14 1.05633045e-13
0001d0 2f 31 41 2b f7 ab 5b 28 3a 3c a9 2a 9e f3 b8 26
       6.863563e-13 1.2194231e-14 3.006222e-13 1.2833597e-15
0001e0 30 d0 61 2a ed 78 28 24 77 da d0 23 6c 2c e7 2a
       2.0056244e-13 3.653162e-17 2.2643929e-17 4.1064667e-13
0001f0 46 a5 88 25 9f be bb 24 f8 40 1e 26 ec 47 f6 25
       2.3704233e-16 8.142125e-17 5.490531e-16 4.2722934e-16
000200 1f 37 89 26 ed 9e 6f 23 3a 32 37 28 4c f7 ae 26
       9.521225e-16 1.298987e-17 1.0169432e-14 1.2140705e-15
000210 8c 44 a0 28 ac 8d ce 26 6e 2e 3a 2b be a7 85 29
       1.7793296e-14 1.4332522e-15 6.614491e-13 5.935485e-14
000220 37 8f 9d 34 5b 6d b1 34 02 51 54 33 89 6c 05 35
       2.934773e-07 3.3048386e-07 4.9433773e-08 4.97043e-07
000230 bb 6c 53 34 87 36 13 34 a9 e4 73 32 00 00 00 00
       1.9690462e-07 1.3710279e-07 1.4196453e-08 0.0
000240 94 1e f1 2e 43 95 bf 32 1a 62 7f 2d 72 fe 06 31
       1.0964843e-10 2.2303203e-08 1.4516855e-11 1.9644202e-09
000250 61 4d 90 33 9f bc 96 34 00 29 9a 33 a5 f4 49 32
       6.719598e-08 2.8076917e-07 7.178642e-08 1.1755366e-08
000260 cf ae 56 34 88 01 2e 31 b3 33 dc 34 ec 9f 66 2e
       1.9993898e-07 2.5321203e-09 4.101581e-07 5.2437985e-11
000270 7e 89 78 31 4b d4 06 35 e7 6b 8a 2f c7 60 18 2f
       3.6166905e-09 5.0227817e-07 2.5178723e-10 1.3858702e-10
000280 79 0a ec 2f eb c7 30 30 51 6a 61 2e ed 56 6c 32
       4.293559e-10 6.431253e-10 5.1253505e-11 1.3756773e-08
000290 79 b5 1d 33 a1 ae 8f 31 f5 c7 66 33 d6 70 ae 31
       3.671946e-08 4.1817008e-09 5.3732908e-08 5.0768945e-09
0002a0 3f b8 cf 35 05 9a 1d 36 9e 4a 62 32 13 89 75 32
       1.5476325e-06 2.3484474e-06 1.3171897e-08 1.4292044e-08
0002b0 53 9a 0e 31 cd 16 c6 32 ad 6b 30 32 42 2c ce 31
       2.0751443e-09 2.3060602e-08 1.0269031e-08 6.0004206e-09
0002c0 b7 83 f3 2f 00 00 00 00 06 fe 12 2e 81 06 83 30
       4.4295032e-10 0.0 3.3422175e-11 9.533353e-10
0002d0 4c 70 24 2b 57 03 b4 2e f0 b9 85 31 ae ee 57 32
       5.842035e-13 8.1860456e-11 3.891948e-09 1.2568917e-08
0002e0 b1 74 12 35 bf fc 3d 30 9a 2e 6a 33 77 d3 f2 2e
       5.4559047e-07 6.9116973e-10 5.4524754e-08 1.10424496e-10
0002f0 f7 89 91 32 38 a7 b3 2b 51 0c 24 30 4d 9b da 32
       1.694296e-08 1.2765127e-12 5.9680355e-10 2.5449163e-08
000300 4a 06 f2 2d f4 2e c0 2c 49 9f 71 2d 2b 20 d8 2d
       2.7515008e-11 5.462181e-12 1.3734632e-11 2.4570642e-11
000310 a7 6a 19 2f 9c a8 b1 2d 49 17 c8 30 0d c1 41 2f
       1.395316e-10 2.0197448e-11 1.4558533e-09 1.7621833e-10
000320 15 f7 22 31 74 0c 70 2f e0 bc d5 33 ae cd 19 33
       2.3714553e-09 2.1832297e-10 9.9529416e-08 3.5810153e-08
000330 00 00 00 00 00 00 00 00 00 00 00 00 00 00 00 00
       0.0 0.0 0.0 0.0
000340 00 00 00 00 00 00 00 00 00 00 00 00 00 00 00 00
       0.0 0.0 0.0 0.0
000350 00 00 00 00 00 00 00 00 00 00 00 00 00 00 00 00
       0.0 0.0 0.0 0.0
000360 00 00 00 00 00 00 00 00 00 00 00 00 00 00 00 00
       0.0 0.0 0.0 0.0
000370 00 00 00 00 00 00 00 00 00 00 00 00 00 00 00 00
       0.0 0.0 0.0 0.0
000380 00 00 00 00 00 00 00 00 00 00 00 00 00 00 00 00
       0.0 0.0 0.0 0.0
000390 00 00 00 00 00 00 00 00 00 00 00 00 00 00 00 00
       0.0 0.0 0.0 0.0
0003a0 00 00 00 00 00 00 00 00 00 00 00 00 00 00 00 00
       0.0 0.0 0.0 0.0
0003b0 00 00 00 00 00 00 00 00 ca 99 20 28 df 3c 60 28
       0.0 0.0 8.915132e-15 1.2447697e-14
0003c0 c6 de ed 26 ab 9c 7f 28 62 e7 28 28 39 06 00 28
       1.6505561e-15 1.41893155e-14 9.3760466e-15 7.106777e-15
0003d0 1e 81 ca 26 00 00 00 00 72 87 57 24 4b 53 0f 26
       1.4051563e-15 0.0 4.673542e-17 4.9725974e-16
0003e0 c0 07 3f 21 b3 1d 93 24 c7 03 73 27 ab 3d 4e 28
       6.4723574e-19 6.38014e-17 3.3725072e-15 1.1448669e-14
0003f0 dc 03 9f 26 95 d1 70 26 b0 34 ec 29 0a da a1 24
       1.1033887e-15 8.3550763e-16 1.0489645e-13 7.019199e-17

exp_avg f4 [20, 5]
000000 71 40 02 2b 00 00 00 00 00 00 00 00 33 7b f1 17
       4.627471e-13 0.0 0.0 1.560536e-24
000010 35 98 03 2b 00 00 00 00 00 00 00 00 00 00 00 00
       4.675178e-13 0.0 0.0 0.0
000020 00 00 00 00 00 00 00 00 57 14 44 b4 00 00 00 00
       0.0 0.0 -1.8261322e-07 0.0
000030 a5 f6 bc b3 61 7c 5d ac f6 50 7b b4 a6 c0 35 aa
       -8.7992966e-08 -3.1475033e-12 -2.340565e-07 -1.6142868e-13
000040 00 00 00 00 17 bc 35 aa 25 c5 8e a7 0b d8 61 a6
       0.0 -1.6141286e-13 -3.962666e-15 -7.835535e-16
000050 8b a8 d6 2e 00 00 00 00 ce 83 2d 27 21 c4 1f 1c
       9.7615326e-11 0.0 2.4080024e-15 5.286218e-22
000060 18 57 2d 35 c9 fa a3 b2 00 00 00 00 57 82 17 2e
       6.457426e-07 -1.9089741e-08 0.0 3.444919e-11
000070 f8 36 b2 b4 69 a7 25 b2 00 00 00 00 00 00 00 00
       -3.319508e-07 -9.642329e-09 0.0 0.0
000080 00 00 00 00 00 00 00 00 00 00 00 00 43 f6 38 85
       0.0 0.0 0.0 -8.6968696e-36
000090 00 00 00 00 b7 9f b8 a9 00 00 00 00 1d 9d dc 89
       0.0 -8.1989476e-14 0.0 -5.3110822e-33
0000a0 2f 19 40 92 00 00 00 00 00 00 00 00 22 05 6e 8f
       -6.061556e-28 0.0 0.0 -1.17352945e-29
0000b0 9c 63 63 96 04 00 00 00 00 00 00 00 00 00 00 00
       -1.8368345e-25 6e-45 0.0 0.0
0000c0 40 d9 b3 13 e4 ac de 33 bb f7 b3 a9 00 00 00 00
       4.5400178e-27 1.0369129e-07 -7.992171e-14 0.0
0000d0 00 00 00 00 00 00 00 00 c1 79 aa ad 00 00 00 00
       0.0 0.0 -1.9380832e-11 0.0
0000e0 00 00 00 00 00 00 00 00 00 00 00 00 00 00 00 00
       0.0 0.0 0.0 0.0
0000f0 f0 e3 a0 34 00 00 00 00 ce 0b 49 34 0b 97 33 03
       2.996817e-07 0.0 1.8723878e-07 5.277676e-37
000100 c2 ca d6 34 ff 32 2b 06 00 00 00 00 00 00 00 00
       4.0008132e-07 3.2198991e-35 0.0 0.0
000110 04 00 00 80 01 86 9c 11 a7 c2 9e b0 00 00 00 00
       -6e-45 2.4695047e-28 -1.1551337e-09 0.0
000120 f5 45 9d 2e c6 b2 a1 89 5a 8b 6b 31 4a 84 05 38
       7.15196e-11 -3.8927458e-33 3.4276213e-09 3.1832875e-05
000130 00 00 00 00 54 cd 2e 33 80 8c 6e 30 68 5d 67 38
       0.0 4.0699277e-08 8.678356e-10 5.5161683e-05
000140 00 00 00 00 00 00 00 00 00 00 00 00 00 00 00 00
       0.0 0.0 0.0 0.0
000150 00 00 00 00 3e aa 8f 34 00 00 00 00 20 53 0d b5
       0.0 2.6759693e-07 0.0 -5.2647556e-07
000160 71 61 b4 b3 a8 de f5 34 75 33 f7 b2 00 00 00 00
       -8.399628e-08 4.579681e-07 -2.8777984e-08 0.0
000170 82 0c a5 b2 05 11 cb b2 fe 63 cb b2 31 7f 09 35
       -1.9214216e-08 -2.364005e-08 -2.3677782e-08 5.1221565e-07
000180 00 00 00 00 97 da ad 33 fd 06 a1 30 85 b5 23 37
       0.0 8.0957015e-08 1.1716278e-09 9.75782e-06

exp_avg_sq f4 [20, 5]
000000 d4 d9 90 18 00 00 00 00 00 00 00 00 46 78 01 00
       3.7443078e-24 0.0 0.0 1.34981e-40
000010 ac 1c 93 18 00 00 00 00 00 00 00 00 00 00 00 00
       3.802756e-24 0.0 0.0 0.0
000020 00 00 00 00 00 00 00 00 7a c6 8c 28 00 00 00 00
       0.0 0.0 1.5629198e-14 0.0
000030 a9 68 3b 2a 51 4f c8 22 9f 7e 6f 28 a5 51 15 21
       1.6645248e-13 5.429409e-18 1.3294622e-14 5.059122e-19
000040 00 00 00 00 5e 44 15 21 8d 5c b8 1b 5e cb 91 19
       0.0 5.0573647e-19 3.0500056e-22 1.5074788e-23
000050 bf 25 62 21 00 00 00 00 d4 2e 86 16 d6 3c 29 00
       7.6621735e-19 0.0 2.167842e-25 3.787079e-39
000060 41 d2 b2 2b 2f 4d a6 2b 00 00 00 00 9f ce fc 26
       1.2706018e-12 1.1816432e-12 0.0 1.7542017e-15
000070 35 3a 3f 2a 24 74 9a 2a 00 00 00 00 00 00 00 00
       1.6984402e-13 2.7436484e-13 0.0 0.0
000080 00 00 00 00 00 00 00 00 00 00 00 00 00 00 00 00
       0.0 0.0 0.0 0.0
000090 00 00 00 00 3f 6a 4e 21 00 00 00 00 00 00 00 00
       0.0 6.993613e-19 0.0 0.0
0000a0 00 00 00 00 00 00 00 00 00 00 00 00 00 00 00 00
       0.0 0.0 0.0 0.0
0000b0 02 00 00 00 00 00 00 00 00 00 00 00 00 00 00 00
       3e-45 0.0 0.0 0.0
0000c0 00 00 00 00 e6 34 f1 27 b0 83 5d 14 00 00 00 00
       0.0 6.694829e-15 1.11836194e-26 0.0
0000d0 00 00 00 00 00 00 00 00 90 45 46 1e 00 00 00 00
       0.0 0.0 1.0496418e-20 0.0
0000e0 00 00 00 00 00 00 00 00 00 00 00 00 00 00 00 00
       0.0 0.0 0.0 0.0
0000f0 9e 37 92 2a 00 00 00 00 c2 c5 14 28 00 00 00 00
       2.5973402e-13 0.0 8.258532e-15 0.0
000100 50 a7 f2 28 00 00 00 00 00 00 00 00 00 00 00 00
       2.6939957e-14 0.0 0.0 0.0
000110 00 00 00 00 00 00 00 00 12 f3 41 20 00 00 00 00
       0.0 0.0 1.6428161e-19 0.0
000120 39 ba e6 1e 00 00 00 00 a2 ba 92 2b c4 9e 7e 2e
       2.4429217e-20 0.0 1.0425725e-12 5.7893926e-11
000130 00 00 00 00 d2 3d b1 2a fe bb e3 29 e0 06 1e 2f
       0.0 3.1484413e-13 1.01134365e-13 1.4372459e-10
000140 00 00 00 00 00 00 00 00 00 00 00 00 00 00 00 00
       0.0 0.0 0.0 0.0
000150 00 00 00 00 74 86 4c 2a 00 00 00 00 0b b2 8e 2a
       0.0 1.8165488e-13 0.0 2.534781e-13
000160 b4 bb 3e 29 16 1c 7a 2a a1 07 89 2a 00 00 00 00
       4.235128e-14 2.2214205e-13 2.4341382e-13 0.0
000170 d5 c6 97 28 43 50 9a 29 84 54 43 29 2d 84 2a 2b
       1.6850597e-14 6.852897e-14 4.3372004e-14 6.0579563e-13
000180 00 00 00 00 c8 f3 1f 29 5d 94 6d 26 63 3b ac 2d
       0.0 3.551654e-14 8.242696e-16 1.9580509e-11

exp_avg f4 [20]
000000 17 a2 40 ac 00 00 00 00 f6 a1 fa 34 82 4d 52 2b
       -2.737482e-12 0.0 4.668397e-07 7.471455e-13
000010 6f 78 41 b6 94 f9 61 b2 00 00 00 00 f2 b6 a9 29
       -2.8829343e-06 -1.3153471e-08 0.0 7.5368436e-14
000020 7d 1c a8 1d 9c e8 07 b4 5e f0 4c 2e 00 00 00 00
       4.4498686e-21 -1.2657478e-07 4.659772e-11 0.0
000030 a4 c1 da b4 52 15 3f 92 32 d4 6a 32 e9 32 7f b8
       -4.0746556e-07 -6.0295252e-28 1.366884e-08 -6.084415e-05
000040 00 00 00 00 52 f2 f4 b4 67 ba ef 32 20 ed aa b7
       0.0 -4.5624853e-07 2.7908028e-08 -2.0376e-05

exp_avg_sq f4 [20]
000000 64 12 c1 1b 00 00 00 00 f0 b3 70 2c f7 a9 98 23
       3.1941056e-22 0.0 3.4205937e-12 1.6551856e-17
000010 80 bd 1f 2e e5 03 d5 2b 00 00 00 00 8b 6d b4 21
       3.6320724e-11 1.5135641e-12 0.0 1.222627e-18
000020 19 fa b1 08 7c 0f 48 28 78 4f 8a 1f 00 00 00 00
       1.0711598e-33 1.1105588e-14 5.8576743e-20 0.0
000030 53 14 05 2b 00 00 00 00 e9 1c a5 2b 5d c2 6e 2f
       4.72793e-13 0.0 1.1731979e-12 2.1715026e-10
000040 00 00 00 00 28 fa 81 2b b2 34 ae 2a 32 31 c1 2e
       0.0 9.235434e-13 3.0945174e-13 8.785363e-11

exp_avg f4 [20]
000000 17 a2 40 ac 00 00 00 00 f6 a1 fa 34 82 4d 52 2b
       -2.737482e-12 0.0 4.668397e-07 7.471455e-13
000010 6c 78 41 b6 1a f9 61 b2 00 00 00 00 f2 b6 a9 29
       -2.8829336e-06 -1.3153363e-08 0.0 7.5368436e-14
000020 7d 1c a8 1d 9c e8 07 b4 5b f0 4c 2e 00 00 00 00
       4.4498686e-21 -1.2657478e-07 4.659771e-11 0.0
000030 a4 c1 da b4 52 15 3f 92 2e d4 6a 32 e8 32 7f b8
       -4.0746556e-07 -6.0295252e-28 1.3668837e-08 -6.0844148e-05
000040 00 00 00 00 54 f2 f4 b4 65 ba ef 32 1f ed aa b7
       0.0 -4.5624859e-07 2.7908024e-08 -2.0375997e-05

exp_avg_sq f4 [20]
000000 66 12 c1 1b 00 00 00 00 ee b3 70 2c f7 a9 98 23
       3.1941061e-22 0.0 3.4205932e-12 1.6551856e-17
000010 82 bd 1f 2e e7 03 d5 2b 00 00 00 00 89 6d b4 21
       3.632073e-11 1.5135643e-12 0.0 1.2226268e-18
000020 1a fa b1 08 7c 0f 48 28 76 4f 8a 1f 00 00 00 00
       1.0711599e-33 1.1105588e-14 5.857673e-20 0.0
000030 51 14 05 2b 00 00 00 00 e9 1c a5 2b 5b c2 6e 2f
       4.7279287e-13 0.0 1.1731979e-12 2.1715023e-10
000040 00 00 00 00 29 fa 81 2b b2 34 ae 2a 31 31 c1 2e
       0.0 9.235435e-13 3.0945174e-13 8.785362e-11

exp_avg f4 [2, 5]
000000 af 11 a5 3b 00 00 00 00 aa 11 ed b9 9e d3 46 b7
       0.0050375084 0.0 -0.00045217323 -1.1850991e-05
000010 05 6b 53 3d ae 11 a5 bb 00 00 00 00 a7 11 ed 39
       0.051615734 -0.005037508 0.0 0.00045217315
000020 9c d3 46 37 05 6b 53 bd
       1.1850989e-05 -0.051615734

exp_avg_sq f4 [2, 5]
000000 5f a6 15 36 00 00 00 00 84 15 d2 34 ae 81 00 32
       2.229957e-06 0.0 3.9131203e-07 7.480066e-09
000010 14 8b 18 39 5f a6 15 36 00 00 00 00 84 15 d2 34
       0.0001454766 2.229957e-06 0.0 3.9131203e-07
000020 ae 81 00 32 15 8b 18 39
       7.480066e-09 0.00014547662

exp_avg f4 [2]
000000 f8 55 89 be f8 55 89 3e
       -0.268234 0.268234

exp_avg_sq f4 [2]
000000 c7 e8 05 3c c7 e8 05 3c
       0.008173174 0.008173174
