MimicApp/lightning_logs/version_2/checkpoints/epoch=0-step=12.ckpt (torch, 16172 bytes, 18 tensors)

lstm.weight_ih_l0 f4 [20, 34]
0	0xbbe76411	-0.0070614894
1	0x3c3dfa0f	0.011595263
2	0xbe01e3f5	-0.12684615
3	0x3dd44e06	0.10366444
4	0x3ee542fd	0.4477767
5	0x3ee5e674	0.44902384
6	0x3bc2e457	0.0059476304
7	0x3e1a8cd8	0.1509279
8	0xbd09e72f	-0.03366774
9	0xbe16ad76	-0.14714608
10	0xbed1bb29	-0.40963104
11	0x3c1ba3b5	0.00949948
12	0x3ecb5274	0.39711344
13	0xbe4b95ad	-0.19881316
14	0xbdd8d619	-0.10587711
15	0xbdcbc7a6	-0.09950189
16	0x3ed0777d	0.40716162
17	0xbea5ee39	-0.32408312
18	0xbe16aca2	-0.14714292
19	0x3ccfd7b1	0.025371404
20	0xbe025ceb	-0.12730758
21	0xbd998696	-0.07496373
22	0x3ebbe24f	0.36696097
23	0xbe365930	-0.1780746
24	0x3ed3a5e6	0.41337508
25	0xbe222686	-0.15835008
26	0x3e8bd249	0.27308872
27	0xbe742c90	-0.23845124
28	0x3ec4ef5f	0.38463876
29	0xbdc6198b	-0.09672841
30	0xbe00d7a6	-0.12582263
31	0x3d9a9be9	0.07549269
32	0x3e086195	0.13318475
33	0x3e96bd66	0.29441375
34	0xbeba21fc	-0.36354053
35	0x3ec0e660	0.37675762
36	0xbe316e43	-0.17327218
37	0x3ebb8309	0.3662341
38	0x3e9d8b50	0.3077035
39	0xbe20c4b9	-0.15700044
40	0x3ecc6aaf	0.39925143
41	0xbea1c8cb	-0.31598505
42	0xbcb9f2ce	-0.022698786
43	0x3ea3fa31	0.32026818
44	0xbdc4f847	-0.09617668
45	0xbe51ea82	-0.20499614
46	0x3da79c48	0.08184105
47	0x3ecdea4c	0.40217817
48	0x3ed75c5a	0.42062646
49	0x3e10900e	0.14117453
50	0xbe9fee47	-0.3123648
51	0xbe77f89f	-0.24215935
52	0xbe9c0a3c	-0.30476558
53	0x3ed6f90a	0.41986877
54	0x3d12ee73	0.035871934
55	0xbed61b75	-0.41817823
56	0x3bcf3f94	0.006324718
57	0xbeaf5170	-0.3424182
58	0xbca789dd	-0.02045148
59	0x3de4cd35	0.11171953
60	0x3e8a32ff	0.26992032
61	0x3e6a4fc4	0.2288199
62	0x3e31d426	0.17366084
63	0x3e334d17	0.17509876
64	0xbde69224	-0.11258343
65	0xbd9cb300	-0.07651329
66	0xbd046b06	-0.032328628
67	0xbedfa6d2	-0.4368196
68	0xbedd3197	-0.43201897
69	0xbda9af38	-0.082853734
70	0xbdb850b8	-0.08999771
71	0x3ea5232e	0.32253402
72	0x3e695558	0.22786462
73	0xbe3414e0	-0.17586088
74	0x3ea6e09c	0.32593238
75	0x3e9451a0	0.28968525
76	0xbe12f57a	-0.14351454
77	0xbe1097a2	-0.14120343
78	0x3db2bf48	0.0872789
79	0x3e1c6fe8	0.15277064
80	0xbdfd4454	-0.12366548
81	0xbe9e4ca6	-0.30917853
82	0x3e831b40	0.25606728
83	0x3c52b920	0.01286152
84	0x3e10f958	0.14157617
85	0x3e7703d4	0.24122554
86	0xbe8a2bfa	-0.26986676
87	0xbe49642a	-0.19667116
88	0xbec92a4f	-0.3929009
89	0xbcfaeb30	-0.030629724
90	0xbe2a20e4	-0.1661411
91	0xbed873e0	-0.42275906
92	0x3d837f30	0.064207435
93	0x3ee47028	0.44616818
94	0xbe8fdcae	-0.28098053
95	0xbecdfd4f	-0.40232322
96	0xbd845280	-0.06461048
97	0xbed6fe11	-0.41990712
98	0xbece59a2	-0.4030276
99	0x3ebbb15a	0.36658746
100	0xbe3e8c3a	-0.1860818
101	0xbee33185	-0.44373718
102	0xbe42560b	-0.18978135
103	0xbeb371a7	-0.35047647
104	0x3e39b8df	0.18136929
105	0xbee8fa1f	-0.45503327
106	0xbec2d1f3	-0.38050804
107	0xbdac92cf	-0.08426439
108	0xbeabb5e5	-0.33537212
109	0x3cb524d0	0.02211228
110	0x3e262bbd	0.16227622
111	0xbeaf015b	-0.34180722
112	0x3e004cdf	0.12529324
113	0xbdf405c9	-0.11915166
114	0x3e927ca8	0.2861073
115	0x3d8ed11b	0.069734775
116	0x3e7848ec	0.24246567
117	0xbedf1d24	-0.4357692
118	0xbeb6c7a2	-0.35699183
119	0xbeabc97a	-0.33552152
120	0xbe1951c9	-0.14972605
121	0xbea68b35	-0.32528082
122	0x3ea143ee	0.3149714
123	0x3edfc54b	0.4370521
124	0x3e37d57c	0.17952532
125	0xbede94f2	-0.4347301
126	0x3eab0bbd	0.33407393
127	0x3ea8ef2c	0.32994974
128	0xbee4d487	-0.44693395
129	0xbed10c19	-0.40829542
130	0x3df08576	0.11744206
131	0xbe6cb7d5	-0.23117001
132	0xbe510402	-0.20411685
133	0x3e7c1bc6	0.2461997
134	0x3e7d2ea9	0.2472483
135	0x3d0f53d7	0.034992065
136	0xbdb2f06c	-0.08737263
137	0x3d55fff0	0.052246034
138	0x3e6d2cfc	0.23161691
139	0x3df3b7e8	0.11900312
140	0xbc35e0c0	-0.011100948
141	0xbe36f51a	-0.17866936
142	0xbe22d6d2	-0.1590226
143	0x3e449b60	0.19199896
144	0x3e819c46	0.2531454
145	0x3e32d1d0	0.1746285
146	0x3e751550	0.23933911
147	0x3c0d52e0	0.008625716
148	0xbeb10d40	-0.3458042
149	0xbdc3b1c4	-0.095553905
150	0x3dc25ba0	0.09490132
151	0xbecb89c0	-0.39753532
152	0xbdd61f64	-0.10455206
153	0x3de3ec10	0.1112901
154	0x3db8bae0	0.090200186
155	0xbc422460	-0.011849493
156	0xbdf107c4	-0.11769059
157	0x3e542c70	0.20720077
158	0xbdf0a194	-0.117495686
159	0x3e074504	0.13209921
160	0x3e661c54	0.22471744
161	0xbe981ae0	-0.29708004
162	0xbee47ac2	-0.44624907
163	0x3e8ef06a	0.27917796
164	0xbe4dfeb7	-0.20116697
165	0x3de812b8	0.11331695
166	0xbdb29f40	-0.08721781
167	0xbeb3c800	-0.35113525
168	0x3e1c29ac	0.15250272
169	0x3e8fc23c	0.28077877
170	0xbe3242c4	-0.17408282
171	0xbec43c46	-0.38327235
172	0xbeb90b14	-0.36141264
173	0x3e6ce844	0.23135477
174	0x3ec1d692	0.37859017
175	0x3ead50bc	0.33850658
176	0x3cda2780	0.026630163
177	0x3dfb1000	0.12258911
178	0xbe4ae3b9	-0.19813432
179	0xbea22bbc	-0.31673992
180	0x3d81f1e8	0.06344968
181	0xbe085ad6	-0.13315901
182	0x3dc8db18	0.09807414
183	0xbeb2421c	-0.34816062
184	0x3eab4084	0.3344766
185	0x3ed279b2	0.4110847
186	0x3c8abf40	0.016936898
187	0xbe100fce	-0.14068529
188	0x3e1ef814	0.15524322
189	0x3e90f18e	0.28309292
190	0xbb79f080	-0.0038137734
191	0xbea6b5a8	-0.32560468
192	0xbe9ad6fc	-0.30242145
193	0xbd15d5f8	-0.03658101
194	0x3cb79fc0	0.022415042
195	0xbe7aaf7c	-0.24481004
196	0x3e3d0788	0.18459904
197	0xbdb216d4	-0.0869576
198	0xbe4eae1b	-0.20183603
199	0x3eb0b752	0.34514862
200	0xbdf85234	-0.12125054
201	0xbec523ef	-0.38503978
202	0x3e075854	0.13217288
203	0xbe47aad6	-0.19498762
204	0x3d8a7fea	0.06762679
205	0x3dfbf0c2	0.1230178
206	0xbebab4ce	-0.36466068
207	0xbd4cebc8	-0.050029546
208	0x3de92821	0.11384607
209	0x3da4da98	0.08049506
210	0x3e1d9827	0.15390073
211	0xbe8c40df	-0.27393243
212	0x3e489b0f	0.195904
213	0xbea4e56b	-0.32206282
214	0xbe4757ac	-0.19467038
215	0x3e4d92fe	0.20075604
216	0x3e60fbae	0.21971008
217	0x3e22ba76	0.15891442
218	0xbe0e6a57	-0.13907753
219	0xbecf625e	-0.40504736
220	0xbcde4f95	-0.027137557
221	0xbe4d7919	-0.20065726
222	0x3dbec0e6	0.09314136
223	0xbd460c8d	-0.048351813
224	0xbdad854a	-0.084726885
225	0x3ece2ee4	0.4027015
226	0x3e2b65f9	0.16738118
227	0x3e238af3	0.15970974
228	0x3e49edd5	0.19719632
229	0x3e7b0d42	0.24516776
230	0xbe0dc706	-0.13845453
231	0x3ed9d15e	0.42542547
232	0xbd87b9c9	-0.066272326
233	0x3dac3bec	0.08409867
234	0x3de64b72	0.11244859
235	0xbe9fa417	-0.31179878
236	0xbdc6ecbf	-0.097131245
237	0xbe06b1f9	-0.13153829
238	0xbedaf9e2	-0.4276877
239	0xbd421628	-0.04738441
240	0x3e560620	0.20900774
241	0x3cde1810	0.027111083
242	0x3e19a230	0.15003276
243	0xbeabfcbb	-0.33591256
244	0x3e8b1c8e	0.27170223
245	0x3eb0e222	0.34547526
246	0x3df1bb90	0.11803353
247	0x3e3bc9e4	0.18338734
248	0xbe998774	-0.29986155
249	0x3e233730	0.15939021
250	0xbb85d2c0	-0.0040839612
251	0x3dc175d0	0.09446299
252	0xbee32ba8	-0.44369245
253	0x3ecca440	0.39969063
254	0x3ecae872	0.39630467
255	0xbebb0e04	-0.3653413

lstm.weight_hh_l0 f4 [20, 5]
0	0xbe9c2956	-0.30500287
1	0xbd020edc	-0.031752452
2	0xbe9ae84a	-0.30255347
3	0x3e9525ce	0.29130405
4	0xbdd9b63c	-0.106304616
5	0x3e8bc717	0.2730033
6	0x3e9acb5b	0.30233273
7	0xbecf362d	-0.4047102
8	0xbdc194b3	-0.0945219
9	0x3ec254dd	0.3795537
10	0x3ebbefd4	0.36706412
11	0x3e9cc95a	0.3062237
12	0xbd107de0	-0.035276294
13	0xbe907c2f	-0.28219745
14	0x3eb1f776	0.3475911
15	0x3edc3db2	0.4301582
16	0xbe85378e	-0.26018947
17	0x3e445d28	0.19176161
18	0x3e64c48c	0.22340602
19	0xbe4c3753	-0.1994298
20	0xbe927bbc	-0.28610027
21	0xbe6591ae	-0.22418854
22	0xbe368dd2	-0.17827538
23	0x3d97cf30	0.07412565
24	0xbde805f4	-0.113292605
25	0xbec5ed76	-0.3865773
26	0xbe6173fd	-0.22016902
27	0xbe8f42e6	-0.27980727
28	0x3e34874c	0.17629737
29	0x3d045a08	0.032312423
30	0xbeae564f	-0.34050223
31	0xbeb312c4	-0.34975255
32	0x3db37968	0.08763391
33	0x3e7d015c	0.2470755
34	0xbe745705	-0.2386132
35	0x3e5eb180	0.21747398
36	0x3ec30852	0.38092285
37	0xbe6a1f05	-0.22863396
38	0x3d5ba870	0.05362743
39	0x3ecc7346	0.39931697
40	0xbeb4d720	-0.35320377
41	0x3e3e0120	0.18555117
42	0x3e56a270	0.20960402
43	0xbe0559e7	-0.13022576
44	0x3e144b07	0.14481746
45	0xbedb43e3	-0.4282523
46	0xbeaa0dce	-0.33213657
47	0xbd2ef9f8	-0.042718858
48	0xbbf10afa	-0.007356045
49	0xbe17bb18	-0.14817464
50	0x3e984a4e	0.2974419
51	0x3e27cdf4	0.16387159
52	0x3e335508	0.17512906
53	0xbdf22a0b	-0.11824425
54	0x3e43fcfc	0.19139475
55	0xbe609a24	-0.219338
56	0xbd00fb78	-0.03148982
57	0x3ed11622	0.40837198
58	0x3dbe2740	0.0928483
59	0xbdb845f0	-0.089977145
60	0xbd6eba08	-0.058282882
61	0xbea33b66	-0.31881255
62	0x3e2545a0	0.16139841
63	0x3da5bb80	0.080924034
64	0x3e64541c	0.2229771
65	0x3c4f4e00	0.012652874
66	0x3ed984b0	0.42484045
67	0xbed109ef	-0.4082789
68	0xbe30bb62	-0.17258981
69	0x3e63929c	0.22223896
70	0x3b8c2175	0.0042764493
71	0x3ead158e	0.33805507
72	0x3b8dbd00	0.004325509
73	0xbcfe1ac3	-0.03101862
74	0x3ea32ab3	0.31868514
75	0x3ecfc63b	0.40580925
76	0x3ea16139	0.31519488
77	0xbdccfd4c	-0.1000925
78	0x3da560b8	0.08075088
79	0xbe1a9b3e	-0.15098283
80	0x3e05af44	0.1305514
81	0xbd96d245	-0.073643245
82	0x3ea17624	0.31535447
83	0x3e724bc6	0.23661718
84	0x3dfc2b89	0.12312991
85	0x3e1f0e0c	0.15532702
86	0xbcfbe260	-0.030747592
87	0x3ee487bc	0.44634807
88	0x3e7b8ea0	0.24566126
89	0xbe8d3bcb	-0.2758468
90	0x3d9e1cc0	0.077203274
91	0xbcbf10da	-0.023323465
92	0x3ee4c6e8	0.44683003
93	0xbe1d9ae8	-0.15391123
94	0xbebe8dc2	-0.37217528
95	0x3e8dd048	0.27697968
96	0xbdea155c	-0.11429855
97	0x3e7a1004	0.24420172
98	0x3edda2e0	0.43288326
99	0x3db467d0	0.08808863

lstm.bias_ih_l0 f4 [20]
0	0xbe9874a3	-0.29776487
1	0xbc34b3d1	-0.0110292
2	0x3d534d28	0.051587254
3	0xbd1d35f8	-0.038381547
4	0xbe980112	-0.29688317
5	0xbe164994	-0.14676505
6	0xbeb97d02	-0.36228186
7	0xbe3a17d8	-0.18173158
8	0x3e52df8b	0.20593087
9	0xbe5e4e63	-0.2170959
10	0xbe85ab4c	-0.26107252
11	0x3d563490	0.05229622
12	0xbe7e42eb	-0.24830215
13	0x3e75b798	0.23995817
14	0x3d0b84d6	0.03406223
15	0x3e5ce97a	0.21573439
16	0xbe88c08f	-0.2670941
17	0xbeac19e0	-0.3361349
18	0x3e757cd2	0.23973396
19	0xbe7c255b	-0.24623625

lstm.bias_hh_l0 f4 [20]
0	0xbe86c28d	-0.26320305
1	0xbe7123fd	-0.23548885
2	0xbea4f8fc	-0.3222121
3	0x3e86839d	0.26272288
4	0x3e334650	0.17507291
5	0xbd7df248	-0.061998636
6	0xbebce060	-0.36889935
7	0xbec5b22a	-0.3861249
8	0x3e70814f	0.23486827
9	0x3dfd5e8e	0.123715505
10	0x3e9a6a10	0.30159044
11	0x3e031654	0.12801486
12	0xbd8e0090	-0.06933701
13	0x3eaebad0	0.34126902
14	0xbeac2db3	-0.33628616
15	0xbe8de933	-0.2771698
16	0x3ea1c28c	0.3159374
17	0x3e8d218e	0.27564663
18	0x3e6ab4ae	0.22920486
19	0x3ec48702	0.38384253

linear.weight f4 [2, 5]
0	0x3e270321	0.16309787
1	0x3ea3c840	0.31988716
2	0x3eb913c0	0.3614788
3	0x3e9928e3	0.29914007
4	0x3dad0fc6	0.08450274
5	0xbe5906fd	-0.21194072
6	0xbeb98b1a	-0.3623894
7	0xbe9baf3a	-0.30407125
8	0xbe74c8a3	-0.23904662
9	0xbd84b37e	-0.06479548

linear.bias f4 [2]
0	0xbd833796	-0.064070866
1	0x3eaab655	0.33342233

exp_avg f4 [20, 34]
0	0xb2aa2049	-1.9805286e-08
1	0xb2ade18a	-2.0242414e-08
2	0xb200ac04	-7.489692e-09
3	0xb2f8ed52	-2.897892e-08
4	0xb2bdc496	-2.2091893e-08
5	0xb29c9275	-1.8227391e-08
6	0xb15fad3a	-3.2549239e-09
7	0x00000000	0.0
8	0x305e9152	8.096964e-10
9	0xb1842649	-3.846058e-09
10	0xaeb20ddd	-8.0969655e-11
11	0xb0cc7bea	-1.4878172e-09
12	0xb200ac04	-7.489692e-09
13	0xb2ac2466	-2.0039987e-08
14	0xb4cb8ca8	-3.7914037e-07
15	0xb1bbca9d	-5.4654508e-09
16	0xb3026927	-3.036362e-08
17	0xb0e1598a	-1.6396353e-09
18	0xb2bd87bf	-2.2064226e-08
19	0xaf058a66	-1.2145449e-10
20	0xaede9152	-1.0121205e-10
21	0xb2e04e76	-2.6112712e-08
22	0xb010ab41	-5.263026e-10
23	0xb0320ddd	-6.4775724e-10
24	0xb0ac7d6c	-1.2550294e-09
25	0xb093737b	-1.0728479e-09
26	0xaf5e9152	-2.024241e-10
27	0xaffcc889	-4.5981022e-10
28	0xb1e90022	-6.7812076e-09
29	0xb130a9bf	-2.570786e-09
30	0xb1e4d3cf	-6.659753e-09
31	0xb102c22c	-1.9027864e-09
32	0xb3260e6d	-3.8663007e-08
33	0xb3166835	-3.5019372e-08
34	0xbd325fdb	-0.043548446
35	0xbd475b66	-0.04867115
36	0xbc97cfbc	-0.018531673
37	0xbd77b4d4	-0.060475186
38	0xbd15120d	-0.036394168
39	0xbd0bb3f3	-0.03410716
40	0xbc0abad8	-0.008467399
41	0x00000000	0.0
42	0x3a245edb	0.0006270238
43	0xbc4ec510	-0.012620226
44	0xb992f591	-0.0002803025
45	0xbb71ae60	-0.0036877617
46	0xbcaf3fff	-0.02139282
47	0xbd2c3cab	-0.042050045
48	0xbde75c5f	-0.11296915
49	0xbbd50147	-0.0065003964
50	0xbd3eb390	-0.046557963
51	0xbb8016a0	-0.003908947
52	0xbd58e512	-0.052952833
53	0xb9c8cecf	-0.00038301057
54	0xba15325e	-0.0005691404
55	0xbd7f9710	-0.062399924
56	0xba928f08	-0.0011181543
57	0xba722783	-0.0009237455
58	0xba9707fd	-0.0011522766
59	0xbb03c211	-0.0020104686
60	0xba1c6d88	-0.0005967249
61	0xba932af2	-0.0011228009
62	0xbc6e73e6	-0.0145539995
63	0xbb9db35a	-0.00481264
64	0xbc9591ca	-0.018257994
65	0xbbb112d8	-0.0054038577
66	0xbe2e70a9	-0.17035164
67	0xbdb4edec	-0.088344425
68	0x00000000	0.0
69	0x00000000	0.0
70	0x00000000	0.0
71	0x00000000	0.0
72	0x00000000	0.0
73	0x00000000	0.0
74	0x00000000	0.0
75	0x00000000	0.0
76	0x00000000	0.0
77	0x00000000	0.0
78	0x00000000	0.0
79	0x00000000	0.0
80	0x00000000	0.0
81	0x00000000	0.0
82	0x00000000	0.0
83	0x00000000	0.0
84	0x00000000	0.0
85	0x00000000	0.0
86	0x00000000	0.0
87	0x00000000	0.0
88	0x00000000	0.0
89	0x00000000	0.0
90	0x00000000	0.0
91	0x00000000	0.0
92	0x00000000	0.0
93	0x00000000	0.0
94	0x00000000	0.0
95	0x00000000	0.0
96	0x00000000	0.0
97	0x00000000	0.0
98	0x00000000	0.0
99	0x00000000	0.0
100	0x00000000	0.0
101	0x00000000	0.0
102	0x3dc1ae0d	0.09457026
103	0x3de1bd30	0.11022413
104	0x3d2cc164	0.04217662
105	0x3df78ab9	0.12087006
106	0x3da2088d	0.07911787
107	0x3d9a0cba	0.07521959
108	0x3cad3fd1	0.021148594
109	0x00000000	0.0
110	0x39b3280e	0.00034171384
111	0x3cd4bbfa	0.02596854
112	0x3a0f5985	0.00054683565
113	0x3c09d2a3	0.008412036
114	0x3d52d375	0.051471192
115	0x3dcf281a	0.10115071
116	0x3cf802e1	0.03027481
117	0x3ce97264	0.028496929
118	0x3da6f573	0.081522845
119	0x3c19699c	0.009363558
120	0x3df8e621	0.121532686
121	0x3aba1f81	0.0014200063
122	0x3a8d7f1c	0.0010795328
123	0x3e29ac78	0.16569698
124	0x3afef910	0.0019452889
125	0x3b15789d	0.0022807487
126	0x3b782701	0.0037865045
127	0x3b9dbb48	0.0048135854
128	0x3a2215d3	0.00061830616
129	0x3b31ae29	0.0027111864
130	0x3d0fdeae	0.035124473
131	0x3c424bd0	0.011858895
132	0x3d078487	0.033085372
133	0x3c56978f	0.013097658
134	0x3ed1c7b7	0.40972683
135	0x3e8e6b36	0.2781617
136	0x00000000	0.0
137	0x00000000	0.0
138	0x00000000	0.0
139	0x00000000	0.0
140	0x00000000	0.0
141	0x00000000	0.0
142	0x00000000	0.0
143	0x00000000	0.0
144	0x00000000	0.0
145	0x00000000	0.0
146	0x00000000	0.0
147	0x00000000	0.0
148	0x00000000	0.0
149	0x00000000	0.0
150	0x00000000	0.0
151	0x00000000	0.0
152	0x00000000	0.0
153	0x00000000	0.0
154	0x00000000	0.0
155	0x00000000	0.0
156	0x00000000	0.0
157	0x00000000	0.0
158	0x00000000	0.0
159	0x00000000	0.0
160	0x00000000	0.0
161	0x00000000	0.0
162	0x00000000	0.0
163	0x00000000	0.0
164	0x00000000	0.0
165	0x00000000	0.0
166	0x00000000	0.0
167	0x00000000	0.0
168	0x00000000	0.0
169	0x00000000	0.0
170	0x26b964a9	1.2864238e-15
171	0x26edaf00	1.6492612e-15
172	0x2625552b	5.73613e-16
173	0x2700f17f	1.7894484e-15
174	0x26d4ba12	1.476089e-15
175	0x26be259b	1.3194091e-15
176	0x25a19ff6	2.8037442e-16
177	0x00000000	0.0
178	0xa5851a52	-2.3089658e-16
179	0x258e9c32	2.4738915e-16
180	0x22f36354	6.597045e-18
181	0x250855d7	1.1825203e-16
182	0x262660e7	5.7724147e-16
183	0x26eb4e88	1.6327687e-15
184	0x260e9c32	4.947783e-16
185	0x25c7a77a	3.4634484e-16
186	0x27181e15	2.1110545e-15
187	0x24ebc83a	1.022542e-16
188	0x2708ab06	1.8966503e-15
189	0x23368a80	9.895568e-18
190	0x23181e15	8.246307e-18
191	0x277600a4	3.4139705e-15
192	0x24d1295c	9.070937e-17
193	0x23e42d1f	2.4738919e-17
194	0x24e7faae	1.0060495e-16
195	0x24be259b	8.246307e-17
196	0x22b68a80	4.947784e-18
197	0x242cc4d5	3.7463278e-17
198	0x2642a9b1	6.7537246e-16
199	0x2596374e	2.6058328e-16
200	0x265663fd	7.4381674e-16
201	0x24cd5bd1	8.906012e-17
202	0x27c54703	5.4755475e-15
203	0x26d5ea4e	1.4843352e-15
204	0xbba43da0	-0.005012229
205	0xbbf7e77f	-0.0075654383
206	0xbb39c80f	-0.0028348004
207	0xbc0a7116	-0.008449813
208	0xbb901b29	-0.004397769
209	0xbb758673	-0.0037464171
210	0xba95df40	-0.0011434332
211	0x00000000	0.0
212	0xb9772983	-0.0002357122
213	0xbb0ce9d2	-0.0021501672
214	0xb81e3a6f	-3.7724556e-05
215	0xba167158	-0.00057389354
216	0xbb5521cd	-0.0032521368
217	0xbbb313f7	-0.0054650265
218	0xbcaf1bde	-0.021375593
219	0xbb06c674	-0.0020565065
220	0xbbfaa0f5	-0.007648582
221	0xba29f6b6	-0.0006483601
222	0xbbfad38d	-0.0076546133
223	0xb9042282	-0.00012601356
224	0xb878c1aa	-5.930817e-05
225	0xbc7a0981	-0.015261055
226	0xb923234a	-0.00015558038
227	0xb91ea5a4	-0.0001512976
228	0xb9aeeef9	-0.00033365915
229	0xb9967280	-0.0002869554
230	0xb880fbf6	-6.150447e-05
231	0xb9382804	-0.00017562514
232	0xbb39a9e3	-0.002833002
233	0xba7fa2f5	-0.00097517605
234	0xbb26aeb9	-0.0025433733
235	0xba340b0f	-0.0006868103
236	0xbcee9e12	-0.029128108
237	0xbc5a10b7	-0.013309649
238	0x00000000	0.0
239	0x00000000	0.0
240	0x00000000	0.0
241	0x00000000	0.0
242	0x00000000	0.0
243	0x00000000	0.0
244	0x00000000	0.0
245	0x00000000	0.0
246	0x00000000	0.0
247	0x00000000	0.0
248	0x00000000	0.0
249	0x00000000	0.0
250	0x00000000	0.0
251	0x00000000	0.0
252	0x00000000	0.0
253	0x00000000	0.0
254	0x00000000	0.0
255	0x00000000	0.0

exp_avg_sq f4 [20, 34]
0	0x25010d4b	1.119347e-16
1	0x2506cfba	1.1693028e-16
2	0x2393a540	1.6007758e-17
3	0x258a253f	2.3964423e-16
4	0x25209244	1.3927345e-16
5	0x24da9d9c	9.480943e-17
6	0x225f14e6	3.02332e-18
7	0x00000000	0.0
8	0x205ce003	1.8708844e-19
9	0x229bbbf3	4.2211833e-18
10	0x1d0d5c2b	1.8708844e-21
11	0x213a70e3	6.3168656e-19
12	0x2393a540	1.6007758e-17
13	0x250420f2	1.1460337e-16
14	0x2938bd97	4.102065e-14
15	0x231d3e7a	8.524217e-18
16	0x2597a9b2	2.6309315e-16
17	0x21626e73	7.6717957e-19
18	0x25202b62	1.3892486e-16
19	0x1d9f07b3	4.209491e-21
20	0x1d5ce003	2.9232569e-21
21	0x256056f7	1.9458368e-16
22	0x1fbaa3b1	7.904487e-20
23	0x200d5c2b	1.197366e-19
24	0x2104a9bf	4.4947997e-19
25	0x20c1e30c	3.284572e-19
26	0x1e5ce003	1.16930276e-20
27	0x1f8e7578	6.0333675e-20
28	0x23721140	1.3122499e-17
29	0x220b28f0	1.8859685e-18
30	0x2369795a	1.26566525e-17
31	0x2198790c	1.0331961e-18
32	0x25f5e71e	4.2657336e-16
33	0x25c9bd13	3.4996064e-16
34	0x39082851	0.0001298499
35	0x3928dd8d	0.00016104263
36	0x37c4e2ee	2.3470693e-05
37	0x397dcf07	0.00024205084
38	0x38b5f993	8.6772394e-05
39	0x38ae1a06	8.301814e-05
40	0x36a355f2	4.867784e-06
41	0x00000000	0.0
42	0x3316d61c	3.5119328e-08
43	0x3734c488	1.0774595e-05
44	0x31fc1856	7.336932e-09
45	0x35789433	9.260286e-07
46	0x3805d30a	3.1906216e-05
47	0x38f689a8	0.000117558346
48	0x3a8d7411	0.0010792037
49	0x36321ad0	2.6539674e-06
50	0x39235453	0.00015576305
51	0x35893590	1.0222884e-06
52	0x394852e1	0.00019104361
53	0x3236b222	1.0634297e-08
54	0x32d671b2	2.4964582e-08
55	0x398f1c3f	0.0002729613
56	0x33bd653c	8.819413e-08
57	0x337bb9f1	5.8609604e-08
58	0x33ba83bd	8.685263e-08
59	0x349234c1	2.7233003e-07
60	0x332fa77b	4.0897685e-08
61	0x33bd123e	8.8043166e-08
62	0x377cfd06	1.5079282e-05
63	0x35dd90e5	1.6507953e-06
64	0x37c035e9	2.2913287e-05
65	0x3622420e	2.417833e-06
66	0x3b0f9fb3	0.0021915257
67	0x3a19acd5	0.0005862241
68	0x00000000	0.0
69	0x00000000	0.0
70	0x00000000	0.0
71	0x00000000	0.0
72	0x00000000	0.0
73	0x00000000	0.0
74	0x00000000	0.0
75	0x00000000	0.0
76	0x00000000	0.0
77	0x00000000	0.0
78	0x00000000	0.0
79	0x00000000	0.0
80	0x00000000	0.0
81	0x00000000	0.0
82	0x00000000	0.0
83	0x00000000	0.0
84	0x00000000	0.0
85	0x00000000	0.0
86	0x00000000	0.0
87	0x00000000	0.0
88	0x00000000	0.0
89	0x00000000	0.0
90	0x00000000	0.0
91	0x00000000	0.0
92	0x00000000	0.0
93	0x00000000	0.0
94	0x00000000	0.0
95	0x00000000	0.0
96	0x00000000	0.0
97	0x00000000	0.0
98	0x00000000	0.0
99	0x00000000	0.0
100	0x00000000	0.0
101	0x00000000	0.0
102	0x39e3918d	0.00043405258
103	0x3a1c04ec	0.0005951661
104	0x38b808d7	8.77545e-05
105	0x3a3e887e	0.0007268264
106	0x39a33e23	0.00031136078
107	0x39a67c4a	0.0003175459
108	0x37c34f2a	2.3282675e-05
109	0x00000000	0.0
110	0x344e803a	1.9231894e-07
111	0x380abb6b	3.307631e-05
112	0x32821840	1.514502e-08
113	0x366b35d4	3.504906e-06
114	0x390029be	0.00012222581
115	0x39fd26e7	0.00048284905
116	0x383b96ce	4.4724722e-05
117	0x384e6c54	4.9215116e-05
118	0x39a5c733	0.00031619667
119	0x368e1073	4.2338447e-06
120	0x3a3f6467	0.0007301033
121	0x3430b3bd	1.6456666e-07
122	0x339ef2f2	7.40164e-08
123	0x3ab0db8e	0.0013493167
124	0x34635fd0	2.1175879e-07
125	0x348cd28c	2.6230225e-07
126	0x353e55c6	7.090533e-07
127	0x35989b51	1.1370086e-06
128	0x328fa7a6	1.6723629e-08
129	0x34c45603	3.6570427e-07
130	0x387a088f	5.9612616e-05
131	0x36e7c76d	6.9075527e-06
132	0x385c35d8	5.2502233e-05
133	0x370afff2	8.285033e-06
134	0x3c0f5fac	0.008750837
135	0x3b864be8	0.004098404
136	0x00000000	0.0
137	0x00000000	0.0
138	0x00000000	0.0
139	0x00000000	0.0
140	0x00000000	0.0
141	0x00000000	0.0
142	0x00000000	0.0
143	0x00000000	0.0
144	0x00000000	0.0
145	0x00000000	0.0
146	0x00000000	0.0
147	0x00000000	0.0
148	0x00000000	0.0
149	0x00000000	0.0
150	0x00000000	0.0
151	0x00000000	0.0
152	0x00000000	0.0
153	0x00000000	0.0
154	0x00000000	0.0
155	0x00000000	0.0
156	0x00000000	0.0
157	0x00000000	0.0
158	0x00000000	0.0
159	0x00000000	0.0
160	0x00000000	0.0
161	0x00000000	0.0
162	0x00000000	0.0
163	0x00000000	0.0
164	0x00000000	0.0
165	0x00000000	0.0
166	0x00000000	0.0
167	0x00000000	0.0
168	0x00000000	0.0
169	0x00000000	0.0
170	0x0d1940de	4.7224846e-31
171	0x0d7be553	7.7621386e-31
172	0x0bf3c3a7	9.389458e-32
173	0x0d9444de	9.137783e-31
174	0x0d49c65c	6.2176673e-31
175	0x0d21369c	4.967769e-31
176	0x0ae8f409	2.2432583e-32
177	0x00000000	0.0
178	0x0a9dfd32	1.5213792e-32
179	0x0ab55d6e	1.746481e-32
180	0x058410e3	1.2419424e-35
181	0x09a5c18a	3.990431e-33
182	0x0bf6db9e	9.5086196e-32
183	0x0d76e212	7.6076725e-31
184	0x0bb55d6e	6.985924e-32
185	0x0b31bcd9	3.4231033e-32
186	0x0dce5a62	1.2717489e-30
187	0x0977e1b1	2.9837663e-33
188	0x0da690ec	1.0265429e-30
189	0x061492ff	2.7943702e-35
190	0x05ce5a62	1.9405348e-35
191	0x0e86eb25	3.3259986e-30
192	0x09431170	2.348047e-33
193	0x076825ad	1.7464812e-34
194	0x096ff32d	2.888292e-33
195	0x0921369c	1.9405347e-33
196	0x051492ff	6.9859255e-36
197	0x080517af	4.005107e-34
198	0x0c28f63f	1.3016351e-31
199	0x0ac939fa	1.9377404e-32
200	0x0c4cf184	1.5788267e-31
201	0x093c0a09	2.2634395e-33
202	0x0f2d87f0	8.555739e-30
203	0x0d4c091e	6.287333e-31
204	0x362035a9	2.3873092e-06
205	0x36b6bbe7	5.4458974e-06
206	0x354da41a	7.660725e-07
207	0x36e2f1bd	6.763467e-06
208	0x35f20b95	1.8033776e-06
209	0x35ae85a0	1.30029e-06
210	0x3403aea7	1.2263864e-07
211	0x00000000	0.0
212	0x31b044e8	5.130108e-09
213	0x34ec4cfb	4.4014436e-07
214	0x2f166d80	1.3681323e-10
215	0x33069c9c	3.134174e-08
216	0x3588993d	1.0177388e-06
217	0x363b5575	2.7914914e-06
218	0x38322ba8	4.2479165e-05
219	0x34e2393a	4.2137418e-07
220	0x36bb328a	5.578918e-06
221	0x332b56a5	3.9892843e-08
222	0x36ba64ba	5.554958e-06
223	0x30d7a3d7	1.5689875e-09
224	0x2fb82564	3.3495973e-10
225	0x37bce08f	2.2515915e-05
226	0x311c8d51	2.2781317e-09
227	0x31131c3c	2.1407365e-09
228	0x323a1cd9	1.0833184e-08
229	0x32073e16	7.872151e-09
230	0x2f7b0bb8	2.283248e-10
231	0x3149d83f	2.9372271e-09
232	0x354d577e	7.649577e-07
233	0x33c2aa65	9.0648236e-08
234	0x3521dcfe	6.029876e-07
235	0x334394f8	4.5537462e-08
236	0x38aecdde	8.335312e-05
237	0x378e6f83	1.6979646e-05
238	0x00000000	0.0
239	0x00000000	0.0
240	0x00000000	0.0
241	0x00000000	0.0
242	0x00000000	0.0
243	0x00000000	0.0
244	0x00000000	0.0
245	0x00000000	0.0
246	0x00000000	0.0
247	0x00000000	0.0
248	0x00000000	0.0
249	0x00000000	0.0
250	0x00000000	0.0
251	0x00000000	0.0
252	0x00000000	0.0
253	0x00000000	0.0
254	0x00000000	0.0
255	0x00000000	0.0

exp_avg f4 [20, 5]
0	0xaf5e908b	-2.0242134e-10
1	0xaf298198	-1.5416501e-10
2	0x00000000	0.0
3	0x00000000	0.0
4	0x2f5e9086	2.0242127e-10
5	0xa7fa1e53	-6.9421817e-15
6	0xb93834af	-0.00017567234
7	0x00000000	0.0
8	0x36f688ca	7.3472957e-06
9	0xb9a89ff2	-0.00032162626
10	0x00000000	0.0
11	0x00000000	0.0
12	0x00000000	0.0
13	0x00000000	0.0
14	0x00000000	0.0
15	0x00000000	0.0
16	0x33da21cc	1.0157564e-07
17	0x00000000	0.0
18	0xb91df8f1	-0.00015065425
19	0x3a24dfc2	0.0006289446
20	0x00000000	0.0
21	0x00000000	0.0
22	0x00000000	0.0
23	0x00000000	0.0
24	0x00000000	0.0
25	0x00000000	0.0
26	0x00000000	0.0
27	0x00000000	0.0
28	0xa391a99b	-1.5792762e-17
29	0x2367b41f	1.2560677e-17
30	0xb5711391	-8.980797e-07
31	0xb861996c	-5.3787066e-05
32	0x00000000	0.0
33	0x2797bc9d	4.2115414e-15
34	0xb868e8d7	-5.552996e-05
35	0x00000000	0.0
36	0x00000000	0.0
37	0x00000000	0.0
38	0x00000000	0.0
39	0x00000000	0.0
40	0x00000000	0.0
41	0x07379a78	1.3812784e-34
42	0x00000000	0.0
43	0xb81ea425	-3.7823007e-05
44	0x37746eba	1.4569314e-05
45	0x00000000	0.0
46	0xb6a90312	-5.03695e-06
47	0x00000000	0.0
48	0x331b8dc6	3.6217692e-08
49	0xb69e3c85	-4.7158123e-06
50	0x00000000	0.0
51	0x00000000	0.0
52	0x00000000	0.0
53	0x35bd3375	1.4096573e-06
54	0xb5967ad9	-1.1211624e-06
55	0x00000000	0.0
56	0x01912a6c	5.332546e-38
57	0x00000000	0.0
58	0x00000001	1e-45
59	0x991ae798	-8.008383e-24
60	0x00000000	0.0
61	0x00000000	0.0
62	0x00000000	0.0
63	0x00000000	0.0
64	0x00000000	0.0
65	0x00000000	0.0
66	0x00000000	0.0
67	0x00000000	0.0
68	0x00000000	0.0
69	0x00000000	0.0
70	0xacff3e14	-7.254428e-12
71	0xb82d8b13	-4.1375937e-05
72	0x00000000	0.0
73	0x3601334e	1.9252361e-06
74	0xb7feb5ae	-3.036376e-05
75	0xb7129c08	-8.738607e-06
76	0xb71c362c	-9.3109375e-06
77	0x00000000	0.0
78	0x0fd57404	2.1048109e-29
79	0x374c9097	1.21930125e-05
80	0x00000000	0.0
81	0xb626aaf9	-2.4835447e-06
82	0x00000000	0.0
83	0x36bf402b	5.6997137e-06
84	0xb6a7dbec	-5.00259e-06
85	0x00000000	0.0
86	0x00000000	0.0
87	0x00000000	0.0
88	0x00000000	0.0
89	0x00000000	0.0
90	0x26564827	7.434395e-16
91	0x37c060c0	2.2933236e-05
92	0x00000000	0.0
93	0xb7e8a59c	-2.7733673e-05
94	0xb83e8ed1	-4.5432538e-05
95	0x00000000	0.0
96	0x00000000	0.0
97	0x00000000	0.0
98	0x00000000	0.0
99	0x00000000	0.0

exp_avg_sq f4 [20, 5]
0	0x1e5cde77	1.1692708e-20
1	0x1e001cfa	6.782256e-21
2	0x00000000	0.0
3	0x00000000	0.0
4	0x1e5cde6c	1.1692699e-20
5	0x10975a07	5.969771e-29
6	0x3148fb25	2.924659e-09
7	0x00000000	0.0
8	0x2e415681	4.395995e-11
9	0x31eeee14	6.953778e-09
10	0x00000000	0.0
11	0x00000000	0.0
12	0x00000000	0.0
13	0x00000000	0.0
14	0x00000000	0.0
15	0x00000000	0.0
16	0x28175b83	8.402027e-15
17	0x00000000	0.0
18	0x30b4cf95	1.3155722e-09
19	0x32d33718	2.4588687e-08
20	0x00000000	0.0
21	0x00000000	0.0
22	0x00000000	0.0
23	0x00000000	0.0
24	0x00000000	0.0
25	0x00000000	0.0
26	0x00000000	0.0
27	0x00000000	0.0
28	0x06bd3638	7.1173566e-35
29	0x066f6151	4.50224e-35
30	0x2a0a217d	1.2268481e-13
31	0x2f95888a	2.719996e-10
32	0x00000000	0.0
33	0x0f85cd62	1.3193923e-29
34	0x2fb5a5e9	3.3041594e-10
35	0x00000000	0.0
36	0x00000000	0.0
37	0x00000000	0.0
38	0x00000000	0.0
39	0x00000000	0.0
40	0x00000000	0.0
41	0x00000000	0.0
42	0x00000000	0.0
43	0x2f78f4b9	2.2642412e-10
44	0x2f1b799e	1.4140375e-10
45	0x00000000	0.0
46	0x2c8e4499	4.0434986e-12
47	0x00000000	0.0
48	0x25660a15	1.9952736e-16
49	0x2c62adbf	3.221298e-12
50	0x00000000	0.0
51	0x00000000	0.0
52	0x00000000	0.0
53	0x2b1f9d09	5.670608e-13
54	0x2ac9ef17	3.5870674e-13
55	0x00000000	0.0
56	0x00000000	0.0
57	0x00000000	0.0
58	0x00000000	0.0
59	0x00000000	0.0
60	0x00000000	0.0
61	0x00000000	0.0
62	0x00000000	0.0
63	0x00000000	0.0
64	0x00000000	0.0
65	0x00000000	0.0
66	0x00000000	0.0
67	0x00000000	0.0
68	0x00000000	0.0
69	0x00000000	0.0
70	0x191ad763	8.0051104e-24
71	0x2fd6e480	3.9088732e-10
72	0x00000000	0.0
73	0x2cab91d9	4.8763047e-12
74	0x2fab6828	3.1178726e-10
75	0x2ecfc617	9.448458e-11
76	0x2eeb8fdb	1.07121166e-10
77	0x00000000	0.0
78	0x00000000	0.0
79	0x2f4a0f6f	1.8377276e-10
80	0x00000000	0.0
81	0x2cb0b9b1	5.0228367e-12
82	0x00000000	0.0
83	0x2de8b3c6	2.6455182e-11
84	0x2db342ab	2.037955e-11
85	0x00000000	0.0
86	0x00000000	0.0
87	0x00000000	0.0
88	0x00000000	0.0
89	0x00000000	0.0
90	0x0bda4389	8.407216e-32
91	0x2eafebca	7.999963e-11
92	0x00000000	0.0
93	0x2e94c0c8	6.7645056e-11
94	0x2f43dfd9	1.7814673e-10
95	0x00000000	0.0
96	0x00000000	0.0
97	0x00000000	0.0
98	0x00000000	0.0
99	0x00000000	0.0

exp_avg f4 [20]
0	0xaf5e9152	-2.024241e-10
1	0xba036540	-0.0005012341
2	0x00000000	0.0
3	0x3a95e4c7	0.0011435979
4	0x00000000	0.0
5	0x23981e15	1.6492613e-17
6	0xb8a224cf	-7.731618e-05
7	0x00000000	0.0
8	0x3841b8d1	4.618691e-05
9	0xb6bc449d	-5.6108242e-06
10	0xb5c595dd	-1.472126e-06
11	0x994b6584	-1.0515355e-23
12	0x00000000	0.0
13	0x00000000	0.0
14	0xb9297f11	-0.00016164432
15	0xb75d3429	-1.3184771e-05
16	0xb6dc67a4	-6.5685763e-06
17	0x00000000	0.0
18	0x386144b0	5.370815e-05
19	0x00000000	0.0

exp_avg_sq f4 [20]
0	0x1e5ce003	1.16930276e-20
1	0x32930c92	1.7118769e-08
2	0x00000000	0.0
3	0x338a7837	6.447993e-08
4	0x00000000	0.0
5	0x06ce5a62	7.7621393e-35
6	0x301c7991	5.6925226e-10
7	0x00000000	0.0
8	0x2faba4a7	3.122171e-10
9	0x2c990fbd	4.350269e-12
10	0x2b2e12c3	6.1843255e-13
11	0x00000000	0.0
12	0x00000000	0.0
13	0x00000000	0.0
14	0x311981e3	2.2338262e-09
15	0x2f6c4e05	2.1491793e-10
16	0x2e1a872d	3.5135606e-11
17	0x00000000	0.0
18	0x2f8980d7	2.50117e-10
19	0x00000000	0.0

exp_avg f4 [20]
0	0xaf5e9152	-2.024241e-10
1	0xba03653f	-0.000501234
2	0x00000000	0.0
3	0x3a95e4c7	0.0011435979
4	0x00000000	0.0
5	0x23981e15	1.6492613e-17
6	0xb8a224cf	-7.731618e-05
7	0x00000000	0.0
8	0x3841b8d1	4.618691e-05
9	0xb6bc4499	-5.6108224e-06
10	0xb5c595dd	-1.472126e-06
11	0x994b6584	-1.0515355e-23
12	0x00000000	0.0
13	0x00000000	0.0
14	0xb9297f11	-0.00016164432
15	0xb75d3429	-1.3184771e-05
16	0xb6dc67a3	-6.568576e-06
17	0x00000000	0.0
18	0x386144b2	5.3708158e-05
19	0x00000000	0.0

exp_avg_sq f4 [20]
0	0x1e5ce003	1.16930276e-20
1	0x32930c91	1.7118767e-08
2	0x00000000	0.0
3	0x338a7837	6.447993e-08
4	0x00000000	0.0
5	0x06ce5a62	7.7621393e-35
6	0x301c7991	5.6925226e-10
7	0x00000000	0.0
8	0x2faba4a7	3.122171e-10
9	0x2c990fb8	4.3502667e-12
10	0x2b2e12c3	6.1843255e-13
11	0x00000000	0.0
12	0x00000000	0.0
13	0x00000000	0.0
14	0x311981e4	2.2338265e-09
15	0x2f6c4e03	2.149179e-10
16	0x2e1a872a	3.5135596e-11
17	0x00000000	0.0
18	0x2f8980d8	2.5011704e-10
19	0x00000000	0.0

exp_avg f4 [2, 5]
0	0xbb43569c	-0.0029806262
1	0xbcf645c6	-0.030062567
2	0x00000000	0.0
3	0x3dbda1d1	0.0925938
4	0xbde4a522	-0.11164309
5	0x3b43569c	0.0029806262
6	0x3cf645c6	0.030062567
7	0x00000000	0.0
8	0xbdbda1d1	-0.0925938
9	0x3de4a523	0.1116431

exp_avg_sq f4 [2, 5]
0	0x35a63aac	1.238504e-06
1	0x38309b9e	4.21066e-05
2	0x00000000	0.0
3	0x39f7472a	0.00047164533
4	0x3a22cbbd	0.0006210169
5	0x35a63aac	1.238504e-06
6	0x38309b9e	4.21066e-05
7	0x00000000	0.0
8	0x39f7472a	0.00047164533
9	0x3a22cbbe	0.00062101695

exp_avg f4 [2]
0	0xbede8e36	-0.43467873
1	0x3ede8e35	0.4346787

exp_avg_sq f4 [2]
0	0x3b9391c0	0.0045034587
1	0x3b9391c1	0.004503459
