MimicApp/lightning_logs/version_10/checkpoints/epoch=99-step=1299.ckpt (torch, 15861 bytes, 18 tensors)

lstm.weight_ih_l0 f4 [20, 34]
00000000: 248f a5be ad77 083e cb1e d3be b9c4 243d
00000010: 2733 08bd 5fa4 a43e 6b14 963e 6b62 c1be
00000020: 2746 863e 19fe b0bd b956 61bd ef62 013d
00000030: 14c5 ac3e bd8c 0d3c 54e6 dcbd d3cc 25be
00000040: 8756 34bd bfb9 de3e f39f 733e 9623 a03e
00000050: e845 3d3e 6ae6 bdbc 11c8 08be dccb 8dbe
00000060: 77e8 2fbd 9af0 ddbe 47de 85be 91b9 303e
00000070: fa3d ccbd b954 b9be f05d 363e dc20 cb3e
00000080: 941d c93d 81d2 bdbe 8213 c3bc 37f0 bdbd
00000090: fcba 83be 0955 aebe 087b a8be 21f9 c83e
000000a0: ebe6 a3be 64e9 98bd 6081 503c 0ba5 d93e
000000b0: 0262 d1be 23d7 a2be 5cbe c2be e386 98be
000000c0: 2964 a43e e7bb bfbd 7be5 87b9 cb79 a73e
000000d0: 5692 c9be 8782 b3be ef02 2e3e 7584 87be
000000e0: bd30 42be c7c1 8cbe fd8c 793e d93f 103e
000000f0: 5377 3f3e 55c1 cabd 09e6 bd3d 79ea 0abe
00000100: 87a9 5cbc 6d77 4fbe 5bb4 92be 82d7 2f3e
00000110: 08bb dd3d 0857 d23c 6f02 70bd f753 a63e
00000120: 7665 2a3e 4903 003e 82a3 bb3e 10b8 d43c
00000130: 2c04 b43e 720b ce3e d190 3fbd 4658 ef3d
00000140: 78c7 ac3d 3863 983e 5cb0 b63e 4df2 bebe
00000150: 6ca5 9fbd 9aae 4bbe dc0e cdbe e80a bd3e
00000160: 65ec 8abe aac5 90be 3d51 85bd fe20 d3bd
00000170: 1823 273e da7f 11be f8f5 f8bd 725b 15be
00000180: 238d 4fbd ad5a c6be 37fb bbbe 6a8d d53e
00000190: 260a 80bd 33f1 4a3d e923 cebd 05b2 b3be
000001a0: 898e 053e 5ffa 633e ce35 a6be 9db8 803e
000001b0: af0b 7e3e b84f c43e a4b0 5ebe e983 a0bd
000001c0: 46bc bcbe 5d57 e13e a01d b43e dc52 d53e
000001d0: e339 b8be b6aa 4fbd 963b 263d f85b ca3e
000001e0: e450 71be 064f 04be 892a 313e 4579 af3e
000001f0: f9e6 b63d c92d e3bd 3fc1 a3bd 8223 bfbd
00000200: ce53 b2be 6d13 afbe 5072 8bbd a101 443e
00000210: 0e1e a43e a075 88bd db17 d03d f878 70bd
00000220: 2fdb a73c d140 203e c743 66be bb54 dabe
00000230: 9d39 cc3e a40f d43e a12a 4cbe c03d 303e
00000240: 94d7 61be 404f dbbd 7c35 e53d 857a 653e
00000250: 804a 823d 8728 e13e 8129 ad3e 130e 8ebe
00000260: e18d 8cbe 5137 203e bbe5 74be e012 12be
00000270: 5d66 2cbe 07a4 c2bc abe1 37bd f139 e03e
00000280: c205 7fbe 561b 9cbe 7ff6 773c cd23 a13e
00000290: 41e9 293e ff37 81be d41b c53c a6f3 09be
000002a0: 8cb5 67be 13b8 88be 0da6 a83e f734 a3be
000002b0: afe9 643e abce c63e 008d 76be 8ecb bf3c
000002c0: 723c c33e 70ef 743e d9ea 953e 2c09 bb3b
000002d0: f34e 64bd 81f6 8e3e ac06 b7be e516 b5be
000002e0: 658f b0bd 4d6d 2dbd 181c 943e b64c c5be
000002f0: 3f77 0fbe 020f 943e 0712 24be 5a4e a73d
00000300: 22b7 65be 03ff abbe 3e5c ba3d ca21 ab3e
00000310: 0f9e aabe 5e6d b63e fe0f e13e f9bb 62be
00000320: 0bb2 f1bd 34d0 3dbe 0e21 6a3c b06b c03e
00000330: fc6f 5e3e 6cf6 7c3e be73 bdbe 8893 833d
00000340: 9c70 d1bd 9097 c33d 801e 45bc 6e92 08be
00000350: 4077 d83d 61be 5abe f885 ae3d b0ae 123d
00000360: df81 7abe e8ea 96be 6833 82be 1052 7bbd
00000370: f0b7 bd3e d144 83be cc20 bf3e 10df e63d
00000380: 8ce2 2dbe 1007 283e b40f 54be 19de b7be
00000390: 2a39 cdbe 3274 c53e 1afa a53e 9847 b7be
000003a0: 5078 823d b7d6 b1be 3c39 c9be a0a9 3a3c
000003b0: 72ca 26be 1c2e 0ebe 3c78 ad3e 068f 833e
000003c0: da22 87be 1c6c aa3e d03c 86be 1ca6 d2bd
000003d0: 4cfc 813e 14ad 59be d0d1 0d3d c0bc c4bd
000003e0: 2240 28be e0d8 633d 40b5 6c3e f8c3 adbd
000003f0: a29f 803e 28cb ef3d 964e 4fbe 784e a83d
-0.3233577 0.13326903 -0.4123443 0.04022667 -0.033251908 0.32156655 0.29312453 -0.377704
0.26225397 -0.08642215 -0.055014346 0.03158849 0.3374411 0.008639512 -0.10786119 -0.16191415
-0.04402783 0.43501088 0.23791485 0.3127715 0.18483698 -0.023181159 -0.1335757 -0.27694595
-0.042946305 -0.43347627 -0.26146147 0.17258288 -0.099727586 -0.3619745 0.17809272 0.39673507
0.09820095 -0.37074664 -0.023813013 -0.09274333 -0.25728595 -0.34049252 -0.32906365 0.3925257
-0.32012114 -0.07466391 0.012726158 0.4250873 -0.40895087 -0.3180476 -0.38035858 -0.2979041
0.32107666 -0.093620114 -0.00025920183 0.32710108 -0.39369458 -0.35060522 0.16993307 -0.26468244
-0.18963905 -0.2749159 0.24370189 0.14086856 0.18697862 -0.099001564 0.09272391 -0.13566007
-0.013468153 -0.20260401 -0.28653225 0.17172053 0.10826689 0.025676265 -0.05859607 0.32485935
0.16640267 0.12501253 0.36648184 0.025966674 0.35159433 0.40243107 -0.046768967 0.11686759
0.08436483 0.29763198 0.35681427 -0.37294236 -0.077952236 -0.19890824 -0.400504 0.36922383
-0.2713348 -0.28275806 -0.065096356 -0.10309027 0.16321981 -0.14208928 -0.1215629 -0.14585665
-0.050671708 -0.38741055 -0.367151 0.41709453 -0.06251936 0.04954643 -0.10065443 -0.35096756
0.13042654 0.22263478 -0.32462925 0.2514085 0.24809144 0.3834207 -0.2174707 -0.0783766
-0.3686239 0.44011965 0.35178852 0.4166478 -0.35981664 -0.050699912 0.04058417 0.39523292
-0.23566014 -0.1292077 0.17301382 0.3427221 0.08930773 -0.11092717 -0.07995843 -0.093329445
-0.34829563 -0.34194508 -0.06808913 0.19141246 0.3205418 -0.0666306 0.101608 -0.058709115
0.020490257 0.15649725 -0.22486793 -0.4264277 0.39887705 0.41418183 -0.19938137 0.17211056
-0.22054893 -0.10708475 0.11191842 0.22410019 0.06361866 0.43976232 0.33820727 -0.27745113
-0.27451995 0.15646102 -0.2391576 -0.14265013 -0.16835923 -0.023759855 -0.044892948 0.43794206
-0.2490454 -0.30489606 0.015134453 0.31472626 0.16592886 -0.25238034 0.024061121 -0.13471851
-0.22627848 -0.26702937 0.32939187 -0.31876346 0.22354768 0.3882955 -0.24077225 0.023412492
0.38132054 0.23919463 0.29280737 0.0057078805 -0.055739354 0.27922443 -0.35747278 -0.3536903
-0.086211 -0.042340565 0.28927684 -0.38535088 -0.14010333 0.289177 -0.16022502 0.08169241
-0.22433141 -0.33592996 0.09099625 0.33424217 -0.33323714 0.35630316 0.43957514 -0.22142018
-0.11801537 -0.18536454 0.014290107 0.3758216 0.21722406 0.24703377 -0.37002367 0.06424624
-0.10226557 0.09550393 -0.012031198 -0.13337108 0.1056962 -0.21361686 0.08521646 0.035811126
-0.24463604 -0.29476094 -0.25429845 -0.061357558 0.37054396 -0.2563844 0.3732971 0.112730145
-0.16980952 0.16408944 -0.20709115 -0.35911635 -0.40082675 0.38565212 0.32417375 -0.3579681
0.06370604 -0.34734127 -0.3930148 0.011392981 -0.16288164 -0.13884777 0.33880794 0.25695056
-0.26393777 0.33285606 -0.2621827 -0.10285589 0.253878 -0.2125743 0.03462392 -0.09606314
-0.16430715 0.05562675 0.23116016 -0.08484644 0.2512179 0.11708671 -0.20244822 0.08218092

lstm.weight_hh_l0 f4 [20, 5]
00000000: 2290 39be 8ca7 253e 523f 923e d8f8 a6be
00000010: 0840 1ebd e838 d6be 8500 8a3d e82f bcbc
00000020: 1488 8cbe 1e05 2d3e 1c7d 2fbe 6ca8 663e
00000030: 4a27 e93d 25c1 e53d 980c 3f3e 3077 4b3d
00000040: 5aa8 dfbe 91f0 3bbe a28d b0be d691 993e
00000050: cb6f 5fbe 1032 053e 5fe6 123d 1390 60bd
00000060: 2326 dbbe cd96 d73e 48db c33e 4077 dbbe
00000070: 9e70 d0bd dadf 6d3a e9ee bbbe b4b2 b93e
00000080: abdf e0be bc74 c9bd 14d6 0abe 9ef8 cd3e
00000090: 0c85 a53e 800e b4bc bafe 8e3e a8d9 7dbd
000000a0: 98cd 4fbe ece5 38be d1e8 7c3e 5df8 963e
000000b0: 1516 153d 0c49 93bd 20f1 6f3d 802e 4c3d
000000c0: 3088 753e e6f6 d13e 388d 60bd 7869 a83d
000000d0: ea84 a4bd 0f8b 4ebe bfc0 dcbe f038 82be
000000e0: b077 b33d 9c2d dc3e 6e22 9e3e 2ee8 a03e
000000f0: 649c 173e 032f a0be 29b1 593e 4e24 7d3e
00000100: c828 a93d 10cf c63d 2278 c03e 2202 3ebe
00000110: b0f6 633e 603b bd3e 6c4c bcbd c8dc a63d
00000120: 9488 4fbe bafe b5be 8488 e9bd 38a2 abbe
00000130: 4941 3fbd 755b 67bd 9e10 183e ec0f 60be
00000140: 007d ddba e4d7 013e fa12 a63e a607 d0be
00000150: 12d5 10be 6436 dc3e 220c 84be 905c 1a3e
00000160: 74ed 37be 96d9 833e 15bf bbbe 089c 683e
00000170: cc96 9abe 5e6b be3e e8e4 6c3e b0fe c7be
00000180: 5687 803e 44d0 d1be faa1 5e3e 80d5 003c
-0.18121389 0.16177195 0.28563935 -0.32611728 -0.038635284 -0.4184029 0.0673838 -0.022972062
-0.2744757 0.16896483 -0.17137569 0.22525185 0.11384447 0.1121848 0.18657148 0.049674213
-0.4368313 -0.18353488 -0.34483057 0.29994076 -0.2181999 0.13007379 0.03586423 -0.0548249
-0.42802534 0.4210724 0.38253236 -0.42864418 -0.1017773 0.0009074189 -0.3670571 0.36269152
-0.43920645 -0.098367184 -0.13558227 0.40228742 0.3232807 -0.02197957 0.27928716 -0.06197515
-0.20293272 -0.18056458 0.24698187 0.2948636 0.036398012 -0.07191667 0.058579564 0.049849033
0.23977733 0.4100868 -0.054822177 0.082232416 -0.08033164 -0.20170234 -0.43115804 -0.25434065
0.08763063 0.43003547 0.30885643 0.3142714 0.14805752 -0.31285867 0.21258987 0.2472088
0.082597315 0.09707463 0.37591654 -0.18555501 0.22262073 0.36959362 -0.09194264 0.081475794
-0.20266944 -0.35545903 -0.114029914 -0.335222 -0.04669312 -0.056483705 0.14850089 -0.21881074
-0.0016898215 0.12680012 0.32436353 -0.40630835 -0.1414378 0.43010247 -0.25790507 0.15074372
-0.17961675 0.25751942 -0.36669222 0.22715771 -0.30193174 0.3719129 0.23134196 -0.390615
0.25103253 -0.40979207 0.21741477 0.007863402

lstm.bias_ih_l0 f4 [20]
00000000: af76 ee3d 0c24 aebd 385f c0be 8b34 183b
00000010: 09b8 3ebd 03ec 3ebe c0f0 f33d e6c7 2cbe
00000020: ba7a 233c 809d 7e3e 3272 d43e a008 d23c
00000030: e777 9f3e aa51 c3be eadc 033e cf9a 40be
00000040: ecca a5bd e069 e33d c469 debe 7d39 f2bd
0.11643731 -0.08502969 -0.37572646 0.0023224677 -0.04656223 -0.18644719 0.11911154 -0.1687313
0.009977991 0.24864769 0.41493374 0.025638878 0.31146166 -0.38148242 0.12877241 -0.18809055
-0.08095345 0.111041784 -0.43440068 -0.11827371

lstm.bias_hh_l0 f4 [20]
00000000: 7ae9 67be 8c5e fcbd 452c cf3e 75f8 adbd
00000010: f4ce bfbe e3e0 53be a634 c0be 5883 c5bd
00000020: 47a8 09bc a820 b9be 44c5 92be 5484 113e
00000030: 3808 233d 66ab d93e c2a7 123e 2f78 923e
00000040: ce51 9cbe d878 bc3d 959e 74be 1d52 5c3e
-0.22647658 -0.12322721 0.40463462 -0.08494655 -0.3746258 -0.20691256 -0.37540168 -0.096441925
-0.008401937 -0.36157727 -0.28666127 0.14210635 0.03980276 0.4251358 0.14321807 0.28607318
-0.30531162 0.092027366 -0.23888619 0.21515699

linear.weight f4 [2, 5]
00000000: ab5f 4d3e 7901 a3be bf0e 22be 9528 1dbe
00000010: fdfe 19be 24c1 9a3e 732a 4a3e e899 7f3e
00000020: 0357 e03e 4419 febd
0.20056026 -0.3183706 -0.15825938 -0.15347512 -0.15038677 0.3022548 0.19742756 0.24961054
0.43816385 -0.12407163

linear.bias f4 [2]
00000000: 463f 423e f449 b9be
0.1896945 -0.36189234

exp_avg f4 [20, 34]
00000000: 9511 69b6 1da2 5fb6 47f4 a6b5 a96b 50b6
00000010: f93e 0db6 b486 16b6 a9d3 3fb5 0000 0000
00000020: 07de f72c c365 66b5 b174 13b3 dfc3 88b4
00000030: 82c2 15b6 d47c 5fb6 1206 81b5 d831 2eb5
00000040: f501 23b7 e058 98b4 c205 7bb6 73fa 03b3
00000050: ae74 93b2 0858 a1b6 d0b5 84b3 75ad 7ab3
00000060: f219 1ab4 e8f7 1db4 8d33 22b3 1a06 01b4
00000070: a863 86b5 33e4 bab4 9dca a7b5 3df1 1cb5
00000080: 9e1c 9eb7 a48c 07b7 d8ab 313a c517 263a
00000090: a0f3 7539 5c8b 2f3a e84c fd39 586d 093a
000000a0: 273d 8139 0000 0000 4b18 6298 bb68 4239
000000b0: c59d 2b36 8ad2 4438 d689 9d39 0beb 253a
000000c0: 9961 3d3b df55 7138 977b 133a 7335 1e38
000000d0: 8707 3a3a 0d2a 9636 3a85 5636 c8af f439
000000e0: 0d2a 1637 5acb 4b37 5acb cb37 5acb cb37
000000f0: 0d2a 1637 0d2a 9636 6b5e 7739 6092 a338
00000100: f151 3239 e8e3 a038 10d1 4f3a 13b7 f93a
00000110: c8a3 933c f67d a63c 771a 043c 827b ef3c
00000120: 09c5 9a3c ee2a 083c e35a 663b 0000 0000
00000130: 9951 28b9 8973 8d3b 2ad2 7639 8a26 c63a
00000140: 2184 353c b830 943c cd6a 3c3a edcd 993a
00000150: ce06 28bc 7ce0 d33a cc51 b43c 7072 1e39
00000160: f9a9 1239 d6f0 a33c 59db 013a 8d36 a539
00000170: 5300 ed39 b32e 543a 23bb 8738 984b 393a
00000180: c7d0 0f3c c3b7 4b3b 4dff 933b 0e19 233b
00000190: 0694 323e 56da 0d3d 1921 36ba bc42 6dba
000001a0: b883 a9b9 55cc a1ba cf94 76ba 5fc1 57ba
000001b0: c732 10b9 0000 0000 798b b434 6993 81b9
000001c0: b14e 19b7 70e9 8cb8 915a eab9 937a 66ba
000001d0: 06be 23bb 533b 06b9 2288 6dba d4d2 93b8
000001e0: 29fe 7bba 6a38 b8b6 7f9d ebb6 6b7f 9fba
000001f0: 4df4 91b7 a891 82b7 4052 8ab7 098f 19b8
00000200: 36d6 9db6 876d aeb7 ae32 a2b9 fca7 deb8
00000210: 72dd 5fb9 d58d 17b9 b382 65bb f244 18bb
00000220: cd4d 0035 6f2e f534 48dc 3e34 4e29 2435
00000230: aa9f d934 e5b9 a234 a64c b433 0000 0000
00000240: 04c6 012b 0f84 0b34 f1aa 1e2f a854 1833
00000250: af2f 3f34 6ac7 ff34 08ef 0835 efaf af33
00000260: dbae 9034 b19e 2d33 e8a3 0735 4ff5 d631
00000270: b56c 4632 244f 1c35 ab59 2532 74f0 2c32
00000280: 4b7c a932 4606 9732 c96a 8832 4dcd 3b32
00000290: 5c7c 2934 6ea0 6b33 5977 1934 d348 2333
000002a0: 2167 6c35 2506 5934 8083 e7b0 5277 0bb1
000002b0: 9d6d 45b0 b633 1cb1 5277 0bb1 0ad4 fdb0
000002c0: 3e84 b2af 0000 0000 0d4f 802f 81ac bdaf
000002d0: 3e84 32ad 781c 21af e868 4eb0 4812 0ab1
000002e0: 019f 83b2 d475 f5af 4e4e 35b1 75f8 19af
000002f0: c7fd 1eb1 4a38 56ad 3e84 32ad 71b9 64b1
00000300: 0bfd d3ae 5012 e8ad 3e84 32af d475 f5ae
00000310: 38aa a0ad 7cc0 4aae 0610 4bb0 91b2 8daf
00000320: 91b2 8db0 c8c1 51af b30a 46b1 c6d4 48b1
00000330: cd4a dd01 d1ac 1902 33a9 5d01 f3b9 3002
00000340: 0ab8 ee01 aebb ef01 51e1 f500 0000 0000
00000350: 4e78 3d00 b81d 2c01 a125 0600 e792 5c00
00000360: e6d9 4a01 019a 1602 c00d 1f03 9196 1800
00000370: 2d87 1302 60a5 6e00 16f8 2502 e8ea 0400
00000380: 376e 0900 fd88 5202 28bc 1e00 9d31 2100
00000390: 7181 1d00 b4cc 2900 c7ac 9900 12ed 1b00
000003a0: 25e8 5d01 1772 9800 1f9b 9201 84ae 4e00
000003b0: 82ff 5002 4c83 6602 0000 0000 0000 0000
000003c0: 0000 0000 0000 0000 0000 0000 0000 0000
000003d0: 0000 0000 0000 0000 0000 0000 0000 0000
000003e0: 0000 0000 0000 0000 0000 0000 0000 0000
000003f0: 0000 0000 0000 0000 0000 0000 0000 0000
-3.472994e-06 -3.3323952e-06 -1.2439058e-06 -3.1057082e-06 -2.1047292e-06 -2.243015e-06 -7.146105e-07 0.0
7.044812e-12 -8.582976e-07 -3.4332235e-08 -2.547449e-07 -2.2315949e-06 -3.330225e-06 -9.613016e-07 -6.4892583e-07
-9.716013e-06 -2.837687e-07 -3.7405266e-06 -3.0728597e-08 -1.7166112e-08 -4.808422e-06 -6.1798005e-08 -5.836542e-08
-1.4351806e-07 -1.4711952e-07 -3.776545e-08 -1.2016281e-07 -1.0012782e-06 -3.4811237e-07 -1.2501438e-06 -5.8465577e-07
-1.8848394e-05 -8.0793725e-06 0.0006777621 0.00063359394 0.00023455778 0.00066964864 0.0004831322 0.0005242429
0.0002465036 0.0 -2.922208e-24 0.00018540297 2.557282e-06 4.692612e-05 0.0003004807 0.00063292746
0.0028897284 5.753885e-05 0.00056260213 3.7719914e-05 0.00070964586 4.4752437e-06 3.1966033e-06 0.00046670274
8.950487e-06 1.2147089e-05 2.4294179e-05 2.4294179e-05 8.950487e-06 4.4752437e-06 0.00023590929 7.79971e-05
0.00017005928 7.6718454e-05 0.0007927576 0.0019051753 0.018022433 0.020323735 0.00806295 0.029233698
0.018892782 0.0083110165 0.0035149388 0.0 -0.00016052126 0.0043167514 0.0002353868 0.0015117687
0.011078865 0.018089637 0.00071875454 0.0011734344 -0.010255529 0.0016164924 0.02201166 0.00015110685
0.00013986965 0.0200123 0.0004953645 0.00031511896 0.00045204404 0.0008094117 6.4721586e-05 0.0007068454
0.008777804 0.0031084872 0.004516518 0.002488676 0.17439279 0.03463205 -0.0006947681 -0.0009050777
-0.0003233233 -0.0012344221 -0.00094063295 -0.00082304137 -0.00013751826 0.0 3.3629092e-07 -0.00024714626
-9.137832e-06 -6.719201e-05 -0.00044699435 -0.00087920687 -0.002498509 -0.00012801336 -0.0009061118 -7.048776e-05
-0.0009612763 -5.490195e-06 -7.0218807e-06 -0.0012168711 -1.7399108e-05 -1.5565034e-05 -1.6489183e-05 -3.6611254e-05
-4.703902e-06 -2.0793419e-05 -0.00030936807 -0.000106170744 -0.00021349432 -0.00014453319 -0.003502053 -0.0023234454
4.779693e-07 4.566859e-07 1.7775267e-07 6.1154867e-07 4.053557e-07 3.0310107e-07 8.3958454e-08 0.0
4.610481e-13 1.2993426e-07 1.4430747e-10 3.5467252e-08 1.7805608e-07 4.7642544e-07 5.1011784e-07 8.181075e-08
2.6949314e-07 4.042403e-08 5.0529934e-07 6.256108e-09 1.1549834e-08 5.8229693e-07 9.624652e-09 1.006639e-08
1.9730711e-08 1.7581566e-08 1.5881044e-08 1.0931513e-08 1.5784593e-07 5.486111e-08 1.4292654e-07 3.8017628e-08
8.8066923e-07 2.0211935e-07 -1.6844837e-09 -2.0294988e-09 -7.182395e-10 -2.2730382e-09 -2.0294988e-09 -1.8468438e-09
-3.2471975e-10 0.0 2.3339233e-10 -3.450147e-10 -1.0147492e-11 -1.4652979e-10 -7.5091444e-10 -2.0092035e-09
-1.5322714e-08 -4.4648962e-10 -2.6383478e-09 -1.4003539e-10 -2.3136282e-09 -1.217699e-11 -1.0147492e-11 -3.3283778e-09
-9.6401186e-11 -2.6383479e-11 -1.6235988e-10 -1.11622406e-10 -1.8265486e-11 -4.6100443e-11 -7.387374e-10 -2.577463e-10
-1.0309852e-09 -1.9077284e-10 -2.8818874e-09 -2.9224778e-09 8.128991e-38 1.1290261e-37 4.0712684e-38 1.2983803e-37
8.7691475e-38 8.806404e-38 2.2580525e-38 0.0 5.645122e-39 3.1612733e-38 5.64512e-40 8.501564e-39
3.7257875e-38 1.1064456e-37 4.6741685e-37 2.258065e-39 1.0838648e-37 1.016123e-38 1.2193483e-37 4.5161e-40
8.66057e-40 1.5467677e-37 2.822563e-39 3.048369e-39 2.709664e-39 3.838689e-39 1.4112812e-38 2.564603e-39
4.0757845e-38 1.3999923e-38 5.385452e-38 7.225773e-39 1.5354754e-37 1.6935412e-37 0.0 0.0
0.0 0.0 0.0 0.0 0.0 0.0 0.0 0.0
0.0 0.0 0.0 0.0 0.0 0.0 0.0 0.0

exp_avg_sq f4 [20, 34]
00000000: 9639 8b2f 6b68 7e2f 25f6 0d2e 7c25 612f
00000010: ab73 cb2e d768 e42e 2bf9 3a2d 0000 0000
00000020: ee60 1729 3a42 862d d259 dd28 0429 be2b
00000030: 5b52 e42e f73b 7e2f bb78 a92d b616 1c2d
00000040: 7e40 0731 594b eb2b 9daf a02f 65a3 af28
00000050: d259 dd27 93fa 0a30 504b b329 fe61 a129
00000060: 7f50 f32a 8faa fd2a bfea 0529 bb78 a92a
00000070: bbb9 b82d 37e3 312c 491a 0e2e 344a f82c
00000080: b57f fe31 abf5 b830 18b0 a137 4333 9037
00000090: 6c42 1e36 e27f a637 1d7e 2c37 01a9 4537
000000a0: aa0d 3136 0000 0000 2180 0000 0ac7 c535
000000b0: e81e 9a2f d3b7 ca33 60df 8136 570e 9037
000000c0: 05ae bb39 d863 1834 d9a4 6337 d9fa 8233
000000d0: 7c18 b537 4dff 6b30 66d0 f02f b569 1c37
000000e0: 4dff 6b31 9555 d931 9555 d932 9555 d932
000000f0: 4dff 6b31 4dff 6b30 cd1a 2036 bf02 8c34
00000100: 8f65 a635 2775 8734 6cff e137 f427 2339
00000110: 3edb 3d3c f904 393c eae3 e03a 9f0e b03c
00000120: 9bb5 203c f59a 513b c7cc fe39 0000 0000
00000130: 780e 6137 e7fb 0e3a 8bd9 9135 cc02 8438
00000140: 2bc2 893b dbed 223c 76d0 9839 c45b 8a39
00000150: 1ee9 a13c 394d ad38 0f5c 463c 4421 c835
00000160: a389 9934 fc2c cf3c 34be 8736 7a2e 9a36
00000170: e755 5a37 9f59 ba37 ffa5 6a34 73d9 6a37
00000180: a444 e93a 43be 5e39 d23d 593a b1e5 e238
00000190: 77cf fc3e 4c6a 033e f5a6 c935 b31b 2b36
000001a0: e7ad ae34 e923 9f36 add1 3836 8387 0d36
000001b0: 81a8 7c33 0000 0000 1b5a 302b 332a 4c34
000001c0: 2b1d 8f2f 7c6a 7132 6609 2735 6577 2136
000001d0: 6211 a337 6191 5b33 258e 2b36 c0d6 8432
000001e0: fcfa 4036 c67b ce2e b1bf 282f 9ec2 9a36
000001f0: 3869 8130 9333 4f30 9a4b 6830 9063 8f31
00000200: c992 8f2e b3f7 b830 02fa 9f34 81bd 1633
00000210: 280b 1834 31d4 8b33 da52 2038 ea28 8d37
00000220: 9fed 142d 5526 082d 99a5 a42b 0271 762d
00000230: 9f77 d82c fa7f 712c 2272 952a 0000 0000
00000240: fb05 651a 64fa 2f2b a2cf 6321 67ca 5129
00000250: 7d3c a52b e3de 132d 2b85 292d f286 8b2a
00000260: 9041 3d2c a543 8829 7b56 262d 0be0 d026
00000270: 07fa b127 9ce4 5c2d d930 7727 bda1 8827
00000280: f9d9 8128 0436 4f28 913e 2828 876e 9f27
00000290: 2eda 812b def9 fa29 3def 542b 2d0c 7129
000002a0: eaa0 fc2d ebe9 d42b f376 f027 1b87 2e28
000002b0: bdde ae26 f5ed 5a28 4c87 2e28 a986 1028
000002c0: 19f9 8e25 0000 0000 11b8 1325 3467 a125
000002d0: d6f8 8e20 e7e7 6824 8c24 bf26 e40d 2b28
000002e0: ea71 1b2b 6e27 0726 e279 9328 83b7 5424
000002f0: e5d0 6228 b5e1 cd20 19f9 8e20 83b4 ea28
00000300: 189d c923 c19f f121 19f9 8e24 6e27 0724
00000310: cb9d 6721 9a6d b822 5dfe b826 3028 3425
00000320: 3028 3427 6764 c524 71f5 af28 33f3 b428
00000330: 0000 0000 0000 0000 0000 0000 0000 0000
00000340: 0000 0000 0000 0000 0000 0000 0000 0000
00000350: 0000 0000 0000 0000 0000 0000 0000 0000
00000360: 0000 0000 0000 0000 0000 0000 0000 0000
00000370: 0000 0000 0000 0000 0000 0000 0000 0000
00000380: 0000 0000 0000 0000 0000 0000 0000 0000
00000390: 0000 0000 0000 0000 0000 0000 0000 0000
000003a0: 0000 0000 0000 0000 0000 0000 0000 0000
000003b0: 0000 0000 0000 0000 0000 0000 0000 0000
000003c0: 0000 0000 0000 0000 0000 0000 0000 0000
000003d0: 0000 0000 0000 0000 0000 0000 0000 0000
000003e0: 0000 0000 0000 0000 0000 0000 0000 0000
000003f0: 0000 0000 0000 0000 0000 0000 0000 0000
2.532487e-10 2.3138262e-10 3.227831e-11 2.0476948e-10 9.251918e-11 1.0386863e-10 1.0628202e-11 0.0
3.361281e-14 1.5263447e-11 2.4574882e-14 1.3511696e-12 1.0382869e-10 2.3122469e-10 1.926669e-11 8.872616e-12
1.9681745e-09 1.6718667e-12 2.922861e-10 1.9499764e-14 6.1437205e-15 5.0560195e-10 7.9622615e-14 7.166835e-14
4.3221327e-13 4.5060177e-13 2.9735542e-14 3.0104204e-13 2.1000859e-11 2.5279342e-12 3.2310408e-11 7.056822e-12
7.4068915e-09 1.3457585e-09 1.9274696e-05 1.7190008e-05 2.3582497e-06 1.9848292e-05 1.0281362e-05 1.1781464e-05
2.6383009e-06 0.0 4.5964e-41 1.4735572e-06 2.8034397e-10 9.4397954e-08 3.870504e-06 1.7172815e-05
0.00035797074 1.4192426e-07 1.3568636e-05 6.099226e-08 2.1588283e-05 8.5855306e-10 4.3803822e-10 9.322936e-06
3.4342122e-09 6.3252608e-09 2.5301043e-08 2.5301043e-08 3.4342122e-09 8.5855306e-10 2.3857458e-06 2.607903e-07
1.2397521e-06 2.523095e-07 2.694103e-05 0.00015559775 0.011587916 0.0112926895 0.0017157767 0.021491347
0.009808923 0.003198323 0.00048599226 0.0 1.3414414e-05 0.00054544065 1.0866655e-06 6.2947714e-05
0.004204055 0.0099444045 0.00029147015 0.00026389782 0.01976448 8.263667e-05 0.012106909 1.4910843e-06
2.8598615e-07 0.025290005 4.045456e-06 4.5949682e-06 1.3013813e-05 2.2214661e-05 2.1853337e-07 1.3998116e-05
0.0017796946 0.00021242448 0.0008287105 0.00010819303 0.49377033 0.12833518 1.5024258e-06 2.5497109e-06
3.2536556e-07 4.7427498e-06 2.7540184e-06 2.1089515e-06 5.8826576e-08 0.0 6.2652807e-13 1.9014333e-07
2.6032274e-10 1.4052258e-08 6.2226025e-07 2.4060366e-06 1.9439209e-05 5.1122132e-08 2.5563725e-06 1.546448e-08
2.8756322e-06 9.389782e-11 1.5347613e-10 4.612214e-06 9.41589e-10 7.537945e-10 8.4508545e-10 4.1731667e-09
6.5289614e-11 1.3458162e-09 2.9797962e-07 3.509695e-08 1.4160162e-07 6.511289e-08 3.8224134e-05 1.6827562e-05
8.4655885e-12 7.739216e-12 1.1698863e-12 1.4008574e-11 6.15237e-12 3.4319201e-12 2.6546912e-13 0.0
4.736092e-23 6.2519976e-13 7.718539e-19 4.658288e-14 1.1740744e-12 8.405473e-12 9.636107e-12 2.4784997e-13
2.689491e-12 6.051348e-14 9.45521e-12 1.4493626e-15 4.939845e-15 1.2556314e-11 3.4304616e-15 3.792294e-15
1.4416408e-14 1.1502521e-14 9.33944e-15 4.42512e-15 9.226558e-13 1.1145575e-13 7.564954e-13 5.352331e-14
2.8720543e-11 1.5128431e-12 6.6742346e-15 9.688237e-15 1.2134049e-15 1.215303e-14 9.688278e-15 8.0228055e-15
2.4801868e-16 0.0 1.2812582e-16 2.799898e-16 2.4220402e-19 5.050341e-17 1.3263193e-15 9.495419e-15
5.522515e-13 4.689097e-16 1.6373137e-14 4.6125613e-17 1.2590817e-14 3.487771e-19 2.4220575e-19 2.6057503e-14
2.1858995e-17 1.6373082e-18 6.200467e-17 2.9306857e-17 7.847468e-19 4.9989345e-18 1.283651e-15 1.5626127e-16
2.5001804e-15 8.560522e-17 1.9535346e-14 2.0089485e-14 0.0 0.0 0.0 0.0
0.0 0.0 0.0 0.0 0.0 0.0 0.0 0.0
0.0 0.0 0.0 0.0 0.0 0.0 0.0 0.0
0.0 0.0 0.0 0.0 0.0 0.0 0.0 0.0
0.0 0.0 0.0 0.0 0.0 0.0 0.0 0.0
0.0 0.0 0.0 0.0 0.0 0.0 0.0 0.0
0.0 0.0 0.0 0.0 0.0 0.0 0.0 0.0

exp_avg f4 [20, 5]
00000000: 4b85 282e 1ab9 e90c 12a5 e525 504b 0f33
00000010: c13a 8a25 0400 0080 6e7c 2733 9ad1 ae36
00000020: 0000 0000 55c1 8536 66c7 f337 0000 0000
00000030: eebc 2e39 87f2 1239 49ac b21e 321d 019e
00000040: 7b21 8493 09dd 3bb5 8ba7 4834 7a27 0fb2
00000050: b3c1 66a4 0000 0000 655a a5b1 d9a7 82b1
00000060: 410b 9b2b 7c2c fb1c 51e2 b292 993f b22d
00000070: 0d73 8c2d 3b56 2b9a 0000 0000 ef5c 0900
00000080: 434b 0c00 0000 0000 ef5c 0900 0000 0000
00000090: 0000 0000 0000 0000 0000 0000 0000 0000
000000a0: 777a ba2e 0000 0000 157f 86b8 856b 8938
000000b0: aca0 1fb0 6e0c f506 0000 0000 6f31 871e
000000c0: b2ad 841e 08f0 9213 7bec 01af 0400 0000
000000d0: 3c64 3ea2 28ff 03af 6add df1b 0000 0000
000000e0: 0000 0000 9a73 530a 0000 0000 2858 210a
000000f0: 7381 27a1 ab23 1c09 8894 c4b9 d668 39ba
00000100: 4fb5 6e37 0000 0000 0000 0000 0000 0000
00000110: 0000 0000 0000 0000 ba9e 2596 0000 0000
00000120: 108b 48a8 2e4f 44a8 4568 559d c776 1335
00000130: 471a a3b1 4d8d ff34 af2a d536 461a a3b1
00000140: 0000 0000 0000 0000 0000 0000 0000 0000
00000150: 0000 0000 0000 0000 0000 0000 0000 0000
00000160: 0000 0000 0000 0000 847d f736 0000 0000
00000170: 01e8 32ba fc4f bf39 3687 0795 dd9c 930f
00000180: 0000 0000 a53f 0327 9d98 0727 74cf 111d
3.8317165e-11 3.6010738e-31 3.9837024e-16 3.336328e-08 2.3978997e-16 -6e-45 3.8995886e-08 5.210005e-06
0.0 3.9862157e-06 2.906071e-05 0.0 0.00016664315 0.00014013993 1.8917739e-20 -6.8352406e-21
-3.33545e-27 -6.9984577e-07 1.8687403e-07 -8.332671e-09 -5.003737e-17 0.0 -4.8124087e-09 -3.80258e-09
1.1016536e-12 1.6621286e-21 -1.1289171e-27 2.02645e-11 1.596725e-11 -3.5431628e-23 0.0 8.59858e-40
1.129025e-39 0.0 8.59858e-40 0.0 0.0 0.0 0.0 0.0
8.480055e-11 0.0 -6.413289e-05 6.552696e-05 -5.807219e-10 9.217702e-35 0.0 1.4314126e-20
1.4047882e-20 3.709227e-27 -1.1816496e-10 6e-45 -2.5802865e-18 -1.200503e-10 3.703534e-22 0.0
0.0 1.0181023e-32 0.0 7.7684484e-33 -5.6753125e-19 1.8794588e-33 -0.00037494698 -0.0007072812
1.422812e-05 0.0 0.0 0.0 0.0 0.0 -1.3378679e-25 0.0
-1.1132385e-14 -1.0897355e-14 -2.8244221e-21 5.493461e-07 -4.7469118e-09 4.760026e-07 6.3528637e-06 -4.7469113e-09
0.0 0.0 0.0 0.0 0.0 0.0 0.0 0.0
0.0 0.0 7.3757856e-06 0.0 -0.00068247324 0.00036489952 -2.7369696e-26 1.455574e-29
0.0 1.8214404e-15 1.8817745e-15 1.929784e-21

exp_avg_sq f4 [20, 5]
00000000: 8049 a123 0000 0000 056f 500d 546b cd28
00000010: ab80 b00c 0000 0000 c60b c42d d380 a730
00000020: 0000 0000 a32b 4430 942b 7432 0000 0000
00000030: 569b 8833 6f61 7433 a1c1 7900 4667 0200
00000040: 0000 0000 57c8 d92b 0ad4 f429 355e bd25
00000050: d422 bc0a 0000 0000 d930 7726 e3e6 1226
00000060: bfaa a51e 8066 a411 16ab 4011 a5f8 8e21
00000070: 13e5 2521 16ab 4011 0000 0000 0000 0000
00000080: 0000 0000 0000 0000 0000 0000 0000 0000
00000090: 0000 0000 0000 0000 0000 0000 0000 0000
000000a0: 6c08 811f 0000 0000 dd55 cd32 1bdf 9332
000000b0: c2a0 0022 0000 0000 0000 0000 1fbf 4e01
000000c0: 37dc 1501 0000 0000 b745 ac20 0000 0000
000000d0: b5a5 4a16 c6d5 af20 fa01 0000 0000 0000
000000e0: 0000 0000 0000 0000 0000 0000 0000 0000
000000f0: 969a 1b14 0000 0000 2566 1735 0158 a035
00000100: ae2b 0932 0000 0000 0000 0000 0000 0000
00000110: 0000 0000 0000 0000 0000 0000 0000 0000
00000120: 4098 a517 b232 8217 02e0 ea05 11d1 a32c
00000130: f8d0 6e2a f6f8 bb2c d51b 3f30 f8d0 6e2a
00000140: 0000 0000 0000 0000 0000 0000 0000 0000
00000150: 0000 0000 0000 0000 0000 0000 0000 0000
00000160: 0000 0000 0000 0000 61d7 3131 0000 0000
00000170: 48b0 3735 d35e 6534 0000 0000 0000 0000
00000180: 0000 0000 614e 1513 d642 ee12 765b ae01
1.7486783e-17 0.0 6.4228583e-31 2.2806118e-14 2.7194533e-31 0.0 2.2287849e-11 1.2187463e-09
0.0 7.1366396e-10 1.4212578e-08 0.0 6.361249e-08 5.6899292e-08 1.1181556e-38 2.20719e-40
0.0 1.5474383e-12 1.08725596e-13 3.285011e-16 1.8116842e-32 0.0 8.576154e-16 5.0966835e-16
1.7540673e-20 2.5937808e-28 1.5198849e-28 9.68811e-19 5.620735e-19 1.5198849e-28 0.0 0.0
0.0 0.0 0.0 0.0 0.0 0.0 0.0 0.0
5.464756e-20 0.0 2.3904187e-08 1.7214509e-08 1.743234e-18 0.0 0.0 3.7973347e-38
2.7524974e-38 0.0 2.9184067e-19 0.0 1.6369718e-25 2.9787617e-19 7.09e-43 0.0
0.0 0.0 0.0 0.0 7.855987e-27 0.0 5.6400523e-07 1.1946541e-06
7.984381e-09 0.0 0.0 0.0 0.0 0.0 0.0 0.0
1.0701308e-24 8.41385e-25 2.2087542e-35 4.6559497e-12 2.1211147e-13 5.3425e-12 6.9524947e-10 2.1211147e-13
0.0 0.0 0.0 0.0 0.0 0.0 0.0 0.0
0.0 0.0 2.5879319e-09 0.0 6.8429335e-07 2.1361784e-07 0.0 0.0
0.0 1.8845088e-27 1.5036388e-27 6.4048745e-38

exp_avg f4 [20]
00000000: ae74 13b3 3685 d636 7a5b 5a39 0094 19b7
00000010: 225a a531 3e84 b2ad 434b 0c00 0000 0000
00000020: f968 a2b8 03c8 9d9e 7817 0e2f cbd9 530a
00000030: 834b 5f3a 0000 0000 b649 8e28 4861 aab6
00000040: 0000 0000 0000 0000 9fb1 3eba 31a9 93a7
-3.4332224e-08 6.393205e-06 0.00020824178 -9.15397e-06 4.812379e-09 -2.0294984e-11 1.129025e-39 0.0
-7.744315e-05 -1.6705744e-20 1.2923163e-10 1.0200243e-32 0.0008518027 0.0 1.5797134e-14 -5.07772e-06
0.0 0.0 -0.00072743924 -4.0984134e-15

exp_avg_sq f4 [20]
00000000: d259 dd28 66d0 f030 474f 9e35 3a64 8f2f
00000010: db30 7726 19f9 8e21 0000 0000 0000 0000
00000020: 712e ce32 f7e6 7701 5071 0a26 0000 0000
00000030: 83d7 dd35 0000 0000 92d9 a118 9813 0230
00000040: 0000 0000 0000 0000 0b40 4935 6bf4 9013
2.4574882e-14 1.7521529e-09 1.179499e-06 2.6082764e-10 8.576155e-16 9.68823e-19 0.0 0.0
2.4002675e-08 4.5532444e-38 4.8031935e-16 0.0 1.6528505e-06 0.0 4.1837214e-24 4.732157e-10
0.0 0.0 7.497153e-07 3.6591725e-27

exp_avg f4 [20]
00000000: ae74 13b3 3685 d636 7a5b 5a39 0094 19b7
00000010: 225a a531 3e84 b2ad 434b 0c00 0000 0000
00000020: f968 a2b8 03c8 9d9e 7817 0e2f cbd9 530a
00000030: 834b 5f3a 0000 0000 b649 8e28 4861 aab6
00000040: 0000 0000 0000 0000 9fb1 3eba 31a9 93a7
-3.4332224e-08 6.393205e-06 0.00020824178 -9.15397e-06 4.812379e-09 -2.0294984e-11 1.129025e-39 0.0
-7.744315e-05 -1.6705744e-20 1.2923163e-10 1.0200243e-32 0.0008518027 0.0 1.5797134e-14 -5.07772e-06
0.0 0.0 -0.00072743924 -4.0984134e-15

exp_avg_sq f4 [20]
00000000: d259 dd28 66d0 f030 474f 9e35 3a64 8f2f
00000010: db30 7726 19f9 8e21 0000 0000 0000 0000
00000020: 712e ce32 f7e6 7701 5071 0a26 0000 0000
00000030: 83d7 dd35 0000 0000 92d9 a118 9813 0230
00000040: 0000 0000 0000 0000 0b40 4935 6bf4 9013
2.4574882e-14 1.7521529e-09 1.179499e-06 2.6082764e-10 8.576155e-16 9.68823e-19 0.0 0.0
2.4002675e-08 4.5532444e-38 4.8031935e-16 0.0 1.6528505e-06 0.0 4.1837214e-24 4.732157e-10
0.0 0.0 7.497153e-07 3.6591725e-27

exp_avg f4 [2, 5]
00000000: 8460 033b a476 31bb 3e67 a3bd 611e 923d
00000010: ea2d e3bb 8360 03bb a376 313b 3e67 a33d
00000020: 601e 92bd ec2d e33b
0.0020046541 -0.0027078772 -0.07978676 0.071347006 -0.0069329636 -0.002004654 0.002707877 0.07978676
-0.071347 0.0069329645

exp_avg_sq f4 [2, 5]
00000000: 557d 1e38 9d3d 0d38 f2fb 333c f932 9e3b
00000010: 6940 5739 557d 1e38 9b3d 0d38 f1fb 333c
00000020: f932 9e3b 6940 5739
3.778686e-05 3.36744e-05 0.010985361 0.0048278538 0.00020527992 3.778686e-05 3.3674394e-05 0.0109853605
0.0048278538 0.00020527992

exp_avg f4 [2]
00000000: 7a71 a2be 7a71 a23e
-0.317272 0.317272

exp_avg_sq f4 [2]
00000000: 9ec3 953d 9ec3 953d
0.07312702 0.07312702
