MimicApp/lightning_logs/version_15/checkpoints/epoch=99-step=999.ckpt (torch, 15861 bytes, 18 tensors)

lstm.weight_ih_l0 f4 [20, 34]
000000 8b 34 b3 3d cd 34 9f bd 11 ae de 3e 14 f9 ca 3e
       0.08750256 -0.07773743 0.43492177 0.39643157
000010 d7 6d a4 be 2a 6d 3c be 8d 0a 4c 3e 3a 9f de 3e
       -0.3211505 -0.18401018 0.199259 0.43480855
000020 85 66 c9 be 03 a2 0c 3d a8 d1 a3 3e ed 33 85 3e
       -0.3933603 0.034334194 0.31995893 0.2601618
000030 fb c0 d3 be 4b 71 b5 bd 8b 76 5d be e5 a5 de 3d
       -0.4135817 -0.088594995 -0.21627252 0.108714856
000040 90 04 cc be 89 0e 6e 3e 1b a1 cc 3d 7f 95 0b 3e
       -0.3984723 0.23247732 0.09991666 0.13631247
000050 69 02 15 bc 7e 57 bb be b2 20 d4 bc cc 18 b9 3c
       -0.009094813 -0.3659019 -0.025894497 0.022594832
000060 22 3b 9d 3d 8a d8 cb be 68 82 78 3e cf d9 24 3e
       0.07677294 -0.39813644 0.24268496 0.16098712
000070 da 20 00 3e 4d 95 e0 3d ab 88 0c 3e 48 34 41 3e
       0.12512532 0.10965977 0.1372401 0.188676
000080 d5 b6 34 be 2b 08 67 3d 77 4a ce 3e 8f eb bb 3c
       -0.1764787 0.056404274 0.40291187 0.022939472
000090 51 92 86 be d6 ae 46 be 21 be 4d be e0 e2 95 3e
       -0.26283506 -0.19402632 -0.2009206 0.29274654
0000a0 fd 09 6e 3e de 33 21 be bc da 20 be 82 ab 04 be
       0.23245998 -0.15742442 -0.1570844 -0.1295605
0000b0 f2 89 43 3e 3b b8 ce be dd 7a 5f be e1 9e 23 be
       0.1909559 -0.40374932 -0.21824212 -0.15978576
0000c0 32 0e e1 bc 57 6e 41 3e 1b 7d 8b be 9d fa d2 be
       -0.02747259 0.18889748 -0.27243885 -0.41206828
0000d0 a2 36 30 be eb f6 81 be 5d bd 50 3e 86 5c 3a 3d
       -0.17208341 -0.25383696 0.20384736 0.045498393
0000e0 c5 aa 85 3e 97 34 d8 be 33 95 84 3d 44 ac 96 be
       0.2610685 -0.42227623 0.0647377 -0.29428303
0000f0 a5 ff a8 3d 98 aa d0 be ae 0e 76 be 2f cc b3 3e
       0.08251885 -0.40755153 -0.24029037 0.35116717
000100 56 42 ac be 54 b0 98 be 6e 0e 2c 3d 9c 23 4a 3c
       -0.3364436 -0.29822028 0.04200595 0.0123375915
000110 b6 23 ce 3e 4d f3 a8 be dd 1d 87 be 56 29 bb 3e
       0.4026162 -0.32998124 -0.2638997 0.36554974
000120 de 60 a4 3e 35 9f 85 be aa 7f af be 39 6a 8f be
       0.32105154 -0.26098028 -0.34277087 -0.2801073
000130 93 29 c6 be 29 48 21 bd 7f 99 ce be fd 90 db 3e
       -0.38703594 -0.039375458 -0.40351483 0.42884055
000140 31 3b 17 3d 51 29 c0 bd c9 c1 b6 3e c5 76 83 3e
       0.036921684 -0.093828805 0.3569472 0.2567655
000150 a9 c8 dc be 3e bb 71 3e db 2c 12 bd ee ac 47 bd
       -0.43121842 0.23606583 -0.03568731 -0.048748903
000160 19 b1 b7 3e 95 4c 19 3e 3b bd d8 be 0f 46 a8 3e
       0.35877302 0.1497062 -0.4233187 0.3286595
000170 d1 3b cc 3e 45 50 87 3e 13 94 b4 be 94 72 b8 be
       0.39889386 0.26428428 -0.35269222 -0.36024916
000180 26 bb 3d 3e b5 79 bc 3e a4 f6 b8 3d 8f a5 43 bc
       0.18528423 0.36811605 0.09031418 -0.011941328
000190 08 0f 71 3d 24 16 98 be 47 78 c4 be 41 00 32 3e
       0.058852226 -0.29704392 -0.38373014 0.1738291
0001a0 13 59 96 be e3 2d c7 3c eb 15 a4 be 9f 37 95 be
       -0.29364833 0.024313873 -0.32047972 -0.29143998
0001b0 79 3e 11 3e ec 4a c7 3e 8d 64 d0 bc f6 f8 a4 bd
       0.14183988 0.38924348 -0.025438571 -0.08055298
0001c0 48 dc 67 3d df c1 90 be df a4 4a be f4 37 8f 3e
       0.05660656 -0.28272912 -0.19789456 0.27972376
0001d0 73 26 ae 3d bf ff 39 3e 13 cf 6a 3e 64 80 9a 3e
       0.08503427 0.18163966 0.22930555 0.3017608
0001e0 6c 39 9b be 9c 9c 89 3e 1c 27 9d 3d 94 cb a8 be
       -0.30317247 0.26877296 0.07673475 -0.32967818
0001f0 27 8f 90 3e 95 25 ad 3d d6 03 b3 be 58 2f 50 3e
       0.28234217 0.08454434 -0.34963864 0.2033056
000200 ee 9d 7e be 47 61 bf 3e 4d 87 61 be 88 2b 71 3e
       -0.24864933 0.37378904 -0.2202427 0.23551762
000210 4a d2 a8 3e ac 9e a9 3e 87 91 81 be c9 51 94 3d
       0.32972938 0.3312887 -0.2530634 0.07242162
000220 ed 55 6e 3d 49 4c 81 be d8 18 1a be 0d cf 0b 3e
       0.058187414 -0.25253513 -0.1504854 0.13653202
000230 d3 21 b9 3e f1 27 84 3d db 19 4a be 46 40 6e be
       0.36158618 0.06452931 -0.19736426 -0.23266706
000240 7c f5 bd 3e 49 f1 29 3e 4a 11 b8 be 61 8b 27 3e
       0.37101352 0.16595949 -0.3595069 0.16361763
000250 d9 45 ab 3b 33 1c 86 3e 7d b6 be 3e 27 44 34 3e
       0.0052268323 0.2619339 0.37248603 0.17604123
000260 ce 31 88 be 99 42 be be 70 cd 26 3d fa 39 56 3e
       -0.26600498 -0.37160185 0.040723264 0.20920554
000270 81 16 7f 3e a7 c3 0f be d3 ee 46 bd 44 20 b1 be
       0.24910928 -0.14039479 -0.048567604 -0.3459493
000280 1e ca a6 3e b6 35 30 be d3 4e df be ec 23 36 3e
       0.32576078 -0.17207989 -0.43614826 0.1778714
000290 fa da bd 3e 33 9d e2 be 7c 47 98 3d c5 db c5 3e
       0.37081128 -0.44260558 0.074355096 0.38644233
0002a0 5a 08 8f 3d 70 92 bc be 96 2c 04 be 1e 2f ba be
       0.06984015 -0.36830473 -0.12907633 -0.36364073
0002b0 80 b0 21 3c 80 45 cf bd 1c 58 bf bd bd 69 bf be
       0.009868741 -0.10120678 -0.093429774 -0.3738536
0002c0 28 dd bf 3d 7d 62 cd be e4 05 95 bd e8 d3 04 3e
       0.09368354 -0.40114203 -0.07276514 0.12971461
0002d0 80 23 ae 3d 56 6d d7 3e 26 eb ae 3e fc 79 b9 3e
       0.08502865 0.42075604 0.3416378 0.3622588
0002e0 22 bb d3 3e fa 74 50 be d0 1b 6c bd 34 f1 87 3e
       0.41353709 -0.20357123 -0.05764371 0.2655121
0002f0 4c 42 b5 bd e8 65 18 be ec ad e2 3e c2 75 c6 be
       -0.08850536 -0.14882624 0.44273317 -0.38761717
000300 00 ac b4 39 98 04 26 3d 95 72 80 be 6a 5b d7 3e
       0.00034460425 0.040531725 -0.2508742 0.4206193
000310 88 63 4d 3e 08 19 e1 be 25 ff a5 be e4 55 ba bd
       0.200575 -0.4396441 -0.32421222 -0.090984136
000320 8e 61 8a be 4c bf 21 3e 84 6a aa 3e 10 3c 36 be
       -0.27027553 0.1579563 0.3328439 -0.1779635
000330 0e 05 8f 3e 0a 8d bd 3e cd 09 c5 be 70 67 5f 3d
       0.27933544 0.37021667 -0.3848404 0.054542005
000340 37 ff a9 be 88 28 55 3e 45 07 92 be e5 a6 5e be
       -0.33202526 0.20816243 -0.2852117 -0.21743353
000350 36 67 cc be 3c 13 b9 be 90 cb 83 3c 7a 8d d8 3e
       -0.39922494 -0.36147487 0.016088277 0.42295438
000360 6a 41 15 be 8c 52 cd 3e 86 96 e1 3e 20 db 10 3e
       -0.14575735 0.4010204 0.44060153 0.1414609
000370 9e da 39 be 76 67 88 3e 9c ec 81 3e 13 36 97 be
       -0.18149802 0.26641434 0.2537583 -0.29533443
000380 a0 e3 b0 3e 20 1b a7 3d 28 69 69 3e 80 40 b0 3e
       0.34548664 0.081594706 0.2279402 0.3442421
000390 70 3a bf bc 16 8b d3 3e fe 68 b9 3e b8 01 0a bd
       -0.023343295 0.41317052 0.36212915 -0.033693045
0003a0 c6 33 97 3e b8 34 db be 94 dd 09 be 2c d7 93 3e
       0.29531687 -0.4281366 -0.13463432 0.288751
0003b0 50 c4 6f 3d e4 ac 23 3e 92 a3 cf be 64 7b a0 be
       0.058536828 0.15983921 -0.40554482 -0.3134414
0003c0 87 67 30 3d b6 f1 80 be 9a 8d 77 3e 0d b2 7e 3e
       0.04306748 -0.2518441 0.2417511 0.24872608
0003d0 a7 6a 9a 3e a6 f4 15 be e6 fc d8 3e 54 89 a1 3e
       0.30159494 -0.14644107 0.42380446 0.31550086
0003e0 57 d6 9f be bb 17 a8 3d 4b 11 16 bd 65 90 6a 3e
       -0.31218216 0.08207651 -0.036637586 0.22906645
0003f0 cb be 2f 3d 16 e5 df 3d 3e 2e ae 3e a1 13 86 bc
       0.042906564 0.109323665 0.34019655 -0.016366782

lstm.weight_hh_l0 f4 [20, 5]
000000 cd 80 a3 3e 3c 64 3b 3e 1b 67 08 be 60 33 2b bd
       0.31934205 0.18299955 -0.13320582 -0.041797042
000010 40 0b 5a 3e 9d 9c b0 be dc 40 bf 3e 69 0e 13 3e
       0.21293354 -0.34494486 0.3735417 0.14360966
000020 90 1b 59 3d f8 64 cc be ca 04 da 3e a7 24 97 3d
       0.0530048 -0.39920783 0.4258178 0.07380038
000030 37 45 e4 bc ac 22 8a be bf 4e b5 3e 58 e0 78 bd
       -0.027865035 -0.26979578 0.3541164 -0.060760826
000040 28 80 cf 3e 60 d1 2d 3e ec b5 12 be 8c 2f 93 be
       0.40527463 0.16974401 -0.1432721 -0.28747213
000050 f6 be 1f bc ec e0 27 3e 0e 0e d8 3d ac 87 0e 3e
       -0.0097501185 0.16394395 0.10549556 0.13918942
000060 ad e1 62 3e 0e ca e2 3e dc 7b 9d bd 5e a7 1d be
       0.22156401 0.4429478 -0.0768964 -0.15395877
000070 b0 a8 4c 3d e6 81 ce 3e e6 18 84 be a8 60 5d 3e
       0.04996556 0.4033348 -0.25800246 0.21618903
000080 3e f3 e1 3e 78 ed 01 be 56 de a0 be d8 76 0f bd
       0.44130892 -0.12688243 -0.3141963 -0.035025448
000090 2c 37 7c 3e 7f f9 47 bd 38 f3 d6 3e 48 bc a3 3e
       0.24630421 -0.048821922 0.41982436 0.31979585
0000a0 98 14 2a bd a4 1c 6d 3e c0 d4 7e be 30 71 fc bd
       -0.041523546 0.23155457 -0.24885845 -0.12326276
0000b0 ea 17 8b be 68 52 53 3d e3 02 0d be 60 ba 30 3e
       -0.27166682 0.05159226 -0.13770632 0.17258596
0000c0 68 4a 10 3e 13 9b 98 be 37 2f 70 be d9 6b 82 be
       0.14090884 -0.29805812 -0.23455511 -0.25472906
0000d0 88 f5 bc 3d 0a fc b4 be 48 73 9b be b0 79 92 3d
       0.09226519 -0.3534854 -0.3036139 0.07152116
0000e0 c0 2f ca 3e 32 fc 86 3e d8 2c f8 bd e0 8d 56 bc
       0.39489555 0.26364285 -0.12117928 -0.013095349
0000f0 00 6b 9a bc 1f 92 4c be b4 00 67 3e a0 7a 81 3e
       -0.01884985 -0.19977616 0.22558862 0.25288868
000100 8a a0 e3 3e 7e cc 99 3e 20 10 31 3d d8 bb 58 3e
       0.4445842 0.30038828 0.04322827 0.21165407
000110 fe bb cf be 7c f8 95 be b0 4f c7 3d 6d 4b d8 bd
       -0.40573114 -0.2929114 0.09731996 -0.10561261
000120 0d f2 66 3e 10 e6 ae be 6e 98 60 3e 82 8f d9 3e
       0.22553273 -0.341599 0.21933147 0.424923
000130 04 12 b3 be 14 b6 0b 3d 94 c8 39 3e 86 42 dc bc
       -0.34974682 0.03410919 0.1814292 -0.02688719
000140 3c a3 67 be 0a bb 2d be 28 f8 e2 be a8 43 cc 3d
       -0.22620863 -0.16965881 -0.44329953 0.09973842
000150 20 0f 62 3d 8c 24 8d 3d a6 52 48 3e 7b 37 d8 bd
       0.055190206 0.068917364 0.19562778 -0.10557457
000160 24 ef 41 be 5a 59 95 3e 10 a3 20 3e c8 dd 03 3e
       -0.18938881 0.29169732 0.15687203 0.12877572
000170 2a fc aa be 40 eb b7 be e8 3b de be 60 91 ca 3d
       -0.3339551 -0.3592167 -0.4340508 0.09891009
000180 da 53 8e 3e be bf f1 bc 8a 5d de be 88 1a 39 be
       0.2779835 -0.029510375 -0.4343074 -0.18076527

lstm.bias_ih_l0 f4 [20]
000000 63 fe cb be b1 2d 9b 3e cd 25 57 3e e5 f0 8c be
       -0.3984252 0.30308297 0.21010514 -0.27527538
000010 cd 84 24 3e 46 90 15 be f7 ad dd be 33 44 ab be
       0.16066284 -0.14605817 -0.43296787 -0.3345047
000020 10 71 e4 bd a4 4c a9 3e 0a 11 a0 3e 00 a0 2b 3b
       -0.111543775 0.33066285 0.31263 0.0026187897
000030 70 2b 12 bd 46 2f 15 be 1e 54 5c be 5f 06 7e bd
       -0.035685956 -0.14568815 -0.21516463 -0.062017795
000040 20 25 52 3c 54 c0 ba 3e 5d 87 44 3e db 1b 78 3e
       0.012826234 0.3647486 0.19192262 0.24229376

lstm.bias_hh_l0 f4 [20]
000000 6c 90 99 3e 77 04 c3 bb 7d 13 20 be c0 af dd be
       0.29992998 -0.00595146 -0.15632434 -0.4329815
000010 7f 13 82 3e 58 90 e0 3e 41 72 bd be 21 0d 7f 3d
       0.254055 0.43860126 -0.3700123 0.06226838
000020 60 a3 c0 3c 44 0f 45 3e 24 ec 6f 3e 6c e7 7e 3e
       0.023515403 0.19244105 0.23429924 0.24892968
000030 24 3c e1 be 50 c4 68 3d 52 74 ac 3d 48 90 6c be
       -0.43991196 0.056827843 0.08420624 -0.23101914
000040 13 90 67 be 22 19 c9 3e 25 ed a4 3e 8f 1f 08 3e
       -0.22613554 0.39276987 0.32212177 0.13293289

linear.weight f4 [2, 5]
000000 fb f1 9f 3e 5e 9d b6 be 7f 38 22 be 7c c4 e0 3e
       0.31239304 -0.35666937 -0.15841864 0.43899906
000010 9e 67 5b be 00 57 39 be 12 b6 71 3e 1c fb b8 39
       -0.21426246 -0.18099594 0.2360461 0.00035282306
000020 19 45 d3 be 2c a9 4d bd
       -0.41263655 -0.050210163

linear.bias f4 [2]
000000 6a bb c7 3e 8d 6b 28 3e
       0.39010173 0.16447277

exp_avg f4 [20, 34]
000000 65 50 a9 39 46 45 ba 39 dd 4a 0c 39 28 dc 02 3a
       0.0003229409 0.00035528297 0.00013379329 0.0004991912
000010 b6 cf a9 39 5d 13 4c 39 f4 68 83 38 00 00 00 00
       0.0003238895 0.0001946217 6.266116e-05 0.0
000020 06 b1 2c b7 7d 01 b3 38 b3 0a 47 36 04 81 e1 37
       -1.0293215e-05 8.535662e-05 2.9659539e-06 2.6882168e-05
000030 fb 98 09 39 41 9c a4 39 65 68 f9 38 f4 20 fc 38
       0.00013122328 0.00031396936 0.0001189269 0.000120224344
000040 1b 1d 10 39 d1 0f 10 38 0c 43 c7 39 37 a9 c4 36
       0.00013743753 3.4347006e-05 0.00038006192 5.8609544e-06
000050 f7 27 83 37 4d 43 d5 39 8c e3 01 37 92 86 f3 36
       1.5635027e-05 0.0004067667 7.741979e-06 7.2576304e-06
000060 a8 f3 70 37 fe f9 8c 37 e3 7e 3c 37 bf 3f a2 37
       1.4361845e-05 1.6805712e-05 1.1235216e-05 1.9341589e-05
000070 aa e7 05 39 3b 47 2e 38 77 4a 0a 39 01 98 9b 38
       0.0001277017 4.155117e-05 0.00013188446 7.419289e-05
000080 6d ee f1 39 79 34 1d 3b 60 83 00 3b 3c 6b c6 3a
       0.00046144743 0.0023987575 0.0019609556 0.001513816
000090 91 c5 16 3a 3d 9b bd 3a 76 ba 88 3a e4 38 69 3a
       0.00057514856 0.001446582 0.0010431546 0.0008896722
0000a0 5c f3 8f 39 00 00 00 00 da 36 8c b8 e2 d5 a1 39
       0.00027456402 0.0 -6.685937e-05 0.00030867668
0000b0 02 cf 18 37 6d 5e ea 38 08 ef 24 3a 54 8b a9 3a
       9.108104e-06 0.00011175578 0.0006291722 0.00129352
0000c0 51 cc 9b 39 5e fd 0c 3a ed bc d6 39 dd 67 07 39
       0.0002971613 0.0005378331 0.0004095802 0.00012913295
0000d0 e6 54 dd 3a 68 a1 8f 37 79 2c 01 39 a1 eb f8 3a
       0.0016886264 1.7122089e-05 0.00012318966 0.0018991121
0000e0 6b 3e 26 38 19 67 2a 38 b4 1c 25 38 bf 45 7b 38
       3.9635615e-05 4.0627176e-05 3.9365797e-05 5.990802e-05
0000f0 a0 e6 9d 37 bc 81 2f 37 ed 67 00 3a 55 dd 2e 39
       1.8823252e-05 1.0461019e-05 0.00048982986 0.00016676386
000100 d1 76 d2 39 c6 94 0e 38 e9 3e e1 3b 1f 3b 9c 3b
       0.00040142846 3.3993994e-05 0.0068739546 0.00476779
000110 aa 99 cf 39 16 50 f5 39 00 42 3a 39 25 2e 16 3a
       0.00039596605 0.0004678971 0.00017762929 0.0005728922
000120 b1 ad bf 39 cf 72 8f 39 5a e8 b1 38 00 00 00 00
       0.0003655977 0.00027360625 8.4832966e-05 0.0
000130 43 0e ef 35 80 6f f6 38 bc e8 5c 36 bf f0 15 38
       1.7811038e-06 0.000117509626 3.2918024e-06 3.574858e-05
000140 96 35 4a 39 2e 23 de 39 30 e4 e8 38 b3 a5 10 39
       0.00019284184 0.0004236935 0.00011105125 0.00013794638
000150 10 74 d2 39 37 c6 30 38 e0 3b 05 3a e8 7d f5 36
       0.00040140795 4.2146272e-05 0.00050824694 7.3162264e-06
000160 9f 6d ef 37 78 e7 77 3a 41 ee 09 37 25 84 1b 37
       2.8542067e-05 0.0009456794 8.221309e-06 9.269487e-06
000170 76 d2 85 37 53 20 a9 37 2a 69 06 37 d4 b4 aa 38
       1.5952839e-05 2.0161422e-05 8.011508e-06 8.1399136e-05
000180 32 aa 25 39 80 2c 5f 38 ad 8c 16 39 3b e6 66 38
       0.00015799029 5.3208787e-05 0.0001435752 5.5050692e-05
000190 50 02 15 3a a4 52 78 3a 5a 10 94 ac c3 09 b6 ac
       0.00056842435 0.00094727636 -4.2082284e-12 -5.173835e-12
0001a0 87 b8 04 ac 8c 24 54 ac ab a2 e1 ab 03 88 40 ac
       -1.8860761e-12 -3.01473e-12 -1.6032361e-12 -2.7360343e-12
0001b0 30 89 21 ab 00 00 00 00 6b 68 77 2b ba fd b9 ab
       -5.7389076e-13 0.0 8.7896937e-13 -1.3215464e-12
0001c0 3a f1 2d a9 c6 cb d3 aa a2 87 2c ac 34 2b b8 ac
       -3.8622947e-14 -3.7622526e-13 -2.4517961e-12 -5.234391e-12
0001d0 d9 f3 fc 2d 18 00 03 ad bb 68 98 ad 3f 64 17 ab
       2.8757373e-11 -7.446509e-12 -1.7326909e-11 -5.3785096e-13
0001e0 07 0b d6 ac 8b 27 51 aa 4d c8 a9 aa 3e 55 da ac
       -6.08347e-12 -1.8576648e-13 -3.0159417e-13 -6.2053964e-12
0001f0 c5 08 45 ab 2a dd 39 aa 51 ae bc aa cd a9 88 aa
       -7.000063e-13 -1.6508032e-13 -3.3516465e-13 -2.4276276e-13
000200 e8 09 25 aa 29 17 82 aa 6c c1 c0 ab c6 e3 dd aa
       -1.4658381e-13 -2.310871e-13 -1.3696106e-12 -3.9415536e-13
000210 24 73 23 ac 6a 68 f6 ab bf 78 45 ac ad ba da ad
       -2.322761e-12 -1.7508332e-12 -2.8062411e-12 -2.4866631e-11
000220 f3 a9 05 3c cd 87 19 3c 97 d0 69 3b d6 23 42 3c
       0.008158195 0.009370756 0.0035677308 0.011849364
000230 4f b4 01 3c dc cd cd 3b 95 c6 f8 3a 00 00 00 00
       0.007916524 0.006280644 0.001898008 0.0
000240 f2 ec 89 b7 4c 53 1c 3b 4d f9 71 38 76 bf 3a 3a
       -1.6442009e-05 0.002385336 5.7691057e-05 0.0007123867
000250 3c 15 86 3b c9 a7 0e 3c d3 5d 93 3b b1 da 0d 3b
       0.004091887 0.008706995 0.0044972687 0.0021645243
000260 d7 d9 da 3b 69 65 51 3a 51 4b 27 3c 36 2e 07 39
       0.0066788006 0.00079878286 0.010210828 0.00012891818
000270 ac 49 dd 39 3d ba 45 3c 37 79 53 39 0f df 49 39
       0.00042207295 0.012068328 0.00020167684 0.0001925195
000280 41 f7 ba 39 8b 27 d3 39 0e 62 bd 38 13 5b 98 3a
       0.00035660903 0.00040274518 9.0304864e-05 0.0011623822
000290 7b 4e 50 3b 3b 39 8e 3a 42 45 66 3b 1a 74 92 3a
       0.003178506 0.0010850796 0.0035136496 0.0011173517
0002a0 75 89 f1 3c 28 4c a4 3c a0 7b de 95 5f d0 6b 95
       0.02948449 0.020055845 -8.986013e-26 -4.7622248e-26
0002b0 ad 59 e1 94 11 5a 2e 96 e9 ff 92 95 02 5c b5 94
       -2.2754565e-26 -1.4084028e-25 -5.9372685e-26 -1.831262e-26
0002c0 fd 45 12 14 00 00 00 00 f3 d2 14 95 ff 3d aa 94
       7.384919e-27 0.0 -3.0054772e-26 -1.7190066e-26
0002d0 3a 24 4e 92 e8 a7 be 93 48 50 4f 95 e4 4b ad 95
       -6.504679e-28 -4.812831e-27 -4.1866648e-26 -6.999388e-26
0002e0 7b 33 0e 97 6c 4f dc 15 90 42 18 97 39 6d ed 93
       -4.594765e-25 8.89826e-26 -4.9197863e-25 -5.9934913e-27
0002f0 00 78 d8 95 e6 ec 55 13 8f bf ca 95 c4 d1 90 96
       -8.743103e-26 2.700118e-27 -8.1889376e-26 -2.3396835e-25
000300 22 cb fc 13 e6 93 79 92 56 d3 6d 14 bf 5f 41 13
       6.3814048e-27 -7.8752845e-28 1.2007121e-26 2.4407231e-27
000310 d0 6e fe 95 11 1e 39 95 d5 0a 0f 95 ce aa 65 94
       -1.02764614e-25 -3.738417e-26 -2.8887165e-26 -1.1595231e-26
000320 c0 9b 25 95 7e 72 37 13 e5 bf e4 16 31 36 00 17
       -3.344435e-26 2.3154296e-27 3.695649e-25 4.142743e-25
000330 00 00 00 00 00 00 00 00 00 00 00 00 00 00 00 00
       0.0 0.0 0.0 0.0
000340 00 00 00 00 00 00 00 00 00 00 00 00 00 00 00 00
       0.0 0.0 0.0 0.0
000350 00 00 00 00 00 00 00 00 00 00 00 00 00 00 00 00
       0.0 0.0 0.0 0.0
000360 00 00 00 00 00 00 00 00 00 00 00 00 00 00 00 00
       0.0 0.0 0.0 0.0
000370 00 00 00 00 00 00 00 00 00 00 00 00 00 00 00 00
       0.0 0.0 0.0 0.0
000380 00 00 00 00 00 00 00 00 00 00 00 00 00 00 00 00
       0.0 0.0 0.0 0.0
000390 00 00 00 00 00 00 00 00 00 00 00 00 00 00 00 00
       0.0 0.0 0.0 0.0
0003a0 00 00 00 00 00 00 00 00 00 00 00 00 00 00 00 00
       0.0 0.0 0.0 0.0
0003b0 00 00 00 00 00 00 00 00 09 da 15 38 55 ed 21 38
       0.0 0.0 3.572743e-05 3.8606424e-05
0003c0 c4 be 7c 37 80 04 39 38 32 87 f4 37 89 a7 bb 37
       1.5064787e-05 4.4111628e-05 2.9150022e-05 2.2370152e-05
0003d0 7f a4 14 37 00 00 00 00 b3 e8 54 35 1e cd 1c 37
       8.859787e-06 0.0 7.9314776e-07 9.346082e-06
0003e0 18 ce 30 34 fd e2 47 36 6b 47 7c 37 fd fc e9 37
       1.6466254e-07 2.9785435e-06 1.5036999e-05 2.7893571e-05
0003f0 ba f1 6c 37 31 d3 53 37 4c 7d 05 38 fc 5b 4a 36
       1.41229775e-05 1.2625752e-05 3.1826363e-05 3.0153888e-06

exp_avg_sq f4 [20, 34]
000000 ce e1 b7 34 ad e1 dc 34 51 de 79 33 d2 9c 5b 35
       3.42507e-07 4.1142394e-07 5.8177026e-08 8.181206e-07
000010 e2 87 ba 34 f6 47 07 34 40 45 56 32 00 00 00 00
       3.4744068e-07 1.2599034e-07 1.2472185e-08 0.0
000020 4e 26 81 2f d6 4c dd 32 fa 35 0d 2e 59 c7 22 31
       2.349218e-10 2.5762727e-08 3.210763e-11 2.3687419e-09
000030 d4 e1 75 33 d2 75 a2 34 f2 ec 3c 33 bb 3b 8b 33
       5.7248897e-08 3.0260577e-07 4.398766e-08 6.483557e-08
000040 ac 7a 7b 33 33 47 85 31 a3 4e fa 34 75 19 e6 2e
       5.855206e-08 3.878904e-09 4.6623344e-07 1.0463711e-10
000050 cc 85 95 30 33 25 20 35 21 5f 5c 2f 00 95 32 2f
       1.0879204e-09 5.9658777e-07 2.004268e-10 1.6241941e-10
000060 a4 43 53 30 28 94 71 30 b1 e9 8c 30 62 f4 50 31
       7.6857476e-10 8.788583e-10 1.025276e-09 3.04069e-09
000070 31 1c 67 33 c3 5d c4 31 94 cc 84 33 8a 8f 8a 32
       5.380952e-08 5.7150102e-09 6.1839415e-08 1.6130588e-08
000080 e2 27 39 35 6a cc 9e 37 7e 01 ed 37 02 45 96 37
       6.897591e-07 1.8930255e-05 2.8253296e-05 1.7913528e-05
000090 e1 bd 2d 36 3a 7c 83 37 2b 33 08 37 b0 05 cc 36
       2.5889533e-06 1.5674264e-05 8.118145e-06 6.080336e-06
0000a0 57 17 2f 35 00 00 00 00 55 1a 54 33 94 15 42 35
       6.5226544e-07 0.0 4.9384045e-08 7.230203e-07
0000b0 69 4d 16 30 c4 54 d2 33 ae be 4c 36 12 9a 59 37
       5.467969e-10 9.794306e-08 3.050936e-06 1.297008e-05
0000c0 21 2d 42 35 15 b8 40 36 76 5a bf 35 74 47 0e 34
       7.2336303e-07 2.871738e-06 1.4256937e-06 1.3250775e-07
0000d0 ad a4 ba 37 53 fe 33 31 67 80 e8 33 7a 6e 02 38
       2.2249611e-05 2.6192495e-09 1.0826698e-07 3.1097305e-05
0000e0 a8 f4 84 32 e9 be 68 32 d7 ce 67 32 d1 8a fc 32
       1.547808e-08 1.3547585e-08 1.3493e-08 2.9399787e-08
0000f0 f6 d2 49 31 a6 73 94 31 b8 97 04 36 c1 9f 76 34
       2.9369267e-09 4.3205146e-09 1.9757845e-06 2.2968653e-07
000100 74 31 b0 35 e8 49 0a 33 d6 5c a8 39 96 b3 60 39
       1.3127415e-06 3.2197846e-08 0.00032112625 0.00021429206
000110 79 87 5e 34 93 50 a9 34 5f e4 3f 33 8f 37 06 35
       2.0724646e-07 3.1537328e-07 4.4678355e-08 4.999974e-07
000120 27 9f 65 34 14 e2 ff 33 d2 f9 3e 32 00 00 00 00
       2.1385186e-07 1.1915486e-07 1.1116258e-08 0.0
000130 e0 71 27 2f 48 fe a3 32 00 74 a0 2d c9 db fb 30
       1.5229018e-10 1.9091331e-08 1.8241408e-11 1.832512e-09
000140 8c 37 59 33 b4 d7 8b 34 f2 df c6 32 02 24 fe 32
       5.057477e-08 2.6047712e-07 2.3152072e-08 2.9585866e-08
000150 50 fc b7 34 d1 f0 31 31 56 36 c8 34 6a d1 de 2e
       3.4269988e-07 2.5893778e-09 3.7292438e-07 1.01325906e-10
000160 37 b6 ae 31 36 5d a6 35 db 7b 22 2f dc 8a 02 2f
       5.084782e-09 1.2395092e-06 1.4777816e-10 1.1872764e-10
000170 ef b5 c9 2f d6 1a 2b 30 48 4a 18 30 6e bb 7e 32
       3.6690959e-10 6.2247574e-10 5.540284e-10 1.48273624e-08
000180 0f 4f 34 33 98 be a7 31 0d 9b db 32 b4 ca 74 31
       4.198142e-08 4.8820077e-09 2.5565464e-08 3.5621897e-09
000190 b0 da fc 34 a7 40 b4 35 4c aa 95 1b c5 35 e6 1b
       4.7097774e-07 1.3429861e-06 2.4760034e-22 3.8085056e-22
0001a0 fe 85 74 1a 93 5c 34 1b b6 98 47 1a 5f 36 05 1b
       5.0566255e-23 1.4919163e-22 4.1275594e-23 1.101907e-22
0001b0 ec b4 9a 18 00 00 00 00 1a de 73 19 ea 99 e6 19
       3.999075e-24 0.0 1.2607659e-23 2.3843608e-23
0001c0 fe b2 d3 14 be e4 1b 18 f7 c4 ca 1a fb e8 f3 1b
       2.1376155e-26 2.0148766e-24 8.3863456e-23 4.0351538e-22
0001d0 55 9d 2d 1e cc b2 80 1c 2b 18 9d 1d 10 36 9d 18
       9.191079e-21 8.516547e-22 4.1582543e-21 4.0638138e-24
0001e0 e1 ce 1f 1c fe b8 70 17 56 7e d9 17 48 7e 22 1c
       5.287607e-22 7.7781675e-25 1.4055188e-24 5.376452e-22
0001f0 21 f7 09 19 1f b6 ed 16 09 4b 00 18 0c 53 7d 17
       7.132641e-24 3.840435e-25 1.6581495e-24 8.185353e-25
000200 70 27 c1 16 be a9 1b 16 ca 49 01 1a 3f 50 2f 18
       3.120572e-25 1.2574361e-25 2.673618e-23 2.2658734e-24
000210 e5 be bd 1a f2 5f 4d 1a 0c 50 1f 1b 62 02 07 1e
       7.8476975e-23 4.247051e-23 1.3178036e-22 7.147333e-21
000220 3d fe 5b 38 19 d2 8b 38 c1 a0 22 37 ae 15 dd 38
       5.2450447e-05 6.66717e-05 9.693381e-06 0.00010542139
000230 85 d3 48 38 4c f2 fd 37 0f d7 3a 36 00 00 00 00
       4.788071e-05 3.0272779e-05 2.784134e-06 0.0
000240 87 07 37 32 c1 c5 91 36 73 6e 2f 31 d4 f7 ce 34
       1.06537135e-08 4.3443583e-06 2.5528635e-09 3.855081e-07
000250 35 7c 54 37 d8 b6 6f 38 23 9e 8c 37 3c 5b 75 36
       1.2665104e-05 5.7152327e-05 1.6762939e-05 3.656095e-06
000260 4a d2 0d 38 8e 20 04 35 22 2c a5 38 48 3f 8a 32
       3.3812867e-05 4.9221205e-07 7.8760335e-05 1.6094091e-08
000270 f3 4e 51 35 1e 86 f5 38 86 70 1b 33 fb 24 f4 32
       7.7973453e-07 0.00011707492 3.619109e-08 2.8422155e-08
000280 10 7b d5 33 61 66 07 34 42 56 d9 31 c9 a9 28 36
       9.9409704e-08 1.26101e-07 6.3253376e-09 2.5132779e-06
000290 d8 2a 03 37 7d 7e 74 35 42 aa 1d 37 bf cd 7b 35
       7.818184e-06 9.108115e-07 9.3975705e-06 9.3804186e-07
0002a0 12 2c 2f 3a a9 0e a4 39 f4 01 00 00 f4 01 00 00
       0.0006682287 0.0003129144 7e-43 7e-43
0002b0 78 00 00 00 39 02 00 00 c7 01 00 00 b4 00 00 00
       1.68e-43 7.97e-43 6.38e-43 2.52e-43
0002c0 0e 00 00 00 00 00 00 00 04 00 00 00 29 00 00 00
       2e-44 0.0 6e-45 5.7e-44
0002d0 00 00 00 00 05 00 00 00 83 00 00 00 f4 01 00 00
       0.0 7e-45 1.84e-43 7e-43
0002e0 82 07 00 00 1e 00 00 00 fe 06 00 00 07 00 00 00
       2.693e-42 4.2e-44 2.508e-42 1e-44
0002f0 f4 01 00 00 00 00 00 00 a6 00 00 00 fb 03 00 00
       7e-43 0.0 2.33e-43 1.428e-42
000300 00 00 00 00 00 00 00 00 00 00 00 00 00 00 00 00
       0.0 0.0 0.0 0.0
000310 fa 00 00 00 28 00 00 00 64 00 00 00 0d 00 00 00
       3.5e-43 5.6e-44 1.4e-43 1.8e-44
000320 9e 00 00 00 07 00 00 00 25 01 00 00 62 01 00 00
       2.21e-43 1e-44 4.1e-43 4.96e-43
000330 00 00 00 00 00 00 00 00 00 00 00 00 00 00 00 00
       0.0 0.0 0.0 0.0
000340 00 00 00 00 00 00 00 00 00 00 00 00 00 00 00 00
       0.0 0.0 0.0 0.0
000350 00 00 00 00 00 00 00 00 00 00 00 00 00 00 00 00
       0.0 0.0 0.0 0.0
000360 00 00 00 00 00 00 00 00 00 00 00 00 00 00 00 00
       0.0 0.0 0.0 0.0
000370 00 00 00 00 00 00 00 00 00 00 00 00 00 00 00 00
       0.0 0.0 0.0 0.0
000380 00 00 00 00 00 00 00 00 00 00 00 00 00 00 00 00
       0.0 0.0 0.0 0.0
000390 00 00 00 00 00 00 00 00 00 00 00 00 00 00 00 00
       0.0 0.0 0.0 0.0
0003a0 00 00 00 00 00 00 00 00 00 00 00 00 00 00 00 00
       0.0 0.0 0.0 0.0
0003b0 00 00 00 00 00 00 00 00 cc ef 23 32 4f 93 3d 32
       0.0 0.0 9.542372e-09 1.1034742e-08
0003c0 3d 2a e7 30 2e 02 7d 32 0e 76 db 31 da 06 81 31
       1.6819467e-09 1.4727034e-08 6.38716e-09 3.755173e-09
0003d0 00 c9 25 30 00 00 00 00 c3 7a a6 2c 4a c7 2c 30
       6.031229e-10 0.0 4.731633e-12 6.285644e-10
0003e0 33 98 56 2a 7b 99 90 2e 92 99 df 30 0c 2e b8 31
       1.9059823e-13 6.5756255e-11 1.6269033e-09 5.3603397e-09
0003f0 64 9f 84 30 83 55 b0 30 57 e3 f2 31 d1 27 8f 2e
       9.649566e-10 1.2829989e-09 7.0689725e-09 6.50996e-11

exp_avg f4 [20, 5]
000000 22 60 bb b5 35 35 2a 23 6b 18 bb 23 44 13 a8 14
       -1.3960564e-06 9.2269855e-18 2.0284922e-17 1.6971264e-26
000010 69 21 63 b4 5e df c7 a7 87 98 a6 35 ff e3 34 2b
       -2.1153177e-07 -5.547577e-15 1.2412355e-06 6.4265254e-13
000020 6a d1 3d 0b 11 08 24 35 91 27 d3 98 60 ab f0 29
       3.6557622e-32 6.11065e-07 -5.4582174e-24 1.068787e-13
000030 8b 87 da 35 60 9f a7 0e d5 27 3d b4 ea de b1 18
       1.6281714e-06 4.132215e-30 -1.7616487e-07 4.5978513e-24
000040 e7 a4 43 80 da 7f 31 89 c1 72 de 9b 83 19 dc 92
       -6.212134e-39 -2.1365716e-33 -3.6800977e-22 -1.3890241e-27
000050 3d e5 80 a6 91 fd 30 36 6b 26 55 b5 d5 de 1b 12
       -8.943919e-16 2.6373639e-06 -7.940459e-07 4.918404e-28
000060 2b 86 28 38 b8 c4 52 90 87 09 40 0d 2d 30 63 00
       4.0179275e-05 -4.1566744e-29 5.9176036e-31 9.108996e-39
000070 00 00 00 00 d5 68 bc 91 00 00 00 00 00 00 00 00
       0.0 -2.9725778e-28 0.0 0.0
000080 00 00 00 00 00 00 00 00 00 00 00 00 04 00 00 80
       0.0 0.0 0.0 -6e-45
000090 df 2d 90 16 26 e6 c6 34 00 00 00 00 ec d8 f7 a7
       2.3293403e-25 3.704783e-07 0.0 -6.879146e-15
0000a0 1c 00 00 00 04 00 00 80 4f da 0f 80 98 e4 08 82
       3.9e-44 -6e-45 -1.455847e-39 -1.0057305e-37
0000b0 96 0a 2b 8c 7d ba 99 1f e3 85 b8 2c 63 f3 36 1d
       -1.3176546e-31 6.510654e-20 5.244459e-12 2.4213327e-21
0000c0 00 00 00 00 e7 12 b6 35 00 00 00 00 00 00 00 00
       0.0 1.3565558e-06 0.0 0.0
0000d0 00 00 00 00 00 00 00 00 00 00 00 00 00 00 00 00
       0.0 0.0 0.0 0.0
0000e0 00 00 00 00 00 00 00 00 00 00 00 00 00 00 00 00
       0.0 0.0 0.0 0.0
0000f0 00 00 00 00 00 00 00 00 00 00 00 00 00 00 00 00
       0.0 0.0 0.0 0.0
000100 00 00 00 00 04 00 00 00 04 00 00 80 3c 00 00 80
       0.0 6e-45 -6e-45 -8.4e-44
000110 00 00 00 00 17 b6 11 8d b4 d6 d6 9a 03 6a b1 27
       0.0 -4.4900757e-31 -8.88552e-23 4.9242307e-15
000120 70 ce 91 34 c1 cc 2b 0e cf 20 f3 b6 43 da c4 b1
       2.7158558e-07 2.1175963e-30 -7.2457838e-06 -5.7291643e-09
000130 86 78 bc 22 89 ce 4a 23 ee 54 00 0e 9b d4 df b3
       5.108511e-18 1.09941775e-17 1.581811e-30 -1.04229194e-07
000140 00 00 00 00 00 00 00 00 00 00 00 00 00 00 00 00
       0.0 0.0 0.0 0.0
000150 00 00 00 00 56 35 c1 a6 df 97 90 2a 3e 2f 18 36
       0.0 -1.3406522e-15 2.568492e-13 2.2677264e-06
000160 d6 f3 a9 0e fb c4 0e b5 e1 51 8e 08 6c 62 40 09
       4.1896522e-30 -5.3185767e-07 8.565564e-34 2.3157437e-33
000170 01 65 c6 86 3b c7 43 9c c6 09 22 0e e6 bd 88 a1
       -7.4627734e-35 -6.4777587e-22 1.9972747e-30 -9.265984e-19
000180 ce 09 40 34 db 89 93 b4 b2 30 30 88 d4 95 f2 37
       1.788496e-07 -2.7481187e-07 -5.3020315e-34 2.8918417e-05

exp_avg_sq f4 [20, 5]
000000 8d 20 ed 2c 9c e6 e5 0f bd 21 dc 14 00 00 00 00
       6.739559e-12 2.2669971e-29 2.222763e-26 0.0
000010 86 5e f0 2a a9 42 b4 1a 0c fd 70 2d da 1e 81 2a
       4.2698153e-13 7.455395e-23 1.3698608e-11 2.293641e-13
000020 00 00 00 00 ab 1d 02 2e 75 e3 02 00 fb 68 88 24
       0.0 2.9584928e-11 2.65267e-40 5.915844e-17
000030 13 62 b4 2c 00 00 00 00 c5 77 c9 29 00 00 00 00
       5.126796e-12 0.0 8.94697e-14 0.0
000040 00 00 00 00 00 00 00 00 92 05 00 00 00 00 00 00
       0.0 0.0 1.998e-42 0.0
000050 05 4b e4 12 8b 3d a1 2e dc 92 53 2c 00 00 00 00
       1.4407317e-27 7.3323646e-11 3.0066427e-12 0.0
000060 4a da b9 30 00 00 00 00 00 00 00 00 00 00 00 00
       1.3522563e-09 0.0 0.0 0.0
000070 00 00 00 00 00 00 00 00 00 00 00 00 00 00 00 00
       0.0 0.0 0.0 0.0
000080 00 00 00 00 00 00 00 00 00 00 00 00 00 00 00 00
       0.0 0.0 0.0 0.0
000090 00 00 00 00 6b f8 96 2b 00 00 00 00 63 c2 00 1b
       0.0 1.0727091e-12 0.0 1.0650722e-22
0000a0 00 00 00 00 00 00 00 00 00 00 00 00 00 00 00 00
       0.0 0.0 0.0 0.0
0000b0 00 00 00 00 c0 31 2c 09 d7 c4 91 24 8b 3c 6d 08
       0.0 2.072714e-33 6.3217186e-17 7.139076e-34
0000c0 00 00 00 00 e5 4c 81 2c 00 00 00 00 00 00 00 00
       0.0 3.6749375e-12 0.0 0.0
0000d0 00 00 00 00 00 00 00 00 00 00 00 00 00 00 00 00
       0.0 0.0 0.0 0.0
0000e0 00 00 00 00 00 00 00 00 00 00 00 00 00 00 00 00
       0.0 0.0 0.0 0.0
0000f0 00 00 00 00 00 00 00 00 00 00 00 00 00 00 00 00
       0.0 0.0 0.0 0.0
000100 00 00 00 00 00 00 00 00 00 00 00 00 00 00 00 00
       0.0 0.0 0.0 0.0
000110 00 00 00 00 00 00 00 00 53 00 00 00 52 1f 33 11
       0.0 0.0 1.16e-43 1.4130262e-28
000120 de 7d 0e 2b 00 00 00 00 23 92 df 2e 40 93 2e 27
       5.062321e-13 0.0 1.0166825e-10 2.4227175e-15
000130 72 12 63 0c 2f ac cd 11 00 00 00 00 7f 0a e9 29
       1.7492995e-31 3.2449413e-28 0.0 1.03490994e-13
000140 00 00 00 00 00 00 00 00 00 00 00 00 00 00 00 00
       0.0 0.0 0.0 0.0
000150 00 00 00 00 45 62 0e 19 6c f2 08 27 5f f5 d3 2c
       0.0 7.361073e-24 1.9005209e-15 6.0242224e-12
000160 00 00 00 00 45 ae 76 2b 00 00 00 00 00 00 00 00
       0.0 8.7638604e-13 0.0 0.0
000170 00 00 00 00 af 10 00 00 00 00 00 00 f3 93 2b 05
       0.0 5.985e-42 0.0 8.067555e-36
000180 fa 2e d1 2a 2e be ac 2a 00 00 00 00 e4 67 44 30
       3.7158454e-13 3.06853e-13 0.0 7.145202e-10

exp_avg f4 [20]
000000 86 a0 74 36 09 4c 80 37 ee 25 a2 36 f0 d5 6f a9
       3.645227e-06 1.5294196e-05 4.832392e-06 -5.3254222e-14
000010 d5 6e ca 38 bf 4e 3d 92 00 00 00 00 ec b8 d6 34
       9.652755e-05 -5.9734946e-28 0.0 3.9995155e-07
000020 fc 08 35 1c 05 ee 04 36 00 00 00 00 00 00 00 00
       5.989949e-22 1.9808078e-06 0.0 0.0
000030 00 00 00 00 76 ec 49 90 ff 43 5b 38 ed 19 29 34
       0.0 -3.9822423e-29 5.2276995e-05 1.5748783e-07
000040 00 00 00 00 1b 5c 27 37 74 73 b4 a9 ed ea 69 38
       0.0 9.975421e-06 -8.013634e-14 5.577032e-05

exp_avg_sq f4 [20]
000000 fd 97 3e 2e bf 7c fc 30 9f bf 12 2e 2b 9a 48 15
       4.333599e-11 1.8370868e-09 3.336675e-11 4.0511295e-26
000010 03 3f f3 31 00 00 00 00 00 00 00 00 c7 bf a6 2b
       7.0793944e-09 0.0 0.0 1.1848238e-12
000020 fa 01 00 00 84 97 0c 2d 00 00 00 00 00 00 00 00
       7.09e-43 7.991722e-12 0.0 0.0
000030 00 00 00 00 00 00 00 00 d8 9f 19 31 0f 30 87 2a
       0.0 0.0 2.235529e-09 2.4014165e-13
000040 00 00 00 00 b3 2a c5 2e 34 66 04 16 c8 9d 59 31
       0.0 8.966108e-11 1.0695125e-25 3.1667344e-09

exp_avg f4 [20]
000000 86 a0 74 36 09 4c 80 37 ee 25 a2 36 f0 d5 6f a9
       3.645227e-06 1.5294196e-05 4.832392e-06 -5.3254222e-14
000010 d5 6e ca 38 bf 4e 3d 92 00 00 00 00 ec b8 d6 34
       9.652755e-05 -5.9734946e-28 0.0 3.9995155e-07
000020 fc 08 35 1c 05 ee 04 36 00 00 00 00 00 00 00 00
       5.989949e-22 1.9808078e-06 0.0 0.0
000030 00 00 00 00 76 ec 49 90 ff 43 5b 38 ed 19 29 34
       0.0 -3.9822423e-29 5.2276995e-05 1.5748783e-07
000040 00 00 00 00 1b 5c 27 37 74 73 b4 a9 ed ea 69 38
       0.0 9.975421e-06 -8.013634e-14 5.577032e-05

exp_avg_sq f4 [20]
000000 fd 97 3e 2e bf 7c fc 30 9f bf 12 2e 2b 9a 48 15
       4.333599e-11 1.8370868e-09 3.336675e-11 4.0511295e-26
000010 03 3f f3 31 00 00 00 00 00 00 00 00 c7 bf a6 2b
       7.0793944e-09 0.0 0.0 1.1848238e-12
000020 fa 01 00 00 84 97 0c 2d 00 00 00 00 00 00 00 00
       7.09e-43 7.991722e-12 0.0 0.0
000030 00 00 00 00 00 00 00 00 d8 9f 19 31 0f 30 87 2a
       0.0 0.0 2.235529e-09 2.4014165e-13
000040 00 00 00 00 b3 2a c5 2e 34 66 04 16 c8 9d 59 31
       0.0 8.966108e-11 1.0695125e-25 3.1667344e-09

exp_avg f4 [2, 5]
000000 70 6e cb 38 35 99 99 b9 9e e6 c0 ba a8 3f d6 a9
       9.700365e-05 -0.00029296582 -0.0014717167 -9.514552e-14
000010 ae 63 98 bc 71 6e cb b8 35 99 99 39 9e e6 c0 3a
       -0.018602218 -9.7003656e-05 0.00029296582 0.0014717167
000020 a8 3f d6 29 ae 63 98 3c
       9.514552e-14 0.018602218

exp_avg_sq f4 [2, 5]
000000 83 48 99 32 fb cb 4f 35 7f 82 37 36 15 60 28 16
       1.7844519e-08 7.741034e-07 2.7345084e-06 1.360125e-25
000010 2c 7d 8e 39 83 48 99 32 fb cb 4f 35 7f 82 37 36
       0.0002717761 1.7844519e-08 7.741034e-07 2.7345084e-06
000020 12 60 28 16 2c 7d 8e 39
       1.3601246e-25 0.0002717761

exp_avg f4 [2]
000000 ca f2 e0 be ca f2 e0 3e
       -0.43935233 0.43935233

exp_avg_sq f4 [2]
000000 c8 30 fa 3d c8 30 fa 3d
       0.122163355 0.122163355
