MimicApp/lightning_logs/version_55/checkpoints/epoch=99-step=999.ckpt (torch, 15605 bytes, 18 tensors)

lstm.weight_ih_l0 f4 [20, 34]
0.28079262 -0.20484564 -0.12150463 -0.16156897 0.46306458 -0.032323733 -0.0988319 0.3457132
-0.15552098 0.2202068 -0.1292727 -0.05118104 -0.0779709 0.24572103 0.3320523 -0.015178947
-0.20804048 0.3511591 -0.1258269 0.036774427 0.075954914 0.29902467 0.21562967 0.5272906
0.3490027 0.19716874 0.30095318 -0.15194128 0.4567039 0.5179206 -0.2891653 0.4801889
-0.0533079 0.07340082 -0.28776652 0.11347259 0.07789415 0.23851714 0.016829161 -0.29808807
0.25607672 -0.31020054 -0.22018301 0.18021886 -0.06299416 -0.019605186 0.45360428 0.39529154
-0.293526 -0.14429031 0.44203436 0.12795445 -0.0951359 -0.06525903 0.021837968 -0.12833683
0.005866379 -0.2968853 0.44778037 0.061990727 -0.026734862 -0.103458 -0.13680045 -0.17059721
0.0070202933 0.4410307 -0.095177636 0.4461565 -0.25334972 0.32667089 0.42200524 0.08673817
0.2777425 -0.2159256 0.17335236 -0.22528224 -0.40937138 0.3808871 -0.32719466 0.09919208
0.079221964 0.26186597 0.08253193 0.27863216 0.43311322 0.046435505 -0.1325657 0.03081739
0.040243626 0.3610202 0.40918696 -0.008604407 -0.1153582 0.101590514 0.42699122 -0.05400327
0.44323355 -0.32532585 -0.097527295 -0.121926874 0.16866618 -0.12153268 -0.13625763 -0.05510677
-0.013398739 0.28300485 -0.046636563 -0.15942776 0.46089277 -0.20279619 0.013450162 0.4305302
0.3127173 0.18071997 0.31729937 0.5348862 -0.06528854 -0.20537405 0.24251507 0.22275816
-0.30979344 -0.32557663 -0.29919374 0.10861262 -0.05671219 0.35042048 0.3433933 0.1145209
0.1039703 0.23393264 -0.043115135 0.10936032 0.1926637 0.108020075 -0.095227316 0.17888655
0.3432852 -0.26807207 -0.41859612 0.08515477 0.14092463 -0.34836432 0.15734667 -0.36005858
-0.14443856 -0.33419287 0.17791659 0.3131609 -0.30169475 0.013594449 0.0023559034 -0.42147467
-0.3341734 0.13061064 0.39000183 0.2500038 0.39121377 0.24465084 0.08908528 0.42631716
-0.020195812 0.073602796 -0.0993405 0.20403928 0.13757211 0.080595315 -0.14246899 0.20074093
0.372128 0.17411089 0.31119493 0.044298224 -0.17119366 0.02976168 0.064621106 0.25121588
-0.43868402 -0.28232294 -0.21355481 0.23416051 0.31663164 -0.047794014 0.054351646 0.25897825
0.060031366 -0.24364214 0.19220874 0.33869871 -0.18226635 -0.01896953 0.35553008 0.4598727
0.18500675 0.4522343 0.30293623 0.02380521 0.46562177 0.37555957 0.3679626 0.43948913
0.01816532 0.43902385 -0.3633546 0.30771568 -0.10008977 0.12885264 0.16758561 0.10652986
0.037726875 -0.3487772 0.28488252 0.07153571 0.05936253 -0.33622468 -0.040089462 0.016074447
0.20504057 0.42659402 -0.36161587 0.14784211 0.41679668 -0.20356049 0.3697416 0.1374061
0.28401437 -0.33003634 0.035849802 0.052471317 0.42860794 -0.029435527 0.10227116 0.36828673
0.30081698 0.033125978 0.1664233 -0.1345443 0.2066376 0.42514408 0.33849695 -0.041611455
0.36896643 0.4349061 0.34607744 0.16969137 0.044094514 -0.14471716 0.11644116 -0.30000705
0.34831953 -0.10016384 0.22926717 0.13570389 0.32794672 -0.21316138 0.34738168 0.060140572
00000000: 0dc4 8f3e 0ec3 51be 6bd7 f8bd 5672 25be
00000010: cd16 ed3e e465 04bd 6168 cabd 5201 b13e
00000020: e440 1fbe e47d 613e 1060 04be 36a3 51bd
00000030: 35af 9fbd 4b9e 7b3e c202 aa3e 1eb1 78bc
00000040: 9008 55be 20cb b33e c4d8 00be c8a0 163d
00000050: 408e 9b3d c319 993e 06ce 5c3e 84fc 063f
00000060: 7bb0 b23e 9ae6 493e 8916 9a3e 7f96 1bbe
00000070: 18d5 e93e 7296 043f 790d 94be 52db f53e
00000080: 6259 5abd 2b53 963d 2256 93be 5164 e83d
00000090: f886 9f3d d63d 743e 4fdd 893c 009f 98be
000000a0: 7d1c 833e 9bd2 9ebe a877 61be 4b8b 383e
000000b0: 1503 81bd 0e9b a0bc d23e e83e a763 ca3e
000000c0: 0a49 96be d7c0 13be 5452 e23e 7e06 033e
000000d0: 9cd6 c2bd 87a6 85bd 8ae5 b23c bb6a 03be
000000e0: c13a c03b 5a01 98be 7843 e53e fde9 7d3d
000000f0: 1203 dbbc cae1 d3bd 6b15 0cbe 09b1 2ebe
00000100: 7d0a e63b c7ce e13e 7eec c2bd a06e e43e
00000110: 0eb7 81be 6841 a73e 1211 d83e c8a3 b13d
00000120: 4434 8e3e 9a1b 5dbe 4883 313e 63b0 66be
00000130: 2099 d1be a203 c33e 0f86 a7be 3825 cb3d
00000140: 203f a23d 4c13 863e 8006 a93d e0a8 8e3e
00000150: 04c1 dd3e 2833 3e3d 4ebf 07be c074 fc3c
00000160: 80d6 243d a4d7 b83e f480 d13e 80f9 0cbc
00000170: ec40 ecbd b00e d03d 989e da3e 8832 5dbd
00000180: 82ef e23e 1c91 a6be 64bc c7bd ccb4 f9bd
00000190: d4b6 2c3e 20e6 f8bd 1f87 0bbe a3b7 61bd
000001a0: 6286 5bbc 03e6 903e fb05 3fbd 0841 23be
000001b0: 23fa eb3e cea9 4fbe 115e 5c3c 746e dc3e
000001c0: 7b1c a03e a80e 393e 1075 a23e 4dee 083f
000001d0: 00b6 85bd 934d 52be df55 783e b71a 643e
000001e0: 3f9d 9ebe fbb1 a6be ec2f 99be 4b70 de3d
000001f0: 0b4b 68bd 506a b33e 3fd1 af3e ef89 ea3d
00000200: 61ee d43d 0a8c 6f3e 7f99 30bd 4ef8 df3d
00000210: a249 453e a139 dd3d 8a06 c3bd 092e 373e
00000220: 14c3 af3e be40 89be 3b52 d6be a065 ae3d
00000230: 8c4e 103e cf5c b2be 7c1f 213e 9959 b8be
00000240: b4e7 13be 541b abbe c42f 363e a056 a03e
00000250: bc77 9abe 40bb 5e3c 8065 1a3b 87cb d7be
00000260: c718 abbe ccbe 053e 52ae c73e 8000 803e
00000270: 2c4d c83e c085 7a3e 5872 b63d 3e46 da3e
00000280: b071 a5bc 10bd 963d 0873 cbbd acef 503e
00000290: b4df 0c3e 280f a53d 64e3 11be 088f 4d3e
000002a0: 9087 be3e 204a 323e f154 9f3e 0e72 353d
000002b0: 644d 2fbe c4ce f33c 1258 843d 5e9f 803e
000002c0: 319b e0be a28c 90be 1dae 5abe c6c7 6f3e
000002d0: 8b1d a23e a8c3 43bd d59f 5e3d cc98 843e
000002e0: 73e3 753d 537d 79be 5ed2 443e eb69 ad3e
000002f0: 08a4 3abe fd65 9bbc 0a08 b63e 6f74 eb3e
00000300: 6972 3d3e 418b e73e 751a 9b3e 2503 c33c
00000310: fa65 ee3e 5849 c03e 9865 bc3e b804 e13e
00000320: 70cf 943c bcc7 e03e 9d09 babe e98c 9d3e
00000330: defb ccbd f2f1 033e 909b 2b3e 542c da3d
00000340: 7f87 1a3d ed92 b2be 1fdc 913e 5081 923d
00000350: 2026 733d a425 acbe d934 24bd 8fae 833c
00000360: 28f6 513e 886a da3e b725 b9be ec63 173e
00000370: 6066 d53e 2972 50be c54e bd3e 2fb4 0c3e
00000380: 556a 913e 86fa a8be 3ed7 123d 2aec 563d
00000390: 8072 db3e c622 f1bc 8b73 d13d 1490 bc3e
000003a0: af04 9a3e 1baf 073d df6a 2a3e fbc5 09be
000003b0: cf98 533e 7cac d93e 794f ad3e c670 2abd
000003c0: 2be9 bc3e 03ac de3e 1031 b13e 93c3 2d3e
000003d0: 739c 343d bc30 14be b478 ee3d 869a 99be
000003e0: f056 b23e b322 cdbd 03c5 6a3e f6f5 0a3e
000003f0: a2e8 a73e fa46 5abe 03dc b13e f655 763d

lstm.weight_hh_l0 f4 [20, 5]
0.021647835 0.089746535 -0.18858501 0.14610949 0.44350338 -0.43168265 -0.10905108 0.1191723
0.36851668 -0.11697286 -0.24912843 0.15765423 -0.2630288 0.39083433 -0.0133648515 0.22242896
0.011849558 -0.17314945 -0.1509342 -0.0339603 0.24088097 -0.024971515 0.36850864 0.008315355
0.09803188 -0.12141629 0.33592558 0.008439764 -0.18107793 0.029177785 -0.38814244 0.13718417
0.22543304 -0.20141822 -0.15256831 0.26528174 0.12280673 -0.33226773 0.07875617 0.10131055
-0.39916763 -0.36816007 0.20181435 0.14434087 0.28964436 -0.24745801 -0.31917918 0.19969994
-0.21926379 -0.0023527145 0.17962572 0.36168537 0.21858646 0.20960501 0.19421756 0.23474109
0.09531355 0.06607908 0.003814727 0.08945596 0.034699827 0.07885679 0.1156278 0.26492023
-0.0786306 0.07718249 0.03507626 0.29468566 -0.12961648 -0.367216 0.03850156 0.07596964
0.32968134 0.07937837 0.31431156 0.20526731 -0.30352822 -0.30319855 0.408872 -0.08831194
-0.062979355 0.05969768 -0.26653698 0.3975802 0.0961712 0.32426792 -0.4455475 0.4128963
0.28532827 -0.30571592 -0.45013905 0.3826959 -0.28184676 -0.01669249 -0.27165073 0.38426185
0.03814444 -0.05081428 -0.24843507 -0.2923004
00000000: cd56 b13c 08cd b73d 6e1c 41be ba9d 153e
00000010: e012 e33e 8205 ddbe 2c56 dfbd 9b10 f43d
00000020: 38ae bc3e 788f efbd 861b 7fbe 1c70 213e
00000030: b6ab 86be 701b c83e 40f8 5abc 6bc4 633e
00000040: a624 423c 174e 31be 7f8e 1abe f519 0bbd
00000050: 80a9 763e 1091 ccbc 2aad bc3e 203d 083c
00000060: f0c4 c83d 1ba9 f8bd 70fe ab3e f046 0a3c
00000070: 7e6c 39be 4006 ef3c 9bba c6be 027a 0c3e
00000080: ebd7 663e 9440 4ebe de3a 1cbe 02d3 873e
00000090: 1882 fb3d ff1e aabe ea4a a13d e87b cf3d
000000a0: b35f ccbe 7a7f bcbe 6ca8 4e3e 18ce 133e
000000b0: 444c 943e a265 7dbe 746b a3be 247e 4c3e
000000c0: b086 60be 0030 1abb ceef 373e d32e b93e
000000d0: 21d5 5f3e b2a2 563e f8e0 463e f85f 703e
000000e0: c033 c33d 7854 873d 8000 7a3b b034 b73d
000000f0: 6821 0e3d ab7f a13d 45ce ec3d a0a3 873e
00000100: 1409 a1bd da11 9e3d 20ac 0f3d 0ae1 963e
00000110: 2fba 04be bc03 bcbe d0b3 1d3d f895 9b3d
00000120: fecb a83e 2091 a23d 72ed a03e 9831 523e
00000130: 0d68 9bbe d73c 9bbe ac57 d13e e4dc b4bd
00000140: 52fb 80bd 8e85 743d 8977 88be a28f cb3e
00000150: 68f5 c43d 7206 a63e cd1e e4be 2567 d33e
00000160: 8c16 923e cc86 9cbe a078 e6be b8f0 c33e
00000170: 384e 90be b0be 88bc ce15 8bbe f8bd c43e
00000180: 583d 1c3d a222 50bd c365 7ebe 66a8 95be

lstm.bias_ih_l0 f4 [20]
0.42639357 -0.2675408 -0.15018389 0.21731476 -0.31132883 -0.40818185 0.08329556 -0.36470896
-0.22785209 0.3980556 -0.026650067 0.2756688 -0.03928787 -0.34974903 0.04232818 0.023060089
-0.42193115 0.4292887 0.16405262 0.15520957
00000000: 4250 da3e 1cfb 88be cec9 19be c387 5e3e
00000010: 7e66 9fbe 36fd d0be dd96 aa3d 22bb babe
00000020: 0f52 69be f2cd cb3e 3e51 dabc 7624 8d3e
00000030: 51ec 20bd 4e12 b3be 5060 2d3d 83e8 bc3c
00000040: 5c07 d8be bacb db3e 69fd 273e 42ef 1e3e

lstm.bias_hh_l0 f4 [20]
-0.27967003 -0.27415052 -0.02071032 -0.10742872 0.005103886 0.10207328 0.33804265 0.19947422
0.37170416 -0.38133556 -0.13630801 -0.0033925176 0.099636786 0.40138978 0.14959818 -0.23837747
0.041796878 0.47217965 0.37564364 0.43526506
00000000: e930 8fbe 755d 8cbe b0a8 a9bc 9703 dcbd
00000010: 803e a73b cc0b d13d ed13 ad3e f842 4c3e
00000020: 0250 be3e 6a3e c3be 5494 0bbe 0055 5ebb
00000030: 5f0e cc3d f682 cd3e 4430 193e 3919 74be
00000040: 3433 2b3d 88c1 f13e 5d54 c03e 10db de3e

linear.weight f4 [2, 5]
-0.60907096 0.14239602 0.30709594 -0.78237134 0.23253888 0.3003326 0.23468432 -0.48433584
0.68648297 0.3880156
00000000: 13ec 1bbf 43d0 113e ae3b 9d3e 7d49 48bf
00000010: ac1e 6e3e 32c5 993e 1651 703e defa f7be
00000020: 59bd 2f3f fba9 c63e

linear.bias f4 [2]
0.33378944 -0.8107
00000000: 73e6 aa3e 098a 4fbf

exp_avg f4 [20, 34]
9.4433307e-07 -3.1277326e-05 -9.432193e-06 -6.96857e-05 -2.9333416e-05 -3.4593788e-06 7.550861e-06 0.0
-8.084519e-06 -1.839454e-05 -8.17332e-07 -2.1195006e-06 -5.393386e-05 -0.000118402204 0.000103545804 -2.9504374e-05
-9.570996e-05 -4.151302e-06 -2.8253504e-05 -1.3994422e-06 -1.110831e-06 -4.8996437e-05 1.1854278e-05 -1.211328e-06
-5.133304e-06 -2.8109268e-06 3.104584e-06 -9.018768e-05 -1.3138006e-05 -4.9401165e-06 2.641298e-05 -1.2576351e-06
0.00035753608 -2.7717122e-06 -1.5620016e-14 -1.5413511e-14 -5.785174e-15 -1.952151e-14 -1.1842434e-14 -8.478187e-15
-2.3901455e-15 0.0 -6e-45 -4.607025e-15 -7.9431454e-17 -1.1756542e-15 -6.2854597e-15 -1.5568566e-14
-2.073161e-13 -2.0652177e-15 -1.2391307e-13 -1.2867897e-15 -1.6204015e-14 -1.1120403e-16 -1.3026757e-15 -2.536295e-14
-2.2240806e-16 -2.5418064e-16 -4.765887e-16 -6.6722416e-16 -1.5091975e-15 -1.2709032e-16 -4.1304355e-15 -1.3979936e-15
-5.1153853e-15 -1.3821074e-15 -5.0359544e-14 -1.795151e-14 0.0 0.0 0.0 0.0
0.0 0.0 0.0 0.0 0.0 0.0 0.0 0.0
0.0 0.0 0.0 0.0 0.0 0.0 0.0 0.0
0.0 0.0 0.0 0.0 0.0 0.0 0.0 0.0
0.0 0.0 0.0 0.0 0.0 0.0 5.6856963e-05 3.7849768e-05
1.5013411e-05 7.589299e-05 4.9832328e-05 4.7272908e-05 -1.3648689e-05 0.0 1.2055226e-05 1.9553163e-05
6.30606e-07 2.9231394e-06 2.6202939e-05 1.1318659e-05 -0.0001663742 5.0756586e-05 -4.5490622e-05 5.1779707e-06
4.9205162e-05 2.0215684e-06 4.289455e-06 7.757339e-05 2.0908594e-06 1.0881885e-06 2.4139497e-06 1.5410986e-06
3.923594e-06 -1.213974e-06 1.4710906e-05 4.701174e-06 3.9005363e-06 -1.3025292e-06 -0.0002998392 -0.0001689989
-4.1052453e-22 -6.281663e-22 -2.2995275e-22 -9.239552e-22 -6.96745e-22 -4.1622652e-22 -1.0847369e-22 0.0
-6.733558e-24 -1.5502693e-22 -3.1964025e-24 -4.7389916e-23 -2.881147e-22 -6.290223e-22 -1.718109e-22 -1.0337215e-22
-3.0581863e-21 -5.1330535e-23 -6.6803685e-22 -8.859789e-24 -6.3520433e-24 -8.291969e-22 -7.717564e-24 -1.21815286e-23
-2.6348025e-23 -2.8148046e-23 -3.9878615e-24 -2.7075663e-22 -2.1774724e-22 -7.7559264e-23 -3.5145944e-22 -8.9854425e-23
-6.5483786e-22 -1.6091864e-21 1.328642e-05 -5.406679e-06 -1.6823079e-06 -1.0649245e-05 -6.00198e-06 -5.3047706e-06
2.101944e-06 0.0 1.234316e-06 -1.359631e-06 -1.5812019e-07 -4.1373036e-07 -2.4834583e-06 -8.039124e-08
-3.6124962e-05 -8.045064e-06 1.8362405e-05 -4.4240178e-07 -5.307119e-06 -5.795667e-07 1.0773873e-05 -1.3429839e-05
-3.9407377e-07 -2.419295e-07 5.7666284e-07 -2.1264285e-07 -2.5209164e-07 -3.8949925e-06 -5.969462e-06 -2.2778709e-06
2.8518962e-06 -3.6340075e-06 -5.0408442e-05 -4.791931e-05 -4.686718e-14 -4.7172908e-14 -1.7895377e-14 -5.8878155e-14
-3.5983542e-14 -2.5317718e-14 -7.854463e-15 0.0 6e-45 -1.40820456e-14 -2.4279392e-16 -3.578782e-15
-2.0394687e-14 -4.7587605e-14 -6.336921e-13 -6.312642e-15 -3.7875852e-13 -3.933261e-15 -4.9529953e-14 -3.3991146e-16
-3.9818197e-15 -8.934815e-14 -6.798229e-16 -7.769405e-16 -1.4567635e-15 -2.0394688e-15 -4.613084e-15 -3.8847025e-16
-1.2625284e-14 -4.273172e-15 -1.5635927e-14 -4.2246137e-15 -1.5393134e-13 -5.487142e-14 -7.3803954e-09 -1.0160449e-08
-3.8377124e-09 -1.1314814e-08 -5.473834e-09 -3.7556296e-09 -1.5081681e-09 0.0 -4.619804e-16 -2.81297e-09
-7.3429075e-11 -7.65753e-10 -4.688285e-09 -1.0105855e-08 -1.4585784e-09 -1.8753143e-09 -5.4175726e-09 -7.91799e-10
00000000: 137e 7d35 c62f 03b8 f63e 1eb7 3a24 92b8
00000010: 0811 f6b7 ad27 68b6 675d fd36 0000 0000
00000020: bfa2 07b7 f94d 9ab7 a166 5bb5 be3c 0eb6
00000030: 0b37 62b8 b34e f8b8 bb26 d938 2980 f7b7
00000040: e5b7 c8b8 6a4b 8bb6 f001 edb7 78d4 bbb5
00000050: dd17 95b5 8681 4db8 bce1 4637 ea94 a2b5
00000060: bf3e acb6 5ba3 3cb6 5958 5036 2423 bdb8
00000070: 4e6b 5cb7 47c3 a5b6 7191 dd37 03cc a8b5
00000080: ae73 bb39 a701 3ab6 4eb1 8ca8 23d5 8aa8
00000090: d06e d0a7 8ad5 afa8 9655 55a8 bdba 18a8
000000a0: 673a 2ca7 0000 0000 0400 0080 4efc a5a7
000000b0: 0e28 b7a4 fc6d a9a6 2275 e2a7 ab3a 8ca8
000000c0: cc6a 69aa 8bd0 14a7 8383 0baa 2972 b9a6
000000d0: eaf3 91a8 a335 00a5 40bc bba6 fb72 e4a8
000000e0: a335 80a5 7186 92a5 0a5e 09a6 7450 40a6
000000f0: 8f7f d9a6 7186 12a5 8bd0 94a7 dc78 c9a6
00000100: 1a4d b8a7 c32e c7a6 9acc 62a9 5db1 a1a8
00000110: 0000 0000 0000 0000 0000 0000 0000 0000
00000120: 0000 0000 0000 0000 0000 0000 0000 0000
00000130: 0000 0000 0000 0000 0000 0000 0000 0000
00000140: 0000 0000 0000 0000 0000 0000 0000 0000
00000150: 0000 0000 0000 0000 0000 0000 0000 0000
00000160: 0000 0000 0000 0000 0000 0000 0000 0000
00000170: 0000 0000 0000 0000 0000 0000 0000 0000
00000180: 0000 0000 0000 0000 0000 0000 0000 0000
00000190: 0000 0000 0000 0000 b379 6e38 e1c0 1e38
000001a0: 1ce2 7b37 bd28 9f38 0e03 5138 e646 4638
000001b0: acfc 64b7 0000 0000 cd40 4a37 1906 a437
000001c0: ea46 2935 272b 4436 62ce db37 45e5 3d37
000001d0: bc74 2eb9 78e3 5438 2fcd 3eb8 6ebe ad36
000001e0: a461 4e38 48aa 0736 23ee 8f36 e6ae a238
000001f0: b150 0c36 df0d 9235 57ff 2136 bfd7 ce35
00000200: 6aa7 8336 d4ef a2b5 dcce 7637 c7be 9d36
00000210: 5ae1 8236 90d2 aeb5 bc33 9db9 4c35 31b9
00000220: 9825 f89b 03da 3d9c 77ff 8a9b c99f 8b9c
00000230: 0994 529c ef97 fb9b fb22 039b 0000 0000
00000240: f73e 0299 836a 3b9b 464f 7798 e029 659a
00000250: 9727 ae9b 3e1c 3e9c e6b4 4f9b 43f0 f99a
00000260: ed11 679d 2038 789a d9e6 499c 8d5f 2b99
00000270: 97bb f598 019c 7a9c 8747 1599 02a0 6b99
00000280: 8dd2 fe99 981d 089a de45 9a98 8fa9 a39b
00000290: c19e 839b dc86 bb9a b771 d49b 3241 d99a
000002a0: a0e9 459c 622c f39c bde8 5e37 056b b5b6
000002b0: a9cb e1b5 29aa 32b7 9e64 c9b6 a2ff b1b6
000002c0: 1f0f 0d36 0000 0000 c6aa a535 917c b6b5
000002d0: bfc7 29b4 ab1e deb4 7da9 26b6 8da3 acb3
000002e0: e284 17b8 49f9 06b7 f708 9a37 3d83 edb4
000002f0: ce13 b2b6 8593 1bb5 6fc1 3437 b850 61b7
00000300: 1691 d3b4 8ae2 81b4 f8cb 1a35 d252 64b4
00000310: 3657 87b4 bbb1 82b6 4a4d c8b6 86dd 18b6
00000320: 3463 3f36 c6df 73b6 a76d 53b8 f8fc 48b8
00000330: 2e12 53a9 a972 54a9 ee2f a1a8 f294 84a9
00000340: 330e 22a9 af0a e4a8 517e 0da8 0000 0000
00000350: 0400 0000 f9ad 7da8 0ff6 8ba5 70f0 80a7
00000360: f2b2 b7a8 c650 56a9 545e 32ab d86f e3a7
00000370: db38 d5aa eeb5 8da7 2610 5fa9 14f2 c3a5
00000380: ce75 8fa7 b431 c9a9 14f2 43a6 17f0 5fa6
00000390: 16f1 d1a6 8ff5 12a7 3134 a6a7 17f0 dfa5
000003a0: d86f 63a8 0ef5 99a7 fed5 8ca8 2f35 98a7
000003b0: b04f 2daa 711e 77a9 a596 fdb1 218e 2eb2
000003c0: e0dc 83b1 1463 42b2 5a14 bcb1 de0a 81b1
000003d0: f347 cfb0 0000 0000 2328 05a6 4b4e 41b1
000003e0: e578 a1ae 147d 52b0 9716 a1b1 059e 2db2
000003f0: 2a77 c8b0 e1de 00b1 7925 bab1 e7a5 59b0

exp_avg_sq f4 [20, 34]
8.2670296e-05 9.808302e-05 1.4074849e-05 0.00015166451 7.308243e-05 3.8103248e-05 3.455907e-06 0.0
4.3295724e-08 6.4406786e-06 3.6897019e-09 5.636616e-07 1.8542964e-05 8.265152e-05 4.200563e-05 6.0921443e-06
0.00012439964 7.300301e-07 0.00011531388 2.2073955e-08 9.308983e-07 0.00023129243 4.847165e-08 4.144538e-08
1.4500202e-07 1.7887768e-07 1.1982242e-07 2.0136663e-06 1.0353568e-05 1.1977369e-06 1.2266153e-05 1.5922818e-06
0.00086777285 0.00055304857 2.9026053e-09 2.781298e-09 4.0967738e-10 5.116592e-09 1.980108e-09 9.1188546e-10
8.857352e-11 0.0 2.2444528e-16 2.4825034e-10 7.792161e-14 1.624701e-11 4.3195844e-10 2.8349543e-09
5.0270734e-07 4.9886262e-11 1.7959037e-07 1.9367079e-11 3.0711023e-09 1.4464042e-13 1.9848238e-11 6.096526e-09
5.7856167e-13 7.5567346e-13 2.6566622e-12 5.207049e-12 2.6640419e-11 1.8891837e-13 1.9396712e-10 2.2092316e-11
3.0605923e-10 2.2342543e-11 2.9662777e-08 3.769213e-09 0.0 0.0 0.0 0.0
0.0 0.0 0.0 0.0 0.0 0.0 0.0 0.0
0.0 0.0 0.0 0.0 0.0 0.0 0.0 0.0
0.0 0.0 0.0 0.0 0.0 0.0 0.0 0.0
0.0 0.0 0.0 0.0 0.0 0.0 2.2367914e-05 2.9795323e-05
4.3096447e-06 4.6501467e-05 2.0116117e-05 1.172894e-05 1.0840183e-06 0.0 1.3172915e-08 1.9272643e-06
1.0679532e-09 1.7266403e-07 5.4911084e-06 2.6212225e-05 0.00012557674 1.4358056e-06 3.7558835e-05 2.2053223e-07
3.545754e-05 5.924924e-09 2.9642055e-07 5.666559e-05 1.42769085e-08 1.2519917e-08 4.0088004e-08 5.3817292e-08
1.9636575e-08 5.8496164e-07 3.2806615e-06 3.8282053e-07 3.965107e-06 4.1970299e-07 0.00036968052 0.00012791602
2.7727e-41 6.5358e-41 8.785e-42 1.41844e-40 8.0521e-41 2.8645e-41 1.906e-42 0.0
0.0 3.974e-42 0.0 7e-43 1.3797e-41 6.567e-41 4.853e-42 1.853e-42
1.56183e-39 7e-43 7.3969e-41 1.5e-44 0.0 1.11756e-40 6e-45 3.8e-44
2.4e-43 2.77e-43 0.0 1.244e-41 7.912e-42 8.21e-43 2.0746e-41 1.445e-42
7.1133e-41 4.37703e-40 3.0023828e-06 3.3381941e-06 4.8698155e-07 4.2664346e-06 1.888734e-06 1.4476514e-06
2.2094457e-07 0.0 7.5448875e-10 1.8992434e-07 2.7735647e-10 1.9733202e-08 3.929265e-07 3.1244288e-06
2.5933991e-06 2.147917e-07 3.7902078e-06 2.337529e-08 4.321237e-06 1.2639954e-09 1.3017775e-07 3.3573765e-06
5.6606025e-10 1.282454e-09 7.3115594e-09 5.424245e-09 9.430794e-11 1.0816349e-09 2.345386e-07 2.7208925e-08
7.532598e-07 1.7801266e-08 9.2549264e-05 7.2660587e-06 2.383888e-10 2.140085e-10 3.1048532e-11 4.2402637e-10
1.5150432e-10 6.889166e-11 5.381963e-12 0.0 0.0 1.9002282e-11 5.6487158e-15 1.2437494e-12
3.27415e-11 2.1700099e-10 3.847955e-08 3.8185245e-12 1.37467e-08 1.4824467e-12 2.3507662e-10 1.107147e-14
1.5192803e-12 4.9664667e-10 4.428588e-14 5.784278e-14 2.0335362e-13 3.9857335e-13 2.0391846e-12 1.4460696e-14
1.5272308e-11 1.6648014e-12 2.3427246e-11 1.7102068e-12 2.270537e-09 2.8851377e-10 5.371017e-10 7.9987716e-10
1.1481276e-10 1.0706149e-09 4.5501372e-10 2.6229194e-10 2.7622135e-11 0.0 3.079509e-13 5.0883905e-11
2.8185054e-14 4.656466e-12 1.2910871e-10 6.8509315e-10 4.7292732e-11 4.942974e-11 4.4195747e-10 5.905923e-12
00000000: 475f ad38 ecb1 cd38 0423 6c37 2208 1f39
00000010: d543 9938 0dd1 1f38 08ec 6736 0000 0000
00000020: 27f4 3933 021d d836 ec8d 7d31 884e 1735
00000030: b68c 9b37 3255 ad38 342f 3038 1f6b cc36
00000040: 4671 0239 49f7 4335 abd4 f138 249d bd32
00000050: d8e2 7935 1787 7239 252f 5033 ad01 3233
00000060: dab1 1b34 8611 4034 89a8 0034 8622 0736
00000070: 3cb4 2d37 edc1 a035 baca 4d37 63b6 d535
00000080: 407b 633a 76fa 103a 2c77 4731 1d21 3f31
00000090: f738 e12f 05ce af31 6e12 0831 3ca8 7a30
000000a0: 75c6 c22e 0000 0000 4762 8125 217a 882f
000000b0: c076 af29 04e9 8e2d bf78 ed2f 0bd1 4231
000000c0: c9f1 0635 f066 5b2e 6dd5 4034 c95a aa2d
000000d0: 670b 5331 c3d9 222a 4296 ae2d 9c79 d131
000000e0: c3d9 222b 03b4 542b 2cf2 3a2c ee34 b72c
000000f0: e454 ea2d 03b4 542a e444 552f 7953 c22d
00000100: 0242 a82f ef86 c42d 23cd fe32 5982 8131
00000110: 0000 0000 0000 0000 0000 0000 0000 0000
00000120: 0000 0000 0000 0000 0000 0000 0000 0000
00000130: 0000 0000 0000 0000 0000 0000 0000 0000
00000140: 0000 0000 0000 0000 0000 0000 0000 0000
00000150: 0000 0000 0000 0000 0000 0000 0000 0000
00000160: 0000 0000 0000 0000 0000 0000 0000 0000
00000170: 0000 0000 0000 0000 0000 0000 0000 0000
00000180: 0000 0000 0000 0000 0000 0000 0000 0000
00000190: 0000 0000 0000 0000 bba2 bb37 f8f0 f937
000001a0: 919b 9036 920a 4338 08bf a837 6ac7 4437
000001b0: 967e 9135 0000 0000 184f 6232 2656 0136
000001c0: 43c7 9230 8765 3934 4340 b836 53e2 db37
000001d0: 40ad 0339 e8b5 c035 7e88 1d38 70cb 6c34
000001e0: 3eb8 1438 2f94 cb31 bb23 9f34 37ac 6d38
000001f0: 8246 7532 2d17 5732 3a2d 2c33 bd24 6733
00000200: 49ad a832 4206 1d35 5629 5c36 7486 cd34
00000210: 030c 8536 8a53 e134 aed1 c139 3221 0639
00000220: 4b4d 0000 31b6 0000 7d18 0000 678b 0100
00000230: 76e0 0000 da4f 0000 5005 0000 0000 0000
00000240: 0000 0000 140b 0000 0000 0000 f401 0000
00000250: 7626 0000 10b7 0000 870d 0000 2a05 0000
00000260: bf01 1100 f401 0000 32ce 0000 0b00 0000
00000270: 0000 0000 8837 0100 0400 0000 1b00 0000
00000280: ab00 0000 c600 0000 0000 0000 ad22 0000
00000290: 0e16 0000 4a02 0000 d539 0000 0704 0000
000002a0: 4ac6 0000 23c4 0400 8b7c 4936 bd05 6036
000002b0: 1eb9 0235 6528 8f36 6880 fd35 ec4c c235
000002c0: c83c 6d34 0000 0000 6d64 4f30 01ee 4b34
000002d0: 747a 982f c581 a932 68f3 d234 47ad 5136
000002e0: 420a 2e36 7ea1 6634 465b 7e36 ceca c832
000002f0: 25ff 9036 e2b8 ad30 fdc6 0b34 4a4f 6136
00000300: f398 1b30 5742 b030 2839 fb31 2a60 ba31
00000310: a762 cf2e a5a8 9430 7bd5 7b34 0fb9 e932
00000320: 9f33 4a35 66e9 9832 0217 c238 f8ce f336
00000330: 3e0e 832f 0a4e 6b2f 8a8d 082e 681c e92f
00000340: ad94 262f 8f7e 972e 6a5c bd2c 0000 0000
00000350: 0000 0000 5625 a72d 3584 cb27 cb0a af2b
00000360: a7ff 0f2e 5998 6e2f b644 2533 365a 862c
00000370: a02a 6c32 c5a2 d02b 183c 812f 2572 4728
00000380: d7d1 d52b 6784 0830 2572 4729 1840 8229
00000390: b1f4 642a 7960 e02a af7e 0f2c 1840 8228
000003a0: 2e56 862d cb4c ea2b 7811 ce2d b2b0 f02b
000003b0: b607 1c31 b49c 9e2f 2ca3 1330 5ade 5b30
000003c0: d779 fc2e ea24 9330 7d25 fa2f 4f32 902f
000003d0: 85f7 f22d 0000 0000 675c ad2a 2fca 5f2e
000003e0: 4fde fd28 b8d5 a32c dff4 0d2f 2551 3c30
000003f0: e2fe 4f2e f164 592e fcf7 f22f d3cb cf2c

exp_avg f4 [20, 5]
3.6374735e-07 -2.0131426e-15 -1.7593854e-07 1.514278e-07 1.163963e-28 -1.5511867e-16 1.5511867e-16 -1.5511867e-16
1.2098907e-16 0.0 0.0 0.0 0.0 0.0 0.0 -8.362799e-07
6e-45 4.630935e-07 -7.336264e-08 6e-45 2.862884e-24 -1.4317846e-34 -3.0262858e-24 2.8436266e-24
4.4857e-41 1.1868555e-07 0.0 -5.5081543e-08 4.5506354e-08 0.0 -4.841018e-16 4.841018e-16
-4.841018e-16 3.698209e-16 0.0 7.9345946e-11 0.0 -1.0391554e-10 7.934599e-11 0.0
1.2724089e-27 0.0 -1.661164e-27 1.2721708e-27 0.0 0.0 0.0 0.0
0.0 0.0 -5.046704e-15 -6.1567657e-28 6.6256264e-15 -5.0467087e-15 0.0 0.0
0.0 0.0 0.0 0.0 0.0 -6e-45 -6e-45 0.0
0.0 -8.0422366e-13 0.0 3.0975236e-27 -6.12492e-13 0.0 0.0 0.0
0.0 0.0 0.0 1.0942337e-14 0.0 -1.0942337e-14 8.644587e-15 0.0
1.1532897e-11 1.1760647e-11 2.2924934e-10 -1.745565e-10 -1.7881029e-31 -2.4002097e-07 6e-45 -1.0498945e-06
-2.0723502e-07 6e-45 2.7046405e-09 -6e-45 -2.7046405e-09 2.0579183e-09 6e-45 1.5737023e-14
-7.9471406e-32 -1.5737023e-14 1.1985224e-14 8.358222e-22
00000000: 0e49 c334 ed0f 11a7 9ee9 3cb4 2898 2234
00000010: c28c 1311 f3d6 32a5 f3d6 3225 f3d6 32a5
00000020: ac7d 0b25 0000 0000 0000 0000 0000 0000
00000030: 0000 0000 0000 0000 0000 0000 b87c 60b5
00000040: 0400 0000 169f f834 8a8b 9db3 0400 0000
00000050: 4281 5d18 1b51 3e87 c425 6a98 d403 5c18
00000060: 0b7d 0000 12e0 fe33 0000 0000 cc92 6cb3
00000070: c472 4333 0000 0000 6888 0ba6 6888 0b26
00000080: 6888 0ba6 ef2f d525 0000 0000 cc7b ae2e
00000090: 0000 0000 4083 e4ae d27b ae2e 0000 0000
000000a0: 099f c912 0000 0000 699c 0393 6195 c912
000000b0: 0000 0000 0000 0000 0000 0000 0000 0000
000000c0: 0000 0000 0000 0000 a1d3 b5a7 9e1d 4392
000000d0: 9eb6 ee27 acd3 b5a7 0000 0000 0000 0000
000000e0: 0000 0000 0000 0000 0000 0000 0000 0000
000000f0: 0000 0000 0400 0080 0400 0080 0000 0000
00000100: 0000 0000 6c5e 62ab 0000 0000 3e69 7513
00000110: b366 2cab 0000 0000 0000 0000 0000 0000
00000120: 0000 0000 0000 0000 0000 0000 9f1e 4528
00000130: 0000 0000 9f1e 45a8 1fba 1b28 0000 0000
00000140: 8de3 4a2d 3fe5 4e2d f40f 7c2f 49ed 3faf
00000150: e91b 688c 3bdc 80b4 0400 0000 1aea 8cb5
00000160: 5484 5eb4 0400 0000 8adc 3931 0400 0080
00000170: 8adc 39b1 486b 0d31 0400 0000 1bbf 8d28
00000180: cf51 ce8b 1bbf 8da8 17e8 5728 9c9c 7c1c

exp_avg_sq f4 [20, 5]
4.898016e-10 4.5430448e-29 2.6228306e-09 1.1653746e-10 0.0 2.6465933e-13 1.811633e-14 2.6465933e-13
2.206029e-30 0.0 0.0 0.0 0.0 0.0 0.0 2.283597e-09
3.5268902e-13 2.3111302e-09 3.8718997e-10 2.907587e-29 0.0 0.0 0.0 0.0
0.0 3.4260803e-10 0.0 3.5554817e-10 1.4373502e-10 0.0 2.094766e-14 1.6613121e-14
2.094766e-14 2.0612336e-29 0.0 2.2302325e-19 0.0 6.9175026e-14 3.5245996e-16 0.0
0.0 0.0 0.0 0.0 0.0 0.0 0.0 0.0
0.0 0.0 2.2824526e-10 2.8781861e-22 1.2800302e-09 1.04680896e-10 0.0 0.0
0.0 0.0 0.0 0.0 0.0 2.7829137e-14 2.6916068e-14 0.0
0.0 2.0582813e-11 0.0 0.0 3.123905e-12 0.0 0.0 0.0
0.0 0.0 0.0 5.4330706e-26 0.0 3.3549456e-26 1.5163706e-26 0.0
5.684399e-17 4.220015e-13 1.8279308e-12 2.16936e-17 1.639e-41 2.413542e-10 0.0 1.3677423e-10
4.483141e-11 0.0 1.0248927e-11 2.1239996e-20 2.2945368e-11 6.558596e-12 1e-45 4.0284576e-27
3.34e-43 8.055671e-27 2.9038032e-27 9.513e-42
00000000: b9a2 0630 185c 6610 533d 3431 6122 002f
00000010: 0000 0000 6efd 942a 6a2d a328 6efd 942a
00000020: 6ef9 320e 0000 0000 0000 0000 0000 0000
00000030: 0000 0000 0000 0000 0000 0000 77ed 1c31
00000040: d88b c62a d5d1 1e31 25dc d42f a36e 1310
00000050: 0000 0000 0000 0000 0000 0000 0000 0000
00000060: 0000 0000 cb59 bc2f 0000 0000 f576 c32f
00000070: d009 1e2f 0000 0000 04ae bc28 40a3 9528
00000080: 04ae bc28 af08 d10f 0000 0000 52a6 8320
00000090: 0000 0000 b0c4 9b29 e92d cb25 0000 0000
000000a0: 0000 0000 0000 0000 0000 0000 0000 0000
000000b0: 0000 0000 0000 0000 0000 0000 0000 0000
000000c0: 0000 0000 0000 0000 54f5 7a2f c6f9 ad1b
000000d0: 0fed af30 1b32 e62e 0000 0000 0000 0000
000000e0: 0000 0000 0000 0000 0000 0000 0000 0000
000000f0: 0000 0000 9fa9 fa28 3a70 f228 0000 0000
00000100: 0000 0000 600c b52d 0000 0000 0000 0000
00000110: 45d3 5b2c 0000 0000 0000 0000 0000 0000
00000120: 0000 0000 0000 0000 0000 0000 2d84 8615
00000130: 0000 0000 fd20 2615 902c 9614 0000 0000
00000140: c512 8324 d390 ed2a 13a1 002c 9116 c823
00000150: b02d 0000 95af 842f 0000 0000 8662 162f
00000160: ae2b 452e 0000 0000 104d 342d 299b c81e
00000170: 60d4 c92d 95c2 e62c 0100 0000 6a95 9f13
00000180: ee00 0000 1b8f 1f14 2010 6613 851a 0000

exp_avg f4 [20]
-3.04153e-07 -1.5886291e-16 0.0 3.862766e-07 -6.4199796e-24 -5.975147e-08 -4.8558784e-16 -1.0418407e-10
-1.6704053e-27 0.0 1.5099577e-08 0.0 -6e-45 9.643872e-13 0.0 -1.1350647e-14
2.29063e-10 6.023514e-07 -2.7046434e-09 -1.5737022e-14
00000000: 784a a3b4 0e28 37a5 0000 0000 7461 cf34
00000010: 665c f898 b850 80b3 0ff6 0ba6 6b1a e5ae
00000020: d857 0493 0000 0000 52b4 8132 0000 0000
00000030: 0400 0080 b6b9 872b 0000 0000 9f79 4ca8
00000040: 81db 7b2f 46b1 2135 97dc 39b1 1abf 8da8

exp_avg_sq f4 [20]
1.03595275e-08 2.9518467e-13 0.0 3.1609477e-09 0.0 3.5551828e-10 2.2594863e-14 8.513616e-14
0.0 0.0 2.355655e-09 0.0 2.7851245e-14 2.0980849e-11 0.0 6.219607e-26
1.8976843e-12 5.7669375e-10 3.807493e-11 8.055671e-27
00000000: aff9 3132 982c a62a 0000 0000 fb37 5931
00000010: 0000 0000 c072 c32f 3584 cb28 a8b5 bf29
00000020: 0000 0000 0000 0000 1fe1 2131 0000 0000
00000030: 99dc fa28 ac8c b82d 0000 0000 71fd 9915
00000040: a489 052c 3785 1e30 8f74 272e 1b8f 1f14

exp_avg f4 [20]
-3.04153e-07 -1.5886291e-16 0.0 3.862766e-07 -6.4199796e-24 -5.975147e-08 -4.8558784e-16 -1.0418407e-10
-1.6704053e-27 0.0 1.5099577e-08 0.0 -6e-45 9.643872e-13 0.0 -1.1350647e-14
2.29063e-10 6.023514e-07 -2.7046434e-09 -1.5737022e-14
00000000: 784a a3b4 0e28 37a5 0000 0000 7461 cf34
00000010: 665c f898 b850 80b3 0ff6 0ba6 6b1a e5ae
00000020: d857 0493 0000 0000 52b4 8132 0000 0000
00000030: 0400 0080 b6b9 872b 0000 0000 9f79 4ca8
00000040: 81db 7b2f 46b1 2135 97dc 39b1 1abf 8da8

exp_avg_sq f4 [20]
1.03595275e-08 2.9518467e-13 0.0 3.1609477e-09 0.0 3.5551828e-10 2.2594863e-14 8.513616e-14
0.0 0.0 2.355655e-09 0.0 2.7851245e-14 2.0980849e-11 0.0 6.219607e-26
1.8976843e-12 5.7669375e-10 3.807493e-11 8.055671e-27
00000000: aff9 3132 982c a62a 0000 0000 fb37 5931
00000010: 0000 0000 c072 c32f 3584 cb28 a8b5 bf29
00000020: 0000 0000 0000 0000 1fe1 2131 0000 0000
00000030: 99dc fa28 ac8c b82d 0000 0000 71fd 9915
00000040: a489 052c 3785 1e30 8f74 272e 1b8f 1f14

exp_avg f4 [2, 5]
-0.0033269534 -0.00041736112 -0.0023161545 -0.00050521764 1.0121826e-13 0.0033269608 0.00041736107 0.002316147
0.00050522346 -1.01218126e-13
00000000: 0409 5abb 43d1 dab9 a0ca 17bb 9570 04ba
00000010: 5bec e329 2409 5a3b 41d1 da39 80ca 173b
00000020: f970 043a 47ec e3a9

exp_avg_sq f4 [2, 5]
0.00013592312 4.1090593e-06 0.0004123106 6.5670094e-05 3.328703e-25 0.00013592304 4.1090593e-06 0.00041231033
6.5670036e-05 3.3287021e-25
00000000: 9686 0e39 8de0 8936 642b d839 5db8 8938
00000010: 6809 ce16 9086 0e39 8de0 8936 5b2b d839
00000020: 55b8 8938 6409 ce16

exp_avg f4 [2]
-0.1763726 0.17637259
00000000: 059b 34be 049b 343e

exp_avg_sq f4 [2]
0.05631564 0.05631564
00000000: 3bab 663d 3bab 663d
