MimicApp/lightning_logs/version_24/checkpoints/epoch=16-step=169.ckpt (torch, 15916 bytes, 18 tensors)

lstm.weight_ih_l0 f4 [20, 34]
0.4368285 0.12373799 -0.09768377 0.046602305 0.16973837 0.30993232 0.3615034 -0.13317922
-0.21102394 -0.1664901 -0.022880511 0.5231824 0.31278482 -0.06807604 0.19784628 0.2709173
0.363712 0.0009828022 0.28389835 -0.28975967 -0.044922654 0.5020462 0.47687063 0.10622234
-0.06555472 0.063198276 0.34317067 0.20093401 0.34297603 0.23504509 0.19336295 -0.16841128
-0.30476195 0.39973563 0.016168723 -0.17848319 0.21167566 0.34974924 -0.12945777 0.17438564
-0.097542584 -0.3313043 0.39862463 0.43385935 0.36232176 0.22729996 0.39151442 0.17648824
-0.13143508 -0.26276824 -0.04249174 0.29883057 0.24384534 0.2018832 -0.306522 0.030739114
0.10857992 -0.057047706 0.37499762 -0.1780869 0.4494904 0.28627962 0.05427893 0.3421713
-0.31047592 -0.04684087 -0.07112183 0.07878567 0.11495944 0.36299613 0.21400875 0.45376217
-0.27947882 0.051074367 -0.11632313 0.28517675 -0.119319245 0.24721968 0.064828746 0.25031224
-0.19682139 -0.2921232 -0.29382467 0.06939605 0.38896462 -0.27657172 0.44481865 -0.260856
0.30670115 0.10407528 -0.34101513 0.30040786 -0.16403478 -0.30637106 -0.15810972 -0.16088429
0.46492404 -0.37054864 0.22492471 -0.17907655 0.26603174 -0.285753 0.333791 0.15973647
0.05582619 -0.28090534 -0.10356363 0.39701977 -0.044389337 0.29495 -0.11222098 -0.35559425
0.38156542 0.24959739 -0.07722645 0.22989298 0.06358327 0.055796657 0.3578437 0.15135913
0.46456063 0.27512226 0.44747776 0.42177683 -0.08987475 -0.33335146 0.4015035 -0.2893724
-0.16060682 0.27874914 -0.15103571 -0.2429775 -0.40685946 -0.102915816 0.14848681 -0.2426246
0.06234198 -0.39805454 -0.40929422 0.40237924 -0.023143047 0.147144 0.3354036 -0.39992148
-0.06660304 0.34637675 -0.21798263 -0.22646995 0.016278043 -0.26358643 -0.2947985 0.1917159
0.35162804 -0.32114145 -0.4385445 -0.40535903 0.2870088 0.10048013 0.33319634 -0.31204212
0.10200664 -0.15712352 0.14379895 0.44295195 -0.14515212 -0.32670528 0.20571774 -0.2790187
-0.26580426 0.27913564 0.49031013 0.46638244 0.16871868 0.11144134 -0.033680324 0.48778012
0.4709891 0.29121268 0.21808103 -0.28914002 -0.09206301 0.19686994 0.16054949 -0.0037219012
-0.03342476 0.35731843 -0.2621676 -0.29705527 -0.35682663 -0.38139027 0.48897323 0.06151473
0.35680932 -0.37543312 0.3587744 0.17743684 -0.43607327 -0.08361225 -0.17655426 0.034984738
0.41536614 0.039984196 -0.15288216 0.3070051 0.23042627 0.36300096 0.26235682 0.004140754
-0.24918772 -0.02368268 0.31234595 -0.21901973 0.019385507 -0.19117564 0.5047309 -0.19195105
0.10586351 -0.29085317 -0.34543696 -0.18112244 0.29252723 -0.20379326 -0.00012832612 -0.07248353
0.43201023 0.11940903 0.4090387 -0.006844262 -0.1998334 0.032700922 0.036843654 0.42286783
-0.04139772 -0.1381214 0.31661582 -0.12949891 0.32295525 0.48233142 0.24337919 -0.22251341
-0.28415066 0.29885966 -0.08127669 0.37636697 0.2833132 -0.3462755 0.12929891 -0.1370879
0.017791089 -0.27802217 -0.00598822 0.07852937 0.4932735 0.48622978 0.38385397 0.3710183
00000000: fca7 df3e 586a fd3d 6e0e c8bd 0fe2 3e3d
00000010: e5cf 2d3e 73af 9e3e f916 b93e 2260 08be
00000020: a916 58be 617c 2abe e96f bbbc 48ef 053f
00000030: 5525 a03e 736b 8bbd 3798 4a3e acb5 8a3e
00000040: 7638 ba3e 5fd1 803a 205b 913e 615b 94be
00000050: d100 38bd 1a86 003f 6328 f43e 198b d93d
00000060: 8e41 86bd 196e 813d 11b4 af3e a5c1 4d3e
00000070: 8e9a af3e a9af 703e f000 463e 0274 2cbe
00000080: c209 9cbe 26aa cc3e 4574 843c 4cc4 36be
00000090: 81c1 583e 5512 b33e 9490 04be 2692 323e
000000a0: 68c4 c7bd b8a0 a9be 8718 cc3e d022 de3e
000000b0: 3d82 b93e 52c1 683e 9474 c83e 55b9 343e
000000c0: eb96 06be 8f89 86be d20b 2ebd 5200 993e
000000d0: 98b2 793e 78ba 4e3e 74f0 9cbe 98d0 fb3c
000000e0: 265f de3d dbaa 69bd b0ff bf3e 6a5c 36be
000000f0: 9b23 e63e 3e93 923e 9553 5e3d 1431 af3e
00000100: b3f6 9ebe 36dc 3fbd 52a8 91bd 625a a13d
00000110: db6f eb3d a1da b93e 1c25 5b3e 8453 e83e
00000120: d917 8fbe 5b33 513d d23a eebd b002 923e
00000130: a65d f4bd 2827 7d3e efc4 843d ed28 803e
00000140: 8c8b 49be 2c91 95be 3070 96be 841f 8e3d
00000150: 5f26 c73e cf9a 8dbe 45bf e33e eb8e 85be
00000160: ef07 9d3e 6c25 d53d 8999 aebe 0fcf 993e
00000170: bcf8 27be abdc 9cbe 84e7 21be dabe 24be
00000180: 860a ee3e 8db8 bdbe aa52 663e d85f 37be
00000190: 5035 883e 384e 92be a7e6 aa3e f591 233e
000001a0: 01aa 643d d3d2 8fbe 2b19 d4bd 2d46 cb3e
000001b0: 98d1 35bd b003 973e 1dd4 e5bd 7310 b6be
000001c0: 8b5c c33e 7596 7f3e e728 9ebd 1169 6b3e
000001d0: f237 823d 098b 643d 4a37 b73e e3fd 1a3e
000001e0: e4da ed3e d3dc 8c3e ce1b e53e 22f3 d73e
000001f0: 4110 b8bd 0bad aabe de91 cd3e 9f28 94be
00000200: 1d76 24be 35b8 8e3e 1ba9 1abe 18cf 78be
00000210: e24f d0be 87c5 d2bd ed0c 183e 9572 78be
00000220: 4e5a 7f3d cecd cbbe 038f d1be a704 ce3e
00000230: 7d96 bdbc ebac 163e 05ba ab3e 82c2 ccbe
00000240: 2d67 88bd 4b58 b13e d736 5fbe bde7 67be
00000250: 8859 853c cdf4 86be d4ef 96be 2c51 443e
00000260: 9708 b43e a76c a4be e888 e0be 388b cfbe
00000270: d1f2 923e 87c8 cd3d b698 aa3e fcc3 9fbe
00000280: dbe8 d03d fde4 20be 0840 133e 99ca e23e
00000290: c2a2 14be ea45 a7be aca7 523e 8adb 8ebe
000002a0: 7f17 88be deea 8e3e ee09 fb3e aec9 ee3e
000002b0: 97c4 2c3e 5b3b e43d 61f4 09bd 51be f93e
000002c0: 7c25 f13e d419 953e a250 5f3e 290a 94be
000002d0: 888b bcbd 4698 493e 1667 243e 24eb 73bb
000002e0: 67e8 08bd 71f2 b63e d53a 86be a117 98be
000002f0: fbb1 b6be 9645 c3be b35a fa3e dff6 7b3d
00000300: b6af b63e c538 c0be 47b1 b73e 01b2 353e
00000310: ff44 dfbe e63c abbd a4ca 34be 284c 0f3d
00000320: dfaa d43e 78c6 233d 248d 1cbe c62f 9d3e
00000330: ddf4 6b3e 43db b93e a253 863e 2aaf 873b
00000340: 112b 7fbe 2e02 c2bc cfeb 9f3e b546 60be
00000350: 5bce 9e3c 8cc3 43be 0b36 013f d18e 44be
00000360: f8ce d83d b5ea 94be 1ddd b0be 2978 39be
00000370: 21c6 953e 2eaf 50be 488f 06b9 3f72 94bd
00000380: 7230 dd3e b98c f43d 856d d13e d545 e0bb
00000390: 20a1 4cbe 67f1 053d 5fe9 163d 2282 d83e
000003a0: a890 29bd b26f 0dbe 781b a23e 5d9b 04be
000003b0: 645a a53e 25f4 f63e 6538 793e 8eda 63be
000003c0: 327c 91be 2204 993e 6574 a6bd 2cb3 c03e
000003d0: 6e0e 913e 064b b1be ef66 043e c560 0cbe
000003e0: 9ebe 913c ec58 8ebe d538 c4bb 02d4 a03d
000003f0: 588e fc3e 1cf3 f83e 8288 c43e 1cf6 bd3e

lstm.weight_hh_l0 f4 [20, 5]
-0.042773943 0.25003076 -0.42198023 0.32783556 0.38085258 0.4198986 0.104743965 -0.091083236
0.17607678 -0.07963848 -0.26655626 -0.007127219 -0.34709087 -0.15905702 0.20680368 -0.36485687
0.30603117 0.34739634 0.0866287 -0.36994353 -0.4162973 0.13476743 0.14229009 0.05658379
-0.3400757 0.044141427 0.006745357 -0.028632648 0.37328583 -0.090618856 0.4206858 -0.43312025
-0.09776529 0.13673677 -0.32943055 0.34834626 -0.24726711 0.18095276 0.31054762 0.12128216
0.2578221 -0.5247457 -0.10131441 0.04665447 -0.15595068 -0.35199192 0.28487438 0.28940976
-0.13126203 0.14767265 0.42328298 0.3211388 -0.0072230557 0.25553745 0.39313817 -0.42150638
-0.1872101 0.0551196 -0.35837784 0.28192216 -0.1359603 -0.12548415 0.20504867 -0.20431815
-0.17185372 0.3556794 -0.32741442 0.10988682 -0.10191444 0.030647507 0.32174248 -0.34037036
0.43257588 -0.3456437 -0.23509218 0.27966645 -0.041123852 0.11035525 -0.3392693 -0.36917046
0.37272263 0.29650792 -0.033509858 0.059719987 0.122425005 0.14280158 -0.46082115 -0.22173099
0.021336317 -0.26292545 -0.37468666 0.3391083 -0.06705625 0.015348578 0.29502475 -0.3079273
-0.2355121 0.2027853 0.021486385 0.2768263
00000000: bb33 2fbd 0804 803e cb0d d8be 10da a73e
00000010: 1cff c23e f3fc d63e 0184 d63d d989 babd
00000020: 794d 343e 8019 a3bd 107a 88be 728b e9bb
00000030: e5b5 b1be d8df 22be 58c4 533e 85ce babe
00000040: 1eb0 9c3e efdd b13e 636a b13d 3d69 bdbe
00000050: eb24 d5be 7900 0a3e 7eb4 113e 67c4 673d
00000060: 671e aebe a4cd 343d 2808 dd3b 048f eabc
00000070: 521f bf3e 6196 b9bd 2164 d73e f0c1 ddbe
00000080: 2b39 c8bd b904 0c3e 1fab a8be 715a b23e
00000090: 9733 7dbe ae4b 393e 1900 9f3e c862 f83d
000000a0: 4201 843e bc55 06bf ee7d cfbd c218 3f3d
000000b0: 89b1 1fbe 4938 b4be 0edb 913e 842d 943e
000000c0: 8e69 06be 8037 173e 8cb8 d83e 4e6c a43e
000000d0: 62af ecbb ced5 823e 6849 c93e afcf d7be
000000e0: 01b4 3fbe 17c5 613d 4d7d b7be 1a58 903e
000000f0: 2d39 0bbe eb7e 00be 47f8 513e c738 51be
00000100: 6cfa 2fbe 9c1b b63e dda2 a7be 570c e13d
00000110: 85b8 d0bd 7b10 fb3c 6ebb a43e 0645 aebe
00000120: 967a dd3e 36f8 b0be 01bc 70be 7130 8f3e
00000130: 7c71 28bd ef01 e23d b5b4 adbe e903 bdbe
00000140: 80d5 be3e e3cf 973e a241 09bd f29c 743d
00000150: f6b9 fa3d 943a 123e c0f0 ebbe 730d 63be
00000160: 80c9 ae3c 2a9e 86be eed6 bfbe 9a9f ad3e
00000170: ca54 89bd 9a78 7b3c 7c0d 973e a6a8 9dbe
00000180: 152a 71be f3a6 4f3e 3704 b03c 2dbc 8d3e

lstm.bias_ih_l0 f4 [20]
-0.2728052 0.4356916 -0.32610497 0.38998407 0.31645143 -0.18872455 0.48588392 -0.26439407
-0.18583937 -0.34403488 -0.1710359 0.009599203 0.3573129 0.42623225 -0.01201573 0.26937097
0.41665325 0.02426622 -0.11259464 0.26324055
00000000: 20ad 8bbe f812 df3e 3bf7 a6be feab c73e
00000010: ec05 a23e 0241 41be c7c5 f83e a95e 87be
00000020: ad4c 3ebe 5725 b0be 0924 2fbe fa45 1d3c
00000030: b7f1 b63e 1d3b da3e a0dd 44bc feea 893e
00000040: 9353 d53e f4c9 c63c 0598 e6bd 77c7 863e

lstm.bias_hh_l0 f4 [20]
0.15831985 0.15163057 -0.12158503 -0.1023189 0.1434231 0.20292152 -0.068791166 0.35056037
0.38750866 -0.2523866 0.2637599 -0.18553248 0.4119634 -0.016022803 -0.4115583 -0.3218179
-0.1349357 0.19544008 -0.15105012 0.42317417
00000000: 991e 223e 0b45 1b3e 9201 f9bd 928c d1bd
00000010: 81dd 123e a9ca 4f3e 62e2 8cbd a67c b33e
00000020: 8967 c63e d138 81be 8a0b 873e 3afc 3dbe
00000030: deec d23e 4142 83bc c5b7 d2be 51c5 a4be
00000040: 962c 0abe 7221 483e e2ac 1abe 49aa d83e

linear.weight f4 [2, 5]
-0.20259807 -0.1616786 -0.24022242 0.54151565 -0.33302817 -0.38944566 0.25241354 0.43704858
0.0469214 0.053785805
00000000: de75 4fbe 138f 25be defc 75be c5a0 0a3f
00000010: ab82 aabe 6c65 c7be 593c 813e d5c4 df3e
00000020: a730 403d 814e 5c3d

linear.bias f4 [2]
0.6012109 0.041705128
00000000: f5e8 193f ffd2 2a3d

exp_avg f4 [20, 34]
-7.265644e-05 -9.217464e-05 -3.4812736e-05 -0.00011168007 -7.479202e-05 -5.193821e-05 -1.5510215e-05 0.0
8.341336e-07 -2.3300623e-05 -5.854451e-07 -7.038636e-06 -3.76447e-05 -8.721153e-05 -1.9072808e-05 -1.8853965e-05
-6.9024645e-05 -7.957532e-06 -0.00010000646 -8.7111783e-07 -4.041792e-06 -0.00010108627 -1.287881e-06 -1.9572858e-06
-3.3072522e-06 -4.0209907e-06 -7.291183e-07 -1.469161e-06 -3.0531224e-05 -1.025774e-05 -3.0627605e-05 -9.613429e-06
-0.00082081516 -0.00012330155 -0.00015708295 -9.3606395e-05 -3.9332666e-05 -0.0001896116 -0.00014100368 -5.5615983e-05
-2.3942726e-05 0.0 2.2865709e-06 -3.0949923e-05 -9.1881935e-07 -6.9508174e-06 -7.2015966e-05 -0.00014050555
-0.00057053514 -3.943831e-06 -0.0003723231 -4.296093e-06 -7.857612e-05 -9.4397865e-07 8.137977e-07 -8.309815e-05
2.1592145e-06 -1.8942532e-06 -5.1815753e-08 -3.7748114e-06 8.68385e-07 -4.651063e-07 -3.0234345e-05 -1.0550204e-05
-4.601034e-05 -1.583226e-05 -0.0006343366 -0.00016774076 5.016993e-05 -4.655956e-05 -2.4202558e-05 -0.00011012254
-0.00012775804 -0.00022412557 3.728424e-05 0.0 -1.1484403e-05 -1.7686012e-05 1.4363345e-06 -3.86074e-06
-1.3491601e-05 -8.861714e-05 -0.00012906636 -4.877436e-05 -5.993034e-05 -1.7697294e-05 8.573524e-05 -2.1895123e-05
-9.929639e-06 -8.95887e-05 3.4231473e-06 4.9704367e-06 -5.3146887e-06 -4.3473447e-06 -2.51174e-06 -2.308741e-05
-7.227132e-05 -2.0680603e-05 3.192539e-05 3.8135044e-05 -0.00011740926 -7.748214e-05 -9.957971e-08 -1.11456416e-07
-4.280929e-08 -1.559086e-07 -8.701052e-08 -7.018324e-08 -3.0481765e-08 0.0 -2.7103035e-09 -2.9657265e-08
-7.9222073e-10 -8.598155e-09 -4.3167827e-08 -9.4009366e-08 -3.390817e-08 -3.3422577e-08 -6.0001e-08 -1.13186704e-08
-1.1634302e-07 -1.2258339e-09 -9.2542525e-09 -9.2728406e-08 -2.5589062e-09 -2.679421e-09 -3.7251981e-09 -4.475658e-09
-5.909554e-10 -2.5517992e-09 -3.133961e-08 -1.0103633e-08 -3.8830297e-08 -1.749086e-08 -1.7637902e-07 -6.292749e-07
-1.5771168e-07 -1.5296884e-07 -5.5462262e-08 -2.231811e-07 -1.4616967e-07 -1.0788248e-07 -3.0030783e-08 0.0
-2.8839213e-09 -3.893995e-08 -1.2066419e-09 -1.1422794e-08 -7.3048774e-08 -1.5540404e-07 -6.271122e-08 -6.331449e-08
-9.1532215e-08 -1.3911924e-08 -1.5408169e-07 -3.0853555e-09 -4.400569e-09 -2.3255852e-07 -4.3360737e-09 -3.5611893e-09
-5.335808e-09 -5.6397527e-09 -1.8972377e-08 -6.223071e-10 -4.2778762e-08 -1.4651848e-08 -1.16668915e-07 -1.6686249e-08
-7.734087e-08 -1.0456273e-07 -7.2747425e-05 -8.7224485e-05 -3.290422e-05 -9.563296e-05 -6.2258376e-05 -4.466439e-05
-1.3317742e-05 0.0 5.441176e-06 -2.0236372e-05 -5.349728e-07 -6.4502315e-06 -2.9401512e-05 -6.983963e-05
0.00057488825 -1.6794966e-05 -7.367396e-05 -6.6075945e-06 -9.482229e-05 -9.264295e-07 -4.117746e-06 -0.00013284825
-1.7035723e-06 -1.737381e-06 -2.4593255e-06 -4.490319e-06 -5.052796e-07 2.728092e-06 -2.8163611e-05 -9.599279e-06
-3.1217074e-05 -1.1849114e-05 -0.0008876129 -0.00013651833 -7.644714e-05 -7.5053795e-05 -2.9239145e-05 -8.396944e-05
-5.3621403e-05 -3.6659356e-05 -1.28506135e-05 0.0 -4.8743377e-06 -2.3289658e-05 -3.7762442e-07 -5.7535076e-06
-4.6168694e-05 -7.5705924e-05 -0.00040222236 -1.1381578e-05 -4.4432272e-05 -6.3032867e-06 -8.06541e-05 -5.2627195e-07
-4.019872e-07 -8.513847e-05 -1.0711301e-06 -1.3914737e-06 -2.0571733e-06 -3.191168e-06 -3.6411646e-07 -5.89819e-07
-2.5010211e-05 -7.891488e-06 -2.6869731e-05 -1.0283044e-05 -0.0001149129 -0.0001233564 -2.4403784e-05 -2.9126422e-05
-1.1045273e-05 -3.579221e-05 -2.3458304e-05 -1.5991869e-05 -5.250599e-06 0.0 -8.752992e-09 -7.3127117e-06
-1.8412835e-07 -2.222878e-06 -1.2358282e-05 -2.7923497e-05 -4.936419e-06 -4.8847382e-06 -2.0530426e-05 -2.5396969e-06
00000000: 215f 98b8 e24d c1b8 e403 12b8 c835 eab8
00000010: a9d9 9cb8 3ad8 59b8 ef1b 82b7 0000 0000
00000020: 39e9 5f35 b575 c3b7 7b27 1db5 6c2d ecb6
00000030: b0e4 1db8 55e5 b6b8 8bfe 9fb7 9528 9eb7
00000040: 53c1 90b8 5781 05b7 8fba d1b8 c3d6 69b5
00000050: bb9e 87b6 47fe d3b8 41db acb5 ea59 03b6
00000060: 29f2 5db6 0cec 86b6 a1b8 43b5 fd2f c5b5
00000070: a70e 00b8 a818 2cb7 2476 00b8 5d49 21b7
00000080: f92b 57ba 824a 01b9 a2b6 24b9 8d4e c4b8
00000090: 21f9 24b8 7ad2 46b9 63da 13b9 3545 69b8
000000a0: 9dd8 c8b7 0000 0000 fd72 1936 3ad0 01b8
000000b0: c9a4 76b5 113b e9b6 4707 97b8 ac54 13b9
000000c0: f78f 15ba 4055 84b6 5c34 c3b9 2827 90b6
000000d0: 3cc9 a4b8 b865 7db5 c173 5a35 fb44 aeb8
000000e0: 06e7 1036 0b3e feb5 068c 5eb3 c452 7db6
000000f0: f61a 6935 b9b3 f9b4 c39f fdb7 c800 31b7
00000100: 3afb 40b8 85cf 84b7 9c49 26ba 91e3 2fb9
00000110: 8d6d 5238 f248 43b8 9906 cbb7 97f1 e6b8
00000120: caf6 05b9 4003 6bb9 a661 1c38 0000 0000
00000130: 23ad 40b7 6c5c 94b7 14c8 c035 818b 81b6
00000140: fc59 62b7 f7d7 b9b8 fd55 07b9 1293 4cb8
00000150: b65d 7bb8 a674 94b7 c2cc b338 6bab b7b7
00000160: 7a97 26b7 91e1 bbb8 39b9 6536 bac7 a636
00000170: d454 b2b6 68df 91b6 5d8f 28b6 d6ab c1b7
00000180: 5f90 97b8 427b adb7 a0e7 0538 31f3 1f38
00000190: 9e39 f6b8 e87d a2b8 86d8 d5b3 d059 efb3
000001a0: 50dd 37b3 d467 27b4 8ada bab3 a5b7 96b3
000001b0: 0eeb 02b3 0000 0000 2a40 3ab1 04c1 feb2
000001c0: 94c3 59b0 16b7 13b2 8767 39b3 32e2 c9b3
000001d0: 6da2 11b3 838c 0fb3 e6d9 80b3 0a74 42b2
000001e0: 40d8 f9b3 327a a8b0 a2fc 1eb2 fb21 c7b3
000001f0: c1d8 2fb1 df20 38b1 61fe 7fb1 4ec8 99b1
00000200: ca70 22b0 ba5b 2fb1 449a 06b3 3f94 2db2
00000210: 5dc6 26b3 cf3e 96b2 b262 3db4 71eb 28b5
00000220: 7557 29b4 c13f 24b4 6735 6eb3 8ea3 6fb4
00000230: d0f2 1cb4 05ad e7b3 32fb 00b3 0000 0000
00000240: 7b2e 46b1 ee3e 27b3 f0d6 a5b0 fb3d 44b2
00000250: fdde 9cb3 23dd 26b4 dcab 86b3 82f7 87b3
00000260: 5e90 c4b3 4a01 6fb2 a771 25b4 2606 54b1
00000270: d033 97b1 33b5 79b4 82fc 94b1 1bb9 74b1
00000280: 4356 b7b1 cac7 c1b1 b3f8 a2b2 f80e 2bb0
00000290: bfbb 37b3 82b7 7bb2 6a8b fab3 7355 8fb2
000002a0: 9816 a6b3 f88b e0b3 fa8f 98b8 4aec b6b8
000002b0: a302 0ab8 8e8e c8b8 b690 82b8 0656 3bb8
000002c0: 446f 5fb7 0000 0000 5993 b636 47c1 a9b7
000002d0: 0d9b 0fb5 116f d8b6 44a3 f6b7 de76 92b8
000002e0: 19b4 163a eae2 8cb7 6881 9ab8 ceb6 ddb6
000002f0: 54db c6b8 c0af 78b5 2b2b 8ab6 2e4d 0bb9
00000300: 4ca6 e4b5 f52f e9b5 e40a 25b6 8cab 96b6
00000310: 8da2 07b5 4414 3736 e540 ecb7 970c 21b7
00000320: 14ef 02b8 8fcb 46b7 b2ae 68ba 5c26 0fb9
00000330: 3f52 a0b8 3366 9db8 9646 f5b7 c018 b0b8
00000340: 8be7 60b8 afc2 19b8 f798 57b7 0000 0000
00000350: 3e8e a3b6 295e c3b7 4ebc cab4 410e c1b6
00000360: 42a5 41b8 4fc4 9eb8 5fe1 d2b9 81f3 3eb7
00000370: ca5c 3ab8 d280 d3b6 d724 a9b8 2245 0db5
00000380: b3d0 d7b4 5e8c b2b8 c0c3 8fb5 acc2 bab5
00000390: f80d 0ab6 d927 56b6 c97b c3b4 0e54 1eb5
000003a0: 05cd d1b7 af65 04b7 4f66 e1b7 5685 2cb7
000003b0: 65fd f0b8 3b59 01b9 bab6 ccb7 8454 f4b7
000003c0: 164f 39b7 981f 16b8 53c8 c4b7 4726 86b7
000003d0: 4d2e b0b6 0000 0000 1160 16b2 b75f f5b6
000003e0: d1b4 45b4 c12c 15b6 6b56 4fb7 413d eab7
000003f0: 84a3 a5b6 95e7 a3b6 c138 acb7 a96f 2ab6

exp_avg_sq f4 [20, 34]
1.6190436e-08 2.4542533e-08 3.5426477e-09 3.735661e-08 1.632964e-08 9.323676e-09 7.8634305e-10 0.0
7.438864e-12 1.506106e-09 8.7352467e-13 1.4225322e-10 4.5702464e-09 2.178239e-08 3.6844652e-09 2.1710047e-09
1.624453e-08 1.774577e-10 2.9739839e-08 7.0854806e-12 2.032609e-10 4.3815138e-08 4.6440954e-12 1.0734628e-11
3.6178015e-11 4.5923775e-11 2.7221086e-12 5.84299e-11 2.6229148e-09 3.0698405e-10 5.762564e-09 4.1473475e-10
1.7030555e-06 1.1209316e-07 1.6270855e-07 1.7731433e-07 2.6185917e-08 3.8378013e-07 1.7691389e-07 9.0792675e-08
6.576054e-09 0.0 2.9399863e-10 1.0787213e-08 7.508744e-12 1.0357281e-09 4.1549953e-08 1.6724489e-07
2.0693687e-06 7.736886e-09 3.829751e-05 1.1991846e-09 2.15468e-07 2.6302011e-11 2.9871543e-09 3.603534e-07
4.0752757e-10 6.0613695e-11 1.817405e-10 2.7783262e-10 6.95756e-11 1.3999899e-09 1.8824645e-08 2.1530868e-09
4.748766e-08 2.6254048e-09 5.835577e-06 1.3653157e-06 9.988338e-07 1.1861589e-06 1.7046656e-07 2.3088944e-06
9.540561e-07 4.871066e-07 6.493355e-08 0.0 1.806943e-09 7.877728e-08 4.2068734e-11 6.8046995e-09
2.4411762e-07 9.899749e-07 1.8714982e-05 1.2283829e-07 3.4066902e-06 8.943308e-09 1.431184e-06 5.951583e-10
5.5092055e-09 4.279564e-06 7.2199824e-10 5.4581684e-10 2.021009e-09 2.276136e-09 1.8321901e-09 5.0267488e-08
1.3104675e-07 1.4351971e-08 1.2735188e-07 2.7619436e-08 3.2831638e-06 2.1873457e-05 7.936587e-08 1.15589295e-07
1.6567235e-08 2.0047662e-07 7.897576e-08 5.0007717e-08 5.5423164e-09 0.0 2.8675307e-10 8.002549e-09
5.547104e-12 6.733666e-10 2.1875655e-08 9.508499e-08 3.5661454e-08 5.9350422e-09 7.0294504e-08 9.1449404e-10
1.3268775e-07 1.13685086e-11 1.6035292e-09 1.705536e-07 7.833282e-11 4.7939416e-11 1.7193319e-10 2.149495e-10
1.6237706e-10 9.393201e-10 1.1388659e-08 1.1007169e-09 1.432759e-08 3.259078e-09 9.3042075e-07 3.6148417e-06
4.272799e-11 1.2630191e-10 1.644287e-11 1.1596578e-10 4.809111e-11 2.9440707e-11 1.7695999e-12 0.0
1.1189212e-14 1.0318731e-11 1.2645357e-14 7.0094625e-13 1.35805004e-11 6.4728556e-11 8.654025e-10 3.682431e-12
3.0393077e-09 9.649461e-13 1.4993859e-10 6.5362572e-15 2.6291933e-14 1.1782182e-10 2.3503723e-14 3.637342e-14
1.7864742e-13 2.1740415e-13 8.2964946e-14 8.093962e-15 1.17917846e-11 1.2482425e-12 2.397472e-10 3.3854446e-13
2.0463526e-09 2.5650448e-10 1.2943424e-08 1.8537133e-08 2.6790858e-09 2.6730788e-08 1.1580482e-08 6.8030617e-09
6.5217315e-10 0.0 4.2857586e-11 1.1812564e-09 9.226708e-13 1.04820194e-10 3.3219307e-09 1.6100833e-08
1.1646707e-06 1.3830117e-09 3.9436294e-08 1.3309848e-10 2.1917218e-08 7.697487e-12 5.280909e-10 3.1395878e-08
1.1470027e-11 7.669799e-12 3.340304e-11 3.957931e-11 3.730495e-11 1.1771963e-10 1.8212059e-09 2.162764e-10
2.9139895e-09 2.53213e-10 6.6467106e-07 6.28324e-08 9.366404e-09 8.915825e-09 1.3066962e-09 1.368635e-08
6.454648e-09 3.8738905e-09 3.1892208e-10 0.0 7.435369e-12 5.977864e-10 2.6228816e-13 5.1146153e-11
1.8537316e-09 8.014421e-09 2.7589323e-07 2.1753026e-10 6.8516974e-09 6.138544e-11 1.03559445e-08 6.8986066e-13
1.08801225e-10 1.9089873e-08 9.341122e-12 3.5990932e-12 9.075119e-12 1.651223e-11 4.236921e-12 9.830215e-13
9.124215e-10 1.08268644e-10 1.3480238e-09 5.0892884e-10 6.667921e-08 3.6902367e-08 4.1549743e-08 5.0206577e-08
7.3694104e-09 7.382514e-08 3.3304957e-08 1.8805459e-08 1.8662816e-09 0.0 3.671807e-11 2.9047553e-09
2.593027e-12 2.9239255e-10 8.934062e-09 4.4606193e-08 9.32452e-09 1.4845839e-09 3.2686586e-08 3.5753428e-10
00000000: 2513 8b32 9ad1 d232 eb72 7331 0772 2033
00000010: 4245 8c32 f62d 2032 f925 5830 0000 0000
00000020: aadd 022d 65ff ce30 16e0 752b b968 1c2f
00000030: 5008 9d31 fb1b bb32 cc31 7d31 b830 1531
00000040: 198a 8b32 e71d 432f 9976 ff32 564c f92c
00000050: db7c 5f2f 412f 3c33 4b66 a32c 77d8 3c2d
00000060: d31c 1f2e 93f9 492e 268d 3f2c 1c7d 802e
00000070: ce3e 3431 2ac4 a82f 0d00 c631 ba00 e42f
00000080: 8b94 e435 deb7 f033 fcb4 2e34 cb63 3e34
00000090: 71ef e032 570a ce34 b8f5 3d34 cdf9 c233
000000a0: 95f3 e131 0000 0000 a1a0 a12f aa52 3932
000000b0: 6018 042d 7159 8e30 a874 3233 ed93 3334
000000c0: 7cdf 0a36 2feb 0432 a3a1 2038 8fd0 a430
000000d0: 655b 6734 dd5a e72d 9346 4d31 9876 c134
000000e0: 680a e02f 7a4a 852e 67d3 472f 77bd 982f
000000f0: 95ff 982e c469 c030 d5b3 a132 81f5 1331
00000100: 3cf5 4b33 9c6a 3431 3acf c336 e43f b735
00000110: ab0f 8635 1c34 9f35 7e09 3734 81f2 1a36
00000120: 1e0d 8035 b6c1 0235 9971 8b33 0000 0000
00000130: 2858 f830 452c a933 2f05 392e c5ce e931
00000140: 450f 8334 47df 8435 1efe 9c37 88e5 0334
00000150: 7e9e 6436 16a5 1932 1c17 c035 8b98 2330
00000160: 7c4b bd31 2d99 8f36 1c76 4630 7208 1630
00000170: f7e1 0a31 356a 1c31 75d0 fb30 b0e5 5733
00000180: dbb5 0c34 a390 7632 38be 0834 c83f ed32
00000190: 5354 5c36 e47c b737 d96f aa33 e339 f833
000001a0: bc4f 8e32 9842 5734 6299 a933 11c8 5633
000001b0: bb6e be31 0000 0000 e8a4 9d2f 957b 0932
000001c0: df2b c32c f617 3930 13e9 bb32 8731 cc33
000001d0: 2f2a 1933 2fed cb31 d0f4 9633 cc5f 7b30
000001e0: ee78 0e34 36ff 472d 2b63 dc30 6b21 3734
000001f0: 7541 ac2e fcd6 522e e40a 3d2f e856 6c2f
00000200: 1489 322f 6319 8130 daa7 4332 0848 9730
00000210: 6825 7632 4ef6 5f31 07c2 7935 8296 7236
00000220: 71eb 3b2e d4de 0a2f 0da2 902d ee02 ff2e
00000230: c781 532e 4a7b 012e 8e0c f92b 0000 0000
00000240: 2291 4928 6f87 352d 6bcc 6328 804c 452b
00000250: 23e9 6e2d f056 8e2e 4ae1 6d30 6490 812c
00000260: 11dc 5031 d9cd 872b f6db 242f 557e eb27
00000270: 12d1 ec28 e58b 012f e5b3 d328 b3cf 2329
00000280: 9d23 492a 7bc6 742a 09d2 ba29 d0ce 1128
00000290: 7a71 4f2d adac af2b 6bcd 832f 6695 be2a
000002a0: d19f 0c31 cc03 8d2f c85d 5e32 963b 9f32
000002b0: fa1a 3831 a09d e532 80f3 4632 5dc0 e931
000002c0: 9b44 3330 0000 0000 5a7d 3c2e c459 a230
000002d0: b8da 812b 8680 e62e 0648 6431 1b4e 8a32
000002e0: c851 9c35 6614 be30 aa60 2933 e457 122f
000002f0: 7944 bc32 666a 072d 1829 1130 22d8 0633
00000300: 69c8 492d b4ed 062d 7be8 122e 5712 2e2e
00000310: a411 242e 216f 012f fc4d fa30 65cc 6d2f
00000320: 723f 4831 9034 8b2f d96b 3235 7aee 8633
00000330: e1e9 2032 372c 1932 4997 b330 3421 6b32
00000340: afc7 dd31 1a1b 8531 4b54 af2f 0000 0000
00000350: edcd 022d 7a51 2430 b5a7 932a 73f1 602e
00000360: 62c6 fe30 ccaf 0932 7a1e 9434 532d 6f2f
00000370: 2b6c eb31 eefc 862e ede9 3132 b32d 422b
00000380: a541 ef2e 13fb a332 ac54 242d 8043 7d2c
00000390: b4a6 1f2d 3d3e 912d cb12 952c 1559 8a2b
000003a0: f5cd 7a30 d415 ee2e 5f45 b930 afe4 0b30
000003b0: 4931 8f33 957e 1e33 6d74 3233 b7a2 5733
000003c0: 0536 fd31 cd89 9e33 300b 0f33 a489 a132
000003d0: f93f 0031 0000 0000 df7c 212e ff9c 4731
000003e0: d277 362c 98be a02f 6c7c 1932 0795 3f33
000003f0: ac31 2032 270a cc30 4863 0c33 7a8e c42f

exp_avg f4 [20, 5]
-3.3110433e-07 9.1312893e-07 9.046844e-07 6.992907e-07 -2.8141878e-31 -1.0435783e-06 5.303915e-07 -5.116803e-08
-7.9972125e-07 8.155736e-13 -2.6969178e-06 2.526148e-06 -6.7829546e-07 -2.6967814e-06 -6.4277604e-35 -5.8525806e-10
5.8515914e-10 1.1041992e-10 -2.9134692e-10 -5.215398e-32 -8.1489715e-10 5.3985366e-10 5.3999116e-10 -5.3999133e-10
5.6310253e-16 -1.5581144e-06 1.1330344e-06 1.1079901e-06 8.316346e-07 -7.177755e-15 -7.936316e-07 6.758334e-07
1.4351052e-07 -7.77679e-07 -3.060856e-27 -3.9130633e-08 2.9955854e-07 2.7021642e-07 2.2890362e-07 -1.4583084e-29
-3.1160082e-06 3.2482017e-06 3.2969592e-06 -3.9062415e-06 -4.7191567e-17 -1.0361226e-08 2.857995e-09 1.0364386e-08
-1.04248405e-08 -2.6034464e-15 -1.4635425e-07 8.610561e-08 2.505092e-07 -2.447379e-07 -2.3977484e-22 2.9665378e-07
-1.5785011e-07 -2.9370722e-07 3.128498e-07 -1.490341e-14 1.0482447e-07 -1.0489152e-07 -8.2319175e-08 1.0148054e-07
5.9392775e-32 -1.1232269e-05 1.12418375e-05 1.11678455e-05 -6.9046416e-07 -1.2969849e-20 0.0 0.0
0.0 0.0 0.0 -1.4596982e-08 -5.3362758e-08 -5.2218738e-08 5.2218986e-08 -7.722466e-28
-3.9715264e-06 3.0520794e-06 5.486626e-06 -5.4016305e-06 3.9165438e-16 -6.4069995e-06 6.821099e-06 3.8233634e-06
-1.7036687e-06 -1.7194147e-14 7.6691485e-06 2.2126336e-07 -2.4320698e-07 -5.0350404e-06 9.361749e-08 -1.1184563e-10
9.267409e-11 1.1147119e-10 -1.062504e-10 -1.3445107e-11
00000000: a2c2 b1b4 be1d 7535 70d9 7235 e4b6 3b35
00000010: b7a6 b68c 1411 8cb5 3a60 0e35 d8c3 5bb3
00000020: 6dac 56b5 4590 652b b2fc 34b6 e486 2936
00000030: 1c14 36b5 5afa 34b6 12e1 aa86 e0df 20b0
00000040: ead8 2030 e4d0 f22e 6f2b a0af 4466 878b
00000050: 4aff 5fb0 d364 1430 806e 1430 836e 14b0
00000060: a24d 2226 6720 d1b5 c412 9835 40b6 9435
00000070: 7f3d 5f35 8d4d 01a8 f309 55b5 eb6a 3535
00000080: df17 1a34 b2c1 50b5 8981 7293 9610 28b3
00000090: 03d3 a034 4312 9134 8cc8 7534 dae3 938f
000000a0: 9d1c 51b6 aefb 5936 5441 5d36 5c12 83b6
000000b0: f8a1 59a4 2701 32b2 6166 4431 0d0f 3232
000000c0: ef18 33b2 1c99 3ba7 8d25 1db4 0fe9 b833
000000d0: b97d 8634 8564 83b4 5cef 909b c943 9f34
000000e0: 827d 29b4 d0ae 9db4 c0f5 a734 ec3c 86a8
000000f0: dd1b e133 b940 e1b3 72c7 b0b3 84ed d933
00000100: 4531 9a0b 3a72 3cb7 539b 3c37 885d 3b37
00000110: 5658 39b5 57fe 749e 0000 0000 0000 0000
00000120: 0000 0000 0000 0000 0000 0000 35c6 7ab2
00000130: f930 65b3 1c47 60b3 6247 6033 16bc 7492
00000140: 2743 85b6 53d2 4c36 c219 b836 a73f b5b6
00000150: fcc5 e125 b5fb d6b6 cbe0 e436 714a 8036
00000160: 9ca9 e4b5 01df 9aa8 beaa 0037 6994 6d34
00000170: 1d92 82b4 abf2 a8b6 c20a c933 7ef3 f5ae
00000180: e0ca cb2e b420 f52e a8a5 e9ae 6187 6cad

exp_avg_sq f4 [20, 5]
2.9179429e-13 2.0707416e-12 1.1617505e-12 1.2033661e-12 0.0 1.209404e-11 2.6481666e-12 3.5959113e-12
1.0107128e-11 8.730781e-22 1.0742849e-10 6.712397e-11 7.361694e-12 8.8312246e-11 0.0 1.1487347e-11
9.8755865e-12 5.0913602e-14 1.8017863e-12 0.0 6.4815753e-15 2.1350703e-19 1.0216555e-18 6.481672e-15
9.24238e-19 2.4971089e-12 1.2458235e-12 1.4220002e-12 9.24558e-13 2.4192316e-19 9.307385e-13 6.734743e-13
4.550434e-13 8.9633064e-13 0.0 1.7222357e-12 3.373348e-12 3.94988e-12 2.5474828e-12 4e-44
3.2170582e-11 3.4112296e-11 3.4821746e-11 3.018333e-11 8.1564304e-26 1.1069653e-12 3.787923e-17 1.1066487e-12
2.5210845e-13 7.897862e-26 3.5778574e-12 9.974628e-12 2.7074868e-11 1.7858848e-11 7.2712925e-29 3.603487e-11
4.890973e-12 2.1150161e-11 3.4767883e-11 4.1641985e-28 1.3550575e-10 1.1674853e-10 5.0329473e-11 1.2345598e-10
0.0 5.903951e-10 1.2756023e-10 1.6187895e-10 3.7229303e-11 2.7181092e-27 0.0 0.0
0.0 0.0 0.0 2.3516263e-15 1.6681765e-15 1.2532549e-14 8.738825e-15 0.0
2.109756e-10 8.213437e-11 2.2402039e-10 1.3694025e-10 4.7607655e-23 2.1297888e-09 7.1518746e-10 1.0403443e-09
1.5436536e-09 8.897768e-16 1.1332888e-10 2.3192472e-12 9.65718e-12 3.152124e-11 9.27207e-15 4.914403e-16
6.942714e-19 2.2240218e-15 2.0546579e-16 1.519232e-16
00000000: fd43 a42a 2ab7 112c 7980 a32b d55b a92b
00000010: 0000 0000 b7c2 542d 2159 3a2c 2e0a 7d2c
00000020: 75ce 312d 93ef 831c dd3c ec2e 709b 932e
00000030: 1f82 012d 6033 c22e 0000 0000 6916 4a2d
00000040: b0bb 2d2d 634b 6529 3194 fd2b 0000 0000
00000050: fb85 e927 8a10 7c20 0ec5 9621 df86 e927
00000060: b964 8821 eab7 2f2c 8655 af2b f520 c82b
00000070: b61e 822b 65ce 8e20 63fd 822b f090 3d2b
00000080: 5515 002b 6e4b 7c2b 0000 0000 1562 f22b
00000090: d660 6d2c 5bf9 8a2c 5f43 332c 1d00 0000
000000a0: db7c 0d2e 0807 162e cd25 192e 69bf 042e
000000b0: 85f1 c915 a1ca 9b2b e7af 2e24 39bf 9b2b
000000c0: a8ec 8d2a a68a c315 f3c4 7b2c bb79 2f2d
000000d0: 2f27 ee2d 8d16 9d2d 6359 b810 a87b 1e2e
000000e0: f815 ac2c ee09 ba2d 28e9 182e fef7 0312
000000f0: 7afd 142f ca5d 002f f359 5d2e c5bd 072f
00000100: 0000 0000 5d49 2230 0341 0c2f e0fc 312f
00000110: 78bc 232e ce59 5713 0000 0000 0000 0000
00000120: 0000 0000 0000 0000 0000 0000 d973 2927
00000130: da68 f026 2ec4 6128 b86c 1d28 0000 0000
00000140: 5af8 672f 8a9d b42e 2250 762f 4191 162f
00000150: 6c37 661a a45b 1231 d896 4430 dcfb 8e30
00000160: 7c28 d430 f83a 8026 7d36 f92e d833 232c
00000170: 12e4 292d c3a1 0a2e e007 2728 e5a5 0d26
00000180: aae9 4c21 f641 2027 cce2 6c25 d027 2f25

exp_avg f4 [20]
-9.530721e-07 -9.623318e-07 -4.7147398e-07 -1.1595715e-09 -1.5489741e-09 -8.780254e-07 -7.8089306e-07 -3.006397e-07
-3.5853855e-06 -1.0364903e-08 -3.7378828e-07 3.1565457e-07 1.3108229e-07 -1.2290637e-05 0.0 4.0501043e-08
-5.5659166e-06 -7.3292126e-06 -9.813e-06 -1.0221122e-10
00000000: 9ed6 7fb5 7829 81b5 e41e fdb4 cc5e 9fb0
00000010: aee3 d4b0 72b1 6bb5 909e 51b5 9b67 a1b4
00000020: 749c 70b6 5311 32b2 12ad c8b4 3c77 a934
00000030: a0bf 0c34 e233 4eb7 0000 0000 5ef3 2d33
00000040: dcc2 bab6 75ed f5b6 84a2 24b7 cdc3 e0ae

exp_avg_sq f4 [20]
2.6135296e-12 1.914626e-11 1.248618e-10 1.2363153e-11 1.2645871e-14 1.9348603e-12 9.391044e-13 5.3701323e-12
3.8191506e-11 1.1070491e-12 3.5129417e-11 5.1276424e-11 3.0753922e-10 9.988412e-10 0.0 1.3233074e-14
3.2492214e-10 4.2864126e-09 1.380557e-10 2.5807457e-15
00000000: 2ae9 372c 8b69 a82d 7949 092f b17e 592d
00000010: c9ce 6328 5827 082c cd2a 842b daf1 bc2c
00000020: d0f7 272e a6cd 9b2b 3580 1a2e 1f84 612e
00000030: 4c12 a92f 9a47 8930 0000 0000 c862 6e28
00000040: baa0 b22f af47 9331 3acb 172f 5bf6 3927

exp_avg f4 [20]
-9.530721e-07 -9.62331e-07 -4.7147375e-07 -1.1595717e-09 -1.5489741e-09 -8.780253e-07 -7.8089306e-07 -3.006397e-07
-3.5853855e-06 -1.0364906e-08 -3.7378828e-07 3.1565457e-07 1.3108229e-07 -1.2290636e-05 0.0 4.0501046e-08
-5.565917e-06 -7.3292135e-06 -9.813e-06 -1.0221126e-10
00000000: 9ed6 7fb5 7129 81b5 dc1e fdb4 cd5e 9fb0
00000010: aee3 d4b0 70b1 6bb5 909e 51b5 9b67 a1b4
00000020: 749c 70b6 5711 32b2 12ad c8b4 3c77 a934
00000030: a0bf 0c34 e133 4eb7 0000 0000 5ff3 2d33
00000040: ddc2 bab6 77ed f5b6 84a2 24b7 d3c3 e0ae

exp_avg_sq f4 [20]
2.6135294e-12 1.914626e-11 1.2486182e-10 1.2363152e-11 1.2645872e-14 1.93486e-12 9.391045e-13 5.3701336e-12
3.8191512e-11 1.1070491e-12 3.5129406e-11 5.1276424e-11 3.0753924e-10 9.988411e-10 0.0 1.3233073e-14
3.2492212e-10 4.286414e-09 1.3805568e-10 2.580746e-15
00000000: 29e9 372c 8b69 a82d 7a49 092f b07e 592d
00000010: cbce 6328 5727 082c ce2a 842b ddf1 bc2c
00000020: d2f7 272e a6cd 9b2b 3280 1a2e 1f84 612e
00000030: 4d12 a92f 9947 8930 0000 0000 c762 6e28
00000040: b9a0 b22f b247 9331 38cb 172f 5cf6 3927

exp_avg f4 [2, 5]
-0.016011424 0.021158716 0.020944584 -0.018562663 1.3099169e-05 0.016011426 -0.021158716 -0.020944582
0.018562661 -1.3099169e-05
00000000: 642a 83bc 0b55 ad3c fa93 ab3c ba10 98bc
00000010: 81c4 5b37 652a 833c 0b55 adbc f993 abbc
00000020: b910 983c 81c4 5bb7

exp_avg_sq f4 [2, 5]
0.00026220005 0.0001477583 0.0002087472 0.00016474788 7.5512985e-10 0.00026220005 0.00014775831 0.0002087472
0.00016474788 7.551298e-10
00000000: e577 8939 91ef 1a39 26e3 5a39 2cc0 2c39
00000010: 8a91 4f30 e577 8939 92ef 1a39 26e3 5a39
00000020: 2cc0 2c39 8991 4f30

exp_avg f4 [2]
-0.28978488 0.28978485
00000000: af5e 94be ae5e 943e

exp_avg_sq f4 [2]
0.018533675 0.018533675
00000000: efd3 973c efd3 973c
