MimicApp/lightning_logs/version_5/checkpoints/epoch=9-step=129.ckpt (torch, 16172 bytes, 18 tensors)

lstm.weight_ih_l0 f4 [20, 34]
00000000: 386c c93d 04a3 5f3e 0aff bc3e 5c8d 443e
00000010: 8078 c33e 787e 0c3e b8e5 363e 54b2 923e
00000020: c89b 433d 7ce1 133e 38e4 2cbd 806c a5bb
00000030: c820 ff3d 04a5 53be 48d1 963d acd7 a03e
00000040: 38c5 933e e03d 32bc 54a6 c5bd 3ed9 a93e
00000050: f257 d33e a0f2 893d d632 0dbe a286 0dbe
00000060: 84fc 8abd 0806 9d3d 7339 b1be 6082 f53c
00000070: 1389 ccbe 2ad7 1abe 062e b73e 5692 0fbe
00000080: 6c0a 09be 2ebb dd3e 7c03 893e b824 34bd
00000090: 0060 d038 4805 683e 128b 8a3e 102b 773e
000000a0: 9ccb 743e b6ac c53e 00c8 573c 60d9 8c3e
000000b0: 2e39 1ebe 22a0 9c3e 0016 5d3d a0b1 e33e
000000c0: 94af 78be 227a c13e 2ae8 d63e 966f 89be
000000d0: 4a62 d33e 30c1 603d 6134 6dbe 7304 d5be
000000e0: d034 f23c 3bbd b2be 8ccb 72be f468 a3be
000000f0: a6f7 d0be 4852 2dbd 40a9 b0bc dc94 db3e
00000100: 1609 c53e b814 193e b83e b03e 10f1 8e3e
00000110: 151e 723d c7f0 96be 69af 953e e60d 03bc
00000120: 1c4c b7be 6f32 3cbe 2c37 c83e 945e a23e
00000130: eecc 64be 406f 5dbe 84d0 ad3e 4a5e fe3c
00000140: 758d 783e 883f 053e 90c6 72be 6965 7f3d
00000150: a0c0 763d 0092 a1bc e436 44be 5f49 b1be
00000160: f35d ae3e 7ec7 babe 15d2 623e 5502 bf3e
00000170: 92dd 813e 8904 3b3e 60dd 4abe 414a 4e3d
00000180: aa7a 8a3e 859a a8be cff7 123e ead8 65be
00000190: 2588 c03e 926c 8c3e 9603 e6bd ddff a63d
000001a0: e41d 883e ebd6 dbbc 1e23 a0be f37b 033e
000001b0: 6eb4 fb3d 50ca f63d fc64 90be daab 8f3e
000001c0: 92f5 cf3e 647d cb3d 9873 d73d 3ac1 153e
000001d0: 8518 8bbe 30a1 babe 9c56 573e 324d eabd
000001e0: d213 5cbe 1430 80bd a88a b43d e29d 0f3e
000001f0: c122 b4be 2166 d73e 6924 553e 58b4 c33e
00000200: 8d2a 5ebe 55e9 0d3e 7c2c a43e 1f34 41be
00000210: fe7a c8be 4343 e23e cb0a 32be 49a8 99bd
00000220: 7ddf 61be 4c8e 7f3e f0cf 8c3d c42d 7e3e
00000230: f0d2 bf3c 4a27 15be a623 cc3e 7641 6cbe
00000240: 1cc8 b33e 603f 2d3e 249c c63e e6ba 49be
00000250: 7338 75be 203a 83bd 5426 ba3e c0e6 463e
00000260: 0b4e e4be 25c1 d0be 7836 15be 3c06 8fbe
00000270: 80f7 723e 20de 223c d790 81be 7295 ae3e
00000280: 52af b23e 185d 6a3e e60a 81be 4805 de3d
00000290: 58cc bb3d b050 6bbd 36c0 83be 1905 d4be
000002a0: 28ac da3e a8ef 963e bb2c 49be 3dab acbe
000002b0: 480f d7be bca2 c73e 16dc ba3d 8438 9cbd
000002c0: 10b7 a9be d74c 80be e402 993d 8472 a73c
000002d0: 9599 41bc 079c ac3d 52d3 6c3e d3be 6f3e
000002e0: 41c0 0fbe 404b 84bd eb64 10be 21ed 8abe
000002f0: 3f0f 3d3d 72a5 78be 1c33 1b3e efa5 7e3d
00000300: 2f3c 83be fd35 9abe cfc4 9f3d 364c a73d
00000310: 36a4 d63e ca4b 9ebe 0452 ccbe 3ab5 ddbe
00000320: 0155 403d ac6a d7be 8e1a d0be 799b eb3d
00000330: 0075 95bc d44c 25be 9a8b 46be e6d4 a3be
00000340: 3020 2c3d 903f de3d 8a35 903e 88f5 993e
00000350: 18b2 82be 20f5 143e 94a7 c2bd c5b8 dabe
00000360: 18d9 ac3e 94fc 57be 36ed da3e e047 743c
00000370: bca8 033e c45b 8cbe f0bd 03bd a3d1 78be
00000380: 58e0 a63d 70f9 8ebd 521a 893e 833e d6be
00000390: 6ef7 df3e 2234 823e 1813 fabd 244d c23e
000003a0: f07a df3e 2898 c63e 801a 903e 6286 9c3e
000003b0: bc15 a43e 10eb c13e 6e28 203e 7f78 443e
000003c0: 1469 75bd b325 4d3e 59e2 55be 3ac2 96be
000003d0: 95c0 c3bd b8a0 e2bd 31e4 95be 1880 a3be
000003e0: 6eb0 5dbe 139b 333e 9f02 b1be 383b d8be
000003f0: 94ae 4dbd bfeb 493e dbd4 0a3e 276b febd
0.09835094 0.2183953 0.3691333 0.1919455 0.38177872 0.13720119 0.17861068 0.2865168
0.047755986 0.14441484 -0.042209834 -0.0050483346 0.124574244 -0.20668417 0.07364136 0.31414545
0.28861403 -0.01087901 -0.09650865 0.33173555 0.41278034 0.0673573 -0.13788924 -0.1382089
-0.06786445 0.07667166 -0.34614143 0.029969394 -0.3994833 -0.15121141 0.357773 -0.14020666
-0.13382882 0.4330687 0.2676047 -0.04398033 9.936094e-05 0.22658265 0.27059227 0.24137521
0.23905796 0.3860833 0.013170242 0.27509594 -0.154515 0.30590922 0.05397606 0.44471455
-0.24285728 0.37788492 0.41974002 -0.26842946 0.41285926 0.054871738 -0.23164512 -0.41604957
0.029566199 -0.34909996 -0.2371046 -0.3191601 -0.4081394 -0.042314798 -0.02156508 0.42887008
0.38483495 0.1494931 0.3442285 0.2791829 0.05911072 -0.29480574 0.2923539 -0.007998919
-0.35800254 -0.18378614 0.39104593 0.31712782 -0.223438 -0.2162447 0.33948147 0.03105082
0.24272712 0.13012516 -0.23708558 0.06235257 0.060242295 -0.019722939 -0.19161564 -0.3462629
0.34056053 -0.36480325 0.22150452 0.37306467 0.25364357 0.18263449 -0.1981101 0.050363783
0.2704671 -0.3293039 0.14352344 -0.22446027 0.3760387 0.27426583 -0.11231153 0.08154271
0.26585305 -0.02683588 -0.31276792 0.12840252 0.122902736 0.12050307 -0.28202045 0.280608
0.40617043 0.09936026 0.10520095 0.14624491 -0.27167144 -0.364511 0.21029133 -0.11440505
-0.21491936 -0.0625917 0.08815509 0.14025071 -0.35182765 0.42070106 0.2081467 0.3822353
-0.2169592 0.1385854 0.3206519 -0.18867539 -0.39156336 0.44191942 -0.1738693 -0.07502801
-0.2205791 0.24956626 0.068755984 0.24822146 0.023416013 -0.14565769 0.39870948 -0.23071846
0.3511361 0.16918707 0.38791 -0.19700202 -0.23947315 -0.06407571 0.36357367 0.19423962
-0.44590792 -0.40772358 -0.1457156 -0.27934444 0.23727226 0.009940654 -0.25305817 0.34098393
0.34899384 0.22887075 -0.25203627 0.10840851 0.09169835 -0.057449996 -0.25732583 -0.4141014
0.4270947 0.29479718 -0.1964597 -0.33724394 -0.42003846 0.38991344 0.09124009 -0.07627967
-0.33147478 -0.25058624 0.074712545 0.020440347 -0.011816402 0.08428197 0.23127487 0.23412637
-0.14038183 -0.06459665 -0.14100997 -0.2713404 0.046157118 -0.24281862 0.15156215 0.062169965
-0.25631854 -0.30119315 0.0780121 0.08168833 0.41922158 -0.30917197 -0.39906323 -0.43302327
0.046956066 -0.42073572 -0.4064526 0.115042634 -0.018244267 -0.16142589 -0.19389191 -0.31998366
0.042022884 0.10851967 0.28165847 0.30070138 -0.255265 0.14546633 -0.09504619 -0.42719093
0.3375938 -0.21092445 0.42759103 0.014909714 0.12857336 -0.27413762 -0.03216356 -0.2429872
0.08148259 -0.0698117 0.26777893 -0.41844568 0.4374346 0.254304 -0.12210673 0.3794948
0.4364848 0.3878796 0.28145218 0.30571276 0.32047832 0.3787465 0.15640423 0.1918659
-0.059914663 0.20033912 -0.20887126 -0.29445058 -0.095582165 -0.11065811 -0.2927566 -0.31933665
-0.21649334 0.17539625 -0.34572312 -0.4223268 -0.05021532 0.19718836 0.1355776 -0.124227814

lstm.weight_hh_l0 f4 [20, 5]
00000000: aa4e 85be e842 94bd 68da 633e 7a2e dfbe
00000010: 7c3d 853e d08a a8be c0ae 5f3d 7a23 863e
00000020: a064 e03d 709f 9f3e 8976 aabc 1913 193d
00000030: 66f5 0dbe ca03 2b3e 5428 c4bc 49dc abbe
00000040: 2827 003e 1040 d7bc 68db c7bd 4be6 da3e
00000050: d86b c5be 2d8c 76be d865 eebd 1c90 97bd
00000060: 4802 8b3d 42a3 05be c765 523e 0f3e ad3e
00000070: c792 723d 16ff d23d 90ff 943e a0ec 973d
00000080: 27ea d2be 6084 003c 9c9d cd3e 8c5b 323e
00000090: bcc8 b43e 5dfe cbbe 9490 533e b9e4 e2be
000000a0: 969f 49be b070 e33d 88a0 e43d d4b5 4f3e
000000b0: 2457 c4be f350 0b3e f04b 003e 0935 873e
000000c0: a34d a0bd 571c d93c 06fe d03e 82ce 8b3e
000000d0: e705 95bc bd89 b83e 1766 7d3e a0bb 0abd
000000e0: 025f a63e debc 953e bf7d 96be 006c d739
000000f0: a71a f73d 9d14 923e 7466 da3e 0eb4 6abe
00000100: 7f5c a13e 3040 8fbe a587 c9be 26ed 47be
00000110: b016 6f3d 78f7 f3bd dc99 d13e f082 a1bc
00000120: 3092 973e 486e 783e 0067 06bb 3082 92be
00000130: 9056 b7be 0476 2ebe 8c4e 48be 004c a33e
00000140: a747 71be f98e 2cbe 1c43 9b3c d5c0 71be
00000150: 53e1 bcbe d3f7 d7be ec4d c33e 25c9 69be
00000160: 7c6d a23e dd73 36be 9422 c13e c043 99bd
00000170: 9222 05be 58d2 6abd 0088 d6bb fdb8 5f3d
00000180: d18e ae3d 3933 ac3e 20c8 993d 48f5 a13e
-0.26036578 -0.07239324 0.22251284 -0.43590146 0.2602347 -0.32918406 0.054610014 0.2619894
0.10956693 0.3117633 -0.020808475 0.03737173 -0.13863143 0.16700664 -0.023945011 -0.33566502
0.12514937 -0.026275665 -0.09758645 0.42753825 -0.3855884 -0.2407691 -0.11640519 -0.074005336
0.067875445 -0.13050559 0.20546637 0.3383641 0.05922201 0.1030256 0.2910123 0.074181795
-0.4119427 0.007844061 0.4015931 0.17417735 0.35309398 -0.398425 0.20660621 -0.44315127
-0.19689783 0.11105478 0.111634314 0.20284206 -0.38347733 0.13605098 0.12528968 0.2640765
-0.07827308 0.026502771 0.40818805 0.2730599 -0.018191291 0.36042586 0.24745975 -0.03387034
0.3249436 0.29245657 -0.29392812 0.00041088462 0.120656304 0.28531352 0.4265629 -0.22920248
0.3151588 -0.2797866 -0.393613 -0.19524059 0.058371246 -0.11912435 0.40937698 -0.019715756
0.2960372 0.24260819 -0.002050817 -0.2861495 -0.3580823 -0.17037207 -0.19561213 0.3189392
-0.2356249 -0.16851415 0.018952899 -0.23608716 -0.3689066 -0.42181262 0.38145387 -0.22830637
0.31724155 -0.17817636 0.37721694 -0.074836254 -0.13001469 -0.057329506 -0.006546974 0.054619778
0.08523334 0.3363283 0.07508874 0.31632447

lstm.bias_ih_l0 f4 [20]
00000000: 18d3 b43e ba48 d83e bf50 813e 651b 93bd
00000010: 809a 9ebb 0b27 253d 60a6 9fbc b3d8 b13d
00000020: ac04 743e 18eb 6cbe 5727 e7bd 9e8e a6be
00000030: 56d4 75be b44c 93be 4cad 553e acb3 6a3e
00000040: 6b20 aa3e eba8 76bd c6a3 4bbe 14df be3e
0.35317302 0.42242986 0.25256917 -0.071829595 -0.004840195 0.040320437 -0.019488513 0.0868391
0.23829907 -0.23136556 -0.112868 -0.32530683 -0.24006781 -0.28769457 0.20866889 0.22920102
0.33227858 -0.060219686 -0.19886693 0.3727957

lstm.bias_hh_l0 f4 [20]
00000000: 2c2e 3f3e 0acd ddbe 6bdf 3f3e 1686 c9be
00000010: 00d8 173e a38c 453d 3670 93be 4746 4bbd
00000020: 8046 873d 8712 d23e 7e9b 9abe d099 a53d
00000030: e787 c23e cead 62be 5eca 66be 78ac b3be
00000040: 4091 f8bd 24c4 c53e 2489 a93e 8f39 0e3e
0.18669957 -0.43320495 0.18737571 -0.39360112 0.14828491 0.048229825 -0.28796548 -0.04962757
0.06605244 0.4102976 -0.30196756 0.08085978 0.3799431 -0.22136614 -0.22538134 -0.3509252
-0.12137079 0.38626206 0.33112442 0.13889144

linear.weight f4 [2, 5]
00000000: 7c6f d33d 5055 a13e aa83 c5bc 694a 9dbe
00000010: 098e b7be cb0f ca3b cd2a 9cbd 8c13 bfbe
00000020: db31 05be fd29 1fbe
0.10323998 0.315104 -0.024110634 -0.30720833 -0.35850552 0.0061664334 -0.07625351 -0.373196
-0.130073 -0.15543361

linear.bias f4 [2]
00000000: 17af 00be dbfd aa3d
-0.12566791 0.083492

exp_avg f4 [20, 34]
00000000: 0000 0000 0000 0000 0000 0000 0000 0000
00000010: 0000 0000 0000 0000 0000 0000 0000 0000
00000020: 0000 0000 0000 0000 0000 0000 0000 0000
00000030: 0000 0000 0000 0000 0000 0000 0000 0000
00000040: 0000 0000 0000 0000 0000 0000 0000 0000
00000050: 0000 0000 0000 0000 0000 0000 0000 0000
00000060: 0000 0000 0000 0000 0000 0000 0000 0000
00000070: 0000 0000 0000 0000 0000 0000 0000 0000
00000080: 0000 0000 0000 0000 0000 0000 0000 0000
00000090: 0000 0000 0000 0000 0000 0000 0000 0000
000000a0: 0000 0000 0000 0000 0000 0000 0000 0000
000000b0: 0000 0000 0000 0000 0000 0000 0000 0000
000000c0: 0000 0000 0000 0000 0000 0000 0000 0000
000000d0: 0000 0000 0000 0000 0000 0000 0000 0000
000000e0: 0000 0000 0000 0000 0000 0000 0000 0000
000000f0: 0000 0000 0000 0000 0000 0000 0000 0000
00000100: 0000 0000 0000 0000 0000 0000 0000 0000
00000110: 15a4 07bb 3f74 18bb 51ec 69ba 8e1c 35bb
00000120: 3a4f f3ba 599a b5ba 7e7e bfb9 0000 0000
00000130: af3e 8037 4311 08ba 5f2c 8bb6 cb54 39b9
00000140: 7e04 6aba 6577 1abb 6565 eaba db79 b2b9
00000150: 75dc 0abb 562d 5ab9 0f73 27bb 1495 d3b7
00000160: 69a3 3cb8 954d 49bb f464 7bb8 9e6e 4eb8
00000170: 516a 67b8 885b cab8 9abe 7cb8 45a7 63b8
00000180: 954d 75ba 628d a9b9 28ef 31ba d6c3 25b9
00000190: 8dd3 83bb 556f 3cbb f3f1 013a e3e0 073a
000001a0: 6290 4f39 a340 133a 1cc8 b039 9c56 8439
000001b0: 7e9b fa38 0000 0000 c7d8 5238 ebf1 4539
000001c0: 0124 b435 b240 2738 a47c d239 d430 053a
000001d0: 8259 ae38 abc3 c538 8cf0 f739 6d8f 4d38
000001e0: 091b 043a 36f7 8b36 2213 2836 effd 7e3a
000001f0: 4e57 ea36 7026 2b37 bfa6 ac37 0cd9 e237
00000200: 3a65 b535 607e 3136 1a62 3739 79b2 6938
00000210: 0b6f 1239 ca52 4738 ba66 263a 51c4 c43a
00000220: 0000 0000 0000 0000 0000 0000 0000 0000
00000230: 0000 0000 0000 0000 0000 0000 0000 0000
00000240: 0000 0000 0000 0000 0000 0000 0000 0000
00000250: 0000 0000 0000 0000 0000 0000 0000 0000
00000260: 0000 0000 0000 0000 0000 0000 0000 0000
00000270: 0000 0000 0000 0000 0000 0000 0000 0000
00000280: 0000 0000 0000 0000 0000 0000 0000 0000
00000290: 0000 0000 0000 0000 0000 0000 0000 0000
000002a0: 0000 0000 0000 0000 b85d e938 148b 2039
000002b0: fa9f 7e38 9e9d 5939 4733 e338 68ff b238
000002c0: b811 3c38 0000 0000 3841 0237 93e8 3b38
000002d0: 7578 9235 6058 4a37 ae49 4438 0a86 2b39
000002e0: e6ee d637 cedd 5838 fe08 c438 4bd0 9737
000002f0: 1d39 2a39 ddba c435 e6ee 5635 4d8b 0d39
00000300: 0674 1636 1ac6 8636 e3c0 7436 5343 c836
00000310: e032 6835 0674 9635 f511 3438 e13e 6937
00000320: 4830 4b38 2365 7d37 7137 5039 927e 543a
00000330: 0000 0000 0000 0000 0000 0000 0000 0000
00000340: 0000 0000 0000 0000 0000 0000 0000 0000
00000350: 0000 0000 0000 0000 0000 0000 0000 0000
00000360: 0000 0000 0000 0000 0000 0000 0000 0000
00000370: 0000 0000 0000 0000 0000 0000 0000 0000
00000380: 0000 0000 0000 0000 0000 0000 0000 0000
00000390: 0000 0000 0000 0000 0000 0000 0000 0000
000003a0: 0000 0000 0000 0000 0000 0000 0000 0000
000003b0: 0000 0000 0000 0000 aa32 2dbb d5c4 2ebb
000003c0: 9095 82ba a12c 53bb 65ba 16bb b2be e2ba
000003d0: 216e 0aba 0000 0000 1c3c 3d38 5e16 27ba
000003e0: 004f 29b7 fd3a 51b9 6447 a8ba 1043 2fbb
000003f0: b451 1dbb 4fe7 d8b9 ef0e 22bb 2ead 6bb9
0.0 0.0 0.0 0.0 0.0 0.0 0.0 0.0
0.0 0.0 0.0 0.0 0.0 0.0 0.0 0.0
0.0 0.0 0.0 0.0 0.0 0.0 0.0 0.0
0.0 0.0 0.0 0.0 0.0 0.0 0.0 0.0
0.0 0.0 0.0 0.0 0.0 0.0 0.0 0.0
0.0 0.0 0.0 0.0 0.0 0.0 0.0 0.0
0.0 0.0 0.0 0.0 0.0 0.0 0.0 0.0
0.0 0.0 0.0 0.0 0.0 0.0 0.0 0.0
0.0 0.0 0.0 0.0 -0.0020697166 -0.0023262647 -0.00089234585 -0.0027635428
-0.001856304 -0.0013855203 -0.00036524603 0.0 1.5287978e-05 -0.00051905605 -4.1476883e-06 -0.00017674563
-0.0008927061 -0.00235697 -0.0017883001 -0.00034041595 -0.0021188532 -0.00020806989 -0.0025550758 -2.522258e-05
-4.497488e-05 -0.0030716409 -5.9937083e-05 -4.9217248e-05 -5.5173707e-05 -9.6491596e-05 -6.0258993e-05 -5.42768e-05
-0.0009357569 -0.0003233953 -0.0006787651 -0.00015808581 -0.0040230216 -0.0028752882 0.0004957013 0.0005183352
0.00019794845 0.00056172366 0.0003371843 0.0002524153 0.000119498916 0.0 5.026979e-05 0.00018877505
1.3421524e-06 3.9876155e-05 0.00040147186 0.00050808233 8.313639e-05 9.430138e-05 0.00047290733 4.9009384e-05
0.0005039429 4.171302e-06 2.5045088e-06 0.000972717 6.983907e-06 1.0201344e-05 2.0581645e-05 2.704237e-05
1.3515012e-06 2.6448615e-06 0.00017488786 5.5717745e-05 0.00013965012 4.75224e-05 0.0006347705 0.001501212
0.0 0.0 0.0 0.0 0.0 0.0 0.0 0.0
0.0 0.0 0.0 0.0 0.0 0.0 0.0 0.0
0.0 0.0 0.0 0.0 0.0 0.0 0.0 0.0
0.0 0.0 0.0 0.0 0.0 0.0 0.0 0.0
0.0 0.0 0.00011127762 0.000153106 6.070731e-05 0.0002075345 0.00010833755 8.5352745e-05
4.4839195e-05 0.0 7.763789e-06 4.4800876e-05 1.0912905e-06 1.2060715e-05 4.679866e-05 0.00016357764
2.5622034e-05 5.1704985e-05 9.347683e-05 1.8097597e-05 0.0001623374 1.4657522e-06 8.0068855e-07 0.00013498701
2.2419276e-06 4.0165733e-06 3.6471108e-06 5.968302e-06 8.650077e-07 1.1209638e-06 4.2932068e-05 1.3902522e-05
4.8443937e-05 1.5103523e-05 0.0001985708 0.00081060186 0.0 0.0 0.0 0.0
0.0 0.0 0.0 0.0 0.0 0.0 0.0 0.0
0.0 0.0 0.0 0.0 0.0 0.0 0.0 0.0
0.0 0.0 0.0 0.0 0.0 0.0 0.0 0.0
0.0 0.0 0.0 0.0 0.0 0.0 -0.0026427903 -0.0026667614
-0.0009962786 -0.0032222646 -0.0022999283 -0.0017299263 -0.0005280693 0.0 4.5117093e-05 -0.00063738774
-1.0091579e-05 -0.00019953768 -0.0012838659 -0.0026742853 -0.0024004998 -0.0004137107 -0.002472814 -0.00022475861

exp_avg_sq f4 [20, 34]
00000000: 0000 0000 0000 0000 0000 0000 0000 0000
00000010: 0000 0000 0000 0000 0000 0000 0000 0000
00000020: 0000 0000 0000 0000 0000 0000 0000 0000
00000030: 0000 0000 0000 0000 0000 0000 0000 0000
00000040: 0000 0000 0000 0000 0000 0000 0000 0000
00000050: 0000 0000 0000 0000 0000 0000 0000 0000
00000060: 0000 0000 0000 0000 0000 0000 0000 0000
00000070: 0000 0000 0000 0000 0000 0000 0000 0000
00000080: 0000 0000 0000 0000 0000 0000 0000 0000
00000090: 0000 0000 0000 0000 0000 0000 0000 0000
000000a0: 0000 0000 0000 0000 0000 0000 0000 0000
000000b0: 0000 0000 0000 0000 0000 0000 0000 0000
000000c0: 0000 0000 0000 0000 0000 0000 0000 0000
000000d0: 0000 0000 0000 0000 0000 0000 0000 0000
000000e0: 0000 0000 0000 0000 0000 0000 0000 0000
000000f0: 0000 0000 0000 0000 0000 0000 0000 0000
00000100: 0000 0000 0000 0000 0000 0000 0000 0000
00000110: 38d2 c036 dd0a cc36 4a88 7535 226b 0237
00000120: d04d 5936 d3d4 f635 b30b 2c34 0000 0000
00000130: a623 322f 55d8 ae34 fc69 2e2d 92fd 1833
00000140: 7680 6f35 0130 d536 c062 a436 e910 1434
00000150: ce39 8836 a4ef 5d33 193c f236 248b 6630
00000160: 7784 7231 28bb 0837 90e5 4b31 ae21 4031
00000170: ae0d b131 ed4e 3932 fd45 0732 8730 6631
00000180: bdd8 7435 c9ff ee33 d55e 1a35 fd4f b732
00000190: 4844 b137 946a aa36 1015 9b36 61db 9036
000001a0: ca8b 2e35 5522 d436 54aa 2536 dae0 8a35
000001b0: f50d 8f34 0000 0000 4f2a 0934 7542 4b35
000001c0: 9115 512e 7da0 e132 465b 5d36 cfc0 8636
000001d0: 36dc 0534 0c63 0734 448d 8036 bd3a 2b33
000001e0: 7f1c 8736 c0f0 8d2f 4bff 052f ad54 9b37
000001f0: 095a 8330 311b 0131 0b83 d231 2286 1f32
00000200: 60fc 902e 4bbe 852f 5665 1935 06bb 8433
00000210: 40d8 cb34 4d25 2433 396a fb36 e592 3138
00000220: 0000 0000 0000 0000 0000 0000 0000 0000
00000230: 0000 0000 0000 0000 0000 0000 0000 0000
00000240: 0000 0000 0000 0000 0000 0000 0000 0000
00000250: 0000 0000 0000 0000 0000 0000 0000 0000
00000260: 0000 0000 0000 0000 0000 0000 0000 0000
00000270: 0000 0000 0000 0000 0000 0000 0000 0000
00000280: 0000 0000 0000 0000 0000 0000 0000 0000
00000290: 0000 0000 0000 0000 0000 0000 0000 0000
000002a0: 0000 0000 0000 0000 4cf8 bf33 7faa 1d34
000002b0: 81ed c632 9dfa 9334 dcd1 ab33 58fb 3d33
000002c0: 2cb3 5632 0000 0000 24ad 9d30 e499 8032
000002d0: b3cb ef2c 526c 7b30 50e0 ef32 99db 2f34
000002e0: d885 8e31 bdb9 8532 0dee 8d33 5c64 0931
000002f0: 8a03 2d34 96e2 642d d885 8e2c 5669 2934
00000300: 1bac 0b2e c611 d82e f2ef ce2e d952 792f
00000310: e7ed 992c 1bac 0b2d c5bd 5a32 7e1e ba30
00000320: e374 7f32 1a29 bd30 1cc1 8534 6851 8236
00000330: 0000 0000 0000 0000 0000 0000 0000 0000
00000340: 0000 0000 0000 0000 0000 0000 0000 0000
00000350: 0000 0000 0000 0000 0000 0000 0000 0000
00000360: 0000 0000 0000 0000 0000 0000 0000 0000
00000370: 0000 0000 0000 0000 0000 0000 0000 0000
00000380: 0000 0000 0000 0000 0000 0000 0000 0000
00000390: 0000 0000 0000 0000 0000 0000 0000 0000
000003a0: 0000 0000 0000 0000 0000 0000 0000 0000
000003b0: 0000 0000 0000 0000 c46d af36 5175 b636
000003c0: 764c 4b35 7743 0137 986f 8436 3c5d 1d36
000003d0: 26dd 8334 0000 0000 74de 5531 ac4c ad34
000003e0: 7f0b a92e f9ed 0233 5d17 9c35 a22e b836
000003f0: beae a036 3dff 1834 0937 8036 c545 1d33
0.0 0.0 0.0 0.0 0.0 0.0 0.0 0.0
0.0 0.0 0.0 0.0 0.0 0.0 0.0 0.0
0.0 0.0 0.0 0.0 0.0 0.0 0.0 0.0
0.0 0.0 0.0 0.0 0.0 0.0 0.0 0.0
0.0 0.0 0.0 0.0 0.0 0.0 0.0 0.0
0.0 0.0 0.0 0.0 0.0 0.0 0.0 0.0
0.0 0.0 0.0 0.0 0.0 0.0 0.0 0.0
0.0 0.0 0.0 0.0 0.0 0.0 0.0 0.0
0.0 0.0 0.0 0.0 5.7465186e-06 6.0809384e-06 9.146794e-07 7.773548e-06
3.2380813e-06 1.8390368e-06 1.6023004e-07 0.0 1.620167e-10 3.2567428e-07 9.914288e-12 3.562088e-08
8.9221373e-07 6.353483e-06 4.899077e-06 1.3789726e-07 4.059845e-06 5.1673524e-08 7.2191583e-06 8.3871243e-10
3.5290932e-09 8.149807e-06 2.967088e-09 2.7958822e-09 5.152933e-09 1.0786363e-08 7.873948e-09 3.349699e-09
9.121248e-07 1.1129266e-07 5.750747e-07 2.1340378e-08 2.113184e-05 5.078802e-06 4.621812e-06 4.3170735e-06
6.502347e-07 6.322089e-06 2.468606e-06 1.0347242e-06 2.664598e-07 0.0 1.2774511e-07 7.57201e-07
4.7540253e-11 2.6266429e-08 3.2984694e-06 4.015957e-06 1.2466703e-07 1.2608888e-07 3.8311427e-06 3.9867462e-08
4.026631e-06 2.5818814e-10 1.2186978e-10 1.851687e-05 9.557094e-10 1.8787427e-09 6.1267023e-09 9.285516e-09
6.593193e-11 2.432777e-10 5.7144405e-07 6.1807484e-08 3.796904e-07 3.821815e-08 7.492749e-06 4.2336895e-05
0.0 0.0 0.0 0.0 0.0 0.0 0.0 0.0
0.0 0.0 0.0 0.0 0.0 0.0 0.0 0.0
0.0 0.0 0.0 0.0 0.0 0.0 0.0 0.0
0.0 0.0 0.0 0.0 0.0 0.0 0.0 0.0
0.0 0.0 8.9392955e-08 1.468379e-07 2.3158238e-08 2.756323e-07 8.000981e-08 4.4233587e-08
1.2497178e-08 0.0 1.1472463e-09 1.4971143e-08 6.8154037e-12 9.14672e-10 2.7925267e-08 1.6378034e-07
4.14796e-09 1.5567702e-08 6.609125e-08 1.9993172e-09 1.6113168e-07 1.3010612e-11 4.0507424e-12 1.5777673e-07
3.17578e-11 9.8257e-11 9.410418e-11 2.2675851e-10 4.374934e-12 7.93945e-12 1.2732419e-08 1.3541948e-09
1.48695305e-08 1.3763242e-09 2.4913686e-07 3.883779e-06 0.0 0.0 0.0 0.0
0.0 0.0 0.0 0.0 0.0 0.0 0.0 0.0
0.0 0.0 0.0 0.0 0.0 0.0 0.0 0.0
0.0 0.0 0.0 0.0 0.0 0.0 0.0 0.0
0.0 0.0 0.0 0.0 0.0 0.0 5.228185e-06 5.43768e-06
7.573466e-07 7.704707e-06 3.946898e-06 2.3449093e-06 2.4561558e-07 0.0 3.112203e-09 3.2279547e-07
7.687272e-11 3.048442e-08 1.1629705e-06 5.489056e-06 4.7887143e-06 1.4248958e-07 3.821104e-06 3.6617866e-08

exp_avg f4 [20, 5]
00000000: 0000 0000 0000 0000 0000 0000 0000 0000
00000010: 0000 0000 0000 0000 0000 0000 0000 0000
00000020: 0000 0000 0000 0000 0824 53b7 9387 82b7
00000030: 9ce2 fbb6 01cf 90ad 9387 8237 aa9e 1e36
00000040: 3d74 8a36 ac2f 5133 9c41 1f35 d84f 85b6
00000050: 0000 0000 0000 0000 0000 0000 0000 0000
00000060: 0000 0000 780e 17b6 dbe7 d635 3bbd 6233
00000070: f31b dcae e5d5 d6b5 0000 0000 0000 0000
00000080: 0000 0000 0000 0000 0000 0000 f404 aeb7
00000090: 3ff4 e2b7 c8c2 b3b7 dc49 10a8 3df4 e237
000000a0: 0000 0000 0000 0000 0000 0000 0000 0000
000000b0: 0000 0000 a332 06b6 eaa8 47b6 c2fa 3bb6
000000c0: c50d 0fb6 d4dc 3236 13d7 8b37 958b 7bb8
000000d0: 75ae 23b7 92dd 66b2 958b 7b38 0000 0000
000000e0: 0000 0000 0000 0000 0000 0000 0000 0000
000000f0: f91a 1f36 096b 5136 c3c2 21b6 7c0a 239e
00000100: 0c6b 51b6 0000 0000 0000 0000 0000 0000
00000110: 0000 0000 0000 0000 0000 0000 0000 0000
00000120: 0000 0000 0000 0000 0000 0000 0000 0000
00000130: 0000 0000 0000 0000 0000 0000 0000 0000
00000140: 2694 a938 8351 3db8 76d9 26b6 ac23 a034
00000150: d00a 2b38 b515 f6b9 a5ac 2eba 7359 a1b9
00000160: 7647 99b2 4da7 2e3a 0000 0000 0000 0000
00000170: 0000 0000 0000 0000 0000 0000 7099 bd36
00000180: bd10 a7b6 5d35 a0ac 9990 5c9d 95f2 a735
0.0 0.0 0.0 0.0 0.0 0.0 0.0 0.0
0.0 0.0 -1.2584969e-05 -1.556034e-05 -7.5067637e-06 -1.6462833e-11 1.556034e-05 2.363619e-06
4.1262524e-06 4.8704962e-08 5.932759e-07 -3.973004e-06 0.0 0.0 0.0 0.0
0.0 -2.2509175e-06 1.6011721e-06 5.279183e-08 -1.00094065e-10 -1.6006494e-06 0.0 0.0
0.0 0.0 0.0 -2.0744723e-05 -2.7055035e-05 -2.1429165e-05 -8.0096215e-15 2.7055032e-05
0.0 0.0 0.0 0.0 0.0 -1.999703e-06 -2.9751632e-06 -2.8011132e-06
-2.1316675e-06 2.6652606e-06 1.6670243e-05 -5.997306e-05 -9.756176e-06 -1.3438141e-08 5.997306e-05 0.0
0.0 0.0 0.0 0.0 2.3708546e-06 3.120573e-06 -2.4104236e-06 -8.631316e-21
-3.1205736e-06 0.0 0.0 0.0 0.0 0.0 0.0 0.0
0.0 0.0 0.0 0.0 0.0 0.0 0.0 0.0
8.086143e-05 -4.5137025e-05 -2.4862507e-06 2.9828277e-07 4.0779647e-05 -0.0004693695 -0.0006663299 -0.00030774958
-1.7844041e-08 0.0006662503 0.0 0.0 0.0 0.0 0.0 5.6505014e-06
-4.9789364e-06 -4.553398e-12 -2.9191513e-21 1.251307e-06

exp_avg_sq f4 [20, 5]
00000000: 0000 0000 0000 0000 0000 0000 0000 0000
00000010: 0000 0000 0000 0000 0000 0000 0000 0000
00000020: 0000 0000 0000 0000 783d 122f 829d 492f
00000030: 0ec3 8b2e 9008 241b 829d 492f 2f10 572f
00000040: c643 cc2f 3c9a 5127 9adf 8a2d 27e4 cc2f
00000050: 0000 0000 0000 0000 0000 0000 0000 0000
00000060: 0000 0000 c93e 062e 36f8 8d2d c553 8228
00000070: e86b b928 fa63 8d2d 0000 0000 0000 0000
00000080: 0000 0000 0000 0000 0000 0000 6e52 b42f
00000090: a49a 1930 0087 d72f f8db 5610 a49a 1930
000000a0: 0000 0000 0000 0000 0000 0000 0000 0000
000000b0: 0000 0000 eb0a 5c2d bef3 b72d bea6 612d
000000c0: 1bb9 022d 5656 9a2d 41f1 a330 6feb d531
000000d0: ecc0 892e 5231 952d c411 d631 0000 0000
000000e0: 0000 0000 0000 0000 0000 0000 0000 0000
000000f0: 4ce9 722e 8752 d12e 048d 9e2d 2816 3609
00000100: 8752 d12e 0000 0000 0000 0000 0000 0000
00000110: 0000 0000 0000 0000 0000 0000 0000 0000
00000120: 0000 0000 0000 0000 0000 0000 0000 0000
00000130: 0000 0000 0000 0000 0000 0000 0000 0000
00000140: 3a92 d931 2c8f b630 7d3c 032d 41fd 8e2d
00000150: 678c 0a32 8473 b333 caba 1c34 421f 2533
00000160: 290f f32d 16b0 1c34 0000 0000 0000 0000
00000170: 0000 0000 0000 0000 0000 0000 44c0 3d2f
00000180: 2951 0f2f 2275 901d 7d4d c205 7d83 242d
0.0 0.0 0.0 0.0 0.0 0.0 0.0 0.0
0.0 0.0 1.3300461e-10 1.8336802e-10 6.355637e-11 1.3568529e-22 1.8336802e-10 1.9559886e-10
3.715554e-10 2.9088187e-15 1.5788083e-11 3.7269496e-10 0.0 0.0 0.0 0.0
0.0 3.0523837e-11 1.6140072e-11 1.4469229e-14 2.0585923e-14 1.6074243e-11 0.0 0.0
0.0 0.0 0.0 3.280038e-10 5.5880833e-10 3.9204195e-10 4.2373516e-29 5.5880833e-10
0.0 0.0 0.0 0.0 0.0 1.2507976e-11 2.0912935e-11 1.28267934e-11
7.430746e-12 1.7546114e-11 1.1928379e-09 6.2258816e-09 6.2643085e-11 1.6961241e-11 6.2302394e-09 0.0
0.0 0.0 0.0 0.0 5.523164e-11 9.5188794e-11 1.8025144e-11 2.1917871e-33
9.5188794e-11 0.0 0.0 0.0 0.0 0.0 0.0 0.0
0.0 0.0 0.0 0.0 0.0 0.0 0.0 0.0
6.3321552e-09 1.3282935e-09 7.459919e-12 1.6255998e-11 8.064581e-09 8.356349e-08 1.4596586e-07 3.8445485e-08
2.7632634e-11 1.4592692e-07 0.0 0.0 0.0 0.0 0.0 1.7257756e-10
1.3034608e-10 3.8237595e-21 1.8272137e-35 9.351517e-12

exp_avg f4 [20]
00000000: 0000 0000 0000 0000 0b71 c8b7 6b9f b636
00000010: 0000 0000 e8ee d635 0000 0000 5f7e e4b7
00000020: 0000 0000 4e6d 48b6 cf01 7eb8 0000 0000
00000030: c295 4936 0000 0000 0000 0000 0000 0000
00000040: e7e7 06b9 2b39 35ba 0000 0000 77f3 f8b6
0.0 0.0 -2.3894498e-05 5.4425814e-06 0.0 1.6013773e-06 0.0 -2.7238564e-05
0.0 -2.9865946e-06 -6.0560003e-05 0.0 3.0038505e-06 0.0 0.0 0.0
-0.00012865626 -0.0006913121 0.0 -7.419319e-06

exp_avg_sq f4 [20]
00000000: 0000 0000 0000 0000 d572 3230 1597 0530
00000010: 0000 0000 da85 8e2d 0000 0000 6e71 1b30
00000020: 0000 0000 5bd4 bb2d 9822 d731 0000 0000
00000030: b375 d12e 0000 0000 0000 0000 0000 0000
00000040: 7cb9 6032 a6d1 2334 0000 0000 3e92 a32f
0.0 0.0 6.491921e-10 4.859982e-10 0.0 1.6202973e-11 0.0 5.6549865e-10
0.0 2.1353743e-11 6.2612564e-09 0.0 9.525127e-11 0.0 0.0 0.0
1.308069e-08 1.5256828e-07 0.0 2.9753439e-10

exp_avg f4 [20]
00000000: 0000 0000 0000 0000 0c71 c8b7 689f b636
00000010: 0000 0000 e8ee d635 0000 0000 5f7e e4b7
00000020: 0000 0000 4e6d 48b6 cd01 7eb8 0000 0000
00000030: c195 4936 0000 0000 0000 0000 0000 0000
00000040: e8e7 06b9 2a39 35ba 0000 0000 77f3 f8b6
0.0 0.0 -2.38945e-05 5.44258e-06 0.0 1.6013773e-06 0.0 -2.7238564e-05
0.0 -2.9865946e-06 -6.0559996e-05 0.0 3.0038502e-06 0.0 0.0 0.0
-0.00012865628 -0.000691312 0.0 -7.419319e-06

exp_avg_sq f4 [20]
00000000: 0000 0000 0000 0000 d672 3230 1397 0530
00000010: 0000 0000 db85 8e2d 0000 0000 6f71 1b30
00000020: 0000 0000 5ad4 bb2d 9622 d731 0000 0000
00000030: b175 d12e 0000 0000 0000 0000 0000 0000
00000040: 7db9 6032 a5d1 2334 0000 0000 3e92 a32f
0.0 0.0 6.4919214e-10 4.859981e-10 0.0 1.6202975e-11 0.0 5.654987e-10
0.0 2.1353742e-11 6.2612555e-09 0.0 9.525126e-11 0.0 0.0 0.0
1.3080691e-08 1.5256826e-07 0.0 2.9753439e-10

exp_avg f4 [2, 5]
00000000: 5a96 f4bd aa0d 42be 2447 66bd a62c 28ba
00000010: 60f2 3f3e 5896 f43d aa0d 423e 2547 663d
00000020: a82c 283a 60f2 3fbe
-0.1194274 -0.18950525 -0.05622019 -0.00064153445 0.18744802 0.11942738 0.18950525 0.056220192
0.00064153457 -0.18744802

exp_avg_sq f4 [2, 5]
00000000: 1255 083b ad4e 953b c4c6 363a e141 8535
00000010: d6f4 903b 1255 083b ad4e 953b c6c6 363a
00000020: e141 8535 d6f4 903b
0.002080266 0.004556498 0.00069723674 9.928445e-07 0.004423718 0.002080266 0.004556498 0.00069723686
9.928445e-07 0.004423718

exp_avg f4 [2]
00000000: 1b33 dcbe 1a33 dc3e
-0.4300774 0.43007737

exp_avg_sq f4 [2]
00000000: ee1b bf3c ee1b bf3c
0.023328748 0.023328748
