MimicApp/lightning_logs/version_3/checkpoints/epoch=9-step=129.ckpt (torch, 16172 bytes, 18 tensors)

lstm.weight_ih_l0 f4 [20, 34]
0.19184923 0.42806304 0.41922992 -0.0214279 0.03519377 -0.22754048 0.31636024 -0.05046445
0.18451458 0.40769112 0.025034726 -0.26731646 0.36323154 0.40682232 0.05268213 -0.23277092
-0.15139508 0.21089804 -0.18184105 0.44603378 0.013480037 0.06202984 -0.19778869 -0.06632179
-0.4396037 -0.11982691 -0.2753192 -0.31179595 0.14893132 -0.35310546 0.28611356 0.0015640557
0.3597036 0.19542545 0.32800597 -0.13583113 -0.21216889 0.32072264 0.4457151 -0.26255703
0.2614553 0.24755377 -0.014727914 0.10659394 -0.33416304 0.1012207 0.07566532 -0.20668228
-0.1311978 -0.2926355 -0.3824811 -0.099142395 0.34991384 -0.42246372 -0.072758086 0.18705013
-0.36986306 -0.41633555 0.19551837 -0.2943433 0.43137679 0.028331546 -0.42891556 0.14063135
0.4165351 0.30444133 -0.38568625 0.26235494 -0.36989832 0.19848534 -0.2020531 -0.35928214
-0.084128216 0.40071115 0.05015754 0.32849437 0.24243803 0.26249287 0.12841113 -0.07461739
0.048714783 -0.038793802 0.25831962 0.062037814 0.064606145 0.42180932 -0.31475863 -0.21444324
-0.4320881 0.06396566 0.3111016 0.10842492 0.080660194 -0.39743832 0.27102384 -0.059161354
-0.33197322 -0.054931674 -0.39579323 0.095335566 0.12823409 0.4225103 -0.070613354 0.13844407
-0.15491262 0.2141403 0.42952007 0.10291064 0.21415997 -0.06309545 0.08485222 -0.20467997
-0.37089083 -0.15706524 -0.229474 -0.03173524 -0.32872722 -0.333482 -0.4060314 -0.27953595
0.05063021 -0.12792704 0.28492498 0.1259138 -0.23258907 -0.41882914 -0.42459 -0.10389665
-0.28186303 0.23397946 0.09542686 0.41121244 -0.44192898 -0.40660167 -0.42686194 -0.288504
-0.41489592 0.115406774 -0.3538976 -0.40662068 0.010871445 -0.34452996 0.36218107 -0.3195618
-0.39534092 -0.4053936 0.3119488 -0.26938078 -0.052584123 0.36761254 0.4100838 0.123096295
0.3936626 -0.38262954 0.17774747 -0.06650727 0.41439912 0.2395553 0.32818574 -0.14508714
0.38358188 -0.30904153 -0.41435084 0.4245158 0.12958065 0.1797695 -0.16320756 -0.14156833
0.3839548 -0.42420253 -0.020707816 0.19812804 0.37637442 -0.15184242 0.14329046 -0.16983241
-0.10906625 -0.39631313 -0.4201834 0.29213226 -0.36034203 -0.027456284 0.40823317 -0.026084453
0.11076999 -0.36409327 0.17043352 -0.35075265 -0.05853194 -0.187047 -0.10690045 0.26074672
0.19575363 0.32174623 -0.40344042 0.19717437 -0.35649973 0.14628613 0.41997033 0.0064686537
-0.031740427 0.18814129 0.053337514 0.33012807 -0.24374875 -0.25637317 -0.37257835 -0.36564097
-0.30213118 -0.3192085 0.4458647 0.16747928 0.1591785 0.28957632 -0.27513725 0.40655768
-0.34068316 0.062305268 -0.048550516 -0.12030828 -0.29681274 -0.3772084 -0.4367819 -0.042550117
-0.4220148 -0.23022743 0.0500136 0.28410733 0.16056412 0.38972896 0.25084412 0.16017193
0.18460026 -0.07012539 0.12359136 0.23466817 0.2947401 -0.017740913 0.38404816 -0.24468748
-0.06418356 0.04884681 0.40638006 0.3241194 -0.0285995 -0.4331781 -0.3399206 -0.011594415
0.41775686 0.14023149 0.05377245 0.0319677 0.13448077 0.18035185 -0.34839678 0.4269737
00000000: 2074 443e 142b db3e 4ea5 d63e 9089 afbc
00000010: 5827 103d 5f00 69be f8f9 a13e d0b3 4ebd
00000020: 64f1 3c3e e4bc d03e a015 cd3c b4dd 88be
00000030: 7cf9 b93e 044b d03e 38c9 573d 805b 6ebe
00000040: 5007 1bbe a8f5 573e 8a34 3abe 8a5e e43e
00000050: 60db 5c3c 0013 7e3d 1e89 4abe b8d3 87bd
00000060: bc13 e1be d067 f5bd a3f6 8cbe b8a3 9fbe
00000070: 7481 183e 3dca b4be 7a7d 923e 0001 cd3a
00000080: 122b b83e 9c1d 483e 66f0 a73e 5117 0bbe
00000090: cd42 59be c235 a43e c534 e43e e06d 86be
000000a0: 78dd 853e bc7e 7d3e 594d 71bc ec4d da3d
000000b0: 6b17 abbe cc4c cf3d 6bf6 9a3d 85a4 53be
000000c0: b758 06be 52d4 95be 90d4 c3be 2b0b cbbd
000000d0: e827 b33e 2a4d d8be 3102 95bd 128a 3f3e
000000e0: b15e bdbe ef29 d5be f835 483e 2ab4 96be
000000f0: 6bdd dc3e 8f17 e83c d29a dbbe aa01 103e
00000100: 1744 d53e bcdf 9b3e ab78 c5be 6353 863e
00000110: 5063 bdbe be3f 4b3e 02e7 4ebe d4f3 b7be
00000120: 6a4b acbd 032a cd3e fe71 4d3d 6a30 a83e
00000130: ad41 783e 7765 863e 357e 033e 01d1 98bd
00000140: 2789 473d 40e6 1ebd 7842 843e 5d1b 7e3d
00000150: 3a50 843d 64f7 d73e 0b28 a1be 0297 5bbe
00000160: a73a ddbe 6e00 833d b548 9f3e e20d de3d
00000170: 2c31 a53d 097d cbbe a3c3 8a3e 2d53 72bd
00000180: 65f8 a9be 0900 61bd 69a5 cabe 4b3f c33d
00000190: cc4f 033e 4553 d83e bc9d 90bd 48c4 0d3e
000001a0: 6aa1 1ebe 9847 5b3e 0eea db3e d0c2 d23d
000001b0: c04c 5b3e 3038 81bd 00c7 ad3d a097 51be
000001c0: 67e5 bdbe b6d5 20be 3bfb 6abe d0fc 01bd
000001d0: ef4e a8be 27be aabe 59e3 cfbe 561f 8fbe
000001e0: a061 4f3d 4eff 02be b0e1 913e 8cef 003e
000001f0: d42b 6ebe c670 d6be dc63 d9be c4c7 d4bd
00000200: 5a50 90be 5098 6f3e 286f c33d 708a d23e
00000210: 8444 e2be 182e d0be a68d dabe ccb6 93be
00000220: 3d6d d4be 635a ec3d 1132 b5be 9630 d0be
00000230: 251e 323c 3b66 b0be cc6f b93e 9b9d a3be
00000240: 206a cabe c08f cfbe c1b7 9f3e 47ec 89be
00000250: 7362 57bd b637 bc3e 81f6 d13e e919 fc3d
00000260: 258e c93e 05e8 c3be 6f03 363e f734 88bd
00000270: 1f2c d43e fc4d 753e f607 a83e b991 14be
00000280: d864 c43e b13a 9ebe cb25 d4be 235a d93e
00000290: cab0 043e 7f15 383e e21f 27be 4af7 10be
000002a0: b995 c43e 1331 d9be 70a3 a9bc 14e2 4a3e
000002b0: 26b4 c03e 947c 1bbe bcba 123e 8ce8 2dbe
000002c0: 205e dfbd 8ee9 cabe 4722 d7be 5c92 953e
000002d0: c07e b8be 00ec e0bc f003 d13e 10af d5bc
000002e0: 60db e23d 6f6a babe 2086 2e3e da95 b3be
000002f0: 30bf 6fbd 4089 3fbe a0ee dabd 9880 853e
00000300: a473 483e ecbb a43e be8f cebe 14e8 493e
00000310: 2287 b6be 08cc 153e 5a06 d73e 00f7 d33b
00000320: 4002 02bd 1ca8 403e 7078 5a3d 8c06 a93e
00000330: 4699 79be 5843 83be 97c2 bebe 4b35 bbbe
00000340: f0b0 9abe 4c6f a3be 6148 e43e b07f 2b3e
00000350: b0ff 223e 5943 943e cade 8cbe 5428 d03e
00000360: 066e aebe cf33 7f3d e8dc 46bd 3064 f6bd
00000370: d7f7 97be 7621 c1be e1a1 dfbe 0849 2ebd
00000380: 5312 d8be bdc0 6bbe 10db 4c3d 8476 913e
00000390: ec6a 243e 8e8a c73e a46e 803e 1c04 243e
000003a0: da07 3d3e e79d 8fbd 781d fd3d da4c 703e
000003b0: 2de8 963e 6455 91bc f6a1 c43e 5b8f 7abe
000003c0: ac72 83bd 9813 483d 0c11 d03e faf2 a53e
000003d0: 8049 eabc 85c9 ddbe 130a aebe 80f6 3dbc
000003e0: 3ae4 d53e d898 0f3e 8040 5c3d 90f0 023d
000003f0: 54b5 093e 28ae 383e 1061 b2be 4c9c da3e

lstm.weight_hh_l0 f4 [20, 5]
0.19616205 -0.2291692 -0.42725554 -0.05201876 0.2541086 -0.1021881 -0.05334991 -0.33721998
0.28817517 -0.34340423 0.15409344 0.04009332 0.26353455 -0.17943272 0.38475442 -0.43441018
-0.26156926 0.069859385 0.4218347 0.021199733 -0.28887483 0.27130228 0.10356652 0.28287357
-0.26375955 -0.2035675 -0.29592288 0.38088447 -0.10164121 0.09701049 0.017794847 0.3348081
0.29056352 -0.38456804 0.36911386 -0.37285453 -0.36515835 0.22947615 0.2865396 -0.25192454
-0.38455802 0.32014346 -0.40509903 0.11891371 -0.18395323 0.263224 -0.32945505 0.4456857
0.35942435 -0.21830001 -0.35622528 -0.4300624 0.013447591 0.41703516 -0.34321448 -0.26104635
-0.19230342 -0.37164983 0.010757983 -0.43070105 -0.4386763 0.41602874 0.24022841 0.2594937
-0.042642087 0.40694684 0.071030915 -0.15904525 0.17439443 -0.030046165 0.41609728 -0.2941357
-0.3612382 0.18986869 -0.26365203 0.4196425 -0.34252805 0.43534908 -0.17069605 0.19711116
0.32560804 -0.30660316 -0.109655485 0.38351637 0.14003535 -0.029468864 0.24819863 -0.37645036
-0.11406025 -0.053765863 0.010416836 -0.3644728 -0.3354866 0.35593837 -0.15802875 0.43153426
0.11042821 -0.076735444 -0.3337442 0.06250719
00000000: b4de 483e 55ab 6abe 3dc1 dabe a011 55bd
00000010: 861a 823e ff47 d1bd 6f85 5abd 19a8 acbe
00000020: b28b 933e aed2 afbe acca 1d3e e538 243d
00000030: 00ee 863e 36bd 37be 88fe c43e 036b debe
00000040: 68ec 85be 7012 8f3d b8fa d73e 10ab ad3c
00000050: 67e7 93be 22e8 8a3e af1a d43d ced4 903e
00000060: 7e0b 87be 0074 50be 3483 97be 4a03 c33e
00000070: 4429 d0bd 70ad c63d 80c6 913c f86b ab3e
00000080: bec4 943e 1ae6 c4be 7efc bc3e cae6 bebe
00000090: 09f6 babe ccfb 6a3e 52b5 923e 41fc 80be
000000a0: cae4 c4be d8e9 a33e 2469 cfbe 0889 f33d
000000b0: 3c5e 3cbe 4cc5 863e 55ae a8be eb30 e43e
000000c0: 7806 b83e 0a8a 5fbe 2963 b6be 2431 dcbe
000000d0: 4953 5c3c a285 d53e cfb9 afbe dea7 85be
000000e0: 30eb 44be e348 bebe 4042 303c d984 dcbe
000000f0: 2e9a e0be b801 d53e 70fe 753e 5cdc 843e
00000100: 78a9 2ebd 565b d03e a878 913d c2dc 22be
00000110: 7494 323e 6023 f6bc b40a d53e f498 96be
00000120: 37f4 b8be f06c 423e 66fd 86be 62db d63e
00000130: d65f afbe 13e6 de3e f2ca 2ebe 82d7 493e
00000140: 19b6 a63e 17fb 9cbe 0e93 e0bd 425c c43e
00000150: 6d65 0f3e b068 f1bc c827 7e3e 1abe c0be
00000160: 6c98 e9bd 9839 5cbd 60ab 2a3c 2e9c babe
00000170: e6c4 abbe 8e3d b63e 4ad2 21be 0ff2 dc3e
00000180: 2f28 e23d 7927 9dbd 85e0 aabe c503 803d

lstm.bias_ih_l0 f4 [20]
-0.31092638 0.31948593 0.24873984 0.44100994 -0.31497657 -0.009491026 0.36000758 -0.31282616
-0.11359149 -0.08430102 0.34290934 -0.32117546 0.2769289 -0.3441781 0.006807357 -0.25007325
-0.13083667 -0.2590208 0.0947932 0.28487808
00000000: be31 9fbe a993 a33e a8b5 7e3e 0ecc e13e
00000010: 9c44 a1be 4080 1bbc ea52 b83e c02a a0be
00000020: a8a2 e8bd 03a6 acbd d091 af3e 1c71 a4be
00000030: a0c9 8d3e 1d38 b0be 4010 df3b 9a09 80be
00000040: 0cfa 05be 609e 84be f022 c23d 8adb 913e

lstm.bias_hh_l0 f4 [20]
-0.2548449 -0.02820356 0.17490952 -0.23599939 0.0053117457 0.356578 0.005108487 -0.12023875
0.2603436 -0.20482823 0.27341324 -0.33620572 0.14226454 -0.061348736 0.38437396 -0.02915535
-0.34669077 -0.14184377 -0.3717965 -0.30698693
00000000: 087b 82be 270b e7bc 7b1b 333e d3a9 71be
00000010: 270e ae3b 6491 b63e 1865 a73b bc3f f6bd
00000020: c24b 853e 7ebe 51be d2fc 8b3e 2823 acbe
00000030: ccad 113e d048 7bbd aacc c43e 33d7 eebc
00000040: 7481 b1be 7e3f 11be 1c5c bebe 642d 9dbe

linear.weight f4 [2, 5]
0.20596923 0.41845906 -0.37287512 0.4273398 0.06339031 -0.045515265 -0.1848972 -0.38435557
0.24072891 0.21941105
00000000: 99e9 523e 4440 d63e 7de9 bebe 48cc da3e
00000010: c7d2 813d 376e 3abd b155 3dbe 41ca c4be
00000020: a481 763e 4aad 603e

linear.bias f4 [2]
0.44309345 -0.43955988
00000000: 25dd e23e fe0d e1be

exp_avg f4 [20, 34]
0.0 0.0 0.0 0.0 0.0 0.0 0.0 0.0
0.0 0.0 0.0 0.0 0.0 0.0 0.0 0.0
0.0 0.0 0.0 0.0 0.0 0.0 0.0 0.0
0.0 0.0 0.0 0.0 0.0 0.0 0.0 0.0
0.0 0.0 -0.045441568 -0.047417615 -0.018103566 -0.05420487 -0.036063846 -0.032641396
-0.009675982 0.0 -0.00051069417 -0.012703613 -0.00028586594 -0.003638817 -0.022402376 -0.044840842
-0.012683531 -0.012071817 -0.03253288 -0.004287002 -0.050944544 -0.00052640523 -0.0005755069 -0.05979339
-0.0008788777 -0.0010035435 -0.0017862726 -0.0019185158 -0.0003231423 -0.001208517 -0.015961476 -0.0053097107
-0.015539805 -0.005712022 -0.17362045 -0.108844884 -6.072593e-05 -6.4823864e-05 -2.4476505e-05 -7.953767e-05
-5.8814334e-05 -4.2166183e-05 -1.3807561e-05 0.0 1.1346414e-06 -1.2440983e-05 -3.615288e-07 -4.9730297e-06
-2.1757596e-05 -6.0936414e-05 -4.62514e-05 -1.1209344e-05 -4.4213022e-05 -5.2591063e-06 -6.927428e-05 -6.7629225e-07
-1.584007e-06 -6.910442e-05 -1.2595098e-06 -1.1207918e-06 -8.110376e-07 -2.3201328e-06 -5.4064316e-07 -1.5017564e-06
-2.2120908e-05 -7.737594e-06 -2.9649636e-05 -1.0399333e-05 -0.0001562215 -6.800423e-05 1.9063315e-24 1.6523902e-24
6.059861e-25 2.0690212e-24 1.6612811e-24 1.3580754e-24 3.2295238e-25 0.0 -1.006302e-25 3.9679933e-25
1.4446629e-26 1.2034183e-25 1.0362211e-24 1.6571114e-24 2.425948e-25 1.9121179e-25 1.1480674e-24 1.3556193e-25
1.8414343e-24 1.6502224e-26 1.2858485e-26 2.0564724e-24 5.647818e-26 2.0775106e-26 6.1736026e-26 6.4827517e-26
1.1440833e-26 1.5430068e-26 6.199166e-25 2.1068872e-25 7.372083e-25 1.454285e-25 2.2149767e-24 1.0216462e-24
-0.00092107325 -0.001484697 -0.0005452388 -0.00199329 -0.0012738878 -0.00089672155 -0.0003030538 0.0
-3.93202e-05 -0.00039659796 -9.175337e-06 -0.000111620364 -0.00067424204 -0.0014786649 -0.00046167758 -0.0005910247
-0.0009350417 -0.00012725644 -0.0015576629 -2.5033356e-05 -1.1154321e-05 -0.0017000593 -2.4491736e-05 -3.492154e-05
-5.4449076e-05 -6.680987e-05 -3.5899875e-06 -2.7217018e-05 -0.0005512894 -0.00018438835 -0.00045406786 -0.00013367257
-0.003997184 -0.0041307635 0.0 0.0 0.0 0.0 0.0 0.0
0.0 0.0 0.0 0.0 0.0 0.0 0.0 0.0
0.0 0.0 0.0 0.0 0.0 0.0 0.0 0.0
0.0 0.0 0.0 0.0 0.0 0.0 0.0 0.0
0.0 0.0 0.0 0.0 -1.16467825e-11 -9.423746e-12 -3.6834767e-12 -1.21300504e-11
-8.022266e-12 -6.282498e-12 -1.5947878e-12 0.0 -2.7969283e-13 -2.706306e-12 -3.866152e-14 -7.143742e-13
-4.522205e-12 -9.472069e-12 -7.7323044e-13 -1.933076e-12 -6.765765e-12 -7.538997e-13 -1.0148649e-11 -8.698842e-14
-4.8326902e-14 -1.0438738e-11 -7.732626e-14 -1.9330761e-13 -2.7063066e-13 -3.3828875e-13 -4.8326902e-14 -6.7657665e-14
-2.4574236e-12 -8.262684e-13 -2.6869754e-12 -8.7954985e-13 -7.770965e-11 -2.764299e-11 0.0 0.0
0.0 0.0 0.0 0.0 0.0 0.0 0.0 0.0
0.0 0.0 0.0 0.0 0.0 0.0 0.0 0.0
00000000: 0000 0000 0000 0000 0000 0000 0000 0000
00000010: 0000 0000 0000 0000 0000 0000 0000 0000
00000020: 0000 0000 0000 0000 0000 0000 0000 0000
00000030: 0000 0000 0000 0000 0000 0000 0000 0000
00000040: 0000 0000 0000 0000 0000 0000 0000 0000
00000050: 0000 0000 0000 0000 0000 0000 0000 0000
00000060: 0000 0000 0000 0000 0000 0000 0000 0000
00000070: 0000 0000 0000 0000 0000 0000 0000 0000
00000080: 0000 0000 0000 0000 f020 3abd f938 42bd
00000090: ee4d 94bc ed05 5ebd afb7 13bd fcb2 05bd
000000a0: 0388 1ebc 0000 0000 1be0 05ba d122 50bc
000000b0: 47e0 95b9 3879 6ebb 3085 b7bc 08ab 37bd
000000c0: 96ce 4fbc dfc8 45bc 3241 05bd fb79 8cbb
000000d0: 3aab 50bd 75fe 09ba 9ddd 16ba eae9 74bd
000000e0: 7c64 66ba 5589 83ba 5d21 eaba b576 fbba
000000f0: 6d6b a9b9 1a67 9eba a4c1 82bc 15fd adbb
00000100: ab9a 7ebc ea2b bbbb 8fc9 31be 11ea debd
00000110: f9b3 7eb8 0cf2 87b8 e552 cdb7 76cd a6b8
00000120: 69af 76b8 98db 30b8 06a7 67b7 0000 0000
00000130: fb49 9835 9db9 50b7 2418 c2b4 00de a6b6
00000140: 1584 b6b7 fa95 7fb8 10fe 41b8 c40f 3cb7
00000150: 5f71 39b8 6177 b0b6 5947 91b8 738a 35b5
00000160: 119a d4b5 27ec 90b8 6d0c a9b5 1d6e 96b5
00000170: 14b6 59b5 94b3 1bb6 b720 11b5 f58f c9b5
00000180: 4a90 b9b7 b7d0 01b7 1cb8 f8b7 cc78 2eb7
00000190: 64cf 23b9 7e9d 8eb8 c97e 1318 ebb1 ff17
000001a0: 2a8b 3b17 3015 2018 1089 0018 e926 d217
000001b0: d9e5 c716 0000 0000 f725 f995 5d9b f516
000001c0: 8e12 8f14 d9f9 1416 f258 a017 7936 0018
000001d0: ae28 9616 6fb5 6c16 a3a7 b117 4ad1 2716
000001e0: 5d79 0e18 1c6e a314 44b0 7e14 a21c 1f18
000001f0: 4dd5 8b15 27bf cd14 dbd9 9815 5281 a015
00000200: ea9b 6214 dfcf 9814 dada 3f17 f668 8216
00000210: a927 6417 2208 3416 2260 2b18 9317 9e17
00000220: 2e74 71ba 2a9a c2ba 5bee 0eba dba1 02bb
00000230: 95f8 a6ba f711 6bba 31e3 9eb9 0000 0000
00000240: beeb 24b8 7aee cfb9 c6ef 19b7 ba15 eab8
00000250: 9ebf 30ba c3cf c1ba 510d f2b9 ffee 1aba
00000260: 961d 75ba 2470 05b9 7e2a ccba b9fe d1b7
00000270: 7223 3bb7 86d4 deba 9a73 cdb7 b878 12b8
00000280: 4060 64b8 471c 8cb8 84eb 70b6 1a50 e4b7
00000290: 6884 10ba 5f58 41b9 f50f eeb9 752a 0cb9
000002a0: cffa 82bb 5b5b 87bb 0000 0000 0000 0000
000002b0: 0000 0000 0000 0000 0000 0000 0000 0000
000002c0: 0000 0000 0000 0000 0000 0000 0000 0000
000002d0: 0000 0000 0000 0000 0000 0000 0000 0000
000002e0: 0000 0000 0000 0000 0000 0000 0000 0000
000002f0: 0000 0000 0000 0000 0000 0000 0000 0000
00000300: 0000 0000 0000 0000 0000 0000 0000 0000
00000310: 0000 0000 0000 0000 0000 0000 0000 0000
00000320: 0000 0000 0000 0000 0000 0000 0000 0000
00000330: 72e4 4cad c7c8 25ad cf99 81ac e464 55ad
00000340: 1321 0dad b60b ddac 4972 e0ab 0000 0000
00000350: fc73 9daa 7a70 3eac b31d 2ea9 1614 49ab
00000360: 671c 9fac 68a2 26ad 20a5 59ab 3407 08ac
00000370: 980c eeac 3334 54ab 7489 32ad 69e1 c3a9
00000380: 20a5 59a9 e6a3 37ad 8e1f aea9 20a5 59aa
00000390: fd59 98aa 8c70 beaa 20a5 59a9 fd59 98a9
000003a0: 02ed 2cac ea92 68ab 3f14 3dac 3f92 77ab
000003b0: a5e2 aaae 7b26 f3ad 0000 0000 0000 0000
000003c0: 0000 0000 0000 0000 0000 0000 0000 0000
000003d0: 0000 0000 0000 0000 0000 0000 0000 0000
000003e0: 0000 0000 0000 0000 0000 0000 0000 0000
000003f0: 0000 0000 0000 0000 0000 0000 0000 0000

exp_avg_sq f4 [20, 34]
0.0 0.0 0.0 0.0 0.0 0.0 0.0 0.0
0.0 0.0 0.0 0.0 0.0 0.0 0.0 0.0
0.0 0.0 0.0 0.0 0.0 0.0 0.0 0.0
0.0 0.0 0.0 0.0 0.0 0.0 0.0 0.0
0.0 0.0 0.00045323474 0.0004937289 7.193004e-05 0.0006563177 0.0002931081 0.00024319085
2.0445308e-05 0.0 3.8582232e-07 3.4952707e-05 2.093308e-08 2.9058435e-06 0.000110170666 0.00043116414
4.410341e-05 5.2831554e-05 0.00024772147 4.049561e-06 0.0005709715 7.777759e-08 1.1890825e-07 0.0008265768
1.7788123e-07 2.2517665e-07 7.336903e-07 8.0160606e-07 2.4351063e-08 3.1208032e-07 5.593243e-05 6.119922e-06
5.6589597e-05 7.697086e-06 0.00670199 0.0026558808 2.4623852e-09 2.670808e-09 3.8344353e-10 3.999931e-09
2.1815354e-09 1.1338249e-09 1.3361344e-10 0.0 1.856445e-12 9.7507544e-11 7.960562e-14 1.5845691e-11
2.9078895e-10 2.4547646e-09 1.6602455e-09 1.2779228e-10 1.2282394e-09 1.7566329e-11 3.0407914e-09 3.216222e-13
1.6416486e-12 3.018674e-09 1.0332865e-12 8.2341214e-13 5.829087e-13 3.3756652e-12 2.7034416e-13 1.4707848e-12
3.1371267e-10 3.810126e-11 6.237646e-10 6.944366e-11 1.5596688e-08 3.257543e-09 0.0 0.0
0.0 0.0 0.0 0.0 0.0 0.0 0.0 0.0
0.0 0.0 0.0 0.0 0.0 0.0 0.0 0.0
0.0 0.0 0.0 0.0 0.0 0.0 0.0 0.0
0.0 0.0 0.0 0.0 0.0 0.0 0.0 0.0
9.018303e-07 2.1176822e-06 2.86198e-07 3.2835594e-06 1.148532e-06 6.4707604e-07 8.119591e-08 0.0
7.213584e-09 1.3379447e-07 9.291868e-11 1.1986451e-08 4.0352782e-07 2.0797268e-06 3.2428477e-07 1.147933e-06
8.9682686e-07 1.4508805e-08 2.530596e-06 8.4914364e-10 8.69165e-11 3.684136e-06 5.25917e-10 1.2292957e-09
3.4043652e-09 4.8128177e-09 4.609784e-11 5.391577e-10 2.4672516e-07 2.728735e-08 1.9165024e-07 2.498729e-08
1.2040047e-05 1.3409833e-05 0.0 0.0 0.0 0.0 0.0 0.0
0.0 0.0 0.0 0.0 0.0 0.0 0.0 0.0
0.0 0.0 0.0 0.0 0.0 0.0 0.0 0.0
0.0 0.0 0.0 0.0 0.0 0.0 0.0 0.0
0.0 0.0 0.0 0.0 5.9610606e-22 3.9026418e-22 5.962487e-23 6.4660174e-22
2.8281709e-22 1.7345075e-22 1.1176801e-23 0.0 3.4378213e-25 3.2185885e-23 6.568549e-27 2.242658e-24
8.98697e-23 3.9427674e-22 2.6274196e-24 1.6421369e-23 2.0116182e-22 2.497691e-24 4.5261396e-22 3.325327e-26
1.0263358e-26 4.7885907e-22 2.627638e-26 1.6421372e-25 3.2185885e-25 5.029059e-25 1.0263358e-26 2.0116178e-26
2.653796e-23 3.0001958e-24 3.1727727e-23 3.3996347e-24 2.6537594e-20 3.3580065e-21 0.0 0.0
0.0 0.0 0.0 0.0 0.0 0.0 0.0 0.0
0.0 0.0 0.0 0.0 0.0 0.0 0.0 0.0
00000000: 0000 0000 0000 0000 0000 0000 0000 0000
00000010: 0000 0000 0000 0000 0000 0000 0000 0000
00000020: 0000 0000 0000 0000 0000 0000 0000 0000
00000030: 0000 0000 0000 0000 0000 0000 0000 0000
00000040: 0000 0000 0000 0000 0000 0000 0000 0000
00000050: 0000 0000 0000 0000 0000 0000 0000 0000
00000060: 0000 0000 0000 0000 0000 0000 0000 0000
00000070: 0000 0000 0000 0000 0000 0000 0000 0000
00000080: 0000 0000 0000 0000 23a0 ed39 966d 013a
00000090: 25d9 9638 bc0c 2c3a 4eac 9939 0c01 7f39
000000a0: f781 ab37 0000 0000 0423 cf34 2f9a 1238
000000b0: 54d0 b332 0302 4336 6d0b e738 df0d e239
000000c0: adfb 3838 7397 5d38 9de0 8139 77e1 8736
000000d0: 40ad 153a af06 a733 805a ff33 a1ae 583a
000000e0: 9fff 3e34 16c8 7134 d0f2 4435 f32d 5735
000000f0: 8e2c d132 fe8b a734 fd98 6a38 bb59 cd36
00000100: 9e5a 6d38 bc22 0137 5e9c db3b 490e 2e3b
00000110: bd36 2931 5a89 3731 e1cc d22f c46f 8931
00000120: fae9 1531 ebd4 9b30 d7e8 122f 0000 0000
00000130: bda2 022c de6b d62e 8441 b329 5361 8b2d
00000140: e8dc 9f2f adb0 2831 b22e e430 5482 0c2f
00000150: d5ce a830 db83 9a2d 2bf6 5031 a50e b52a
00000160: a00a e72b 1371 4f31 126c 912b 19c5 672b
00000170: 0013 242b 948a 6d2c b330 982a 9bfe ce2b
00000180: 2277 ac2f 3592 272e 8875 2b30 4eb5 982e
00000190: 7bf9 8532 4ddb 5f31 0000 0000 0000 0000
000001a0: 0000 0000 0000 0000 0000 0000 0000 0000
000001b0: 0000 0000 0000 0000 0000 0000 0000 0000
000001c0: 0000 0000 0000 0000 0000 0000 0000 0000
000001d0: 0000 0000 0000 0000 0000 0000 0000 0000
000001e0: 0000 0000 0000 0000 0000 0000 0000 0000
000001f0: 0000 0000 0000 0000 0000 0000 0000 0000
00000200: 0000 0000 0000 0000 0000 0000 0000 0000
00000210: 0000 0000 0000 0000 0000 0000 0000 0000
00000220: 4e15 7235 811d 0e36 c1a6 9934 1f5b 5c36
00000230: 4227 9a35 bab2 2d35 ec5d ae33 0000 0000
00000240: 5bdb f731 25a9 0f34 9154 cc2e f8ec 4d32
00000250: 71a4 d834 6f91 0b36 5c19 ae34 ad12 9a35
00000260: 79bd 7035 6642 7932 4fd3 2936 2c69 6930
00000270: a421 bf2e f93c 7736 1e90 1030 fff3 a830
00000280: 3af2 6931 fe5d a531 8ebd 4a2e da33 1430
00000290: a675 8434 8465 ea32 6bc8 4d34 a2a3 d632
000002a0: 9cff 4937 cbfa 6037 0000 0000 0000 0000
000002b0: 0000 0000 0000 0000 0000 0000 0000 0000
000002c0: 0000 0000 0000 0000 0000 0000 0000 0000
000002d0: 0000 0000 0000 0000 0000 0000 0000 0000
000002e0: 0000 0000 0000 0000 0000 0000 0000 0000
000002f0: 0000 0000 0000 0000 0000 0000 0000 0000
00000300: 0000 0000 0000 0000 0000 0000 0000 0000
00000310: 0000 0000 0000 0000 0000 0000 0000 0000
00000320: 0000 0000 0000 0000 0000 0000 0000 0000
00000330: 7929 341c 75e6 eb1b 022a 901a 636c 431c
00000340: d3f3 aa1b 68b0 511b d630 5819 0000 0000
00000350: 74ca d416 32a4 1b1a 801a 0214 6b84 2d18
00000360: a64a d91a 5f53 ee1b 6849 4b18 57d1 9e19
00000370: 9130 731b de3f 4118 4fcb 081c 87a9 2415
00000380: 6849 4b14 edb9 101c 451d 0215 6849 4b16
00000390: 9238 c716 4fa4 1b17 6849 4b14 9238 c714
000003a0: 6754 001a 0021 6818 066d 191a 5a84 8318
000003b0: f7a3 fa1e 4bb9 7d1d 0000 0000 0000 0000
000003c0: 0000 0000 0000 0000 0000 0000 0000 0000
000003d0: 0000 0000 0000 0000 0000 0000 0000 0000
000003e0: 0000 0000 0000 0000 0000 0000 0000 0000
000003f0: 0000 0000 0000 0000 0000 0000 0000 0000

exp_avg f4 [20, 5]
0.0 0.0 0.0 0.0 0.0 1.5606908e-11 -0.0001916555 -0.0004649866
1.1904584e-29 0.00016629163 -3.59e-43 -4.0554025e-07 -4.0165087e-08 9.651012e-31 2.1709813e-12 0.0
8.5806196e-27 1.2889146e-30 0.0 -2.19284e-40 -3.1830612e-28 -9.2781065e-06 -1.1774255e-05 -2.4874e-41
1.8399894e-06 0.0 0.0 0.0 0.0 0.0 0.0 -6.5787e-14
-9.6653805e-14 8.313276e-36 5.3031986e-16 0.0 0.0 0.0 0.0 0.0
0.0 0.0 0.0 0.0 0.0 2.5021543e-20 -9.5648065e-14 -1.2558926e-13
0.0 8.9263923e-14 -9.27e-42 -5.973816e-23 -2.9554362e-11 0.0 2.9554244e-11 0.0
0.0 0.0 0.0 0.0 0.0 0.0 0.0 0.0
0.0 0.0 -1.8809996e-36 -1.349834e-39 0.0 0.0 0.0 0.0
0.0 0.0 0.0 -1.6537585e-06 2.4880024e-14 -3.799947e-06 0.0 -3.7681656e-07
6.2467737e-10 -6.243277e-06 2.8199988e-06 1.0596741e-30 6.305651e-08 0.0 0.0 0.0
0.0 0.0 0.0 2.12808e-40 2.77908e-40 0.0 -6e-45 2.4904703e-06
-4.4511708e-05 -0.0002563525 4.7715757e-30 0.00011861983
00000000: 0000 0000 0000 0000 0000 0000 0000 0000
00000010: 0000 0000 a247 892d 22f7 48b9 72c9 f3b9
00000020: 2274 710f 925e 2e39 0001 0080 07b9 d9b4
00000030: fb81 2cb3 bc98 9c0d ecc4 182c 0000 0000
00000040: e9f4 2914 6b23 d10d 0000 0000 4663 0280
00000050: 1fc0 c991 2aa9 1bb7 0a8a 45b7 5745 0080
00000060: 8ef5 f635 0000 0000 0000 0000 0000 0000
00000070: 0000 0000 0000 0000 0000 0000 a023 94a9
00000080: 20a5 d9a9 c8cd 3005 b3da 1826 0000 0000
00000090: 0000 0000 0000 0000 0000 0000 0000 0000
000000a0: 0000 0000 0000 0000 0000 0000 0000 0000
000000b0: 0000 0000 6152 ec1e 5b61 d7a9 a466 0daa
000000c0: 0000 0000 2601 c929 d719 0080 2170 909a
000000d0: 41fb 01ae 0000 0000 1ffb 012e 0000 0000
000000e0: 0000 0000 0000 0000 0000 0000 0000 0000
000000f0: 0000 0000 0000 0000 0000 0000 0000 0000
00000100: 0000 0000 0000 0000 8b04 2084 cab2 0e80
00000110: 0000 0000 0000 0000 0000 0000 0000 0000
00000120: 0000 0000 0000 0000 0000 0000 b6f6 ddb5
00000130: 6e19 e028 9802 7fb6 0000 0000 464d cab4
00000140: c3b5 2b30 577d d1b6 363f 3d36 24f1 ab0d
00000150: af69 8733 0000 0000 0000 0000 0000 0000
00000160: 0000 0000 0000 0000 0000 0000 3951 0200
00000170: b206 0300 0000 0000 0400 0080 f421 2736
00000180: 15b2 3ab8 0d67 86b9 e08e c10e 89c3 f838

exp_avg_sq f4 [20, 5]
0.0 0.0 0.0 0.0 0.0 2.877323e-18 7.831612e-09 5.112455e-08
0.0 8.781923e-09 0.0 1.1970493e-13 1.127033e-15 0.0 6.3606312e-24 0.0
0.0 0.0 0.0 0.0 0.0 1.0768421e-10 1.9231089e-10 0.0
2.7490902e-12 0.0 0.0 0.0 0.0 0.0 0.0 1.9020449e-26
4.105343e-26 0.0 1.1496355e-30 0.0 0.0 0.0 0.0 0.0
0.0 0.0 0.0 0.0 0.0 7.8963e-33 5.617471e-26 9.685128e-26
0.0 4.892513e-26 0.0 0.0 1.1273985e-21 0.0 1.1273339e-21 0.0
0.0 0.0 0.0 0.0 0.0 0.0 0.0 0.0
0.0 0.0 0.0 0.0 0.0 0.0 0.0 0.0
0.0 0.0 0.0 2.4865995e-11 1.5177866e-17 6.077057e-11 0.0 9.573838e-13
6.3686463e-18 2.7556277e-10 1.2908102e-10 0.0 2.6191963e-15 0.0 0.0 0.0
0.0 0.0 0.0 0.0 0.0 0.0 0.0 5.1197296e-11
4.907212e-10 1.7450521e-08 0.0 3.3150211e-09
00000000: 0000 0000 0000 0000 0000 0000 0000 0000
00000010: 0000 0000 184f 5422 cb8b 0632 0a94 5b33
00000020: 0000 0000 4edf 1632 0000 0000 99c6 062a
00000030: 2e6c a226 0000 0000 a410 f618 0000 0000
00000040: 0000 0000 0000 0000 0000 0000 0000 0000
00000050: 0000 0000 d2cc ec2e b472 532f 0000 0000
00000060: 3573 412c 0000 0000 0000 0000 0000 0000
00000070: 0000 0000 0000 0000 0000 0000 915e bc14
00000080: 6849 4b15 0000 0000 fe89 ba0d 0000 0000
00000090: 0000 0000 0000 0000 0000 0000 0000 0000
000000a0: 0000 0000 0000 0000 0000 0000 0000 0000
000000b0: 0000 0000 efff 230a f414 8b15 cbca ef15
000000c0: 0000 0000 f843 7215 0000 0000 0000 0000
000000d0: 1e5e aa1c 0000 0000 9e5b aa1c 0000 0000
000000e0: 0000 0000 0000 0000 0000 0000 0000 0000
000000f0: 0000 0000 0000 0000 0000 0000 0000 0000
00000100: 0000 0000 0000 0000 0000 0000 0000 0000
00000110: 0000 0000 0000 0000 0000 0000 0000 0000
00000120: 0000 0000 0000 0000 0000 0000 3eb9 da2d
00000130: b9fd 8b23 caa2 852e 0000 0000 63bd 862b
00000140: 2af6 ea22 037e 972f 14ed 0d2f 0000 0000
00000150: a5bb 3c27 0000 0000 0000 0000 0000 0000
00000160: 0000 0000 0000 0000 0000 0000 0000 0000
00000170: 0000 0000 0000 0000 0000 0000 082b 612e
00000180: 6fe3 0630 1ae6 9532 0000 0000 78ce 6331

exp_avg f4 [20]
0.0 -0.0004930006 -6.6888873e-07 1.67385e-26 -1.50577625e-05 0.0 -9.6653805e-14 0.0
0.0 -1.2558932e-13 -2.9554362e-11 0.0 0.0 -2.4742472e-36 0.0 3.8049943e-06
-1.10589735e-05 0.0 2.79426e-40 -0.00026823857
00000000: 0000 0000 b63c 01ba af8d 33b5 24c5 a514
00000010: 99a0 7cb7 0000 0000 20a5 d9a9 0000 0000
00000020: 0000 0000 a866 0daa 41fb 01ae 0000 0000
00000030: 0000 0000 557c 5284 0000 0000 4e59 7f36
00000040: ee89 39b7 0000 0000 ed0a 0300 5fa2 8cb9

exp_avg_sq f4 [20]
0.0 5.342381e-08 2.8571096e-13 0.0 2.159307e-10 0.0 4.105343e-26 0.0
0.0 9.685137e-26 1.1273985e-21 0.0 0.0 0.0 0.0 6.111978e-11
8.80876e-10 0.0 0.0 1.8509802e-08
00000000: 0000 0000 1a74 6533 4ad7 a02a 0000 0000
00000010: 176b 6d2f 0000 0000 6849 4b15 0000 0000
00000020: 0000 0000 d9ca ef15 1e5e aa1c 0000 0000
00000030: 0000 0000 0000 0000 0000 0000 6167 862e
00000040: 2322 7230 0000 0000 0000 0000 7cff 9e32

exp_avg f4 [20]
0.0 -0.0004930006 -6.6888873e-07 1.67385e-26 -1.50577625e-05 0.0 -9.6653805e-14 0.0
0.0 -1.2558932e-13 -2.9554362e-11 0.0 0.0 -2.4742468e-36 0.0 3.8049934e-06
-1.10589735e-05 0.0 2.79426e-40 -0.0002682386
00000000: 0000 0000 b63c 01ba af8d 33b5 24c5 a514
00000010: 99a0 7cb7 0000 0000 20a5 d9a9 0000 0000
00000020: 0000 0000 a866 0daa 41fb 01ae 0000 0000
00000030: 0000 0000 537c 5284 0000 0000 4a59 7f36
00000040: ee89 39b7 0000 0000 ed0a 0300 60a2 8cb9

exp_avg_sq f4 [20]
0.0 5.3423808e-08 2.857109e-13 0.0 2.159307e-10 0.0 4.105343e-26 0.0
0.0 9.685137e-26 1.1273985e-21 0.0 0.0 0.0 0.0 6.1119776e-11
8.808759e-10 0.0 0.0 1.8509802e-08
00000000: 0000 0000 1974 6533 48d7 a02a 0000 0000
00000010: 176b 6d2f 0000 0000 6849 4b15 0000 0000
00000020: 0000 0000 d9ca ef15 1e5e aa1c 0000 0000
00000030: 0000 0000 0000 0000 0000 0000 6067 862e
00000040: 2122 7230 0000 0000 0000 0000 7cff 9e32

exp_avg f4 [2, 5]
0.001904967 -0.035138115 -0.11384468 8.9686225e-26 0.032287393 -0.001904967 0.03513811 0.11384468
-8.9686225e-26 -0.032287393
00000000: 16b0 f93a fcec 0fbd 6627 e9bd 660d de15
00000010: c93f 043d 16b0 f9ba fbec 0f3d 6627 e93d
00000020: 660d de95 c93f 04bd

exp_avg_sq f4 [2, 5]
5.1041393e-06 0.00026127254 0.0016402898 0.0 0.00017717341 5.1041393e-06 0.00026127254 0.0016402898
0.0 0.0001771734
00000000: 3944 ab36 68fb 8839 fefe d63a 0000 0000
00000010: a0c7 3939 3944 ab36 68fb 8839 fefe d63a
00000020: 0000 0000 9fc7 3939

exp_avg f4 [2]
-0.24902016 0.24902016
00000000: 24ff 7ebe 24ff 7e3e

exp_avg_sq f4 [2]
0.007648856 0.007648856
00000000: 41a3 fa3b 41a3 fa3b
