MimicApp/lightning_logs/version_33/checkpoints/epoch=9-step=99.ckpt (torch, 15916 bytes, 18 tensors)

lstm.weight_ih_l0 f4 [20, 34]
-0.05149434 0.09644922 0.49513808 0.18781875 -0.10350598 0.51397234 0.410459 -0.023719966
-0.16916372 0.4252563 0.22711548 -0.009655584 0.052078806 -0.18753737 -4.6626432e-05 -0.3414689
-0.047277767 -0.301121 -0.29976884 0.13737474 0.261551 0.37534627 -0.005444958 0.44620737
0.36269516 0.3609945 -0.037566107 0.093128964 0.037252925 -0.015243539 0.3111492 -0.2312933
-0.26574194 0.06665173 -0.44126248 -0.18931733 -0.27230522 0.32183293 0.35533732 0.1844547
-0.3262782 0.21218807 0.428684 -0.09737264 0.094188705 0.2595689 -0.16229308 0.19990039
-0.192709 0.2948697 -0.014125844 0.22429374 -0.26181588 -0.0008109923 -0.03211101 0.053031906
-0.30933338 0.34410766 -0.18660013 0.3446643 0.24801691 -0.029101834 0.41068292 -0.2470078
0.39474514 -0.18779966 -0.2583158 -0.1839227 -0.2611614 0.001943022 0.43833834 -0.41661522
0.24718148 -0.24389479 0.18821603 0.11762518 -0.25493753 -0.016833693 0.14645529 0.10342759
-0.009020865 -0.24461243 -0.09281343 -0.26273125 -0.43114614 -0.10894576 -0.43966588 -0.24326982
0.32573247 -0.07197335 0.22751349 -0.029217064 0.3695739 -0.2627447 -0.27832043 0.36975807
0.37282312 -0.3325493 0.30506307 0.18629855 0.11620504 -0.36226594 0.27516374 0.2979578
0.060348526 0.39353815 -0.2043155 0.39765796 0.4183445 0.32984382 0.19116482 -0.30019197
0.11064329 -0.043263335 -0.17181611 0.015590911 0.18103889 0.028120872 -0.044018235 0.29735067
0.079478614 0.22568935 0.33538237 -0.3350995 -0.14850317 0.16194722 -0.056370463 -0.40000737
0.16518575 0.102630645 -0.06157935 -0.39178452 -0.18553384 -0.10079866 0.024173437 -0.27146927
-0.34484488 -0.1551214 -0.30835083 -0.2319229 0.09278789 -0.25400344 -0.19289337 0.17330408
0.21769947 0.17687915 0.41226253 -0.23753847 0.26580757 0.48241028 -0.3563819 -0.011145455
-0.07178771 -0.30841988 -0.14000556 -0.12066854 -0.13837627 0.23590764 -0.15746029 0.23814254
-0.35941574 -0.11301306 0.11103178 0.39387834 -0.06130144 0.34237522 0.21763754 -0.37500647
0.2264726 0.44549945 0.079724886 0.32131806 0.007062397 0.05679092 0.22097868 -0.005828303
-0.00013002416 0.3294387 0.096449696 0.2268572 0.03666318 -0.35233647 0.43245348 0.3507275
-0.09908895 -0.14716175 0.38792172 -0.09077683 0.06292637 0.40260664 -0.12635788 0.35772938
0.41866413 0.019510593 -0.42489457 0.27022466 0.020977532 0.38317937 0.13408707 0.12532847
-0.067382656 -0.30964682 -0.16972429 -0.111370474 -0.30778494 0.285709 -0.3012596 0.39691648
-0.10132069 0.056182515 -0.061646547 0.033097327 0.133538 -0.28849968 -0.02552668 0.12951791
-0.10388745 0.17449674 -0.32643068 -0.012143457 0.25721723 -0.44545278 0.12561518 0.27345785
-0.3452591 0.13418312 -0.28959858 0.402552 -0.25861758 -0.12933451 -0.26168802 -0.2878644
0.2887834 -0.22016181 0.35047302 0.048070997 -0.32850498 0.045324516 0.36061996 -0.3909846
0.09437567 0.26756614 0.38360292 0.1495226 0.33151257 -0.2008977 -0.40006107 0.19059324
0.32054633 0.022558123 -0.30228883 0.24762106 -0.086435795 -0.19822559 -0.4333566 0.35026914
00000000: bbeb 52bd 2b87 c53d bd82 fd3e 8f53 403e
00000010: f1fa d3bd b193 033f af27 d23e 6050 c2bc
00000020: 4139 2dbe 32bb d93e f690 683e 7432 1ebc
00000030: 9650 553d cc09 40be c090 43b8 03d5 aebe
00000040: 55a6 41bd 882c 9abe 4d7b 99be f7ab 0c3e
00000050: 03ea 853e 632d c03e 9e6b b2bb 4b75 e43e
00000060: 2eb3 b93e 45d4 b83e ebde 19bd 66ba be3d
00000070: 8696 183d 09c0 79bc f34e 9f3e 27d8 6cbe
00000080: 540f 88be b480 883d 28ed e1be 67dc 41be
00000090: 976b 8bbe 49c7 a43e c6ee b53e b1e1 3c3e
000000a0: f00d a7be d447 593e 787c db3e 4f6b c7bd
000000b0: 02e6 c03d 37e6 843e 2830 26be b0b2 4c3e
000000c0: 8255 45be 29f9 963e 1670 67bc 42ad 653e
000000d0: bb0c 86be c698 54ba d686 03bd fc37 593d
000000e0: f260 9ebe e12e b03e 1b14 3fbe d777 b03e
000000f0: 25f8 7d3e f866 eebc 0845 d23e 9def 7cbe
00000100: 091c ca3e 8e4e 40be f841 84be 3b56 3cbe
00000110: f2b6 85be 00ad fe3a e26d e03e 974e d5be
00000120: 241d 7d3e 8ebf 79be b4bb 403e 78e5 f03d
00000130: 2c87 82be d0e6 89bc 60f8 153e d8d1 d33d
00000140: 40cc 13bc ae7b 7abe f814 bebd b684 86be
00000150: 30bf dcbe f41e dfbd e31b e1be b91b 79be
00000160: 68c6 a63e c466 93bd 4cf9 683e a058 efbc
00000170: ca38 bd3e 7986 86be 0480 8ebe ee50 bd3e
00000180: ace2 be3e e743 aabe 3a31 9c3e 0cc5 3e3e
00000190: e8fc ed3d ec7a b9be 43e2 8c3e ed8d 983e
000001a0: 0430 773d d57d c93e 1538 51be d399 cb3e
000001b0: 4031 d63e 4ae1 a83e b6c0 433e c3b2 99be
000001c0: f398 e23d e534 31bd 90f0 2fbe 0571 7f3c
000001d0: 4262 393e be5d e63c 774c 34bd 593e 983e
000001e0: afc5 a23d 1c1b 673e 3db7 ab3e 2992 abbe
000001f0: 3711 18be 7ed5 253e b7e4 66bd c4cd ccbe
00000200: 7426 293e 0430 d23d a13a 7cbd fb97 c8be
00000210: 95fc 3dbe 876f cebd 5f07 c63c 05fe 8abe
00000220: 828f b0be 25d8 1ebe 29e0 9dbe 327d 6dbe
00000230: 9407 be3d bd0c 82be d785 45be a076 313e
00000240: 9cec 5e3e cf1f 353e 1314 d33e 493d 73be
00000250: ee17 883e 7bfe f63e b077 b6be 6d9b 36bc
00000260: 6f05 93bd 36e9 9dbe 9e5d 0fbe 1121 f7bd
00000270: 82b2 0dbe c691 713e 453d 21be a3db 733e
00000280: 5705 b8be 6473 e7bd a164 e33d 6caa c93e
00000290: 3817 7bbd ce4b af3e 60dc 5e3e d900 c0be
000002a0: 6fe8 673e 8118 e43e cd46 a33d cd83 a43e
000002b0: ae6b e73b 999d 683d 3c48 623e 59fb bebb
000002c0: 1857 08b9 30ac a83e 6b87 c53d 414d 683e
000002d0: 212c 163d 7265 b4be 8b6a dd3e 8e92 b33e
000002e0: 26ef cabd 92b1 16be ad9d c63e 34e9 b9bd
000002f0: 8adf 803d 7522 ce3e f663 01be 4e28 b73e
00000300: 255b d63e aed4 9f3c c88b d9be e35a 8a3e
00000310: 13d9 ab3c 1630 c43e 1f4e 093e 1b56 003e
00000320: ebff 89bd 078a 9ebe 34cc 2dbe 3416 e4bd
00000330: fd95 9dbe 7348 923e b33e 9abe a338 cb3e
00000340: 3981 cfbd a31f 663d 1781 7cbd 1091 073d
00000350: 2fbe 083e 3bb6 93be 541d d1bc 58a0 043e
00000360: f2c2 d4bd 46af 323e ec21 a7be 5af5 46bc
00000370: fab1 833e 6312 e4be 44a1 003e ab02 8c3e
00000380: cdc5 b0be 4d67 093e 4446 94be 4c1b ce3e
00000390: 8669 84be 4470 04be f9fb 85be f662 93be
000003a0: 6bdb 933e 1972 61be 3371 b33e 18e6 443d
000003b0: ce31 a8be 33a6 393d 2ea3 b83e 222f c8be
000003c0: 0848 c13d 6efe 883e 9a67 c43e 741c 193e
000003d0: 04bc a93e 20b8 4dbe ced4 ccbe e02a 433e
000003e0: a61e a43e d0cb b83c 9ac5 9abe 6090 7d3e
000003f0: 4005 b1bd a6fb 4abe ebe0 ddbe 7a56 b33e

lstm.weight_hh_l0 f4 [20, 5]
0.24174461 -0.14981762 0.10070479 -0.43240914 0.032998443 0.17234756 -0.39820036 -0.2198692
-0.3184033 -0.3654772 -0.2737087 -0.35298684 0.2710793 0.19187433 -0.21358857 -0.05972413
0.3539074 0.20458293 -0.13115162 -0.032750666 -0.30738857 -0.08130244 -0.17464429 -0.057305787
-0.28039587 -0.19566202 -0.247173 0.23761648 -0.43357873 -0.27368447 -0.3181296 0.36537498
-0.29376364 -0.011773764 -0.1969954 -0.039174527 -0.2869756 -0.37732053 0.17482024 0.44538832
0.14457442 0.2291466 -0.2710837 0.36052606 0.2429734 -0.3893408 0.25077015 -0.28675136
-0.3862577 0.19087839 0.33550426 -0.013877087 -0.07782638 0.40679064 0.10408735 -0.16832933
0.042889465 0.35146934 0.042404383 -0.33107355 0.2292664 0.13337415 -0.00056639314 0.39960748
0.11621702 -0.07409909 -0.4313128 0.38303757 -0.01086863 0.04447205 -0.19798172 -0.38208345
-0.4315036 -0.24889483 0.27760273 0.44855514 -0.070088066 -0.08459374 0.06886643 0.24396095
-0.42481825 -0.42559358 0.31421167 0.26525775 0.31048304 -0.3097356 -0.0739145 -0.09612742
-0.11362192 0.027894288 -0.2974971 0.22793068 -0.0027256906 -0.072832756 -0.4449238 -0.19696867
-0.04424083 -0.32747066 0.07021428 -0.23552924
00000000: e68b 773e ca69 19be 503e ce3d bb64 ddbe
00000010: 6029 073d e17b 303e ebe0 cbbe 6425 61be
00000020: c205 a3be d41f bbbe 8c23 8cbe b1ba b4be
00000030: e8ca 8a3e b47a 443e f6b6 5abe 4aa1 74bd
00000040: 5a33 b53e 307e 513e 9c4c 06be 9025 06bd
00000050: 0962 9dbe e581 a6bd f4d5 32be 79b9 6abd
00000060: 0c90 8fbe a05b 48be eb1a 7dbe bc51 733e
00000070: 08fe ddbe 5f20 8cbe e2e1 a2be 6e12 bb3e
00000080: 3068 96be bfe6 40bc 2ab9 49be 7875 20bd
00000090: 77ee 92be 2830 c1be 1404 333e f009 e43e
000000a0: 510b 143e 68a5 6a3e 7ccb 8abe df96 b83e
000000b0: 05ce 783e ad57 c7be f264 803e 13d1 92be
000000c0: 92c3 c5be a075 433e 37c7 ab3e b95c 63bc
000000d0: 7063 9fbd dd46 d03e c02b d53d 865e 2cbe
000000e0: ddac 2f3d caf3 b33e 38b0 2d3d 7982 a9be
000000f0: d0c4 6a3e 3c93 083e 007a 14ba 5a99 cc3e
00000100: 3003 ee3d 44c1 97bd 08d5 dcbe 801d c43e
00000110: 5712 32bc 5328 363d b8bb 4abe 71a0 c3be
00000120: 0aee dcbe 49de 7ebe f221 8e3e 05a9 e53e
00000130: 558a 8fbd 7c3f adbd d809 8d3d e6d0 793e
00000140: c781 d9be 67e7 d9be 5ae0 a03e ddcf 873e
00000150: a2f7 9e3e aa95 9ebe 7c60 97bd 74de c4bd
00000160: 9cb2 e8bd 9082 e43c 8a51 98be a966 693e
00000170: 80a1 32bb 5729 95bd 0dcd e3be 28b2 49be
00000180: df35 35bd 3caa a7be 81cc 8f3d 942e 71be

lstm.bias_ih_l0 f4 [20]
0.1934762 0.3675648 0.3648973 -0.05256144 -0.24052207 -0.021002328 0.35572132 0.12911063
-0.101371124 -0.11692417 -0.15382306 0.08830403 0.14253843 -0.15899713 0.15659672 -0.30745828
0.21296561 0.41640574 0.10691387 0.19623867
00000000: a01e 463e 7431 bc3e d2d3 ba3e aa4a 57bd
00000010: 6b4b 76be 130d acbc 1b21 b63e 9435 043e
00000020: aa9b cfbd f075 efbd cb83 1dbe bed8 b43d
00000030: 98f5 113e 25d0 22be e45a 203e 2c6b 9dbe
00000040: a813 5a3e 2233 d53e a9f5 da3d caf2 483e

lstm.bias_hh_l0 f4 [20]
0.3222897 -0.34178528 -0.021457076 0.16884063 0.2559056 0.27196404 -0.2564002 -0.351994
0.23290326 0.15786815 -0.37900472 0.032095853 0.117620945 -0.4729309 -0.1498315 -0.12027743
0.054006577 0.3208725 0.43510798 -0.23102766
00000000: 2803 a53e 7bfe aebe c0c6 afbc 8fe4 2c3e
00000010: 0f06 833e df3e 8b3e e346 83be 8f38 b4be
00000020: 317e 6e3e 30a8 213e e80c c2be f176 033d
00000030: 40e3 f03d 0024 f2be 6e6d 19be 0354 f6bd
00000040: 0036 5d3d 6649 a43e 79c6 de3e 8492 6cbe

linear.weight f4 [2, 5]
-0.0693068 0.40107408 0.20129979 -0.097914726 -0.112769105 -0.3017974 0.40525517 0.14504695
0.34048256 0.3397153
00000000: b9f0 8dbd 9559 cd3e 8821 4e3e 8487 c8bd
00000010: 7df3 e6bd 3085 9abe 9b7d cf3e 3087 143e
00000020: bb53 ae3e 2aef ad3e

linear.bias f4 [2]
-0.24968271 -0.00843959
00000000: d3ac 7fbe 3546 0abc

exp_avg f4 [20, 34]
-0.0041756816 -0.004553935 -0.0017192052 -0.006110495 -0.0040289694 -0.0029062678 -0.0008987882 0.0
1.3368974e-05 -0.001169954 -2.694075e-05 -0.00034360826 -0.0018606358 -0.0043246085 -0.019353535 -0.001080104
-0.008719097 -0.00038528963 -0.004936641 -7.011012e-05 -0.0003058908 -0.0061758743 -8.694352e-05 -9.029659e-05
-0.00016073776 -0.0001892401 -0.00021557599 -0.00016183456 -0.0014303232 -0.0004852449 -0.0012284206 -0.0005140992
-0.01278061 -0.004345403 -1.5507809e-06 -1.8071739e-06 -6.8474685e-07 -2.5124784e-06 -1.6196077e-06 -1.202338e-06
-2.752895e-07 0.0 -8.3109754e-08 -4.972862e-07 -9.511783e-09 -1.389524e-07 -7.902232e-07 -1.7730069e-06
-8.929311e-07 -2.9200743e-07 -6.7875844e-06 -1.4519352e-07 -1.929458e-06 -9.511551e-09 -1.2687924e-08 -4.3768996e-06
-2.3595994e-08 -3.6158372e-08 -6.516358e-08 -6.7555014e-08 -3.2848337e-08 -2.4035808e-07 -6.8854763e-07 -1.632718e-07
-5.077587e-07 -2.281888e-07 -1.7986364e-06 -7.014012e-07 -8.1629945e-37 -4.8556637e-37 -2.6346958e-37 -5.4889825e-37
-4.4334613e-37 -4.7148415e-37 -1.3722529e-37 0.0 2.814828e-38 -1.9703756e-37 -7.037116e-39 -5.137099e-38
-3.0963008e-37 -6.896343e-37 -7.037674e-38 -1.477771e-37 -2.7444818e-37 -5.629686e-38 -6.966717e-37 -6.333325e-39
-1.6044187e-37 -9.9926e-37 -2.1111136e-38 -1.5481481e-38 -3.588855e-38 -3.3778014e-38 -4.222292e-39 -9.570383e-38
-2.4277884e-37 -8.0222756e-38 -1.055553e-36 -2.0196038e-37 -1.3511525e-36 -4.996439e-37 -0.017431928 -0.020203605
-0.007688246 -0.024525156 -0.016209671 -0.01252468 -0.0039227065 0.0 1.2643772e-05 -0.00512329
-0.0001221415 -0.0015381923 -0.008787278 -0.018687783 -0.012937647 -0.0045618885 -0.023510313 -0.0017530376
-0.02202957 -0.00027714355 -0.001228968 -0.025922036 -0.0004079946 -0.00042648762 -0.00074719475 -0.000878023
-0.00045785305 -0.0015090246 -0.0067547057 -0.0023067393 -0.007184653 -0.0025422699 -0.049336147 -0.042573344
-0.0033163796 -0.0037726664 -0.0014262012 -0.0047222534 -0.0031651203 -0.0024059676 -0.00070566963 0.0
4.4358974e-05 -0.0009174067 -2.1737898e-05 -0.0002861974 -0.0014201922 -0.0033066059 -0.0065133027 -0.0009509699
0.00933027 -0.00032780398 -0.00414694 -5.2272604e-05 -0.00016734694 -0.0049348385 -8.96996e-05 -7.674776e-05
-0.00014997399 -0.00016583002 -0.0001133855 -7.8586774e-05 -0.0012029369 -0.0004154509 -0.0014176031 -0.00048073637
-0.004720677 -0.0042194724 6.454384e-07 6.8080163e-07 2.5407138e-07 6.7845497e-07 4.4877893e-07 3.2437686e-07
1.6888278e-07 0.0 -2.1969592e-08 1.4286768e-07 2.72373e-09 4.9966136e-08 2.7505067e-07 6.416223e-07
9.553769e-06 4.3071475e-07 4.8415427e-07 5.101397e-08 7.0816833e-07 4.7217963e-08 1.5621197e-07 6.937622e-07
2.326352e-08 1.429496e-08 4.1601222e-08 4.2982727e-08 1.8359938e-08 5.44746e-09 1.507437e-07 5.1616595e-08
2.9453923e-07 3.5757754e-08 1.6694028e-06 4.3121526e-07 2.5950045e-16 3.089292e-16 1.1652811e-16 2.9966183e-16
2.3994643e-16 8.8661766e-16 5.869648e-17 0.0 -9.267115e-18 5.869741e-17 2.471419e-18 2.2768107e-17
1.1430446e-16 3.0275086e-16 1.2975004e-16 8.9589166e-17 2.347911e-16 2.1625094e-17 3.4908922e-16 3.089254e-18
7.414293e-18 3.1202227e-16 3.7071654e-18 5.5607097e-18 7.72327e-18 1.3283935e-17 9.267944e-19 2.4735635e-18
8.3411186e-17 2.9348342e-17 7.908599e-17 3.120233e-17 9.545911e-16 5.869682e-16 0.0 0.0
0.0 0.0 0.0 0.0 0.0 0.0 0.0 0.0
0.0 0.0 0.0 0.0 0.0 0.0 0.0 0.0
00000000: 28d4 88bb 2d39 95bb f456 e1ba 8c3a c8bb
00000010: 7205 84bb 1577 3ebb a89c 6bba 0000 0000
00000020: 4e4b 6037 2459 99ba d2fe e1b7 5226 b4b9
00000030: 94e0 f3ba 72b5 8dbb 4e8b 9ebc 4792 8dba
00000040: 8bda 0ebc b300 cab9 8cc3 a1bb 1608 93b8
00000050: f85f a0b9 fd5e cabb 7255 b6b8 9d5d bdb8
00000060: b78b 28b9 c16e 46b9 3d0c 62b9 22b2 29b9
00000070: af79 bbba 7868 feb9 f502 a1ba 9dc4 06ba
00000080: c365 51bc e263 8ebb 6d24 d0b5 068e f2b5
00000090: 72cf 37b5 0d9c 28b6 4c61 d9b5 0560 a1b5
000000a0: 80cb 93b4 0000 0000 127a b2b3 3f7d 05b5
000000b0: 4469 23b2 f232 15b4 ba1f 54b5 0ef8 edb5
000000c0: c2b1 6fb5 32c5 9cb4 e8c0 e3b6 7ee6 1bb4
000000d0: d67b 01b6 3e68 23b2 14fa 59b2 48dd 92b6
000000e0: 24b0 cab2 8d4c 1bb3 0ff0 8bb3 c312 91b3
000000f0: 2115 0db3 900a 81b4 a2d4 38b5 d04f 2fb4
00000100: ea4c 08b5 0f04 75b4 ad68 f1b5 ec47 3cb5
00000110: dbe2 8a83 cc3a 2583 e04e b382 c8c7 3a83
00000120: e5dc 1683 1070 2083 09c8 3a82 0000 0000
00000130: fa40 1901 c918 8682 9ea0 4c80 5bd8 8b81
00000140: 2bb9 d282 9fab 6a83 6e95 bf81 ce24 4982
00000150: 9ec7 ba82 2f41 9981 aa10 6d83 bcf6 4480
00000160: d561 5a82 e903 aa83 42e1 e580 1294 a880
00000170: 5765 4381 aee7 3781 08fa 2d80 eb43 0282
00000180: 0a3a a582 1a63 da81 d197 b383 7672 8982
00000190: fee2 e583 1f05 2a83 67cd 8ebc 0882 a5bc
000001a0: afed fbbb fbe8 c8bc 25ca 84bc 5134 4dbc
000001b0: 0c8a 80bb 0000 0000 9620 5437 45e1 a7bb
000001c0: 1c13 00b9 2b9d c9ba 84f8 0fbc 1f17 99bc
000001d0: 6df8 53bc e57b 95bb b398 c0bc 2ec6 e5ba
000001e0: 5b77 b4bc 944d 91b9 5315 a1ba 735a d4bc
000001f0: 1ce8 d5b9 339a dfb9 64df 43ba 202b 66ba
00000200: ff0b f0b9 77ca c5ba 9456 ddbb aa2c 17bb
00000210: 3d6d ebbb 369c 26bb b314 4abd 6361 2ebd
00000220: 9e57 59bb d73e 77bb 5fef baba 22bd 9abb
00000230: e86d 4fbb 70ad 1dbb b0fc 38ba 0000 0000
00000240: 160e 3a38 1f7e 70ba c859 b6b7 c40c 96b9
00000250: be25 baba a4b3 58bb 8b6d d5bb 824a 79ba
00000260: fddd 183c 1bdd abb9 0ee3 87bb 483f 5bb8
00000270: da79 2fb9 6db4 a1bb 1b1d bcb8 a4f3 a0b8
00000280: 5642 1db9 a8e2 2db9 60c9 edb8 f4ce a4b8
00000290: ddab 9dba e0d0 d9b9 dece b9ba 580b fcb9
000002a0: e9af 9abb 8043 8abb 3042 2d35 55c0 3635
000002b0: 4e67 8834 121f 3635 b5ef f034 0426 ae34
000002c0: 2556 3534 0000 0000 a5b7 bcb2 2b67 1934
000002d0: 5d2c 3b31 599a 5633 adaa 9334 f33b 2c35
000002e0: 2049 2037 fc3c e734 d4f6 0135 741a 5b33
000002f0: f518 3e35 b3cc 4a33 38bb 2734 fa3a 3a35
00000300: 06d5 c732 e695 7532 07ad 3233 029c 3833
00000310: eeb5 9d32 5d2c bb31 1ddc 2134 0cb1 5d33
00000320: 2a21 9e34 1194 1933 3e10 e035 c681 e734
00000330: 8297 9525 e715 b225 0759 0625 48be ac25
00000340: d851 8a25 d68c 7f26 4958 8724 0000 0000
00000350: b7f2 2aa3 d658 8724 c95b 3622 acff d123
00000360: b9c8 0325 2486 ae25 7497 1525 1c94 ce24
00000370: 0d59 8725 cf74 c723 7a3c c925 5cf2 6322
00000380: 02c5 0823 5cde b325 30c5 8822 6b27 cd22
00000390: 1d78 0e23 9c0b 7523 4dc5 8821 4b84 3622
000003a0: 4655 c024 6858 0724 215c b624 36e5 0f24
000003b0: 3292 8926 9c2e 2926 0000 0000 0000 0000
000003c0: 0000 0000 0000 0000 0000 0000 0000 0000
000003d0: 0000 0000 0000 0000 0000 0000 0000 0000
000003e0: 0000 0000 0000 0000 0000 0000 0000 0000
000003f0: 0000 0000 0000 0000 0000 0000 0000 0000

exp_avg_sq f4 [20, 34]
4.4476487e-06 5.384154e-06 7.7124537e-07 9.515276e-06 3.9133756e-06 2.4084375e-06 2.2393789e-07 0.0
3.271149e-09 3.3949206e-07 2.0804096e-10 3.0803353e-08 9.3452434e-07 4.6244827e-06 1.924244e-05 3.2411327e-07
1.2245366e-05 4.01777e-08 6.3885154e-06 7.336783e-10 7.8313164e-08 1.24880635e-05 3.822708e-09 2.1234718e-09
6.569001e-09 9.434575e-09 4.7757666e-08 1.3563277e-07 5.314113e-07 6.324934e-08 7.4307184e-07 7.447991e-08
3.5789893e-05 1.6074899e-05 9.657293e-09 1.8212608e-08 2.5078986e-09 3.62336e-08 1.8100547e-08 9.2281685e-09
6.138263e-10 0.0 1.1438637e-11 1.2862162e-09 5.384996e-13 1.05060655e-10 3.5573315e-09 1.6763195e-08
3.5521013e-09 1.3862165e-09 2.5039728e-07 1.2612578e-10 2.0577703e-08 4.304722e-12 3.664629e-11 7.13316e-08
3.3259708e-12 6.3291226e-12 3.2184897e-11 3.1008817e-11 1.2992109e-11 1.5652502e-09 1.9998916e-09 2.3780236e-10
4.1222985e-09 4.1454146e-10 1.9161433e-08 8.282528e-08 0.0 0.0 0.0 0.0
0.0 0.0 0.0 0.0 0.0 0.0 0.0 0.0
0.0 0.0 0.0 0.0 0.0 0.0 0.0 0.0
0.0 0.0 0.0 0.0 0.0 0.0 0.0 0.0
0.0 0.0 0.0 0.0 0.0 0.0 1.35383225e-05 1.848065e-05
2.658014e-06 2.7559387e-05 1.1868166e-05 7.026687e-06 6.7977913e-07 0.0 3.4913403e-09 1.1699639e-06
7.0089806e-10 1.06531054e-07 3.3082015e-06 1.6117447e-05 9.467026e-06 1.0439379e-06 2.3597839e-05 1.3694888e-07
2.2164266e-05 4.0880437e-09 2.0117844e-07 2.7525186e-05 8.522607e-09 8.267168e-09 2.682829e-08 3.4333492e-08
1.6275127e-08 1.7931607e-07 1.9794004e-06 2.32104e-07 2.2975642e-06 2.9864535e-07 0.00022948624 7.062918e-05
1.3439111e-05 1.7159167e-05 2.4852275e-06 2.7293514e-05 1.1661828e-05 6.8803806e-06 6.3722155e-07 0.0
3.2019882e-09 1.0754289e-06 6.423482e-10 9.94725e-08 2.955464e-06 1.4505765e-05 1.2342083e-05 8.4576544e-07
6.551468e-05 1.2492924e-07 2.0671292e-05 2.693468e-09 1.8159889e-07 3.0018913e-05 9.816482e-09 7.230701e-09
2.2443597e-08 3.0657898e-08 1.8174475e-08 1.1477766e-07 1.7823093e-06 2.1065303e-07 2.105658e-06 2.6504145e-07
8.408836e-05 4.6179088e-05 1.8303703e-13 2.036211e-13 2.8386061e-14 2.0200954e-13 8.852065e-14 4.631909e-14
1.2562978e-14 0.0 2.128255e-16 8.98903e-15 3.2613128e-18 1.0974652e-15 3.3242865e-14 1.8010445e-13
4.0122468e-11 8.0899974e-14 1.0567795e-13 1.1465612e-15 2.2046473e-13 9.704314e-16 1.0595857e-14 2.1206801e-13
2.356268e-16 8.989005e-17 7.584545e-16 8.1101626e-16 1.4859454e-16 1.3045251e-17 1.00458065e-14 1.1773501e-15
3.8039762e-14 5.7260385e-16 1.2335331e-12 8.349664e-14 7.002155e-24 9.923688e-24 1.4119409e-24 9.337204e-24
5.986594e-24 8.1740454e-23 3.582452e-25 0.0 8.931316e-27 3.582452e-25 6.35116e-28 5.3902354e-26
1.3585526e-24 9.53071e-24 1.7505388e-24 8.345823e-25 5.7319233e-24 4.8626064e-26 1.2671559e-23 9.923686e-28
5.716045e-27 1.01231546e-23 1.4290112e-27 3.2152748e-27 6.202306e-27 1.8348903e-26 8.93132e-29 6.351161e-28
7.23437e-25 8.95613e-26 6.5035877e-25 1.01231506e-25 9.4752355e-23 3.582452e-23 0.0 0.0
0.0 0.0 0.0 0.0 0.0 0.0 0.0 0.0
0.0 0.0 0.0 0.0 0.0 0.0 0.0 0.0
00000000: 033d 9536 88a9 b436 9407 4f35 cda3 1f37
00000010: a44f 8336 a4a0 2136 9473 7034 0000 0000
00000020: a9ca 6031 6f43 b634 53be 642f a54c 0433
00000030: 06dc 7a35 012c 9b36 d36a a137 ca01 ae34
00000040: 7271 4d37 d98f 2c33 ee5c d636 05ac 4930
00000050: 1e2d a833 d383 5137 e558 8331 83ec 1131
00000060: 8bb5 e131 b315 2232 1c1e 4d33 74a2 1134
00000070: 4ea6 0e35 b1d3 8733 8277 4735 c3f1 9f33
00000080: 1b1d 1638 95d8 8637 39e9 2532 f371 9c32
00000090: 6b57 2c31 449f 1b33 867b 9b32 ea89 1e32
000000a0: 30ba 2830 0000 0000 0b3b 492d b6c6 b030
000000b0: fc92 172b e407 e72e 3d75 7431 a8fe 8f32
000000c0: 3a19 7431 2885 be30 576e 8634 40ad 0a2f
000000d0: d9c2 b032 7d75 972c 0e2c 212e f62e 9933
000000e0: 5d0b 6a2c abaf de2c f98c 0d2e d360 082e
000000f0: 428f 642d 5820 d730 776e 0931 b5bb 822f
00000100: 1fa4 8d31 86e5 e32f 7098 a432 aedd b133
00000110: 0000 0000 0000 0000 0000 0000 0000 0000
00000120: 0000 0000 0000 0000 0000 0000 0000 0000
00000130: 0000 0000 0000 0000 0000 0000 0000 0000
00000140: 0000 0000 0000 0000 0000 0000 0000 0000
00000150: 0000 0000 0000 0000 0000 0000 0000 0000
00000160: 0000 0000 0000 0000 0000 0000 0000 0000
00000170: 0000 0000 0000 0000 0000 0000 0000 0000
00000180: 0000 0000 0000 0000 0000 0000 0000 0000
00000190: 0000 0000 0000 0000 a722 6337 e506 9b37
000001a0: 5560 3236 552f e737 631d 4737 c8c6 eb36
000001b0: 117a 3635 0000 0000 4fec 6f31 a707 9d35
000001c0: 51a9 4030 11c6 e433 7802 5e36 f433 8737
000001d0: 91d4 1e37 6f1d 8c35 f9f3 c537 390c 1334
000001e0: 66ed b937 d076 8c31 8203 5834 e3e5 e637
000001f0: d26a 1232 6407 0e32 0974 e632 1376 1333
00000200: 62cd 8b32 078a 4034 d7d5 0436 4338 7934
00000210: da2f 1a36 8155 a034 3ea2 7039 c11e 9438
00000220: 8b78 6137 08f1 8f37 e2c7 2636 60f4 e437
00000230: 2ba7 4337 05de e636 880d 2b35 0000 0000
00000240: f909 5c31 7557 9035 3c91 3030 969d d533
00000250: 7c56 4636 c95d 7337 d810 4f37 8f08 6335
00000260: ed64 8938 4a24 0634 4367 ad37 fd17 3931
00000270: 86fd 4234 20d1 fb37 58a5 2832 eb71 f831
00000280: fec9 c032 b7ac 0333 181e 9c32 b07b f633
00000290: ae37 ef35 dd2f 6234 ee4e 0d36 054b 8e34
000002a0: 9858 b038 6bb0 4138 d514 4e2a c941 652a
000002b0: cdad ff28 4971 632a ae54 c729 469a 5029
000002c0: 8350 6228 0000 0000 005f 7525 95ee 2128
000002d0: 75a4 7022 5229 9e26 6ab6 1529 93c7 4a2a
000002e0: e275 302e a92b b629 31f7 ed29 a43c a526
000002f0: a238 782a 99da 8b26 c4e0 3e28 71c4 6e2a
00000300: 61d4 8725 b845 cf24 109c 5a26 70c2 6926
00000310: 5e51 2b25 75a4 7023 1bf8 3428 8dac a926
00000320: dc50 2b29 b50a 2526 b79a ad2b 8904 bc29
00000330: fe70 0719 b9f3 3f19 be7c da17 989b 3419
00000340: 5b98 e718 e4a2 c51a 38be dd16 0000 0000
00000350: 27e7 3014 38be dd16 bb46 4912 ad74 8515
00000360: d039 d217 ca59 3819 fe70 0718 3625 8117
00000370: 38be dd18 dcc8 7015 851a 7519 413f 9d12
00000380: 956f e213 6fcf 4319 956f e212 85bd 7e13
00000390: dbb2 f513 ffb7 b514 956f e210 bd46 4912
000003a0: 96e4 5f17 38be dd15 bb46 4917 17a3 fa15
000003b0: de18 e51a 9c3c 2d1a 0000 0000 0000 0000
000003c0: 0000 0000 0000 0000 0000 0000 0000 0000
000003d0: 0000 0000 0000 0000 0000 0000 0000 0000
000003e0: 0000 0000 0000 0000 0000 0000 0000 0000
000003f0: 0000 0000 0000 0000 0000 0000 0000 0000

exp_avg f4 [20, 5]
-2.0237872e-05 -4.2097545e-10 -4.64e-43 3.085456e-05 2.1949849e-05 -1.7098472e-08 5.706833e-10 0.0
1.533768e-10 1.2719563e-08 -6.98345e-39 0.0 0.0 1.0396e-41 5.358913e-39 -0.00016182242
1.1489492e-09 -7.5184e-41 9.331064e-05 0.00016522614 -3.8169634e-05 1.2134599e-07 -8.48e-43 1.39535005e-05
2.1493195e-05 3.0034124e-11 0.0 0.0 -6.809627e-09 -2.6353433e-21 1.3792705e-28 6.596039e-27
0.0 2.3527442e-18 -4.0351308e-23 0.0 0.0 0.0 0.0 0.0
-2.328647e-06 3.043113e-17 0.0 1.8258706e-06 2.1926365e-09 -9.687459e-38 0.0 0.0
7.3832196e-38 7.502819e-38 3.914042e-05 -1.0299793e-15 0.0 2.0478299e-06 8.2293496e-05 1.2402178e-09
-1.2296314e-10 0.0 7.226692e-24 -8.665468e-10 0.0 0.0 0.0 0.0
0.0 9.646353e-06 1.3325928e-23 1.4e-44 1.8164235e-06 -2.0025142e-05 1.8886063e-05 -7.0915956e-10
0.0 -8.034847e-06 4.0538953e-06 -2.166055e-06 -8.7827665e-09 0.0 -4.8989784e-18 -2.1469466e-06
2.1076918e-10 1.0194103e-08 0.0 9.045393e-12 -3.6673464e-10 -9.7e-44 0.0 0.0
5e-44 7.4e-44 -0.00010784575 -7.1256006e-09 -4.2773e-41 3.7047324e-05 5.4081887e-05 -1.7172249e-07
-4.2603064e-19 -6e-45 -7.798888e-07 6.6676694e-06
00000000: 80c4 a9b7 076f e7af 4b01 0080 d569 0138
00000010: f120 b837 f0df 92b2 44de 1c30 0000 0000
00000020: bba3 282f 3b85 5a32 040b 4c80 0000 0000
00000030: 0000 0000 fb1c 0000 785a 3a00 e0ae 29b9
00000040: 0ee9 9d30 95d1 0080 c5af c338 8e40 2d39
00000050: 5518 20b8 554b 0234 5d02 0080 d419 6a37
00000060: 494c b437 6b17 042e 0000 0000 0000 0000
00000070: 1dfa e9b1 f41e 479d e3d7 2e11 e4a5 0214
00000080: 0000 0000 159a 2d22 8020 439a 0000 0000
00000090: 0000 0000 0000 0000 0000 0000 0000 0000
000000a0: da45 1cb6 bd56 0c24 0000 0000 7010 f535
000000b0: 45ad 1631 dedb 0382 0000 0000 0000 0000
000000c0: 88fd c801 043f cc01 b52a 2438 876f 94a6
000000d0: 0000 0000 736d 0936 fc94 ac38 4974 aa30
000000e0: 0c33 07af 0000 0000 d8c8 0b19 cf31 6eb0
000000f0: 0000 0000 0000 0000 0000 0000 0000 0000
00000100: 0000 0000 c5d6 2137 66e1 8019 0a00 0000
00000110: d6cb f335 aafb a7b7 836d 9e37 abee 42b0
00000120: 0000 0000 68cd 06b7 b206 8836 8b5c 11b6
00000130: 04e3 16b2 0000 0000 8bbd b4a2 4314 10b6
00000140: 40be 672f 2422 2f32 0000 0000 d420 1f2d
00000150: 509d c9af 4500 0080 0000 0000 0000 0000
00000160: 2400 0000 3500 0000 3f2b e2b8 72d5 f4b1
00000170: 3c77 0080 4363 1b38 fcd5 6238 b862 38b4
00000180: ee7b fba0 0400 0080 8d59 51b5 d8ba df36

exp_avg_sq f4 [20, 5]
4.8675404e-11 1.5945538e-14 0.0 4.187019e-11 1.569588e-10 4.5487524e-15 3.1108833e-14 0.0
2.3474832e-21 2.9305754e-13 0.0 0.0 0.0 0.0 0.0 8.1775275e-10
1.032124e-18 0.0 3.7623224e-10 9.383032e-10 1.7307422e-10 4.339238e-12 0.0 1.6627895e-11
2.89532e-10 1.6297526e-21 0.0 0.0 2.0383201e-17 4.589e-42 0.0 6e-45
0.0 5.7559715e-28 2.355083e-38 0.0 0.0 0.0 0.0 0.0
2.8766215e-13 9.2605376e-35 0.0 1.7308109e-13 3.8990572e-19 0.0 0.0 0.0
0.0 0.0 3.1681546e-10 6.5761807e-25 0.0 3.1612446e-13 3.219204e-10 1.0656526e-16
7.466372e-20 0.0 0.0 3.4264438e-17 0.0 0.0 0.0 0.0
0.0 1.9637918e-11 7.92724e-39 0.0 2.1799357e-11 6.524663e-11 4.8271526e-11 1.7478591e-18
0.0 6.464715e-12 1.00442215e-11 1.4920199e-12 4.5364496e-14 0.0 1.5491655e-34 1.4999431e-12
1.416207e-14 1.4225996e-13 0.0 4.380248e-23 2.7630464e-14 0.0 0.0 0.0
0.0 0.0 4.8194554e-10 1.7519335e-16 0.0 1.0383392e-10 1.2087341e-10 1.9529818e-14
1.8873427e-29 0.0 6.2672814e-12 6.277279e-11
00000000: a213 562e e89f 8f28 0000 0000 a525 382e
00000010: f993 2c2f d6e2 a327 0b1a 0c29 0000 0000
00000020: ee5e 311d 0bfa a42a 0000 0000 0000 0000
00000030: 0000 0000 0000 0000 0000 0000 3cc8 6030
00000040: 8b50 9821 0000 0000 fbd5 ce2f 9cf5 8030
00000050: 104c 3e2f 62ac 982c 0000 0000 b142 922d
00000060: 022c 9f2f 0048 f61c 0000 0000 0000 0000
00000070: 7900 bc23 cb0c 0000 0000 0000 0400 0000
00000080: 0000 0000 fd69 3612 1139 0001 0000 0000
00000090: 0000 0000 0000 0000 0000 0000 0000 0000
000000a0: 7cf0 a12a f42f f606 0000 0000 3adf 422a
000000b0: e328 e620 0000 0000 0000 0000 0000 0000
000000c0: 0000 0000 0000 0000 d02b ae2f df85 4b17
000000d0: 0000 0000 56f6 b12a 45fa b02f 07b9 f524
000000e0: 734b b01f 0000 0000 0000 0000 4f04 1e24
000000f0: 0000 0000 0000 0000 0000 0000 0000 0000
00000100: 0000 0000 a9bc ac2d eb51 5600 0000 0000
00000110: cabf bf2d 967a 8f2e e84c 542e 20f8 0022
00000120: 0000 0000 fa74 e32c 27b3 302d affb d12b
00000130: b44d 4c29 0000 0000 5feb 4d07 2519 d32b
00000140: 051f 7f28 a42b 202a 0000 0000 d8d0 531a
00000150: 83df f828 0000 0000 0000 0000 0000 0000
00000160: 0000 0000 0000 0000 e779 0430 f3fb 4925
00000170: 0000 0000 4d55 e42e d7e6 042f b2e8 af28
00000180: 3866 bf0f 0000 0000 a782 dc2c f009 8a2e

exp_avg f4 [20]
-4.6490914e-05 -1.8664188e-08 -7.037116e-39 -0.00020828175 -3.863318e-05 6.809325e-09 3.0892969e-18 0.0
-2.340632e-06 -9.851562e-38 -0.00012573405 1.264662e-09 0.0 4.1316314e-05 1.9077956e-05 2.7848644e-06
9.578653e-10 -1.01e-43 -0.00011586293 -1.8795965e-05
00000000: 3dff 42b8 fc52 a0b2 9ea0 4c80 3566 5ab9
00000010: 100a 22b8 75f7 e931 2bf3 6322 0000 0000
00000020: c013 1db6 af17 0682 7ad7 03b9 57d0 ad30
00000030: 0000 0000 0e4b 2d38 9909 a037 9be3 3a36
00000040: e4a5 8330 4800 0080 70fb f2b8 07ac 9db7

exp_avg_sq f4 [20]
5.6386357e-10 1.9166227e-12 0.0 1.9503763e-09 1.821823e-09 2.0383204e-17 9.923686e-28 0.0
2.9929848e-13 0.0 7.880539e-10 1.1577265e-16 0.0 4.5508103e-10 5.5593995e-11 2.7299578e-12
4.1663624e-13 0.0 6.6743466e-10 4.081618e-10
00000000: 5ffe 1a30 cede 062c 0000 0000 6207 0631
00000010: b363 fa30 7b00 bc23 413f 9d12 0000 0000
00000020: 757d a82a 0000 0000 5d9e 5830 0e7a 0525
00000030: 0000 0000 f62e fa2f 4681 742e 8c1a 402c
00000040: 9c8b ea2a 0000 0000 8a76 3730 ab63 e02f

exp_avg f4 [20]
-4.649091e-05 -1.8664188e-08 -7.037116e-39 -0.00020828175 -3.8633185e-05 6.809325e-09 3.0892969e-18 0.0
-2.340632e-06 -9.851562e-38 -0.00012573405 1.264662e-09 0.0 4.131632e-05 1.9077957e-05 2.7848646e-06
9.578636e-10 -1.01e-43 -0.00011586293 -1.8795969e-05
00000000: 3cff 42b8 fc52 a0b2 9ea0 4c80 3566 5ab9
00000010: 110a 22b8 75f7 e931 2bf3 6322 0000 0000
00000020: c013 1db6 af17 0682 7ad7 03b9 57d0 ad30
00000030: 0000 0000 104b 2d38 9a09 a037 9ce3 3a36
00000040: d4a5 8330 4800 0080 70fb f2b8 09ac 9db7

exp_avg_sq f4 [20]
5.6386357e-10 1.9166222e-12 0.0 1.950376e-09 1.8218231e-09 2.0383204e-17 9.923686e-28 0.0
2.9929843e-13 0.0 7.88054e-10 1.1577265e-16 0.0 4.5508106e-10 5.5593995e-11 2.7299582e-12
4.166363e-13 0.0 6.6743466e-10 4.0816178e-10
00000000: 5ffe 1a30 ccde 062c 0000 0000 6107 0631
00000010: b463 fa30 7b00 bc23 413f 9d12 0000 0000
00000020: 737d a82a 0000 0000 5f9e 5830 0e7a 0525
00000030: 0000 0000 f72e fa2f 4681 742e 8e1a 402c
00000040: 9e8b ea2a 0000 0000 8a76 3730 aa63 e02f

exp_avg f4 [2, 5]
-0.06980244 2.5572226e-05 -1.2482855e-37 0.028997187 0.069474645 0.06980244 -2.557223e-05 1.2482854e-37
-0.028997185 -0.069474645
00000000: 95f4 8ebd f083 d637 67e8 2982 828b ed3c
00000010: b948 8e3d 95f4 8e3d f283 d6b7 66e8 2902
00000020: 818b edbc b948 8ebd

exp_avg_sq f4 [2, 5]
0.00017836058 3.895835e-07 0.0 2.6418556e-05 0.0005474389 0.0001783606 3.8958353e-07 0.0
2.6418558e-05 0.0005474389
00000000: 4e06 3b39 f327 d134 0000 0000 6b9d dd37
00000010: 0182 0f3a 4f06 3b39 f427 d134 0000 0000
00000020: 6c9d dd37 0182 0f3a

exp_avg f4 [2]
-0.5213392 0.5213392
00000000: 7c76 05bf 7c76 053f

exp_avg_sq f4 [2]
0.029894358 0.029894358
00000000: 03e5 f43c 03e5 f43c
