MimicApp/lightning_logs/version_1/checkpoints/epoch=0-step=12.ckpt (torch, 16172 bytes, 18 tensors)

lstm.weight_ih_l0 f4 [20, 34]
00000000: 0b3e d4bd e3f4 763e 5516 23be 93d0 2e3c
00000010: c900 963e 7bd9 6a3e 41f8 d03e d0ac 15be
00000020: 39b9 843e 4727 99be c12d c53e 071a ce3e
00000030: fb93 c63e 796c b03e 41b5 83be 9d6c 51be
00000040: 432d 203e f3d4 863e 63f5 a6be cc40 803e
00000050: 6785 013e a77b 96be 38d6 0fbe 06a7 1c3e
00000060: ecd5 553e 445e af3e c568 7a3e a483 e13e
00000070: 255c 953e 2742 fd3d 7604 eb3d e1f9 ddbe
00000080: a54e c93e 9b1a 883e e4b7 cfbe 00af 113e
00000090: e820 c8be fab0 ba3e dac7 e13e 96a1 05be
000000a0: 2013 b03d 78aa e03d 40c0 1a3e 487a fa3d
000000b0: a611 07be 7052 0fbe e59b 5cbe feb3 03be
000000c0: 1000 efbc 346d ad3e 2c18 473e 0ca1 873e
000000d0: 1c51 e0be e0fa c03c 80db 223d 0ca7 843e
000000e0: 9b3b 4fbe 000c 1abb 386a 7fbe 3452 183e
000000f0: dccb cfbd fe8a a13e f07a 8e3c 00ee d43c
00000100: d0ea 923e a6cb d73e 208b 093c 52a7 c83e
00000110: 2425 4abe e4af e4bd 9821 a13d 2551 adbe
00000120: 7c79 98be 14b4 a5bd c7d9 abbe 4039 cd3b
00000130: 0cd1 a4be b068 74bd 60bc 5a3e 6fa7 5abe
00000140: 7cee 1dbe 9490 d3bd cb96 64be 50db dd3e
00000150: c0a4 92be c0b5 acbd 4a66 e13e 4428 cfbd
00000160: e8b3 213e ec05 253e f466 73be ac34 a03e
00000170: 1e80 d33e 98d5 243e 56a2 c33e 203c 5b3e
00000180: a071 61be 42fe a53e 96f8 933e 7847 983d
00000190: 0ec3 74be 34fe 863e 5390 fcbd ae2b 813e
000001a0: 98fa 79bd 1c87 d9bd c9e4 23be b595 973e
000001b0: 726a 90be b0d2 a53d 85a8 e3bb 034d 88be
000001c0: d08e 3fbe c583 d7be c4db db3e e684 c8be
000001d0: fd9a 61be 74f1 413e 1e49 bb3e f0de a3be
000001e0: 5e19 b0be 68ff 66be 9475 08be c685 89be
000001f0: 93db ce3e b4ec ec3d b275 e3bd 3c9b 1c3e
00000200: 2781 a6bd fcae cfbe 3b1b df3e fba7 f9bd
00000210: eb5a 47bd 832f f3bd 8707 b73e 0c40 d4be
00000220: f99c 7f3d 733e e3be b955 abbe 83bd be3e
00000230: 22d6 cfbe 0a16 abbe 30ee 193e 20de c33e
00000240: 57ef c3be f1aa 4cbe c437 e4be 97bd babd
00000250: 575e a43e 455f 7d3c 3d4f d73e 7319 653e
00000260: 68a6 96be 5851 22bd dd92 593e 1dfc 9ebd
00000270: 3c24 3b3e 96ef a2be 31c0 c0bd c256 bbbd
00000280: 283d 873e ffde 8b3e aa3f fdbd d12a 523e
00000290: cd1e edbd c78c 083e 3154 ff3d 4530 c9be
000002a0: 716f f1bc f820 b6bd 52cc 0bbe b29e c3be
000002b0: f3fb bd3e 53f0 f3bd 2ccc 3d3e 7724 e1be
000002c0: 4341 48be 0959 bebe f572 83be 7925 b7bd
000002d0: 0066 0ebd 665c 17be 8dbd 973e aab2 ac3e
000002e0: 68f6 a2be 236d b5be dbce 04bc b8f7 463e
000002f0: 8629 e33e 8040 a7be c092 6d3c 8f05 d5be
00000300: b01f 9c3d 888f 6ebd 0ee8 0ebe ce7b eebc
00000310: 3883 a63d fff4 a8be 380c cfbd 5008 a63e
00000320: fd89 21be c6f0 d83e 7288 c43b 7257 b7bd
00000330: 56d9 dcbe 8a4e 7a3e 95b1 513d ca32 98be
00000340: 6617 773e 16cf ccbd de59 9a3e b655 c03e
00000350: a39f d83c 1b91 1bbe 4b07 6b3e 314b d9be
00000360: 7bbd 8d3e cb84 e0be 76b0 203e 6752 3ebe
00000370: 3394 653e 917e 8dbd 44bc b63c b42c 9f3d
00000380: 1e4c 463e 98ae 3a3d 757c b43e ca78 9fbe
00000390: a05f 973e 303b 8cbd 9a98 b13e 162c 0c3e
000003a0: 3e96 a83e e9ec d23e eb25 b7bb 8ce5 b6bc
000003b0: 8650 b3be 0b2b 57be 3873 b13e e00d 353c
000003c0: 9ba6 58be c839 b33d b0ce 4c3e f5ac 63be
000003d0: 5c13 a93e 00bf 9b3d fd8e d1be 2082 77bc
000003e0: 9bf2 bebe d89c 4c3d b839 7cbe 78f0 053d
000003f0: f462 c8bd e536 d1be ef43 5dbe e009 b63e
-0.10363396 0.24116854 -0.15926488 0.010669845 0.29297474 0.22934525 0.40814403 -0.14616704
0.25922564 -0.2991278 0.3851147 0.40254232 0.38784775 0.34457758 -0.25724223 -0.20451589
0.15642266 0.26334342 -0.3260909 0.25049436 0.12648545 -0.29391214 -0.14046562 0.1529809
0.20882386 0.34251606 0.24454029 0.44045746 0.29171863 0.12366133 0.1147546 -0.43354705
0.39317814 0.26582798 -0.40569985 0.14226913 -0.39087605 0.36463147 0.44097787 -0.13049921
0.08597398 0.10970014 0.151124 0.122303545 -0.13190326 -0.13996291 -0.21543844 -0.1286163
-0.029174834 0.33872378 0.19442815 0.26490057 -0.43811882 0.023557127 0.039760113 0.25908697
-0.20237581 -0.0023505688 -0.24942863 0.14875108 -0.10146305 0.31551355 0.017392606 0.025992393
0.28694773 0.4214756 0.008394986 0.39190155 -0.1974073 -0.11166361 0.078677356 -0.3385097
-0.29780185 -0.08090988 -0.33564588 0.0062629282 -0.3219074 -0.05967015 0.21360922 -0.21352933
-0.15423006 -0.103303105 -0.22323148 0.43331385 -0.2864132 -0.084331036 0.44023353 -0.10115102
0.15791285 0.1611554 -0.23769742 0.31290185 0.41308683 0.16097105 0.3820979 0.21409655
-0.22016001 0.32420546 0.28900594 0.074355066 -0.23902532 0.26365817 -0.12332215 0.25228637
-0.06103 -0.10621473 -0.16005243 0.29606405 -0.2820621 0.08096826 -0.0069475793 -0.26621255
-0.18706822 -0.4209272 0.42941105 -0.39163893 -0.2203178 0.18939763 0.3657922 -0.32006025
-0.34394354 -0.22558367 -0.13326102 -0.26859874 0.40401897 0.11568585 -0.11106433 0.15293592
-0.081301026 -0.4056319 0.43575463 -0.12190243 -0.04867069 -0.118742965 0.3574793 -0.41455114
0.06240556 -0.44383582 -0.3346384 0.3725396 -0.40593058 -0.33415252 0.15032268 0.38255405
-0.3826854 -0.19987084 -0.44573796 -0.09118193 0.32103226 0.015464609 0.42052642 0.2237299
-0.29423833 -0.039628357 0.2124743 -0.077629305 0.18275541 -0.31823415 -0.094116576 -0.09147407
0.26413846 0.2731857 -0.123656586 0.20524146 -0.115781404 0.13334952 0.1246723 -0.3929464
-0.029472085 -0.08893007 -0.13652161 -0.38207012 0.37106284 -0.119110726 0.18534917 -0.43973133
-0.19556145 -0.37177303 -0.25673643 -0.08942694 -0.034765244 -0.14781341 0.29636803 0.3373006
-0.31828618 -0.35434827 -0.008105959 0.19430435 0.44367617 -0.32666397 0.01450032 -0.41605803
0.076232314 -0.05824235 -0.1395571 -0.029111769 0.08130497 -0.32999417 -0.101097524 0.32428217
-0.15775295 0.42371196 0.005997711 -0.08952226 -0.43134564 0.24444023 0.051194746 -0.2972625
0.2413002 -0.10000436 0.30146688 0.37565392 0.026443308 -0.15192072 0.22952001 -0.4244018
0.27683625 -0.43851313 0.15692315 -0.18586121 0.22419815 -0.06908906 0.022306569 0.07772198
0.19364974 0.04557666 0.35251203 -0.31146842 0.29565144 -0.068472266 0.34686738 0.13688692
0.32927126 0.41196373 -0.005589237 -0.022326253 -0.35022372 -0.21012513 0.34658217 0.011050671
-0.21157305 0.08751255 0.2000072 -0.22233947 0.33022583 0.0760479 -0.40929404 -0.015106708
-0.37294468 0.049954265 -0.24631393 0.032700032 -0.09784499 -0.40862194 -0.21607946 0.3555441

lstm.weight_hh_l0 f4 [20, 5]
00000000: a2d4 43be 9a1c 5f3e 9cbb bf3e 729c 873e
00000010: 954a 903d 6983 d2be 098c ccbe 4cb8 38be
00000020: 3c19 a4bd 14ee d03e b077 d73c e8aa 62bd
00000030: f420 493e 8a14 b73e 14f2 d8be 96d5 22be
00000040: ce99 883c c834 65bd 4c23 043e 004b 79bd
00000050: c454 bcbe 29b6 7ebe a846 d83e c605 b23e
00000060: 270c 363e 8c79 b33e ea2f 9a3e 4618 a23e
00000070: 8061 e43e 506a acbe 7f05 f5bc 20e2 ac3e
00000080: e4f9 a03e d0cf ecbc 2c83 dbbe a0ef a6be
00000090: 544c c53e 1a03 833e f4e0 563e 7c44 8a3e
000000a0: a9a7 dcbe a684 dbbe 4acf 23be 7ca1 40be
000000b0: 2ea6 d9be 6262 c33d e0e7 b1be 68fa 943e
000000c0: cf23 dfbe cae8 10be 430c c9bb 013d 1a3d
000000d0: 98f4 f6bd 15e3 77bd 413c 9e3e a9f7 debe
000000e0: 8f01 90bd 14ca 49be c357 a2be 12ed 433d
000000f0: 8815 bfbe 12ee 843e 847e 0dbe 2877 97be
00000100: 2cc7 debd e84a 9cbe b05f 3fbd 223a 8a3e
00000110: e06b d73e b180 d1be b0f5 bd3e c4fc f8bd
00000120: ae20 0cbe f091 9dbd 2bc7 9fbe 743c d23e
00000130: a7fe d9be a008 1bbc cd1a ca3e 8205 76be
00000140: 93db 95be 560d cfbe e8a8 3fbd 5401 5dbc
00000150: 5541 ff3d c67b dabe 40c1 7fbd a0b8 bb3d
00000160: 22ef 30be 50f3 1bbe 180b b2bd 7088 483e
00000170: a279 cc3e 3ec8 c43e 401f e8bd 87b2 6b3e
00000180: 94a7 903d 8bb6 c9be 2e0d c3be 662d 493d
-0.19124082 0.21788254 0.37447822 0.26486546 0.070454754 -0.41115883 -0.39950588 -0.18039054
-0.080126256 0.4080664 0.026302189 -0.05533877 0.19641477 0.35757858 -0.4237219 -0.15901789
0.016674902 -0.05595854 0.1290409 -0.06086254 -0.3678342 -0.24874176 0.42241406 0.3477003
0.17778073 0.3505367 0.3011468 0.31659144 0.44605637 -0.3367486 -0.029909847 0.3376627
0.3144065 -0.028907686 -0.42873514 -0.32604694 0.38534796 0.25588304 0.2098425 0.27005374
-0.43096665 -0.4287464 -0.15997043 -0.18811601 -0.42509598 0.095402494 -0.3474722 0.29097295
-0.43582007 -0.14151302 -0.006135495 0.037655834 -0.12058371 -0.060519297 0.30905345 -0.43548325
-0.07031547 -0.19705993 -0.31707582 0.04783351 -0.37321115 0.25962883 -0.13817793 -0.29583097
-0.10877833 -0.305259 -0.046722114 0.26997477 0.4207449 -0.40918496 0.37101507 -0.12157586
-0.13684341 -0.07693851 -0.3120664 0.41061747 -0.42577097 -0.009462506 0.39473572 -0.24025539
-0.29269084 -0.40439862 -0.04679194 -0.013489086 0.12463633 -0.42672557 -0.062440157 0.09166074
-0.17278722 -0.15229535 -0.08693522 0.19583297 0.39936548 0.38434023 -0.113340855 0.23017322
0.07063213 -0.39397082 -0.38095993 0.04911556

lstm.bias_ih_l0 f4 [20]
00000000: 942c abbe 6c97 d2be 182b 813e 4f6a 09be
00000010: d0f5 0fbc 9689 df3e 313a 073e b45f 693e
00000020: 785b b0be d75a 17be 37f0 93bd e4d7 dbbe
00000030: 5459 083e e0dd 823d 1c75 553e bfca ccbe
00000040: d795 d4be 944a d03e b4c0 e8bd 00d6 143d
-0.33432448 -0.4113115 0.2522819 -0.1341946 -0.008786634 0.43659657 0.13205792 0.22790414
-0.34444785 -0.14780746 -0.07223552 -0.4293815 0.13315326 0.063899755 0.20845455 -0.39998433
-0.4152057 0.406819 -0.1136488 0.0363369

lstm.bias_hh_l0 f4 [20]
00000000: a1a7 583e 6cbb 44be 1cb5 083e 6a8c dcbe
00000010: 1b55 3abe aa60 d8be 7d89 2ebe a8d1 6cbe
00000020: 4346 e2be c150 113e cdee 873d 7236 bd3e
00000030: b0a2 963c e3ce 71be 445b 4e3e 84c4 b7bd
00000040: 4fee c6be a629 42be 248a f6bd b84a 393d
0.21157695 -0.19212121 0.13350338 -0.43075877 -0.18196528 -0.4226125 -0.17044635 -0.23126853
-0.4419423 0.14190961 0.066373445 0.369556 0.018388122 -0.23614077 0.20152003 -0.08973029
-0.3885369 -0.189612 -0.12038067 0.045237273

linear.weight f4 [2, 5]
00000000: d87c 98bd ff1a fabd 4d1d b8be ac3d 693d
00000010: 09f9 bf3d 8255 583e 6d66 093e 0015 6fbc
00000020: e6ca a9bc 086f 9a3e
-0.07445687 -0.1221218 -0.35959855 0.05694358 0.093736716 0.21126369 0.13417979 -0.014592409
-0.020726632 0.30162835

linear.bias f4 [2]
00000000: 2524 d33d f76a c63e
0.103096284 0.38753483

exp_avg f4 [20, 34]
00000000: 7fd3 503a 322c 203a cd8e 8039 a5b4 223a
00000010: 784a da39 1495 ab39 4be5 2439 0000 0000
00000020: 036c 22b8 0a40 e438 c23f 2d36 dbd0 4738
00000030: ad10 3c39 277f 273a e02e 3f3b 1718 ed39
00000040: cce2 143a ad94 4738 86ae 433a a525 d337
00000050: b58f 5836 2c2d fa39 af37 6e37 c913 3837
00000060: 463f cd36 f1d0 b037 cc97 1737 cd97 9736
00000070: 7010 8f39 f256 cf38 4483 2f39 a2e9 7e38
00000080: 38cb 513a 4785 c139 0000 0000 0000 0000
00000090: 0000 0000 0000 0000 0000 0000 0000 0000
000000a0: 0000 0000 0000 0000 0000 0000 0000 0000
000000b0: 0000 0000 0000 0000 0000 0000 0000 0000
000000c0: 0000 0000 0000 0000 0000 0000 0000 0000
000000d0: 0000 0000 0000 0000 0000 0000 0000 0000
000000e0: 0000 0000 0000 0000 0000 0000 0000 0000
000000f0: 0000 0000 0000 0000 0000 0000 0000 0000
00000100: 0000 0000 0000 0000 0000 0000 0000 0000
00000110: 0000 0000 0000 0000 0000 0000 0000 0000
00000120: 0000 0000 0000 0000 0000 0000 0000 0000
00000130: 0000 0000 0000 0000 0000 0000 0000 0000
00000140: 0000 0000 0000 0000 0000 0000 0000 0000
00000150: 0000 0000 0000 0000 0000 0000 0000 0000
00000160: 0000 0000 0000 0000 0000 0000 0000 0000
00000170: 0000 0000 0000 0000 0000 0000 0000 0000
00000180: 0000 0000 0000 0000 0000 0000 0000 0000
00000190: 0000 0000 0000 0000 bcdb f8ba ab97 0fbb
000001a0: 0fdf 57ba 38f0 32bb 6861 e5ba 7777 a9ba
000001b0: 79e0 dfb9 0000 0000 e511 7fb8 f16b 1bba
000001c0: 23cc 28b7 deb8 2db9 7b9d 91ba ba98 0cbb
000001d0: 40b0 96ba 0321 53ba ba2e 73bb 02d0 3db9
000001e0: 55a1 17bb 4b4b 0eb8 2b72 46b7 ffaf 5ebb
000001f0: d636 18b8 5ed7 31b8 4998 9bb8 29f7 c8b8
00000200: 923a a1b7 6e53 97b8 9829 3cba 52e1 7bb9
00000210: 6695 3eba 4440 89b9 492c 06bc 7e92 8fbb
00000220: 75a7 a439 006d f739 08c0 2e39 6510 333a
00000230: 877a cf39 4769 7339 8813 8b38 0000 0000
00000240: 8fe7 bf36 9cd8 d638 c5d6 1e36 dd22 1538
00000250: 6e35 1539 837e a639 b18e a93a a48f ee38
00000260: 8cf3 f539 b157 1238 d1a6 023a 967c db36
00000270: 82ee 7336 a28f 373a c9ff 1e37 f40a 1737
00000280: 4a88 6037 cded 7c37 8a02 1f36 a695 3437
00000290: d987 2539 c704 5938 a076 2139 e51c 2138
000002a0: 8dc3 ed3a cf02 373a 6383 e5a7 fd0e 0ca8
000002b0: 0f99 4ba7 449f 23a8 4e6b aba7 5ede 52a7
000002c0: 25ca b6a6 0000 0000 9593 e59f db76 dfa6
000002d0: 0f3d 0fa4 3f56 25a6 d5ca 6fa7 f4f3 06a8
000002e0: 2f10 d7a6 1e5f e8a6 ae7b 02a8 6aee 38a6
000002f0: abbc 13a8 5e6a 9fa4 9e66 a9a3 bb40 e4a7
00000300: b7cf 90a4 7bfa 84a5 e520 9ca5 3682 c3a5
00000310: ce3a 79a4 9720 8e24 94e9 04a7 9756 0da6
00000320: cf06 daa6 5d58 b325 d4f4 c1a7 af6c 07a7
00000330: 9666 9532 2581 9b32 dd83 eb31 9642 b632
00000340: 3490 7f32 dc56 4b32 42ed 6d31 0000 0000
00000350: 281b 1eb0 c4a2 8e31 01a0 992e da8b bc30
00000360: 1cf5 c031 26e7 9c32 deab bb33 a789 c331
00000370: 4512 9532 f497 cb30 5b94 bb32 ae9f db2f
00000380: b280 f92e 5bfa c532 d7f9 ec2f 3fab c12f
00000390: 663f 9c2f 0168 2630 b41b a130 6ca6 8a2f
000003a0: 29fc db31 6656 2431 f42f dd31 e355 c130
000003b0: 2e66 cd32 aa7a 6632 0000 0000 0000 0000
000003c0: 0000 0000 0000 0000 0000 0000 0000 0000
000003d0: 0000 0000 0000 0000 0000 0000 0000 0000
000003e0: 0000 0000 0000 0000 0000 0000 0000 0000
000003f0: 0000 0000 0000 0000 0000 0000 0000 0000
0.00079660857 0.0006110101 0.00024520457 0.00062067277 0.00041635684 0.00032726733 0.00015725677 0.0
-3.8724404e-05 0.000108838154 2.581612e-06 4.763981e-05 0.0001793529 0.00063894916 0.0029172227 0.0004522211
0.00056795473 4.7583762e-05 0.00074646657 2.517069e-05 3.2270157e-06 0.00047717371 1.419887e-05 1.0971861e-05
6.116842e-06 2.107813e-05 9.035644e-06 4.5178226e-06 0.00027287332 9.886724e-05 0.00016738201 6.0775907e-05
0.0008002999 0.00036911128 0.0 0.0 0.0 0.0 0.0 0.0
0.0 0.0 0.0 0.0 0.0 0.0 0.0 0.0
0.0 0.0 0.0 0.0 0.0 0.0 0.0 0.0
0.0 0.0 0.0 0.0 0.0 0.0 0.0 0.0
0.0 0.0 0.0 0.0 0.0 0.0 0.0 0.0
0.0 0.0 0.0 0.0 0.0 0.0 0.0 0.0
0.0 0.0 0.0 0.0 0.0 0.0 0.0 0.0
0.0 0.0 0.0 0.0 0.0 0.0 0.0 0.0
0.0 0.0 0.0 0.0 0.0 0.0 -0.0018986384 -0.002191047
-0.00082348374 -0.0027303826 -0.0017500343 -0.001292928 -0.0004270112 0.0 -6.0813403e-05 -0.0005928865
-1.006111e-05 -0.00016567434 -0.0011109555 -0.0021453337 -0.0011496618 -0.00080539304 -0.0037106709 -0.00018101934
-0.0023136933 -3.392556e-05 -1.18283015e-05 -0.0033979414 -3.6290694e-05 -4.2400665e-05 -7.419341e-05 -9.58278e-05
-1.921997e-05 -7.215781e-05 -0.0007177829 -0.00024021164 -0.0007270187 -0.00026178558 -0.008189269 -0.004381477
0.00031405283 0.00047192723 0.0001666547 0.0006830751 0.00039573407 0.00023213505 6.6316745e-05 0.0
5.7192005e-06 0.00010244662 2.3668847e-06 3.5556837e-05 0.00014229651 0.00031756246 0.0012936202 0.000113754795
0.00046911498 3.489078e-05 0.0004983964 6.5412123e-06 3.6348652e-06 0.0007002299 9.4770885e-06 9.002852e-06
1.3383173e-05 1.5075738e-05 2.3694324e-06 1.0763679e-05 0.00015786233 5.174128e-05 0.00015398348 3.84123e-05
0.0018139944 0.00069813145 -6.370272e-15 -7.774811e-15 -2.8254882e-15 -9.082853e-15 -4.7578374e-15 -2.92639e-15
-1.2683578e-15 0.0 -9.7229426e-20 -1.5505949e-15 -3.10599e-17 -5.736276e-16 -3.3277868e-15 -7.491393e-15
-1.4923008e-15 -1.6124015e-15 -7.243268e-15 -6.4160935e-16 -8.20105e-15 -6.913545e-17 -1.8366477e-17 -6.3352893e-15
-6.280193e-17 -2.3068082e-16 -2.7083976e-16 -3.3915342e-16 -5.4043078e-17 6.163789e-17 -1.8445303e-15 -4.9036553e-16
-1.5128634e-15 3.1111428e-16 -5.3833704e-15 -1.879393e-15 1.7392534e-08 1.8103103e-08 6.8543913e-09 2.1217868e-08
1.48757415e-08 1.1835905e-08 3.4622905e-09 0.0 -5.7518657e-10 4.1512482e-09 6.986057e-11 1.3718549e-09
5.615801e-09 1.8265904e-08 8.7391285e-08 5.690896e-09 1.7354191e-08 1.4813382e-09 2.183713e-08 3.9949327e-10
1.134607e-10 2.3047667e-08 4.3105672e-10 3.5228173e-10 2.8421282e-10 6.0538247e-10 1.1722165e-09 2.5220304e-10
6.402406e-09 2.3914253e-09 6.437398e-09 1.4067009e-09 2.3911607e-08 1.3415653e-08 0.0 0.0
0.0 0.0 0.0 0.0 0.0 0.0 0.0 0.0
0.0 0.0 0.0 0.0 0.0 0.0 0.0 0.0

exp_avg_sq f4 [20, 34]
00000000: ac01 5335 5646 f834 42f0 9f33 3f18 0035
00000010: 2191 6634 ef73 0e34 f690 0333 0000 0000
00000020: f74b ff30 f015 7c32 da3b 112d c530 4131
00000030: f022 2b33 e1bf 0735 a9db 3037 e5ff 8734
00000040: 8a84 d634 76bc 4031 7747 3935 08b9 5730
00000050: 8ced 622d 076c 9734 954a 892f a3f4 232f
00000060: e1d5 4b2e a146 1730 aa63 de2e aa63 de2d
00000070: d211 c633 5603 5032 c80d 1533 9c35 9d31
00000080: 6af7 5435 8e35 3534 0000 0000 0000 0000
00000090: 0000 0000 0000 0000 0000 0000 0000 0000
000000a0: 0000 0000 0000 0000 0000 0000 0000 0000
000000b0: 0000 0000 0000 0000 0000 0000 0000 0000
000000c0: 0000 0000 0000 0000 0000 0000 0000 0000
000000d0: 0000 0000 0000 0000 0000 0000 0000 0000
000000e0: 0000 0000 0000 0000 0000 0000 0000 0000
000000f0: 0000 0000 0000 0000 0000 0000 0000 0000
00000100: 0000 0000 0000 0000 0000 0000 0000 0000
00000110: 0000 0000 0000 0000 0000 0000 0000 0000
00000120: 0000 0000 0000 0000 0000 0000 0000 0000
00000130: 0000 0000 0000 0000 0000 0000 0000 0000
00000140: 0000 0000 0000 0000 0000 0000 0000 0000
00000150: 0000 0000 0000 0000 0000 0000 0000 0000
00000160: 0000 0000 0000 0000 0000 0000 0000 0000
00000170: 0000 0000 0000 0000 0000 0000 0000 0000
00000180: 0000 0000 0000 0000 0000 0000 0000 0000
00000190: 0000 0000 0000 0000 68e1 1035 9e27 4135
000001a0: c3ba da33 35f5 9935 f8b3 0135 824c 8b34
000001b0: 5775 e032 0000 0000 580b c130 a38d 8433
000001c0: 2c22 7f2d 136e 8e31 8d8e 5534 7460 3835
000001d0: 17f4 9034 d39c 0c34 1778 2236 08b7 a531
000001e0: ea41 5335 962d 802f 69b5 a92d 4abb e935
000001f0: f380 432f 2419 962f cb91 9030 299b c230
00000200: eb07 982e 8ff2 7a30 a60c a333 cda9 0f32
00000210: 8fa0 b633 ac88 1732 a6a4 2337 746c 4836
00000220: 4471 2932 534f bf32 dddb 3e31 fa65 4833
00000230: a685 8632 bf26 b931 96c6 f12f 0000 0000
00000240: 042a 662c d33e 9030 8caf 1d2b 5a02 0b2f
00000250: ee24 0b31 1c40 2d32 4faf 3334 1cd9 b130
00000260: 6709 bd32 9ad9 052f 275f d532 738b 962c
00000270: d7f1 b92b 4197 5233 df00 1e2d 0d96 0e2d
00000280: 968b 9d2d 15ea c72d d100 1e2b f1d0 4b2d
00000290: 6440 2b31 782d 932f 61f0 2231 913b 222f
000002a0: 35a9 b034 9a54 5133 6e13 b111 691f b311
000002b0: a5dd 4910 97dc d911 871e 2011 4851 a410
000002c0: 5584 500f 0000 0000 be67 6500 9257 920f
000002d0: d0cd c409 32e2 030e 7386 7b10 3563 b411
000002e0: 8adc 170f e742 570f 80b2 1a11 a864 210e
000002f0: dc33 db11 4c39 c30a c255 210a 7166 3011
00000300: 1364 9c0b aadf 590c 4697 0b0d 4865 310d
00000310: 3b2b 160a cb0d cb0a 6f10 ad0f 7dc1 280e
00000320: eee6 960f a8fd 260e f07f 1612 22dd 5312
00000330: d4a3 3c25 ed49 2325 a2e1 c523 a2ac 4825
00000340: b0f0 bc24 a1e2 6824 c89d c422 0000 0000
00000350: 5c89 ad21 9a61 e822 71df 341d 30b6 7121
00000360: 4c8b 5423 da81 2b25 54ab 6227 e3d2 3224
00000370: 1664 0a25 454e 8f21 46e0 8225 b6f4 4e20
00000380: b956 9b1d fd55 ab25 4abe b01f ad72 6c1f
00000390: 0251 b41e 3d37 1d20 6891 5c20 d026 5e1e
000003a0: e42a ba23 f477 6522 bb35 6423 b8ab a721
000003b0: b25b 8825 56df 2f24 0000 0000 0000 0000
000003c0: 0000 0000 0000 0000 0000 0000 0000 0000
000003d0: 0000 0000 0000 0000 0000 0000 0000 0000
000003e0: 0000 0000 0000 0000 0000 0000 0000 0000
000003f0: 0000 0000 0000 0000 0000 0000 0000 0000
7.860606e-07 4.6244776e-07 7.447717e-08 4.7719e-07 2.1473217e-07 1.3266957e-07 3.0632656e-08 0.0
1.8575282e-09 1.4673319e-08 8.2555855e-12 2.8112919e-09 3.9845816e-08 5.057064e-07 1.0541561e-05 2.5331897e-07
3.995704e-07 2.8046805e-09 6.9021866e-07 7.847949e-10 1.2899359e-11 2.8204542e-07 2.4973149e-10 1.4911676e-10
4.634682e-11 5.503385e-10 1.0113095e-10 2.5282738e-11 9.223335e-08 1.2107952e-08 3.47043e-08 4.575396e-09
7.933619e-07 1.6876422e-07 0.0 0.0 0.0 0.0 0.0 0.0
0.0 0.0 0.0 0.0 0.0 0.0 0.0 0.0
0.0 0.0 0.0 0.0 0.0 0.0 0.0 0.0
0.0 0.0 0.0 0.0 0.0 0.0 0.0 0.0
0.0 0.0 0.0 0.0 0.0 0.0 0.0 0.0
0.0 0.0 0.0 0.0 0.0 0.0 0.0 0.0
0.0 0.0 0.0 0.0 0.0 0.0 0.0 0.0
0.0 0.0 0.0 0.0 0.0 0.0 0.0 0.0
0.0 0.0 0.0 0.0 0.0 0.0 5.397219e-07 7.1955753e-07
1.0185388e-07 1.1470753e-06 4.8318134e-07 2.5946434e-07 2.6130392e-08 0.0 1.4045822e-09 6.1724926e-08
1.45026595e-11 4.145258e-09 1.988903e-07 6.86857e-07 2.699969e-07 1.3095568e-07 2.4209783e-06 4.8229403e-09
7.8699543e-07 2.3315455e-10 1.9293638e-11 1.7414361e-06 1.7780959e-10 2.7302705e-10 1.0518816e-09 1.4159457e-09
6.913566e-11 9.1294167e-10 7.59258e-08 8.362304e-09 8.504241e-08 8.820432e-09 9.753892e-06 2.986545e-06
9.862848e-09 2.2271399e-08 2.7773617e-09 4.6658876e-08 1.566043e-08 5.3886136e-09 4.3978748e-10 0.0
3.270829e-12 1.0495235e-09 5.6021225e-13 1.2642812e-10 2.0248154e-09 1.0084502e-08 1.6734451e-07 1.2940151e-09
2.2006772e-08 1.2173587e-10 2.4839734e-08 4.2787384e-12 1.3212165e-12 4.9032e-08 8.981454e-12 8.1050834e-12
1.7910822e-11 2.2727634e-11 5.613401e-13 1.1585608e-11 2.4920377e-09 2.6771452e-10 2.3710742e-09 1.4754976e-10
3.290567e-07 4.873855e-08 2.793765e-28 2.8260578e-28 3.981101e-29 3.4372512e-28 1.2631181e-28 6.481183e-29
1.0280678e-29 0.0 9.312601e-39 1.4430442e-29 4.737883e-33 1.6255906e-30 4.9604598e-29 2.8460134e-28
7.487349e-30 1.0613203e-29 1.2203462e-28 1.9893246e-30 3.4584068e-28 1.879937e-32 7.767997e-33 1.3915519e-28
6.023959e-32 1.6784378e-31 4.301477e-31 5.466425e-31 7.230368e-33 1.9553377e-32 1.7065447e-29 2.080076e-30
1.4880093e-29 2.058321e-30 4.748935e-28 6.685243e-28 1.6361908e-16 1.4163043e-16 2.1454342e-17 1.7405725e-16
8.1939744e-17 5.0498943e-17 5.3292964e-18 0.0 1.1759295e-18 6.2987066e-18 2.3938318e-21 8.18951e-19
1.152204e-17 1.4875881e-16 3.1456678e-15 3.8776225e-17 1.2003502e-16 9.710775e-19 2.270338e-16 1.7529847e-19
4.1117828e-21 2.972204e-16 7.4853706e-20 5.00698e-20 1.9091745e-20 1.3316694e-19 1.8682836e-19 1.1760608e-20
2.0184325e-17 3.109879e-18 1.2371283e-17 1.1361814e-18 2.3654374e-16 3.813625e-17 0.0 0.0
0.0 0.0 0.0 0.0 0.0 0.0 0.0 0.0
0.0 0.0 0.0 0.0 0.0 0.0 0.0 0.0

exp_avg f4 [20, 5]
00000000: c51c 7c36 f604 9d36 0000 0000 0d25 251e
00000010: 144c 2ab2 0000 0000 0000 0000 0000 0000
00000020: 0000 0000 0000 0000 0000 0000 0000 0000
00000030: 0000 0000 0000 0000 0000 0000 07e0 1137
00000040: 02de 3837 0000 0000 0a30 29b7 bf92 10a3
00000050: c0fb 7136 3c29 7236 0000 0000 dd3b 6c22
00000060: 620e 6033 f222 d825 d15f 8724 0000 0000
00000070: fcda ef9f c71a 0080 4cd9 492e 71bb ef2e
00000080: 0000 0000 0000 0000 8a63 0fae 0000 0000
00000090: 0000 0000 0000 0000 0000 0000 0000 0000
000000a0: ca71 4417 d20a 2d89 0000 0000 ca71 4497
000000b0: 0000 0000 5705 2aaf 2820 2d2f 0000 0000
000000c0: ee57 0000 6605 d81c 09f1 9eb9 fcb9 0cb9
000000d0: 0000 0000 d21f 2a38 990e 4239 4ab1 f5b8
000000e0: 632c 1bb6 0000 0000 8631 4438 f8af 3f2c
000000f0: 0000 0000 0000 0000 0000 0000 0000 0000
00000100: 0000 0000 0000 0000 0000 0000 0000 0000
00000110: 0000 0000 0000 0000 20b8 7c1f 4d70 d224
00000120: 0000 0000 0000 0000 29f8 44a1 e88e 4a38
00000130: bd19 6a38 0000 0000 0425 b1b7 7851 7194
00000140: 0229 50b8 3960 6a38 0000 0000 e818 35b8
00000150: 75e5 d334 0000 0000 0000 0000 0000 0000
00000160: 0000 0000 0000 0000 0000 0000 0000 0000
00000170: 0000 0000 0000 0000 0000 0000 6e5d 0239
00000180: 0179 0239 0000 0000 c622 8c21 7945 d138
3.7567672e-06 4.679542e-06 0.0 8.742689e-21 -9.9126005e-09 0.0 0.0 0.0
0.0 0.0 0.0 0.0 0.0 0.0 0.0 8.694834e-06
1.1018945e-05 0.0 -1.008437e-05 -7.83733e-18 3.6058336e-06 3.6084812e-06 0.0 3.2015655e-18
5.2167145e-08 3.7493707e-16 5.8709237e-17 0.0 -1.01582716e-19 -9.606e-42 4.5895107e-11 1.0901758e-10
0.0 0.0 -3.2602844e-11 0.0 0.0 0.0 0.0 0.0
6.347464e-25 -2.0829205e-33 0.0 -6.347464e-25 0.0 -1.5463307e-10 1.5745683e-10 0.0
3.1543e-41 1.4295076e-21 -0.00030315694 -0.00013420725 0.0 4.0560793e-05 0.0001850672 -0.00011715533
-2.3122636e-06 0.0 4.6776164e-05 2.7240415e-12 0.0 0.0 0.0 0.0
0.0 0.0 0.0 0.0 0.0 0.0 5.351538e-20 9.126323e-17
0.0 0.0 -6.673582e-19 4.8293645e-05 5.5813918e-05 0.0 -2.1117281e-05 -1.21834575e-26
-4.9629256e-05 5.5879562e-05 0.0 -4.317696e-05 3.9468765e-07 0.0 0.0 0.0
0.0 0.0 0.0 0.0 0.0 0.0 0.0 0.00012432571
0.00012442844 0.0 9.495973e-19 9.978837e-05

exp_avg_sq f4 [20, 5]
00000000: 4ac6 992d 7698 ee2d 0000 0000 cc3c 0000
00000010: b053 0c25 0000 0000 0000 0000 0000 0000
00000020: 0000 0000 0000 0000 0000 0000 0000 0000
00000030: 0000 0000 0000 0000 0000 0000 661c b62d
00000040: 1002 062e 0000 0000 3c90 ad2d 44a2 0205
00000050: 0dfd b62b 5041 b72b 0000 0000 433f bd04
00000060: f1e0 9c25 128d 170c 1a5c b20a 0000 0000
00000070: e66b 2000 0000 0000 c692 c11b cf97 871d
00000080: 0000 0000 0000 0000 33f8 c61c 0000 0000
00000090: 0000 0000 0000 0000 0000 0000 0000 0000
000000a0: 0000 0000 0000 0000 0000 0000 0000 0000
000000b0: 0000 0000 b968 891d 2e79 8e1d 0000 0000
000000c0: 0000 0000 cb00 0000 439c ce31 6943 8232
000000d0: 0000 0000 1c98 f32f 015d 6b31 9b94 d230
000000e0: 355a a02e 0000 0000 f862 6c30 6ea9 ae17
000000f0: 0000 0000 0000 0000 0000 0000 0000 0000
00000100: 0000 0000 0000 0000 0000 0000 0000 0000
00000110: 0000 0000 0000 0000 02a1 2600 1847 560a
00000120: 0000 0000 0000 0000 c1b9 3b03 59dc 8a2f
00000130: 7d36 3f30 0000 0000 89f0 e82f 0000 0000
00000140: e9f0 1230 7ea6 d32f 0000 0000 0e8a 0a30
00000150: dd21 e929 0000 0000 0000 0000 0000 0000
00000160: 0000 0000 0000 0000 0000 0000 0000 0000
00000170: 0000 0000 0000 0000 0000 0000 2070 d430
00000180: fdc9 d430 0000 0000 c479 f501 9bdb 8830
1.7482144e-11 2.7125174e-11 0.0 2.181e-41 1.2171419e-16 0.0 0.0 0.0
0.0 0.0 0.0 0.0 0.0 0.0 0.0 2.0703616e-11
3.0469904e-11 0.0 1.9731876e-11 6.142374e-36 1.3002113e-12 1.302106e-12 0.0 4.4491783e-36
2.7214112e-16 1.1675069e-31 1.7175421e-32 0.0 2.977443e-39 0.0 3.2024022e-22 3.589117e-21
0.0 0.0 1.3166699e-21 0.0 0.0 0.0 0.0 0.0
0.0 0.0 0.0 0.0 0.0 3.637188e-21 3.7712384e-21 0.0
0.0 2.84e-43 6.013154e-09 1.5164646e-08 0.0 4.4309523e-10 3.4249867e-09 1.5321747e-09
7.2919816e-11 0.0 8.5996943e-10 1.1287257e-24 0.0 0.0 0.0 0.0
0.0 0.0 0.0 0.0 0.0 0.0 3.547508e-39 1.03170965e-32
0.0 0.0 5.5167596e-37 2.525862e-10 6.956283e-10 0.0 4.2371465e-10 0.0
5.3456845e-10 3.8498976e-10 0.0 5.0400295e-10 1.0353153e-13 0.0 0.0 0.0
0.0 0.0 0.0 0.0 0.0 0.0 0.0 1.5456898e-09
1.5482439e-09 0.0 9.017351e-38 9.957718e-10

exp_avg f4 [20]
00000000: b38f d836 0000 0000 0000 0000 be7c bcb7
00000010: baff 9e36 500d b2a4 dbba 4b2f 0000 0000
00000020: 22f8 8097 ef51 632f 0276 8a3a f1e2 2339
00000030: 0000 0000 0000 0000 028e 0c25 e17f 9eb8
00000040: d105 02b9 0000 0000 0000 0000 77fa 2b39
6.4540304e-06 0.0 0.0 -2.2469434e-05 4.7385374e-06 -7.721775e-17 1.8529127e-10 0.0
-8.334444e-25 2.0674638e-10 0.0010563734 0.00015629434 0.0 0.0 1.2191178e-16 -7.5578464e-05
-0.00012399933 0.0 0.0 0.00016401136

exp_avg_sq f4 [20]
00000000: 8aed 622e 0000 0000 0000 0000 6e9e a72e
00000010: d100 1e2c 6dc0 190b dc86 8f1e 0000 0000
00000020: 0000 0000 04a2 f51d 15a1 0c33 af3b 3c31
00000030: 0000 0000 0000 0000 8e2e bf0a b58e aa30
00000040: 6582 0331 0000 0000 0000 0000 75da 3831
5.1597428e-11 0.0 0.0 7.6224235e-11 2.2453604e-12 2.9611493e-32 1.519649e-20 0.0
0.0 6.501848e-21 3.2742793e-08 2.7391527e-09 0.0 0.0 1.8410143e-32 1.2409688e-09
1.913713e-09 0.0 0.0 2.6899702e-09

exp_avg f4 [20]
00000000: b38f d836 0000 0000 0000 0000 be7c bcb7
00000010: baff 9e36 500d b2a4 dbba 4b2f 0000 0000
00000020: 23f8 8097 ee51 632f 0276 8a3a f0e2 2339
00000030: 0000 0000 0000 0000 ff8d 0c25 e17f 9eb8
00000040: d305 02b9 0000 0000 0000 0000 77fa 2b39
6.4540304e-06 0.0 0.0 -2.2469434e-05 4.7385374e-06 -7.721775e-17 1.8529127e-10 0.0
-8.334445e-25 2.0674637e-10 0.0010563734 0.00015629432 0.0 0.0 1.2191174e-16 -7.5578464e-05
-0.00012399936 0.0 0.0 0.00016401136

exp_avg_sq f4 [20]
00000000: 88ed 622e 0000 0000 0000 0000 6e9e a72e
00000010: d100 1e2c 6cc0 190b dc86 8f1e 0000 0000
00000020: 0000 0000 01a2 f51d 14a1 0c33 ad3b 3c31
00000030: 0000 0000 0000 0000 8c2e bf0a b58e aa30
00000040: 6782 0331 0000 0000 0000 0000 75da 3831
5.159742e-11 0.0 0.0 7.6224235e-11 2.2453604e-12 2.961149e-32 1.519649e-20 0.0
0.0 6.501847e-21 3.274279e-08 2.7391522e-09 0.0 0.0 1.841014e-32 1.2409688e-09
1.9137134e-09 0.0 0.0 2.6899702e-09

exp_avg f4 [2, 5]
00000000: 701f 2cbd e117 943d 0000 0000 5a59 09bd
00000010: e0a8 aebc 701f 2c3d e217 94bd 0000 0000
00000020: 5a59 093d e0a8 ae3c
-0.04202217 0.07231117 0.0 -0.033532478 -0.02132076 0.04202217 -0.07231118 0.0
0.033532478 0.02132076

exp_avg_sq f4 [2, 5]
00000000: 7a24 0e39 3e87 e539 0000 0000 257e 0139
00000010: c589 4a38 7a24 0e39 3e87 e539 0000 0000
00000020: 257e 0139 c589 4a38
0.00013555764 0.00043779047 0.0 0.00012349391 4.828886e-05 0.00013555764 0.00043779047 0.0
0.00012349391 4.828886e-05

exp_avg f4 [2]
00000000: f2a9 d1be f3a9 d13e
-0.4094997 0.40949973

exp_avg_sq f4 [2]
00000000: 0ea2 7b3b 0ea2 7b3b
0.0038396153 0.0038396153
