MimicApp/lightning_logs/version_23/checkpoints/epoch=99-step=999.ckpt (torch, 15980 bytes, 18 tensors)

lstm.weight_ih_l0 f4 [20, 34]
0	0x3e638981	0.22220422
1	0x3e40c9c1	0.18826963
2	0xbe7ef18f	-0.24896835
3	0xbebb69cb	-0.3660415
4	0x3db42750	0.08796561
5	0xbc283398	-0.010266207
6	0x3e90ef57	0.28307602
7	0xbe9b61fa	-0.30348188
8	0x3eef35ca	0.46720725
9	0x3ed80485	0.42190948
10	0x3ced45ad	0.028963888
11	0x3ecf8619	0.40531996
12	0xbe8b7a31	-0.27241662
13	0xbdc50adf	-0.09621214
14	0x3e2a2341	0.16615011
15	0x3e9150f3	0.28382072
16	0xbe1073bf	-0.14106654
17	0xbeb5e322	-0.3552485
18	0x3e8d2383	0.27566156
19	0x3eeb3431	0.45938256
20	0xbda8a008	-0.082336485
21	0x3e2e3e71	0.17016007
22	0x3ca01c0c	0.019544624
23	0x3e893c2f	0.2680373
24	0x3cf9fd74	0.030516364
25	0x3e53f022	0.20697072
26	0x3ebfbb40	0.37447548
27	0xbe8501cf	-0.25977942
28	0x3eaaba15	0.33345094
29	0xbdbc9ac3	-0.09209206
30	0x3e55c7d9	0.20877017
31	0xbe63c7fc	-0.22244257
32	0x3e5a8399	0.21339263
33	0x3e0b2730	0.13589168
34	0x3e244aac	0.1604411
35	0xbef1056f	-0.47074458
36	0xbd284719	-0.04108343
37	0xbd7f4ff4	-0.06233211
38	0xbea2a115	-0.3176352
39	0x3dad6510	0.08466542
40	0x3ca41ce2	0.020033304
41	0x3e8f6708	0.28008294
42	0xbe3df1db	-0.18549292
43	0xbca9844f	-0.020692972
44	0xbedec242	-0.43507582
45	0xbee1ea61	-0.4412413
46	0xbef86215	-0.4851233
47	0x3d604b03	0.054759037
48	0x3dd96452	0.10614838
49	0x3ec94635	0.39311376
50	0xbd48f0aa	-0.04905764
51	0xbe8a1eb1	-0.2697654
52	0xbea12721	-0.31475165
53	0xbe3c9004	-0.18414313
54	0xbecd2762	-0.4006911
55	0xbc8d8c7e	-0.017278906
56	0xbe87a90d	-0.26496163
57	0x3ea91394	0.3302275
58	0x3ea7b56b	0.32755598
59	0x3de37253	0.1110579
60	0x3e5865cc	0.21132582
61	0x3e77fda0	0.24217844
62	0xbebf7627	-0.3739483
63	0x3e922f5e	0.28551763
64	0x3c826792	0.015918527
65	0xbcfe1d70	-0.031019896
66	0x3e60fd94	0.21971732
67	0x3dcb5165	0.09927634
68	0x3e7ee034	0.24890214
69	0x3ea5e43a	0.32400686
70	0xbe6d0c4c	-0.23149222
71	0xbe9b7500	-0.303627
72	0xbea2dbb8	-0.31808257
73	0xbe92a421	-0.28640845
74	0xbe4c0617	-0.19924198
75	0xbe6f5f11	-0.23376109
76	0x3e93b03c	0.28845394
77	0x3e96da2e	0.29463333
78	0xbe93da08	-0.28877282
79	0xbe71e9b8	-0.23624313
80	0x3e2c8a68	0.16849673
81	0xbecba6fc	-0.39775836
82	0x3e0aea94	0.13566047
83	0x3dbc5b58	0.0919711
84	0xbe4bc77b	-0.19900315
85	0xbeb45916	-0.35224217
86	0x3e7db3ec	0.24775666
87	0xbda5d934	-0.08098069
88	0xbe1328a2	-0.14370969
89	0xbebe6afe	-0.37191004
90	0x3ea16610	0.3152318
91	0x3ed34862	0.4126616
92	0x3eb7555e	0.35807317
93	0x3d9d0bb0	0.07668245
94	0x3e5df1e0	0.21674299
95	0x3e9abef8	0.30223823
96	0x3e89d048	0.26916718
97	0x3eae46dc	0.34038436
98	0x3e126a4c	0.14298362
99	0x3ceaf490	0.02868107
100	0xbcf54a60	-0.029942691
101	0x3e15aa80	0.14615822
102	0xbdd13d58	-0.102167785
103	0xbd442920	-0.047890782
104	0x3e8cb166	0.27479094
105	0xbea3435a	-0.31887323
106	0xbe85fe1f	-0.26170442
107	0xbec12d54	-0.37729895
108	0xbeaa79e0	-0.33296108
109	0x3ecd33e0	0.4007864
110	0xbe8bc328	-0.2729733
111	0xbea836ee	-0.32854408
112	0xbe6c43b2	-0.23072699
113	0xbdcd8814	-0.100357205
114	0xbe605863	-0.21908717
115	0xbd20a350	-0.039218247
116	0xbe47a3ce	-0.1949608
117	0xbc5d46c0	-0.013505638
118	0xbe0f1a5a	-0.13974896
119	0x3d8fea68	0.07027131
120	0x3c8a9470	0.016916484
121	0x3d68e2d0	0.05685693
122	0x3e99553a	0.29947835
123	0xbe315826	-0.17318782
124	0xbebb5d27	-0.36594507
125	0x3eac534a	0.33657295
126	0x3e22ee4c	0.15911216
127	0x3df65700	0.12028313
128	0x3e16dd78	0.14732921
129	0xbedc4e32	-0.43028408
130	0x3dbe4d48	0.09292084
131	0x3dd907b8	0.10597175
132	0xbe8ea99d	-0.2786378
133	0xbe7b8609	-0.24562849
134	0xbc80f180	-0.015740156
135	0x3d8051f0	0.06265628
136	0xbea80de8	-0.3282311
137	0x3e05de09	0.13072981
138	0x3dfc4c36	0.123192236
139	0x3efd7ef3	0.49510917
140	0x3eeeaf8a	0.466183
141	0xbea051cb	-0.31312403
142	0x3e95ae54	0.29234564
143	0x3e241cfc	0.16026682
144	0xbcf1a255	-0.029496351
145	0xbd89f3b1	-0.067359336
146	0xbca9064a	-0.020632882
147	0x3e22ed3d	0.15910812
148	0xbeb4ee32	-0.3533798
149	0xbe1f659b	-0.15566103
150	0x3e9aa365	0.30202785
151	0xbe02d977	-0.12778269
152	0x3f05be47	0.52243465
153	0xbe758db8	-0.23979843
154	0x3e532133	0.20618133
155	0xbdf1a77f	-0.117995255
156	0x3e9acba0	0.3023348
157	0x3ec7be27	0.39012262
158	0x3f03dddb	0.515104
159	0x3ea7ae6a	0.32750255
160	0x3f03bbe5	0.5145858
161	0xbe57ea77	-0.21085535
162	0x3eec6838	0.46173263
163	0xbe97304e	-0.2952904
164	0x3eebc5fa	0.46049482
165	0x3eea94ee	0.4581675
166	0xbdaa7234	-0.08322564
167	0x3e861be1	0.26193145
168	0xbe92c7ff	-0.2866821
169	0x3eb1a6eb	0.3469766
170	0xbea145a6	-0.3149845
171	0xbe216d6e	-0.157644
172	0x3ed275a4	0.41105378
173	0x3e902820	0.28155613
174	0x3cb926b0	0.022601455
175	0x3eb96588	0.36210275
176	0xbea4f584	-0.32218564
177	0x3e8485d2	0.25883347
178	0xbec60495	-0.3867537
179	0xbe0196fe	-0.12655255
180	0x3e9ac550	0.30228662
181	0xbde6e1fc	-0.11273572
182	0x3d89b4a8	0.067239106
183	0x3e873f86	0.26415652
184	0x3e3e3918	0.18576467
185	0x3e249590	0.16072679
186	0xbdde31f0	-0.108493686
187	0xbad5e700	-0.0016319454
188	0x3e93a440	0.2883625
189	0x3e75cf64	0.24004894
190	0xbe2fa490	-0.1715262
191	0xbcda0c50	-0.0266172
192	0x3ed7d5da	0.42155343
193	0xbe84af5c	-0.2591504
194	0xbd1900e0	-0.03735435
195	0xbead903a	-0.338991
196	0x3ec73a18	0.3891151
197	0x3cdd8460	0.02704066
198	0xbe721548	-0.2364093
199	0x3e921212	0.28529412
200	0x3ecd198e	0.4005856
201	0x3df964a0	0.12177396
202	0x3e563ad8	0.20920885
203	0x3e688b8c	0.22709483
204	0x3da450f2	0.080232516
205	0x3e96ff76	0.29491776
206	0x3c291603	0.010320189
207	0xbea566ac	-0.32304895
208	0x3e2db8cb	0.16965024
209	0xbe810a78	-0.252033
210	0x3e86cf4e	0.26330036
211	0x3eaf848e	0.3428082
212	0x3d96b3c1	0.07358504
213	0x3c9ddc18	0.019269988
214	0xbeea0d9f	-0.45713517
215	0x3e7316b4	0.2373913
216	0xbedee48b	-0.4353374
217	0x3eac07b3	0.33599624
218	0xbe834fe8	-0.256469
219	0x3e98f67c	0.29875553
220	0xbe2bbf73	-0.16772251
221	0xbe246b3e	-0.16056535
222	0xbe943377	-0.28945515
223	0xbe47d233	-0.19513778
224	0xbe210b84	-0.15727049
225	0x3e20b6fd	0.15694804
226	0xbe54dc9d	-0.20787282
227	0xbe8ece1f	-0.27891633
228	0xbdc95654	-0.09830919
229	0xbcd7f1d9	-0.02636044
230	0x3d79ecba	0.061016776
231	0xbecef167	-0.4041855
232	0xbcacd511	-0.021097692
233	0xbdfe7ab9	-0.12425751
234	0x3df0f13a	0.1176476
235	0xbe74c758	-0.23904169
236	0x3e5701a0	0.20996714
237	0x3d979617	0.07401674
238	0x3e92d5a2	0.28678614
239	0x3e8c932e	0.2745604
240	0xbd889384	-0.066687614
241	0xbd3ed560	-0.04659021
242	0x3ed4f29e	0.41591352
243	0xbe9ad7c3	-0.30242738
244	0xbe9f945a	-0.3116787
245	0x3ebdf048	0.37097383
246	0x3dccbdf0	0.09997165
247	0x3ec33fae	0.3813452
248	0xbedfae67	-0.43687746
249	0xbe3ac3a6	-0.18238696
250	0x3e2b4598	0.16725767
251	0x3e486ef8	0.19573581
252	0x3e8c885c	0.27447784
253	0x3e9c050e	0.30472606
254	0x3d990e30	0.07473409
255	0x3ecd3fb2	0.40087658

lstm.weight_hh_l0 f4 [20, 5]
0	0x3e27a50d	0.16371556
1	0xbe0126dc	-0.1261248
2	0xbe9267ba	-0.28594762
3	0xbe08fa7e	-0.13376805
4	0x3ed3772f	0.41301867
5	0x3e9fed4d	0.31235734
6	0xbf02a6be	-0.5103568
7	0x3ed0945a	0.40738183
8	0x3e799e14	0.24376708
9	0xbeacfe17	-0.33787605
10	0x3e9ceac4	0.30647862
11	0x3e495a94	0.19663459
12	0x3db075f8	0.08616251
13	0x3e00b394	0.12568504
14	0x3ec3571a	0.3815239
15	0x3eca1bf2	0.39474446
16	0xbd7f8c40	-0.062389612
17	0xbea19e86	-0.31566256
18	0xbd807778	-0.06272787
19	0xbd943008	-0.07235724
20	0x3eff4ac3	0.49861726
21	0xbed47221	-0.41493323
22	0xbe80f4d2	-0.25186783
23	0x3e8c2d1a	0.2737816
24	0x3d84db39	0.06487126
25	0xbd167758	-0.03673491
26	0x3e70a510	0.23500466
27	0xbe85c97e	-0.2613029
28	0xbcaa9ce0	-0.020826757
29	0xbeb193cb	-0.3468307
30	0x3ebbe5fd	0.36698905
31	0xbe83a49d	-0.25711527
32	0x3e8a718e	0.2703976
33	0x3d535d18	0.051602453
34	0x3dc6603f	0.09686326
35	0x3e5bfe08	0.21483624
36	0x3d916850	0.07099974
37	0xbec7da14	-0.39033568
38	0x3ce9c790	0.028537542
39	0xbece9ea1	-0.403554
40	0x3ed758f0	0.4206004
41	0x3eb42a88	0.351887
42	0x3d006ce8	0.03135386
43	0x3e97b59a	0.29630738
44	0xbde19260	-0.11014247
45	0x3ebf0a25	0.37312427
46	0x3cc5553f	0.0240885
47	0x3ea3e702	0.32012182
48	0xbe80daae	-0.2516684
49	0x3e9857cf	0.29754493
50	0x3ebd4614	0.36967528
51	0x3e312eb0	0.17302966
52	0x3c82a9b0	0.015950054
53	0xbe02979c	-0.12753147
54	0xbcbaf3e0	-0.022821367
55	0xbe07f304	-0.13276297
56	0xbe00639c	-0.12537998
57	0x3e3da394	0.18519431
58	0x3e7c3000	0.24627686
59	0x3e593015	0.21209748
60	0xbeaf0819	-0.34185866
61	0x3d586920	0.05283463
62	0xbe04afaa	-0.12957636
63	0xbc2d6d20	-0.010585099
64	0xbecb8c07	-0.3975527
65	0xbdc27b98	-0.0949623
66	0xbddb81ec	-0.1071814
67	0x3e469444	0.19392496
68	0xbdcfa294	-0.10138431
69	0xbd7d9678	-0.061911076
70	0x3e5839ce	0.211158
71	0x3ee97a34	0.45601046
72	0xbe72c0db	-0.23706381
73	0xbe53a423	-0.20668082
74	0x3dd90f6e	0.10598646
75	0xbe8c3c02	-0.27389532
76	0x3eb06071	0.3444858
77	0x3ee376de	0.44426626
78	0x3ea80efe	0.32823938
79	0xbe8b0e95	-0.27159563
80	0x3ded5aae	0.115895614
81	0x3cd59b8f	0.026075153
82	0xbe987a80	-0.2978096
83	0xbe0d8906	-0.13821802
84	0x3ea1ea7d	0.31624213
85	0xbe90c3c0	-0.28274345
86	0x3c8a2270	0.016862124
87	0xbe92db65	-0.2868301
88	0x3d7b5280	0.061357975
89	0x3e4b0a88	0.19828236
90	0x3d8f3660	0.06992793
91	0xbd971160	-0.07376361
92	0x3e4d4928	0.20047438
93	0x3ec63c4a	0.38717872
94	0x3e231fb0	0.15930057
95	0x3f1cfed8	0.6132636
96	0xbeadcd11	-0.33945516
97	0xbe0c30c4	-0.13690478
98	0xbd271018	-0.040786833
99	0xbe692ba9	-0.22770561

lstm.bias_ih_l0 f4 [20]
0	0x3e2660ee	0.16247913
1	0xbd84dd3e	-0.06487511
2	0x3e38706c	0.18011636
3	0xbdbc1e54	-0.09185472
4	0xbea57f6e	-0.32323784
5	0xbe4f8e8d	-0.20269223
6	0xbe396e11	-0.18108393
7	0x3ec43594	0.38322127
8	0x3ea7f758	0.32805896
9	0x3e120dd1	0.14263083
10	0xbe87a174	-0.26490366
11	0xbecce6ab	-0.40019736
12	0xbe5ba25d	-0.21448655
13	0x3ee2c620	0.44291782
14	0x3cb1771e	0.021663245
15	0xbc9ec7d4	-0.019382395
16	0x3e9eb9c4	0.31001103
17	0x3e14a658	0.1451658
18	0x3da224a8	0.07917148
19	0x3e426c27	0.1898657

lstm.bias_hh_l0 f4 [20]
0	0x3ef44b13	0.47713527
1	0xbe7bbf35	-0.24584658
2	0x3e85cdc2	0.26133543
3	0xbdf107d0	-0.11769068
4	0x3eb28f35	0.34874883
5	0x3ec4e01c	0.38452232
6	0xbec7855e	-0.3896894
7	0xbea6d01b	-0.32580647
8	0xbed8e3ad	-0.42361203
9	0x3ef3a987	0.47590277
10	0x3eb98cc0	0.36240196
11	0xbece6693	-0.40312633
12	0x3e9702b8	0.29494262
13	0xbe12b532	-0.14326933
14	0x3ca01a20	0.019543707
15	0xbe74294b	-0.23843877
16	0xbe3f383b	-0.18673794
17	0x3e790a08	0.24320233
18	0x3ea40b04	0.32039654
19	0xbe380b42	-0.17973045

linear.weight f4 [2, 5]
0	0x3ec655f8	0.38737464
1	0xbed94103	-0.42432413
2	0x3e73410c	0.23755282
3	0x3e16e768	0.14736712
4	0xbee12af2	-0.43978077
5	0xbf243e90	-0.6415796
6	0x3e71eeca	0.23626247
7	0x3e95546c	0.2916597
8	0x3dc9d8d8	0.09855813
9	0x3f2d7b1b	0.6776597

linear.bias f4 [2]
0	0x3f43a437	0.76422447
1	0xbf048b74	-0.5177529

exp_avg f4 [20, 34]
0	0xb4b6cd08	-3.4049322e-07
1	0xb4e5f008	-4.282922e-07
2	0xb42603d7	-1.5461352e-07
3	0xb51e14d2	-5.8889884e-07
4	0xb4e715fa	-4.3043093e-07
5	0xb4b23364	-3.3192475e-07
6	0xb34125ca	-4.4970683e-08
7	0x00000000	0.0
8	0xb19328fa	-4.2829216e-09
9	0xb3f85526	-1.1563888e-07
10	0xb11328fa	-2.1414608e-09
11	0xb3087db0	-3.177928e-08
12	0xb437f338	-1.7131686e-07
13	0xb4e3a363	-4.2400924e-07
14	0xb3ef2296	-1.1135596e-07
15	0xb35cbd77	-5.139506e-08
16	0xb609acd6	-2.0515195e-06
17	0xb31e3274	-3.683313e-08
18	0xb4ecd5f2	-4.411409e-07
19	0xb11328fa	-2.1414608e-09
20	0xb19328fa	-4.2829216e-09
21	0xb503107e	-4.88253e-07
22	0xb1b09793	-5.139506e-09
23	0xb20bcd54	-8.137551e-09
24	0xb2a1e046	-1.8844855e-08
25	0xb28f7b28	-1.6703396e-08
26	0xb1309793	-2.569753e-09
27	0xb4454956	-1.8373734e-07
28	0xb4148a29	-1.3833836e-07
29	0xb3361c4e	-4.240092e-08
30	0xb40a6c25	-1.2891594e-07
31	0xb31e3274	-3.683313e-08
32	0xb4ea894e	-4.36858e-07
33	0xb4a7dabc	-3.1265324e-07
34	0xb8c76219	-9.5073316e-05
35	0xb81c6d01	-3.7294816e-05
36	0xb7b938a2	-2.208009e-05
37	0xb9750d72	-0.0002337003
38	0x38f4ed4a	0.00011679025
39	0xb96f6a29	-0.00022832364
40	0x38dc2dd8	0.000104989565
41	0x00000000	0.0
42	0xb8966a0d	-7.172311e-05
43	0xb834dab4	-4.3119027e-05
44	0xb591f155	-1.0873579e-06
45	0xb690bee7	-4.3137584e-06
46	0xb711e16e	-8.69516e-06
47	0x37eee13e	2.8476697e-05
48	0xb96a6b62	-0.00022355982
49	0x388b92bb	6.655367e-05
50	0x38361f64	4.3421416e-05
51	0xb74c4be6	-1.2177019e-05
52	0xb839fdbf	-4.4343757e-05
53	0x35625c9a	8.4326314e-07
54	0xb7b66688	-2.1743836e-05
55	0x395a8b9a	0.00020842106
56	0xb76e7347	-1.4212746e-05
57	0xb658ebc4	-3.2323742e-06
58	0xb7483eb5	-1.1935529e-05
59	0x36edbe80	7.0853275e-06
60	0xb7d6280c	-2.5529436e-05
61	0xb79116cc	-1.7295963e-05
62	0xb8953109	-7.114007e-05
63	0xb7dad5cf	-2.6087188e-05
64	0x397a6e59	0.00023882966
65	0x38dbefd2	0.00010487404
66	0x388aff60	6.62792e-05
67	0xba24c2aa	-0.0006285111
68	0x00000000	0.0
69	0x00000000	0.0
70	0x00000000	0.0
71	0x00000000	0.0
72	0x00000000	0.0
73	0x00000000	0.0
74	0x00000000	0.0
75	0x00000000	0.0
76	0x00000000	0.0
77	0x00000000	0.0
78	0x00000000	0.0
79	0x00000000	0.0
80	0x00000000	0.0
81	0x00000000	0.0
82	0x00000000	0.0
83	0x00000000	0.0
84	0x00000000	0.0
85	0x00000000	0.0
86	0x00000000	0.0
87	0x00000000	0.0
88	0x00000000	0.0
89	0x00000000	0.0
90	0x00000000	0.0
91	0x00000000	0.0
92	0x00000000	0.0
93	0x00000000	0.0
94	0x00000000	0.0
95	0x00000000	0.0
96	0x00000000	0.0
97	0x00000000	0.0
98	0x00000000	0.0
99	0x00000000	0.0
100	0x00000000	0.0
101	0x00000000	0.0
102	0x00000000	0.0
103	0x00000000	0.0
104	0x00000000	0.0
105	0x00000000	0.0
106	0x00000000	0.0
107	0x00000000	0.0
108	0x00000000	0.0
109	0x00000000	0.0
110	0x00000000	0.0
111	0x00000000	0.0
112	0x00000000	0.0
113	0x00000000	0.0
114	0x00000000	0.0
115	0x00000000	0.0
116	0x00000000	0.0
117	0x00000000	0.0
118	0x00000000	0.0
119	0x00000000	0.0
120	0x00000000	0.0
121	0x00000000	0.0
122	0x00000000	0.0
123	0x00000000	0.0
124	0x00000000	0.0
125	0x00000000	0.0
126	0x00000000	0.0
127	0x00000000	0.0
128	0x00000000	0.0
129	0x00000000	0.0
130	0x00000000	0.0
131	0x00000000	0.0
132	0x00000000	0.0
133	0x00000000	0.0
134	0x00000000	0.0
135	0x00000000	0.0
136	0xb58384e3	-9.798936e-07
137	0x36cb49da	6.058469e-06
138	0x36a54d48	4.92638e-06
139	0x3812bac6	3.498306e-05
140	0x380063a9	3.0610394e-05
141	0xb70c42cc	-8.360203e-06
142	0x37236efb	9.741397e-06
143	0x00000000	0.0
144	0x3694044b	4.4112435e-06
145	0x36df4588	6.6540124e-06
146	0x35118c6d	5.4221056e-07
147	0x3594bce2	1.1081831e-06
148	0x373be7f8	1.1200078e-05
149	0x37781eb2	1.4789099e-05
150	0xb7d128d9	-2.4933763e-05
151	0xb74b43fe	-1.2115574e-05
152	0x377f66a6	1.5223084e-05
153	0x35c97e18	1.5012365e-06
154	0x36f6620d	7.342786e-06
155	0xb52ed630	-6.5131735e-07
156	0xb4f7217c	-4.6031698e-07
157	0x382009a2	3.8155944e-05
158	0xb4955373	-2.781413e-07
159	0xb488c3a3	-2.5474318e-07
160	0x34c0fb1a	3.5945487e-07
161	0x350d7a5d	5.2704655e-07
162	0x34428cb3	1.8118844e-07
163	0x34f60fe4	4.5832633e-07
164	0x36eb9e7e	7.0219967e-06
165	0x3612394e	2.178905e-06
166	0x3774f89a	1.4601415e-05
167	0xb66ffac4	-3.575974e-06
168	0x390c7356	0.00013394406
169	0xb84a7359	-4.826798e-05
170	0x00000000	0.0
171	0x00000000	0.0
172	0x00000000	0.0
173	0x00000000	0.0
174	0x00000000	0.0
175	0x00000000	0.0
176	0x00000000	0.0
177	0x00000000	0.0
178	0x00000000	0.0
179	0x00000000	0.0
180	0x00000000	0.0
181	0x00000000	0.0
182	0x00000000	0.0
183	0x00000000	0.0
184	0x00000000	0.0
185	0x00000000	0.0
186	0x00000000	0.0
187	0x00000000	0.0
188	0x00000000	0.0
189	0x00000000	0.0
190	0x00000000	0.0
191	0x00000000	0.0
192	0x00000000	0.0
193	0x00000000	0.0
194	0x00000000	0.0
195	0x00000000	0.0
196	0x00000000	0.0
197	0x00000000	0.0
198	0x00000000	0.0
199	0x00000000	0.0
200	0x00000000	0.0
201	0x00000000	0.0
202	0x00000000	0.0
203	0x00000000	0.0
204	0xb3f098b4	-1.12036474e-07
205	0xb41f5b1d	-1.4841176e-07
206	0xb36f092a	-5.565486e-08
207	0xb463869f	-2.1189997e-07
208	0xb41b4af0	-1.4462762e-07
209	0xb3fa57ef	-1.1657527e-07
210	0xb28fd12f	-1.6742517e-08
211	0x00000000	0.0
212	0xb228aa8d	-9.817666e-09
213	0xb33c86c0	-4.3894715e-08
214	0xb0514a24	-7.613912e-10
215	0xb246f717	-1.1581299e-08
216	0xb36adf74	-5.46856e-08
217	0xb41b2a14	-1.4450808e-07
218	0xb472867d	-2.2586933e-07
219	0xb38e32ea	-6.6216515e-08
220	0xb3cd6ff3	-9.56642e-08
221	0xb26699dd	-1.34227465e-08
222	0xb42f3424	-1.6317114e-07
223	0xb1669a8a	-3.355725e-09
224	0xb1a0f3bd	-4.6843227e-09
225	0xb41f9a3b	-1.4864138e-07
226	0xb0b825e1	-1.3398528e-09
227	0xb131eba0	-2.5890827e-09
228	0xb1a18438	-4.7007482e-09
229	0xb1bc2a66	-5.4763403e-09
230	0xb19effde	-4.627494e-09
231	0xb3678e20	-5.391314e-08
232	0xb35705df	-5.0063928e-08
233	0xb2990e26	-1.7817978e-08
234	0xb2fea189	-2.964295e-08
235	0xb23ca9c4	-1.09816405e-08
236	0xb4db5206	-4.085161e-07
237	0xb43a9f25	-1.7380496e-07
238	0x00000000	0.0
239	0x00000000	0.0
240	0x00000000	0.0
241	0x00000000	0.0
242	0x00000000	0.0
243	0x00000000	0.0
244	0x00000000	0.0
245	0x00000000	0.0
246	0x00000000	0.0
247	0x00000000	0.0
248	0x00000000	0.0
249	0x00000000	0.0
250	0x00000000	0.0
251	0x00000000	0.0
252	0x00000000	0.0
253	0x00000000	0.0
254	0x00000000	0.0
255	0x00000000	0.0

exp_avg_sq f4 [20, 34]
0	0x33f9cc8c	1.1632173e-07
1	0x3432d71d	1.66558e-07
2	0x32cbee56	2.3740693e-08
3	0x34476df0	1.8573314e-07
4	0x33b79df4	8.550333e-08
5	0x335810e3	5.0306777e-08
6	0x31d51ae9	6.202175e-09
7	0x00000000	0.0
8	0x2eb8f1b5	8.410287e-11
9	0x32525bc4	1.2244474e-08
10	0x2c9895fc	4.3367514e-12
11	0x3081c890	9.442989e-10
12	0x332987a1	3.9471733e-08
13	0x3432ed5f	1.6663897e-07
14	0x32491806	1.1705202e-08
15	0x31886a3b	3.970198e-09
16	0x36852e03	3.9690653e-06
17	0x30adb78e	1.2639576e-09
18	0x3446f29a	1.8528445e-07
19	0x2d89f68a	1.5684582e-11
20	0x2d9c857a	1.7794422e-11
21	0x34818544	2.4125086e-07
22	0x2ddb519d	2.4933661e-11
23	0x2eae40c8	7.9241114e-11
24	0x2fb1c178	3.233358e-10
25	0x2f90544a	2.6253338e-10
26	0x2ce98319	6.636813e-12
27	0x3308ad6c	3.1822694e-08
28	0x328d457c	1.6446158e-08
29	0x30fad243	1.8249654e-09
30	0x32a883e5	1.9617753e-08
31	0x30dd35a0	1.6095107e-09
32	0x344156d3	1.8006112e-07
33	0x34c163d5	3.602169e-07
34	0x3801bb77	3.0930587e-05
35	0x38153b91	3.5579844e-05
36	0x36aea91f	5.2052924e-06
37	0x3841ff18	4.625236e-05
38	0x37a45bc3	1.9593053e-05
39	0x37581186	1.2878683e-05
40	0x35da6d99	1.6274163e-06
41	0x00000000	0.0
42	0x3333878e	4.179997e-08
43	0x3605c805	1.993497e-06
44	0x30b50d00	1.3173178e-09
45	0x345f217d	2.0780676e-07
46	0x36cbfe2a	6.07946e-06
47	0x38098e36	3.279579e-05
48	0x37167f14	8.970284e-06
49	0x3692bf9a	4.3734444e-06
50	0x391bc0b1	0.00014853735
51	0x348d93ab	2.637074e-07
52	0x3839b852	4.42791e-05
53	0x32a671c4	1.9376678e-08
54	0x3495d63b	2.7909286e-07
55	0x3891ad53	6.946423e-05
56	0x3242aebf	1.1332019e-08
57	0x327eb8d1	1.4826768e-08
58	0x336f6362	5.5736912e-08
59	0x33946241	6.909659e-08
60	0x33a98563	7.893939e-08
61	0x3510860f	5.383926e-07
62	0x3666dee4	3.440241e-06
63	0x34e39991	4.239378e-07
64	0x36d32e22	6.2936606e-06
65	0x352d2a38	6.450896e-07
66	0x39816a57	0.00024684027
67	0x38c7a543	9.519842e-05
68	0x00000000	0.0
69	0x00000000	0.0
70	0x00000000	0.0
71	0x00000000	0.0
72	0x00000000	0.0
73	0x00000000	0.0
74	0x00000000	0.0
75	0x00000000	0.0
76	0x00000000	0.0
77	0x00000000	0.0
78	0x00000000	0.0
79	0x00000000	0.0
80	0x00000000	0.0
81	0x00000000	0.0
82	0x00000000	0.0
83	0x00000000	0.0
84	0x00000000	0.0
85	0x00000000	0.0
86	0x00000000	0.0
87	0x00000000	0.0
88	0x00000000	0.0
89	0x00000000	0.0
90	0x00000000	0.0
91	0x00000000	0.0
92	0x00000000	0.0
93	0x00000000	0.0
94	0x00000000	0.0
95	0x00000000	0.0
96	0x00000000	0.0
97	0x00000000	0.0
98	0x00000000	0.0
99	0x00000000	0.0
100	0x00000000	0.0
101	0x00000000	0.0
102	0x00000000	0.0
103	0x00000000	0.0
104	0x00000000	0.0
105	0x00000000	0.0
106	0x00000000	0.0
107	0x00000000	0.0
108	0x00000000	0.0
109	0x00000000	0.0
110	0x00000000	0.0
111	0x00000000	0.0
112	0x00000000	0.0
113	0x00000000	0.0
114	0x00000000	0.0
115	0x00000000	0.0
116	0x00000000	0.0
117	0x00000000	0.0
118	0x00000000	0.0
119	0x00000000	0.0
120	0x00000000	0.0
121	0x00000000	0.0
122	0x00000000	0.0
123	0x00000000	0.0
124	0x00000000	0.0
125	0x00000000	0.0
126	0x00000000	0.0
127	0x00000000	0.0
128	0x00000000	0.0
129	0x00000000	0.0
130	0x00000000	0.0
131	0x00000000	0.0
132	0x00000000	0.0
133	0x00000000	0.0
134	0x00000000	0.0
135	0x00000000	0.0
136	0x35046cb0	4.9331993e-07
137	0x351c8c73	5.831891e-07
138	0x33b616f5	8.479211e-08
139	0x358ed070	1.0640488e-06
140	0x350243f7	4.8527676e-07
141	0x348b22ca	2.591608e-07
142	0x32cf3dd4	2.4126088e-08
143	0x00000000	0.0
144	0x3004b682	4.828068e-10
145	0x3309cc7a	3.208377e-08
146	0x2e211113	3.6622327e-11
147	0x316b2668	3.4218832e-09
148	0x33cee018	9.633385e-08
149	0x3504e1f7	4.9502654e-07
150	0x3400dd4d	1.2001438e-07
151	0x332f0c6b	4.0756657e-08
152	0x350702c6	5.0295455e-07
153	0x31912829	4.224621e-09
154	0x354503ab	7.3393556e-07
155	0x2f4c4418	1.8577884e-10
156	0x32528623	1.2254108e-08
157	0x355650b3	7.9838645e-07
158	0x2f4b1718	1.8470947e-10
159	0x2f8588f0	2.428986e-10
160	0x30853430	9.691856e-10
161	0x30a150c5	1.1737248e-09
162	0x2ea6620c	7.5662226e-11
163	0x30977c29	1.1021984e-09
164	0x3371174c	5.6133374e-08
165	0x31e9145e	6.783508e-09
166	0x33c8de6c	9.353684e-08
167	0x3228101b	9.782549e-09
168	0x37f8720d	2.9617013e-05
169	0x35b7b36b	1.368678e-06
170	0x00000000	0.0
171	0x00000000	0.0
172	0x00000000	0.0
173	0x00000000	0.0
174	0x00000000	0.0
175	0x00000000	0.0
176	0x00000000	0.0
177	0x00000000	0.0
178	0x00000000	0.0
179	0x00000000	0.0
180	0x00000000	0.0
181	0x00000000	0.0
182	0x00000000	0.0
183	0x00000000	0.0
184	0x00000000	0.0
185	0x00000000	0.0
186	0x00000000	0.0
187	0x00000000	0.0
188	0x00000000	0.0
189	0x00000000	0.0
190	0x00000000	0.0
191	0x00000000	0.0
192	0x00000000	0.0
193	0x00000000	0.0
194	0x00000000	0.0
195	0x00000000	0.0
196	0x00000000	0.0
197	0x00000000	0.0
198	0x00000000	0.0
199	0x00000000	0.0
200	0x00000000	0.0
201	0x00000000	0.0
202	0x00000000	0.0
203	0x00000000	0.0
204	0x342ee3f1	1.6287937e-07
205	0x344ea998	1.9246943e-07
206	0x32f1ccf0	2.8149287e-08
207	0x34bb74ff	3.491659e-07
208	0x3417dd30	1.4143438e-07
209	0x33c4591c	9.14317e-08
210	0x31c73fbf	5.7989094e-09
211	0x00000000	0.0
212	0x310d71f9	2.0582986e-09
213	0x32650280	1.3330123e-08
214	0x2d4b6773	1.1562184e-11
215	0x3095af76	1.0891046e-09
216	0x330da461	3.2978622e-08
217	0x34274213	1.5577125e-07
218	0x3437146d	1.7050634e-07
219	0x31a9f0f9	4.9459428e-09
220	0x3586511c	1.0007384e-06
221	0x30c6ad92	1.4455728e-09
222	0x347d1901	2.3571558e-07
223	0x2dca7e04	2.3020703e-11
224	0x3070e768	8.764034e-10
225	0x348738c5	2.5187015e-07
226	0x3080e77c	9.379018e-10
227	0x2eb10556	8.049976e-11
228	0x2f70d79a	2.190447e-10
229	0x2fb9480a	3.370249e-10
230	0x30900f79	1.0481777e-09
231	0x31e1d6c6	6.5727788e-09
232	0x32c22cf7	2.260502e-08
233	0x31402d5c	2.796546e-09
234	0x32d124bf	2.4347512e-08
235	0x31a7cab7	4.8833857e-09
236	0x354de043	7.6694795e-07
237	0x3500645e	4.782977e-07
238	0x00000000	0.0
239	0x00000000	0.0
240	0x00000000	0.0
241	0x00000000	0.0
242	0x00000000	0.0
243	0x00000000	0.0
244	0x00000000	0.0
245	0x00000000	0.0
246	0x00000000	0.0
247	0x00000000	0.0
248	0x00000000	0.0
249	0x00000000	0.0
250	0x00000000	0.0
251	0x00000000	0.0
252	0x00000000	0.0
253	0x00000000	0.0
254	0x00000000	0.0
255	0x00000000	0.0

exp_avg f4 [20, 5]
0	0xa9d150d2	-9.2954846e-14
1	0x80000004	-6e-45
2	0x00000000	0.0
3	0x00000000	0.0
4	0x29d244b6	9.337793e-14
5	0x35b209a2	1.3264837e-06
6	0x3715affd	8.9220675e-06
7	0x00000000	0.0
8	0x00000000	0.0
9	0xb5a363c2	-1.217348e-06
10	0x00000000	0.0
11	0x00000000	0.0
12	0x00000000	0.0
13	0x00000000	0.0
14	0x00000000	0.0
15	0x00000000	0.0
16	0x00000000	0.0
17	0x00000000	0.0
18	0x00000000	0.0
19	0x00000000	0.0
20	0x3412bd84	1.3666255e-07
21	0xb412bd85	-1.3666256e-07
22	0x00000000	0.0
23	0x00000000	0.0
24	0x34b73f04	3.4132256e-07
25	0x00000000	0.0
26	0x00000000	0.0
27	0x00000000	0.0
28	0x00000000	0.0
29	0x00000000	0.0
30	0xb0d2fb26	-1.5350892e-09
31	0x2e85b65c	6.080533e-11
32	0x00000000	0.0
33	0x00000000	0.0
34	0x30d2fb26	1.5350892e-09
35	0x00000000	0.0
36	0x00000000	0.0
37	0x00000000	0.0
38	0x00000000	0.0
39	0x00000000	0.0
40	0x00000000	0.0
41	0x00000000	0.0
42	0x00000000	0.0
43	0x00000000	0.0
44	0x00000000	0.0
45	0xaca88747	-4.789866e-12
46	0x80000004	-6e-45
47	0x00000000	0.0
48	0x00000000	0.0
49	0x2ca88747	4.789866e-12
50	0x00000000	0.0
51	0x00000000	0.0
52	0x00000000	0.0
53	0x00000000	0.0
54	0x00000000	0.0
55	0x341d1f06	1.463305e-07
56	0x34ac2f7d	3.207205e-07
57	0x00000000	0.0
58	0x00000000	0.0
59	0xb41d1f06	-1.463305e-07
60	0x00000000	0.0
61	0x00000000	0.0
62	0x00000000	0.0
63	0x00000000	0.0
64	0x00000000	0.0
65	0x00000000	0.0
66	0x00000000	0.0
67	0x00000000	0.0
68	0x00000000	0.0
69	0x00000000	0.0
70	0x30ba62a3	1.3561315e-09
71	0xb0ba62a3	-1.3561315e-09
72	0x00000000	0.0
73	0x00000000	0.0
74	0x30c88fd1	1.459279e-09
75	0x33d2b8bd	9.812491e-08
76	0x24fed0ef	1.1050889e-16
77	0x00000000	0.0
78	0x00000000	0.0
79	0x342b8af7	1.5976171e-07
80	0xb5bef1c1	-1.4226463e-06
81	0xb6c58900	-5.8870064e-06
82	0x00000000	0.0
83	0x00000000	0.0
84	0x35bef1c1	1.4226463e-06
85	0x00000000	0.0
86	0x00000000	0.0
87	0x00000000	0.0
88	0x00000000	0.0
89	0x00000000	0.0
90	0x00000000	0.0
91	0x00000000	0.0
92	0x00000000	0.0
93	0x00000000	0.0
94	0x00000000	0.0
95	0xb30e4622	-3.3125737e-08
96	0x330d37e2	3.2879946e-08
97	0x00000000	0.0
98	0x00000000	0.0
99	0x333e07b5	4.4244832e-08

exp_avg_sq f4 [20, 5]
0	0x2b07b746	4.821598e-13
1	0x13695808	2.9452137e-27
2	0x00000000	0.0
3	0x00000000	0.0
4	0x28b54113	2.0123258e-14
5	0x30e0ce56	1.6356789e-09
6	0x2f80653b	2.3354993e-10
7	0x00000000	0.0
8	0x00000000	0.0
9	0x30142571	5.3895294e-10
10	0x00000000	0.0
11	0x00000000	0.0
12	0x00000000	0.0
13	0x00000000	0.0
14	0x00000000	0.0
15	0x00000000	0.0
16	0x00000000	0.0
17	0x00000000	0.0
18	0x00000000	0.0
19	0x00000000	0.0
20	0x2e86aa1f	6.123834e-11
21	0x2e7ef0a2	5.796664e-11
22	0x00000000	0.0
23	0x00000000	0.0
24	0x2d8cfe7f	1.6029176e-11
25	0x00000000	0.0
26	0x00000000	0.0
27	0x00000000	0.0
28	0x00000000	0.0
29	0x00000000	0.0
30	0x2a2efad5	1.554133e-13
31	0x2d802a0b	1.4570586e-11
32	0x00000000	0.0
33	0x00000000	0.0
34	0x2a44acfe	1.7468316e-13
35	0x00000000	0.0
36	0x00000000	0.0
37	0x00000000	0.0
38	0x00000000	0.0
39	0x00000000	0.0
40	0x00000000	0.0
41	0x00000000	0.0
42	0x00000000	0.0
43	0x00000000	0.0
44	0x00000000	0.0
45	0x2d15f557	8.524146e-12
46	0x283740c5	1.0172585e-14
47	0x00000000	0.0
48	0x00000000	0.0
49	0x2d183704	8.652416e-12
50	0x00000000	0.0
51	0x00000000	0.0
52	0x00000000	0.0
53	0x00000000	0.0
54	0x00000000	0.0
55	0x3021bd84	5.8840777e-10
56	0x2ee4e03d	1.0408072e-10
57	0x00000000	0.0
58	0x00000000	0.0
59	0x2ecce2c8	9.3171304e-11
60	0x00000000	0.0
61	0x00000000	0.0
62	0x00000000	0.0
63	0x00000000	0.0
64	0x00000000	0.0
65	0x00000000	0.0
66	0x00000000	0.0
67	0x00000000	0.0
68	0x00000000	0.0
69	0x00000000	0.0
70	0x2f09b4ec	1.2524354e-10
71	0x2ed0f446	9.5021366e-11
72	0x00000000	0.0
73	0x00000000	0.0
74	0x2e1d0e23	3.5710223e-11
75	0x305c5860	8.016112e-10
76	0x30049dd1	4.824559e-10
77	0x00000000	0.0
78	0x00000000	0.0
79	0x2f4dc1a3	1.8713435e-10
80	0x30d1e4dd	1.5271798e-09
81	0x30fd5e05	1.8434895e-09
82	0x00000000	0.0
83	0x00000000	0.0
84	0x2f248f6f	1.4966671e-10
85	0x00000000	0.0
86	0x00000000	0.0
87	0x00000000	0.0
88	0x00000000	0.0
89	0x00000000	0.0
90	0x00000000	0.0
91	0x00000000	0.0
92	0x00000000	0.0
93	0x00000000	0.0
94	0x00000000	0.0
95	0x2ee5f917	1.04579616e-10
96	0x2c7ffa86	3.6376748e-12
97	0x00000000	0.0
98	0x00000000	0.0
99	0x2e01e668	2.9535846e-11

exp_avg f4 [20]
0	0xb19328fa	-4.2829216e-09
1	0xb4ca18aa	-3.7643377e-07
2	0x00000000	0.0
3	0x00000000	0.0
4	0x341c2b2e	1.4544341e-07
5	0x00000000	0.0
6	0xb0d2fb29	-1.5350895e-09
7	0x00000000	0.0
8	0x00000000	0.0
9	0xaca88747	-4.789866e-12
10	0x00000000	0.0
11	0x34320432	1.6579068e-07
12	0x00000000	0.0
13	0x00000000	0.0
14	0x316f150c	3.4791041e-09
15	0xb4336faf	-1.6711304e-07
16	0xb5cadcd0	-1.5114438e-06
17	0x00000000	0.0
18	0x00000000	0.0
19	0xb2ae4b60	-2.0290543e-08

exp_avg_sq f4 [20]
0	0x2d98584d	1.7319613e-11
1	0x318350a4	3.8217696e-09
2	0x00000000	0.0
3	0x00000000	0.0
4	0x2e8902ad	6.230514e-11
5	0x00000000	0.0
6	0x2db4faa0	2.057493e-11
7	0x00000000	0.0
8	0x00000000	0.0
9	0x2d282fc5	9.560301e-12
10	0x00000000	0.0
11	0x3055c263	7.776519e-10
12	0x00000000	0.0
13	0x00000000	0.0
14	0x2f1fb5c5	1.4525543e-10
15	0x317034e9	3.4954672e-09
16	0x31ee5b84	6.9371158e-09
17	0x00000000	0.0
18	0x00000000	0.0
19	0x2f0098d0	1.1695822e-10

exp_avg f4 [20]
0	0xb19328fa	-4.2829216e-09
1	0xb4ca18be	-3.7643434e-07
2	0x00000000	0.0
3	0x00000000	0.0
4	0x341c2b34	1.454435e-07
5	0x00000000	0.0
6	0xb0d2fb26	-1.5350892e-09
7	0x00000000	0.0
8	0x00000000	0.0
9	0xaca88747	-4.789866e-12
10	0x00000000	0.0
11	0x34320434	1.6579071e-07
12	0x00000000	0.0
13	0x00000000	0.0
14	0x316f150c	3.4791041e-09
15	0xb4336fb0	-1.6711306e-07
16	0xb5cadccf	-1.5114437e-06
17	0x00000000	0.0
18	0x00000000	0.0
19	0xb2ae4b60	-2.0290543e-08

exp_avg_sq f4 [20]
0	0x2d98584d	1.7319613e-11
1	0x318350a6	3.8217705e-09
2	0x00000000	0.0
3	0x00000000	0.0
4	0x2e8902ad	6.230514e-11
5	0x00000000	0.0
6	0x2db4faa5	2.057494e-11
7	0x00000000	0.0
8	0x00000000	0.0
9	0x2d282fc5	9.560301e-12
10	0x00000000	0.0
11	0x3055c263	7.776519e-10
12	0x00000000	0.0
13	0x00000000	0.0
14	0x2f1fb5c5	1.4525543e-10
15	0x317034eb	3.4954677e-09
16	0x31ee5b86	6.9371167e-09
17	0x00000000	0.0
18	0x00000000	0.0
19	0x2f0098d0	1.1695822e-10

exp_avg f4 [2, 5]
0	0xbb1320ef	-0.002245005
1	0x39a6c81e	0.00031811086
2	0x00000000	0.0
3	0x00000000	0.0
4	0x3b40cae6	0.0029417812
5	0x3b1320f4	0.0022450062
6	0xb9a6c820	-0.00031811092
7	0x00000000	0.0
8	0x00000000	0.0
9	0xbb40caea	-0.0029417821

exp_avg_sq f4 [2, 5]
0	0x3a4f6230	0.00079110544
1	0x38ae77ab	8.3192564e-05
2	0x00000000	0.0
3	0x00000000	0.0
4	0x39ca6179	0.00038601065
5	0x3a4f6230	0.00079110544
6	0x38ae77ab	8.3192564e-05
7	0x00000000	0.0
8	0x00000000	0.0
9	0x39ca6179	0.00038601065

exp_avg f4 [2]
0	0xbe2442a8	-0.16041052
1	0x3e2442aa	0.16041055

exp_avg_sq f4 [2]
0	0x3d50ba15	0.05095871
1	0x3d50ba16	0.050958715
