MimicApp/lightning_logs/version_41/checkpoints/epoch=9-step=99.ckpt (torch, 15916 bytes, 18 tensors)

lstm.weight_ih_l0 f4 [20, 34]
0	0xbe600e54	-0.21880466
1	0xbe408239	-0.18799676
2	0xbc2908e2	-0.010317059
3	0x3e777bb6	0.24168286
4	0xbeb39e0b	-0.35081515
5	0xbd851eb1	-0.064999945
6	0xbebbc549	-0.36673954
7	0x3d367dc8	0.044553548
8	0xbe4df878	-0.20114315
9	0x3e410082	0.1884785
10	0x3e17a829	0.14810242
11	0x3e4874bb	0.19575779
12	0xbec38d63	-0.38193807
13	0x3e866a4b	0.2625297
14	0x3ee4a4bf	0.4465694
15	0xbeafcbb0	-0.3433509
16	0x3e21cc79	0.15800656
17	0x3dd001d8	0.10156602
18	0x3e8c64e1	0.27420714
19	0xbea962f7	-0.33083317
20	0xbe64c17d	-0.22339435
21	0xbe00279b	-0.12515108
22	0xbe866a02	-0.26252753
23	0xbebe4326	-0.37160605
24	0xbe0570ad	-0.13031264
25	0xbec658d3	-0.38739643
26	0xbea9f1c2	-0.3319226
27	0x3de6e3a7	0.1127389
28	0xbe92d91c	-0.28681266
29	0x3e555177	0.20831858
30	0x3e37fcb2	0.1796749
31	0x3e93a22e	0.2883467
32	0xbeb89c82	-0.36056906
33	0x3c8a0126	0.01684625
34	0xbea43210	-0.32069445
35	0xbd521a40	-0.051294565
36	0xbecf6b9f	-0.40511796
37	0x3ddff322	0.10935046
38	0xbeef4df8	-0.46739173
39	0xbe4e40a4	-0.20141846
40	0x3e029d76	0.12755379
41	0x3e389ed0	0.18029332
42	0xbed31c13	-0.41232356
43	0xbef3d2fb	-0.47621903
44	0xbecef430	-0.40420675
45	0xbe8d4772	-0.2759357
46	0x3dc206a9	0.094739266
47	0x3e185d26	0.14879283
48	0xbdf5166e	-0.11967169
49	0x3e995f87	0.29955694
50	0x3e163fd8	0.14672792
51	0x3e8960c3	0.26831636
52	0x3ea676e5	0.32512584
53	0xbe01d8ee	-0.12680408
54	0xbdf05144	-0.1173425
55	0x3ea9cebd	0.3316554
56	0x3e67f763	0.22652964
57	0x3d8a6b1d	0.067587115
58	0x3db04a23	0.086078905
59	0x3e04b90c	0.12961215
60	0xbed5f461	-0.4178801
61	0xbe284f1f	-0.16436432
62	0x3d4c4372	0.04986901
63	0x3e895fad	0.26830807
64	0xbed77d11	-0.42087606
65	0xbdc324df	-0.09528517
66	0xbe9a25fe	-0.3010711
67	0xbe71db33	-0.23618774
68	0xbeb6e415	-0.35720888
69	0xbecb2b26	-0.39681357
70	0x3e46e868	0.19424593
71	0xbe149281	-0.14509012
72	0xbd671bf4	-0.056423143
73	0x3c2c91fe	0.010532854
74	0x3e62486f	0.22097944
75	0x3ecd64a0	0.40115833
76	0x3e992d93	0.29917583
77	0xbe71a73c	-0.23598951
78	0x3ecc5720	0.3991022
79	0xbee09fb2	-0.43871838
80	0xbeb7e7b3	-0.3591896
81	0x3eba30d0	0.36365366
82	0xbed629fa	-0.418289
83	0xbc958921	-0.018253865
84	0x3e286e7d	0.16448398
85	0x3e26bd92	0.16283253
86	0x3db90df7	0.09035867
87	0x3dc8b425	0.09799985
88	0xbd6dea69	-0.05808488
89	0x3eb7f8fb	0.35932145
90	0x3d96a5bb	0.07355829
91	0xbe40641c	-0.18788189
92	0xbe8b15d4	-0.2716509
93	0xbee68f8a	-0.45031387
94	0x3ea5f0cf	0.32410285
95	0xbd300c87	-0.042980697
96	0x3e923464	0.28555596
97	0xbecbfe89	-0.39842632
98	0x3cdabd73	0.026701665
99	0x3e8cd420	0.2750559
100	0xbe85773a	-0.26067525
101	0xbe9b1fa4	-0.30297577
102	0x3ecb6f43	0.39733323
103	0xbe569e64	-0.20958859
104	0xbee0b89b	-0.43890843
105	0xbe1f3664	-0.15548092
106	0x3e3b82c5	0.18311603
107	0xbe41bd59	-0.18919887
108	0x3e3ad76a	0.18246236
109	0x3eb2e096	0.3493697
110	0x3ea268fd	0.31720725
111	0xbd071963	-0.032983195
112	0x3e01ff6b	0.1269509
113	0x3d39522c	0.04524438
114	0x3ea59db9	0.32346895
115	0xbec06076	-0.37573594
116	0x3e5ddbf4	0.21665937
117	0xbe0e588c	-0.13900965
118	0xbe6aaa92	-0.2291663
119	0xbe587531	-0.21138455
120	0xbcce5a4f	-0.025189547
121	0x3ee21f5a	0.44164544
122	0xbec06d88	-0.37583566
123	0xbe81eee4	-0.25377572
124	0xbdd9aa06	-0.106281325
125	0xbeaad53c	-0.3336581
126	0xbe308adc	-0.1724047
127	0x3ed726ff	0.4202194
128	0x3e38ad3c	0.18034834
129	0x3d110c44	0.035412088
130	0x3e891a00	0.2677765
131	0xbe5e69db	-0.21720068
132	0xbdba8dd0	-0.0910908
133	0xbedb5fb4	-0.42846453
134	0x3d2e30b6	0.042526923
135	0x3c418ee3	0.011813852
136	0x3d5cb819	0.053886507
137	0xbe84e191	-0.25953344
138	0xbea8e66f	-0.32988307
139	0x3e8c5c32	0.2741409
140	0xbcbdcfa6	-0.023170304
141	0xbdbd5f59	-0.09246702
142	0xbe2a88d8	-0.16653764
143	0x3eb35b04	0.35030377
144	0xbec564b2	-0.38553387
145	0x3d792a0d	0.06083112
146	0x3da1b550	0.07895911
147	0xbe0257a2	-0.12728742
148	0xbefccbd1	-0.4937425
149	0xbb5791ec	-0.0032893373
150	0xbe7ef3e6	-0.24897727
151	0x3e9418a6	0.28925055
152	0x3ce3f9b9	0.027829038
153	0xbd522fc2	-0.051315077
154	0xbe0ded96	-0.13860163
155	0xbec2baeb	-0.38033232
156	0xbe23b5ab	-0.1598727
157	0xbee06c76	-0.4383275
158	0x3e9c9ac0	0.30586815
159	0x3d5a03ba	0.05322621
160	0x3eab983c	0.33514583
161	0xbe523255	-0.20527013
162	0x3e89228c	0.2678417
163	0x3de7db95	0.11321179
164	0x3e29b58b	0.1657316
165	0x3e633524	0.2218824
166	0x3e9d9cca	0.30783683
167	0xbed60b18	-0.4180534
168	0xbdff6d86	-0.12472062
169	0x3e75f15b	0.24017851
170	0xbebbdd9a	-0.36692506
171	0xbea081b0	-0.31348944
172	0xbddc54a1	-0.10758329
173	0x3ea12aa1	0.31477836
174	0xbd617142	-0.05503965
175	0x3debc9df	0.11513113
176	0x3b74e029	0.0037365055
177	0xbec3ebd0	-0.38265848
178	0x3bee4b05	0.0072721266
179	0x3e1f1959	0.15537013
180	0xbdbb09f4	-0.09132758
181	0x3e5631b7	0.20917402
182	0xbd8853df	-0.06656622
183	0xbe89876d	-0.26861134
184	0xbe554585	-0.20827301
185	0x3efa12b5	0.48842397
186	0xbd5ba3ab	-0.053622883
187	0x3eb0003c	0.3437518
188	0x3ef284c7	0.47366926
189	0x3e4b3e3b	0.19847958
190	0xbe34ac2c	-0.17643803
191	0x3eed2120	0.46314335
192	0x3e63b165	0.2223564
193	0xbe8fc7e4	-0.28082192
194	0x3d7c2223	0.061555993
195	0xbbbb4501	-0.005715013
196	0x3e8bfa0b	0.27339205
197	0x3e0f27e4	0.13980061
198	0xbbb29db5	-0.005450929
199	0xbe402f9e	-0.18768165
200	0x3d299fec	0.04141228
201	0x3a696065	0.00089026085
202	0x3e412970	0.18863463
203	0x3e5cb869	0.21554722
204	0xbc8bc59a	-0.017061997
205	0x3e208075	0.15674002
206	0x3e617482	0.220171
207	0x3dd0b65b	0.101910315
208	0xbe6f1c3a	-0.23350611
209	0xbea18475	-0.3154637
210	0xbe9089a8	-0.28230023
211	0x3e51ef68	0.20501482
212	0xbe9f9328	-0.3116696
213	0x3c3c23bf	0.011483132
214	0xbeb26717	-0.34844276
215	0x3d1ff60e	0.039053015
216	0x3e4c086e	0.1992509
217	0x3eb02f0c	0.34410894
218	0x3e0a8b15	0.13529618
219	0x3ec08907	0.37604544
220	0xbe9bf00f	-0.30456588
221	0xbe8b9fb7	-0.2727029
222	0x3e1e77ec	0.15475434
223	0x3d9cf725	0.076643266
224	0xbd9b5db1	-0.075862296
225	0x3c94ddce	0.018172171
226	0x3eca1a49	0.3947318
227	0x3e8c681c	0.2742318
228	0xbea3315a	-0.3187359
229	0xbd538cf2	-0.051648088
230	0xbc5b8e29	-0.013400593
231	0xbea81323	-0.328271
232	0xbe4d515b	-0.20050566
233	0xbe9a1b3f	-0.30098912
234	0xbe3b9a9e	-0.183207
235	0xbe169b0f	-0.14707588
236	0x3e9ba53a	0.30399495
237	0xbead0429	-0.33792236
238	0x3e912a7d	0.28352728
239	0xbe9264a2	-0.28592402
240	0x3eb23fc9	0.3481429
241	0x3dab8fb7	0.08377021
242	0xbcbf2a4b	-0.023335597
243	0xbd9e3892	-0.07725634
244	0xbcc2448d	-0.023714328
245	0xbaf0d700	-0.0018374622
246	0x3e9cbf2c	0.30614603
247	0x3e0a88d1	0.13528754
248	0xbe35a9bf	-0.17740534
249	0xbe5cc79b	-0.21560518
250	0xbe4014e9	-0.18757977
251	0x3e27d638	0.16390312
252	0xbebcf745	-0.36907402
253	0x3cc557a1	0.024089636
254	0x3e91f49f	0.28506944
255	0xbdc1e5eb	-0.094676815

lstm.weight_hh_l0 f4 [20, 5]
0	0xbe510c53	-0.20414858
1	0x3e943bd6	0.289519
2	0xbe046cb0	-0.12932086
3	0xbe842dbd	-0.25816146
4	0xbd77308e	-0.06034904
5	0x3e6000ac	0.21875256
6	0xbe4142d6	-0.18873152
7	0x3ebedfc9	0.3728011
8	0xbea7761e	-0.32707304
9	0x3da1f82b	0.079086624
10	0x3e3ff648	0.18746293
11	0x3e97c01f	0.29638764
12	0x3edb3768	0.4281571
13	0xbe89bcdd	-0.26901904
14	0x3ebab208	0.36463952
15	0xbe621db0	-0.22081637
16	0xbe3e8a14	-0.1860736
17	0x3e30df4c	0.17272681
18	0x3ef3425c	0.47511566
19	0x3ebda8ab	0.37042746
20	0x3e280259	0.16407146
21	0xbe3d09cb	-0.18460767
22	0xbe1a15fc	-0.15047449
23	0xbd73c384	-0.05951263
24	0xbbbe59f0	-0.005809061
25	0x3eef3f55	0.46728006
26	0x3eda0b5b	0.4258679
27	0xbd88a484	-0.06672004
28	0x3d98fa2e	0.07469593
29	0x3c9478e3	0.01812405
30	0x3ed7ab16	0.42122716
31	0x3ed02c22	0.4065867
32	0x3e187120	0.14886904
33	0xbe53fd34	-0.20702058
34	0x3e9d14c3	0.30679902
35	0xbe2a6872	-0.16641405
36	0x3e1bb585	0.15205963
37	0xbdfaff3c	-0.12255713
38	0x3ec02a48	0.37532258
39	0x3ea9a8ea	0.33136684
40	0xbc2aff8f	-0.0104369065
41	0x3eab1415	0.3341376
42	0xbed1880c	-0.40924108
43	0x3e8ee877	0.27911732
44	0xbe5f408a	-0.21801963
45	0xbe77840f	-0.2417147
46	0x3edebc86	0.43503207
47	0xbea44c96	-0.3208968
48	0x3b2fad80	0.0026806295
49	0x3e6520e8	0.22375834
50	0xbe1ae072	-0.15124682
51	0xbe55fa1b	-0.20896189
52	0x3e43cacc	0.1912033
53	0x3e894364	0.26809227
54	0xbede1665	-0.4337646
55	0x3d9741e0	0.073856115
56	0xbe95b5a5	-0.29240146
57	0x3e1c0f04	0.15240103
58	0x3e2f14b4	0.17097741
59	0xbed38bfc	-0.41317737
60	0xbea07c90	-0.31345034
61	0x3ecb5518	0.3971336
62	0x3ea7925a	0.32728845
63	0x3dd55248	0.104160845
64	0xbe075da2	-0.13219312
65	0xbdff8381	-0.12476254
66	0x3d44393e	0.047906153
67	0x3e28e6a4	0.16494232
68	0x3e8e3375	0.27773634
69	0x3e900740	0.2813053
70	0x3e31b3b2	0.17353705
71	0xbe05e1ad	-0.1307437
72	0x3e89ed4e	0.26938862
73	0x3e57c008	0.21069348
74	0x3e8986e6	0.26860732
75	0x3ea2c8da	0.31793863
76	0x3e4558f8	0.1927222
77	0xbec36ef7	-0.38170597
78	0x3db29ec1	0.08721686
79	0xbdd0aa0b	-0.10188683
80	0xbe0dc1af	-0.13843416
81	0x3e911fbc	0.28344524
82	0xbe11782a	-0.14205995
83	0xbe8a54f4	-0.2701794
84	0xbeb98379	-0.36233118
85	0x3ea669a6	0.32502478
86	0x3db22b9c	0.08699724
87	0x3e765e5f	0.24059437
88	0xbe382840	-0.17984104
89	0x3d1c3c55	0.038143475
90	0x3d3469f6	0.044046365
91	0xbdbe2a6a	-0.092854336
92	0x3e560e28	0.20903838
93	0x3e0ca415	0.13734467
94	0x3ed5c15e	0.4174909
95	0x3e0be8e8	0.13663065
96	0x3e812b12	0.25228173
97	0x3e74234e	0.23841593
98	0xbe81b594	-0.25333846
99	0x3e9f012f	0.3105559

lstm.bias_ih_l0 f4 [20]
0	0xbeb0d9f0	-0.34541273
1	0x3e765249	0.24054827
2	0x3e6bf9f0	0.23044562
3	0x3e44ca5c	0.19217819
4	0xbed26d04	-0.41098797
5	0x3e08733f	0.13325213
6	0x3e86b126	0.2630703
7	0xbe0e45f9	-0.1389388
8	0x3e053296	0.13007578
9	0x3ec4ac18	0.38412547
10	0x3e5ff32a	0.21870103
11	0xbea1b5ba	-0.3158396
12	0x3eab8b9c	0.3350495
13	0x3e189c12	0.14903286
14	0x3ec238c3	0.3793393
15	0x3ce91aa0	0.028455079
16	0x3d94f1f1	0.07272709
17	0xbe009053	-0.12555055
18	0xbea072be	-0.3133754
19	0x3e421937	0.18954931

lstm.bias_hh_l0 f4 [20]
0	0xbe95ec4d	-0.29281846
1	0xbe5b57b2	-0.21420172
2	0x3e8fa585	0.2805597
3	0x3dd79d43	0.10528042
4	0x3e044d4d	0.12920113
5	0x3e68333c	0.22675794
6	0xbee783a4	-0.4521762
7	0xbe780caf	-0.24223588
8	0x3ed927f8	0.42413306
9	0xbdad9c38	-0.08477062
10	0x3ee59550	0.4484048
11	0xbead569e	-0.33855146
12	0xbca5c290	-0.020234376
13	0xbebe7651	-0.37199643
14	0xbe7e9c39	-0.24864282
15	0x3e66392a	0.22482744
16	0x3e77dc19	0.24205054
17	0xbddecc7c	-0.10878846
18	0x3d912446	0.07086997
19	0x3de55f73	0.11199846

linear.weight f4 [2, 5]
0	0x3dd2306d	0.10263143
1	0x3ded4fef	0.11587512
2	0xbe99b56a	-0.3002122
3	0x3e75b49b	0.23994677
4	0x3db25584	0.08707717
5	0xbe851ca2	-0.25998408
6	0xbdb774e6	-0.089578435
7	0x3d06d61c	0.032919034
8	0xbe013fcc	-0.12621993
9	0xbde98241	-0.11401797

linear.bias f4 [2]
0	0xbe538bf2	-0.20658854
1	0xbe0c63ba	-0.13709918

exp_avg f4 [20, 34]
0	0xba970504	-0.001152188
1	0xbac6a6c2	-0.0015155899
2	0xba14eebc	-0.0005681326
3	0xbadd89de	-0.001690205
4	0xba8b7d2f	-0.0010642166
5	0xba5143a0	-0.0007982794
6	0xb996b0fa	-0.00028742087
7	0x00000000	0.0
8	0x38111cc7	3.4597495e-05
9	0xb9fec204	-0.00048591208
10	0xb7406ad0	-1.1468961e-05
11	0xb8f05d20	-0.00011461438
12	0xba22d3e7	-0.00062113855
13	0xbabc0bc0	-0.0014346763
14	0xbb11ff83	-0.002227754
15	0xb907e0b5	-0.00012958313
16	0xbb79925a	-0.0038081617
17	0xb8f5ab58	-0.00011714426
18	0xbab968b4	-0.0014145584
19	0xb6f7c9e8	-7.3846786e-06
20	0xb8e1e56c	-0.00010771569
21	0xbb267257	-0.0025397742
22	0xb7d40b2c	-2.5277572e-05
23	0xb7ceec8e	-2.4667268e-05
24	0xb85925ee	-5.1772156e-05
25	0xb8403488	-4.582529e-05
26	0xb934bb88	-0.00017235999
27	0xb9367f36	-0.00017404262
28	0xb9fdf157	-0.00048435733
29	0xb933216f	-0.00017083225
30	0xb99d8bb9	-0.00030049475
31	0xb98afa72	-0.00026508007
32	0xbb3f7702	-0.0029215221
33	0xbb728a75	-0.0037008796
34	0x3a71f797	0.0009230314
35	0x3aba3718	0.0014207093
36	0x3a0a6a82	0.0005280153
37	0x3ae75133	0.0017648101
38	0x3a8bb45a	0.0010658607
39	0x3a63087e	0.0008660628
40	0x395b680a	0.00020924225
41	0x00000000	0.0
42	0x35cedafa	1.5411927e-06
43	0x39bf3db4	0.0003647633
44	0x36f31eec	7.245564e-06
45	0x38e4a1b5	0.000109020075
46	0x39f9e76b	0.000476654
47	0x3aa9bf78	0.0012950739
48	0x3a592d72	0.0008284665
49	0x39f0ec55	0.00045952448
50	0x39b0b710	0.00033705728
51	0x3901cdde	0.0001237909
52	0x3ad0ec32	0.0015939532
53	0x3794e034	1.7747378e-05
54	0x37bd5f06	2.2574804e-05
55	0x3b6d19c2	0.0036178683
56	0x387c0548	6.00864e-05
57	0x37b60771	2.1699556e-05
58	0x385ce230	5.266274e-05
59	0x38624c2d	5.3953543e-05
60	0x381803e5	3.624325e-05
61	0xb876d861	-5.885249e-05
62	0x39d68fe9	0.00040924482
63	0x3912bf79	0.00013994974
64	0x39fb9c15	0.0004799074
65	0x38f2e5ed	0.00011582286
66	0x3ad3e759	0.001616697
67	0x3aada429	0.0013247776
68	0x347348df	2.2657649e-07
69	0x3481c531	2.4171598e-07
70	0x33c470a8	9.147453e-08
71	0x34b2cc79	3.3303857e-07
72	0x34487576	1.8669184e-07
73	0x34399c73	1.7286384e-07
74	0x338e0b86	6.6144864e-08
75	0x00000000	0.0
76	0x31a67c46	4.845364e-09
77	0x334dc432	4.790872e-08
78	0x30a89d28	1.2268275e-09
79	0x329e52ee	1.8431333e-08
80	0x33c98275	9.383522e-08
81	0x3449ae1f	1.8782929e-07
82	0x33989b49	7.106298e-08
83	0x33732949	5.6615395e-08
84	0x3457d492	2.0100768e-07
85	0x32a953a6	1.9712228e-08
86	0x348a9ded	2.581941e-07
87	0x310b7d34	2.0298332e-09
88	0x31d001ec	6.0538152e-09
89	0x351f11bc	5.925792e-07
90	0x319e79fc	4.6122732e-09
91	0x319baff3	4.531097e-09
92	0x31bfa88a	5.5779923e-09
93	0x32185f07	8.869171e-09
94	0x30f45568	1.777761e-09
95	0x32d5dd57	2.4897117e-08
96	0x339a66be	7.1898725e-08
97	0x32d9b88f	2.5346052e-08
98	0x339d7179	7.331523e-08
99	0x31e3b7ec	6.627479e-09
100	0x34816d2d	2.4107558e-07
101	0x338575a1	6.214692e-08
102	0x3a1e6022	0.00060415466
103	0xb9cda595	-0.00039224015
104	0xb90ed53b	-0.0001362161
105	0xb8cb877e	-9.705032e-05
106	0xb9ed5be4	-0.00045272626
107	0x388a8981	6.605965e-05
108	0xb91e0a9c	-0.00015072006
109	0x00000000	0.0
110	0xb8127091	-3.491395e-05
111	0xb913b62f	-0.00014086881
112	0xb6d479a3	-6.3322527e-06
113	0xb7f6821d	-2.9386074e-05
114	0xb9687e93	-0.00022172397
115	0xba2feef1	-0.0006711325
116	0xbb63f2e5	-0.0034782228
117	0xb8fcbe98	-0.00012051797
118	0xb9407900	-0.00018355623
119	0xb81f969a	-3.8048813e-05
120	0xba02f5a0	-0.00049957074
121	0xb6af7c57	-5.2298815e-06
122	0x385ebd0d	5.3104992e-05
123	0xba686998	-0.00088658324
124	0x38a62035	7.921496e-05
125	0xb754bfdb	-1.26808545e-05
126	0xb7686963	-1.3852815e-05
127	0xb75a3717	-1.3006639e-05
128	0x37cbe81a	2.4307566e-05
129	0xb9013f87	-0.00012326064
130	0xb9aaa188	-0.00032545277
131	0xb8fa5f67	-0.00011938699
132	0xb9a12fd6	-0.00030743954
133	0xb8b5936c	-8.658212e-05
134	0xbaa1b5d8	-0.0012337519
135	0x3b201107	0.0024424212
136	0x3ba1330e	0.0049194163
137	0x3bb8b012	0.0056362236
138	0x3b0d7a06	0.0021587624
139	0x3bfcc328	0.007713694
140	0x3ba1d659	0.0049388823
141	0x3b6ce2a8	0.003614584
142	0x3a943986	0.0011308647
143	0x00000000	0.0
144	0x38dcc7d0	0.000105276355
145	0x3ad40aba	0.0016177513
146	0x37fc28e2	3.0059779e-05
147	0x39e28adb	0.00043209534
148	0x3b2b144d	0.002610463
149	0x3bb43a04	0.00550008
150	0x3b197bc5	0.002341972
151	0x3a9dc539	0.0012036926
152	0x3c012e50	0.007884577
153	0x39ff6740	0.00048714317
154	0x3bc51730	0.006014727
155	0x3867f62d	5.530396e-05
156	0x392660a2	0.00015866992
157	0x3bcc8d84	0.006242456
158	0x38e80bee	0.00011064844
159	0x38f036ae	0.00011454277
160	0x395040af	0.00019860522
161	0x3978b3ea	0.00023718146
162	0x386787fd	5.520134e-05
163	0x3a99339a	0.0011688352
164	0x3b01926f	0.001977112
165	0x3a2f46d0	0.0006686272
166	0x3b0cad1e	0.002146549
167	0x3a3d5760	0.0007222798
168	0x3c519a8c	0.0127931945
169	0x3cbe5113	0.023232019
170	0xb900ffad	-0.00012302278
171	0xb9047aff	-0.0001263432
172	0xb84bd51f	-4.8597456e-05
173	0xb91e686e	-0.00015106957
174	0xb8d1803a	-9.989781e-05
175	0xb88b27a8	-6.635423e-05
176	0xb7c4ca85	-2.3459326e-05
177	0x00000000	0.0
178	0x364124ce	2.8780664e-06
179	0xb7fe0ccc	-3.0285119e-05
180	0xb54c7efb	-7.6180703e-07
181	0xb7219d3d	-9.632958e-06
182	0xb867a973	-5.5232504e-05
183	0xb901374c	-0.00012322998
184	0xba357c55	-0.0006923129
185	0xb80118e4	-3.0779178e-05
186	0xb9101b75	-0.00013743139
187	0xb73aa4c5	-1.1124827e-05
188	0xb9137763	-0.00014063487
189	0xb5c066f7	-1.4335081e-06
190	0xb6969fd0	-4.488953e-06
191	0xb918dcd6	-0.00014578117
192	0xb631eaf7	-2.6511823e-06
193	0xb62ca930	-2.5728477e-06
194	0xb685dc79	-3.9893753e-06
195	0xb6b485ab	-5.379979e-06
196	0xb5affc19	-1.3111886e-06
197	0xb5daf938	-1.6314798e-06
198	0xb829349c	-4.0341736e-05
199	0xb76b3567	-1.4019525e-05
200	0xb831e06c	-4.2409098e-05
201	0xb760af32	-1.3392231e-05
202	0xb964e145	-0.00021827694
203	0xb94c3b33	-0.0001947701
204	0x3a2871b4	0.00064256345
205	0x3a3250c0	0.0006802194
206	0x398877ae	0.0002602911
207	0x3a670ab5	0.0008813546
208	0x3a3b01a3	0.0007133728
209	0x39fb54dd	0.0004793768
210	0x39198977	0.00014642427
211	0x00000000	0.0
212	0xb7dbc502	-2.6198573e-05
213	0x390b76a3	0.00013300269
214	0x36426191	2.8965044e-06
215	0x385a70a7	5.2080166e-05
216	0x398feced	0.0002745161
217	0x3a35b1df	0.0006931107
218	0x391ef0dd	0.00015157783
219	0x38e934f2	0.000111201676
220	0x3986088b	0.00025564837
221	0x387e6a15	6.0657116e-05
222	0x3a5306b9	0.0008050013
223	0x36ad258a	5.160172e-06
224	0x37d5c176	2.5481666e-05
225	0x3a15b886	0.0005711395
226	0x37d7db75	2.573219e-05
227	0x378dc23c	1.6898957e-05
228	0x378028b7	1.5277748e-05
229	0x38041ecd	3.1499938e-05
230	0x366fb1b3	3.571721e-06
231	0x36db79bd	6.540881e-06
232	0x397a5490	0.0002387336
233	0x38a70075	7.963266e-05
234	0x3946a5d8	0.00018944533
235	0x38ead05e	0.00011196801
236	0x3a8e48ff	0.0010855495
237	0x3ada9e21	0.0016679206
238	0xaae467a0	-4.057284e-13
239	0xab082329	-4.83657e-13
240	0xaa4944a4	-1.7876201e-13
241	0xab3cc61f	-6.7065965e-13
242	0xaacc6652	-3.6308679e-13
243	0xaaba0166	-3.3041208e-13
244	0xa9b0fa2e	-7.8593694e-14
245	0x00000000	0.0
246	0x2170220c	8.1360224e-19
247	0xaa3cc8cf	-1.6767424e-13
248	0xa778c316	-3.452267e-15
249	0xa9257536	-3.6739024e-14
250	0xaa5887ee	-1.9231814e-13
251	0xaaf71262	-4.388877e-13
252	0xa9f44a66	-1.0848683e-13
253	0xaa5e08e5	-1.9720647e-13
254	0xab080bae	-4.8333115e-13
255	0xa95534bc	-4.734124e-14

exp_avg_sq f4 [20, 34]
0	0x35b86784	1.3739195e-06
1	0x360800ac	2.026597e-06
2	0x349ad05f	2.8836345e-07
3	0x363fa35e	2.855631e-06
4	0x359b40a4	1.1567213e-06
5	0x353804d9	6.8552396e-07
6	0x33899e0f	6.40831e-08
7	0x00000000	0.0
8	0x3132f07d	2.603911e-09
9	0x341c05ac	1.4530696e-07
10	0x2eab7737	7.7973565e-11
11	0x3249225a	1.17075505e-08
12	0x34d2c468	3.9258452e-07
13	0x35fcc7ea	1.8833646e-06
14	0x3656d9a1	3.2015162e-06
15	0x339c31d8	7.2733826e-08
16	0x374dca9c	1.2266126e-05
17	0x3272a576	1.4123875e-08
18	0x361fc305	2.3806363e-06
19	0x2f3c4b7e	1.712532e-10
20	0x314d371a	2.9862748e-09
21	0x36746520	3.6417696e-06
22	0x308f9390	1.0446559e-09
23	0x306b22ac	8.5541774e-10
24	0x313f7858	2.7862566e-09
25	0x3155a395	3.1088565e-09
26	0x31ada59f	5.0537916e-09
27	0x31fb7218	7.3180324e-09
28	0x345111a3	1.9471058e-07
29	0x32c6ce7d	2.3144134e-08
30	0x346be91c	2.1970885e-07
31	0x336b5b74	5.4798377e-08
32	0x366a6f67	3.4933562e-06
33	0x36821d9a	3.877748e-06
34	0x36c83e6d	5.967732e-06
35	0x371f3e61	9.491662e-06
36	0x35af98e2	1.3083011e-06
37	0x37369ae4	1.0884109e-05
38	0x368a1743	4.1154285e-06
39	0x36333346	2.6702924e-06
40	0x34a4d1eb	3.0700116e-07
41	0x00000000	0.0
42	0x31aff825	5.121381e-09
43	0x34fb3ca6	4.679652e-07
44	0x2fd621ae	3.8950304e-10
45	0x3367fa53	5.4011547e-08
46	0x35a150e0	1.2018972e-06
47	0x370d586c	8.424842e-06
48	0x3641f76e	2.8903264e-06
49	0x3646b3bc	2.9608918e-06
50	0x373e7866	1.1352915e-05
51	0x338b73f4	6.4937836e-08
52	0x373568e7	1.0812865e-05
53	0x31a7626d	4.8715294e-09
54	0x34144143	1.3807316e-07
55	0x38138a3f	3.5176283e-05
56	0x32011a10	7.514714e-09
57	0x318002de	3.7256163e-09
58	0x3293958e	1.7181062e-08
59	0x3290138b	1.6772693e-08
60	0x342ec3aa	1.6276195e-07
61	0x3385e2bf	6.23454e-08
62	0x356b1cbf	8.7586153e-07
63	0x33d90697	1.01060486e-07
64	0x35b83bcf	1.3726475e-06
65	0x341eb48a	1.4780576e-07
66	0x37b463c0	2.1504122e-05
67	0x3783760e	1.567139e-05
68	0x319c1632	4.542721e-09
69	0x3227b3a9	9.761529e-09
70	0x30be7773	1.3858269e-09
71	0x32ba7805	2.1707828e-08
72	0x320ac2e8	8.076974e-09
73	0x3183b70a	3.833411e-09
74	0x2fbf3a6f	3.4784217e-10
75	0x00000000	0.0
76	0x2c09df54	1.9592843e-12
77	0x303b1a3f	6.80675e-10
78	0x2a83f3ef	2.3439538e-13
79	0x2e775efc	5.624566e-11
80	0x3108ac1a	1.9888433e-09
81	0x3220e5ec	9.365504e-09
82	0x306c03ac	8.586152e-10
83	0x31b4b857	5.2596465e-09
84	0x315f0519	3.2453669e-09
85	0x2ec3d810	8.905954e-11
86	0x322574d3	9.630827e-09
87	0x2c12d730	2.08673e-12
88	0x2f9e773d	2.8824756e-10
89	0x34010a37	1.2017777e-07
90	0x2d5095c5	1.1856687e-11
91	0x2c8b7d74	3.9645457e-12
92	0x2d53f30c	1.2047929e-11
93	0x2db84c11	2.0952158e-11
94	0x2aca73ef	3.5962853e-13
95	0x2dd3ef17	2.40941e-11
96	0x30a3d612	1.1920653e-09
97	0x2f122665	1.3292263e-10
98	0x30328a60	6.4952665e-10
99	0x2efc9bac	1.1487286e-10
100	0x32fd2691	2.9470614e-08
101	0x3283d344	1.534648e-08
102	0x372471cf	9.80166e-06
103	0x36b446e5	5.3726712e-06
104	0x355942c0	8.0935934e-07
105	0x37191953	9.125407e-06
106	0x366cc8a0	3.528352e-06
107	0x363b8895	2.7944673e-06
108	0x347a005f	2.32832e-07
109	0x00000000	0.0
110	0x323149a4	1.03195e-08
111	0x3498d2c6	2.8465564e-07
112	0x2f3a92d7	1.696877e-10
113	0x3305a99d	3.1120738e-08
114	0x3586e4d2	1.0050373e-06
115	0x3692ee0c	4.3788514e-06
116	0x38330de4	4.2689862e-05
117	0x34462589	1.8453842e-07
118	0x3621c90f	2.41079e-06
119	0x331e644e	3.687847e-08
120	0x36d75099	6.416882e-06
121	0x301cc4a4	5.703191e-10
122	0x32bb62d4	2.1814607e-08
123	0x36f1fbb2	7.211661e-06
124	0x32b4471b	2.0987093e-08
125	0x31132032	2.1409616e-09
126	0x31b8581d	5.365122e-09
127	0x32333153	1.0430386e-08
128	0x32023e17	7.5811135e-09
129	0x3211936e	8.4736325e-09
130	0x34e48546	4.256528e-07
131	0x335c1e23	5.125015e-08
132	0x3503ef04	4.9149116e-07
133	0x33cb98f0	9.480743e-08
134	0x38a4dee4	7.861646e-05
135	0x38005212	3.0594012e-05
136	0x3859c7a7	5.1922772e-05
137	0x388635e1	6.399654e-05
138	0x371b0d32	9.241792e-06
139	0x38f46037	0.00011652748
140	0x384fce22	4.9544622e-05
141	0x37e3bd50	2.7148664e-05
142	0x361a5a1e	2.3000243e-06
143	0x00000000	0.0
144	0x32968481	1.7522554e-08
145	0x368a5db2	4.123628e-06
146	0x313a4467	2.7105445e-09
147	0x34c7109d	3.7078726e-07
148	0x373d8966	1.1297268e-05
149	0x386d8e01	5.6637455e-05
150	0x3796e583	1.7988268e-05
151	0x367b23a6	3.7422665e-06
152	0x38a5d60f	7.9076846e-05
153	0x3500d80d	4.799811e-07
154	0x389fe260	7.6238764e-05
155	0x325d2bb5	1.2873831e-08
156	0x352bda6a	6.40203e-07
157	0x38c116c1	9.2071954e-05
158	0x330c7300	3.2700882e-08
159	0x32e5ba81	2.674392e-08
160	0x33c37dc5	9.1032724e-08
161	0x33f468f5	1.1381227e-07
162	0x32e13c0b	2.6220752e-08
163	0x35be6a09	1.4186963e-06
164	0x36f37597	7.2556536e-06
165	0x35640c27	8.49543e-07
166	0x37107481	8.6101945e-06
167	0x3583bc1e	9.81501e-07
168	0x39f63d7d	0.0004696659
169	0x39bc2a07	0.00035889467
170	0x32b7e962	2.1410134e-08
171	0x32cf68ed	2.4145686e-08
172	0x31704b90	3.4967549e-09
173	0x32fa86ce	2.9165133e-08
174	0x325e9ec0	1.2958196e-08
175	0x31fe545f	7.401965e-09
176	0x30838a69	9.570843e-10
177	0x00000000	0.0
178	0x2e3623aa	4.1413685e-11
179	0x30e14d88	1.639294e-09
180	0x2b4a18ee	7.1799413e-13
181	0x2f1b1b37	1.4106837e-10
182	0x31931990	4.281169e-09
183	0x32c57032	2.2984839e-08
184	0x34bf8d14	3.567917e-07
185	0x30d25421	1.5303422e-09
186	0x359fbaf4	1.1900834e-06
187	0x2f39846d	1.6872699e-10
188	0x32ff1bed	2.9698606e-08
189	0x2c3653c6	2.591026e-12
190	0x2e80643a	5.83857e-11
191	0x32f8e038	2.8972963e-08
192	0x2d9462e2	1.6869565e-11
193	0x2d271018	9.4964245e-12
194	0x2de376b1	2.5859622e-11
195	0x2e3ab855	4.2455223e-11
196	0x2ecb0854	9.2328506e-11
197	0x2e360fcc	4.139604e-11
198	0x311b8586	2.2631368e-09
199	0x2f9a855a	2.810719e-10
200	0x313dc0e8	2.7612774e-09
201	0x303edd4c	6.943608e-10
202	0x33ffa830	1.1904956e-07
203	0x3371bdef	5.628493e-08
204	0x358deee5	1.0574846e-06
205	0x35a924e2	1.2602216e-06
206	0x3444ed8f	1.8340346e-07
207	0x362060f0	2.3898283e-06
208	0x35aff5fd	1.3110108e-06
209	0x352aeb1a	6.3672053e-07
210	0x338080b3	5.983875e-08
211	0x00000000	0.0
212	0x30e1104a	1.6375534e-09
213	0x3369c696	5.4430153e-08
214	0x2de4fb79	2.6032275e-11
215	0x31fb193a	7.3079294e-09
216	0x345e3d94	2.0697763e-07
217	0x35ac5707	1.2840327e-06
218	0x33c3aeca	9.112189e-08
219	0x3353df45	4.933033e-08
220	0x34b49db9	3.364237e-07
221	0x3221d378	9.419516e-09
222	0x35e10955	1.6766522e-06
223	0x2ed0f7df	9.5027756e-11
224	0x315e809e	3.2378362e-09
225	0x361d0b8f	2.340155e-06
226	0x30afd26f	1.2792735e-09
227	0x303b113c	6.8054695e-10
228	0x3069a03b	8.499261e-10
229	0x31270f0e	2.4310256e-09
230	0x2fa67746	3.0279973e-10
231	0x31b1095e	5.152443e-09
232	0x341abf26	1.4411907e-07
233	0x328bb6d0	1.6264863e-08
234	0x34dc0f40	4.098929e-07
235	0x32df0ed3	2.5967358e-08
236	0x36396f8f	2.7632084e-06
237	0x37064901	8.00402e-06
238	0x23087d80	7.3991504e-18
239	0x2341fc3a	1.0515962e-17
240	0x21d4001f	1.4365711e-18
241	0x23ba806a	2.0220546e-17
242	0x22daa8e7	5.926785e-18
243	0x22b50e7b	4.907548e-18
244	0x20a3ec12	2.7769492e-19
245	0x00000000	0.0
246	0x103847f0	3.634302e-29
247	0x21ba8069	1.263784e-18
248	0x1c21e6cd	5.3568734e-22
249	0x1f8f4552	6.0677537e-20
250	0x21f5636f	1.6628166e-18
251	0x231fbd88	8.659542e-18
252	0x211c2bc9	5.2912805e-19
253	0x22011120	1.7491826e-18
254	0x2341ae53	1.04994656e-17
255	0x1fede564	1.007529e-19

exp_avg f4 [20, 5]
0	0xb74f8258	-1.23685095e-05
1	0xb55b1e8c	-8.162831e-07
2	0x129165ee	9.175914e-28
3	0xb5a54064	-1.2312198e-06
4	0x3486a123	2.5076687e-07
5	0xb61af8aa	-2.309253e-06
6	0xb6b9da5b	-5.5388496e-06
7	0x2e2c32f7	3.9153538e-11
8	0x2606dcd9	4.6789894e-16
9	0xb27b38fb	-1.4623079e-08
10	0x8daa70e4	-1.0504236e-30
11	0xb112fd56	-2.13898e-09
12	0x2e6620b7	5.2325002e-11
13	0x82883f94	-2.0019896e-37
14	0x9fb40b91	-7.62521e-20
15	0xb7443816	-1.1695569e-05
16	0x288dcee5	1.5743871e-14
17	0x0c9337b2	2.2682457e-31
18	0xb706c9f0	-8.03404e-06
19	0xb5bf243f	-1.4241158e-06
20	0x369c7ec9	4.663922e-06
21	0xb4736a57	-2.2669825e-07
22	0x27b979f4	5.1480037e-15
23	0xb50c9ed3	-5.2385184e-07
24	0xb725c81c	-9.881358e-06
25	0xb59cc4ca	-1.1680179e-06
26	0x2f6fab53	2.179779e-10
27	0x00000000	0.0
28	0xb58ad27a	-1.0343058e-06
29	0xb0c7cd92	-1.4537582e-09
30	0x338ffa8a	6.704529e-08
31	0xb6e38033	-6.7800515e-06
32	0x3317417d	3.521699e-08
33	0x93c4962a	-4.962543e-27
34	0xb59c5dc9	-1.1650201e-06
35	0x00203e15	2.961007e-39
36	0x27b1ac2b	4.9314034e-15
37	0xa0fbbac7	-4.2644653e-19
38	0x00000004	6e-45
39	0x279effda	4.4131204e-15
40	0xb697b4d7	-4.521203e-06
41	0x2883c31c	1.4628537e-14
42	0x0006ffbb	6.42752e-40
43	0xb6abea6a	-5.1234865e-06
44	0xb5353350	-6.7502424e-07
45	0x00000000	0.0
46	0x00000000	0.0
47	0x00000000	0.0
48	0x00000000	0.0
49	0x00000000	0.0
50	0x3708010b	8.1064745e-06
51	0x364c98a3	3.0487215e-06
52	0x00000000	0.0
53	0x98e8b54d	-6.015366e-24
54	0x33e5715b	1.0684263e-07
55	0xb59588e0	-1.1141201e-06
56	0xb454b9b0	-1.9811591e-07
57	0x80000004	-6e-45
58	0x00000000	0.0
59	0x2f95ac7e	2.7225505e-10
60	0x00000000	0.0
61	0x00000000	0.0
62	0x00000000	0.0
63	0x00000000	0.0
64	0x00000000	0.0
65	0xb2b05c70	-2.0531132e-08
66	0x252abf6e	1.4810008e-16
67	0x00000000	0.0
68	0xb49ccae2	-2.920488e-07
69	0x1f622859	4.7890736e-20
70	0xac8aec98	-3.948463e-12
71	0x2c818890	3.681562e-12
72	0x00000000	0.0
73	0x801058db	-1.501243e-39
74	0x2a17428b	1.3434581e-13
75	0xb706ec97	-8.042108e-06
76	0xb18184bb	-3.769484e-09
77	0x0f452ced	9.721502e-30
78	0xb70daf58	-8.44508e-06
79	0x33da9f22	1.0180362e-07
80	0xb52f751f	-6.5363014e-07
81	0xb468ded3	-2.1687747e-07
82	0x00000000	0.0
83	0x00000000	0.0
84	0xb07b745c	-9.1478625e-10
85	0x8acbce35	-1.9625755e-32
86	0xb3c4fa3f	-9.172481e-08
87	0x33956a8d	6.957735e-08
88	0x800045c5	-2.5029e-41
89	0x27ffff39	7.105343e-15
90	0xb62ef6a8	-2.6071593e-06
91	0xb00b67b7	-5.0715293e-10
92	0x8a54b048	-1.02405835e-32
93	0xb5f193dc	-1.7998932e-06
94	0x2bba8be4	1.3254922e-12
95	0x33a9142c	7.873345e-08
96	0xb31db18c	-3.671589e-08
97	0x2a046f9b	1.1762676e-13
98	0xaf68ae15	-2.1162123e-10
99	0xb3acfe07	-8.0555814e-08

exp_avg_sq f4 [20, 5]
0	0x2e053efa	3.0296633e-11
1	0x2e1e736e	3.6027563e-11
2	0x00000000	0.0
3	0x2b251e10	5.8661496e-13
4	0x2c3d99aa	2.6943816e-12
5	0x2ce1eee4	6.421407e-12
6	0x2e4909c5	4.5710786e-11
7	0x1e5a6301	1.15612974e-20
8	0x11544e57	1.6747992e-28
9	0x2eae3f34	7.923831e-11
10	0x00000000	0.0
11	0x2b61e8c0	8.0259063e-13
12	0x294ac7dd	4.5026364e-14
13	0x00000000	0.0
14	0x0cbf21af	2.9448482e-31
15	0x2d895c5e	1.5616116e-11
16	0x1c445f3b	6.497404e-22
17	0x00000000	0.0
18	0x2df9588e	2.8347349e-11
19	0x2ce00a66	6.3676174e-12
20	0x2d11cde0	8.288009e-12
21	0x2dcaa620	2.3038516e-11
22	0x16cc7560	3.3032052e-25
23	0x299d4021	6.983325e-14
24	0x2f84e0cb	2.4170385e-10
25	0x2c14140c	2.1043193e-12
26	0x29b20390	7.905406e-14
27	0x00000000	0.0
28	0x2b60665a	7.972283e-13
29	0x2a79a151	2.217161e-13
30	0x26aa7806	1.1828652e-15
31	0x2ef8e2a5	1.13179945e-10
32	0x2a031cd7	1.1645143e-13
33	0x00000000	0.0
34	0x2dfb0fb6	2.8542373e-11
35	0x00000000	0.0
36	0x1ca5349f	1.0932386e-21
37	0x1030b315	3.484784e-29
38	0x00000000	0.0
39	0x1c8442d4	8.752302e-22
40	0x2c9bb829	4.425811e-12
41	0x170fe19c	4.649055e-25
42	0x00000000	0.0
43	0x2cd91fe8	6.1710533e-12
44	0x2af82493	4.4079028e-13
45	0x00000000	0.0
46	0x00000000	0.0
47	0x00000000	0.0
48	0x00000000	0.0
49	0x00000000	0.0
50	0x300248f0	4.7397375e-10
51	0x2f9046ac	2.6243663e-10
52	0x00000000	0.0
53	0x00000000	0.0
54	0x2fa5374e	3.0052622e-10
55	0x2c7ba251	3.575935e-12
56	0x2ba124ea	1.1449984e-12
57	0x00000000	0.0
58	0x00000000	0.0
59	0x290ff588	3.1965343e-14
60	0x00000000	0.0
61	0x00000000	0.0
62	0x00000000	0.0
63	0x00000000	0.0
64	0x00000000	0.0
65	0x2a29d91f	1.5085544e-13
66	0x16109c9b	1.1681643e-25
67	0x00000000	0.0
68	0x2be15b5c	1.6012569e-12
69	0x0b8ea390	5.494251e-32
70	0x26bd6ebd	1.3144525e-15
71	0x26a4b034	1.1427546e-15
72	0x00000000	0.0
73	0x00000000	0.0
74	0x21e0913a	1.5217272e-18
75	0x2e326b23	4.056767e-11
76	0x2d848cc4	1.5069175e-11
77	0x00000000	0.0
78	0x2dbe3cfe	2.1627585e-11
79	0x292cf1b6	3.8401323e-14
80	0x2ba02e6d	1.138157e-12
81	0x2a62b85a	2.0136792e-13
82	0x00000000	0.0
83	0x00000000	0.0
84	0x2ba85006	1.1959329e-12
85	0x00000000	0.0
86	0x2b50b601	7.4149026e-13
87	0x2a4bb61d	1.8093205e-13
88	0x00000000	0.0
89	0x1d2b32c4	2.2657907e-21
90	0x2c1c49e3	2.2209949e-12
91	0x29678dfc	5.1415456e-14
92	0x00000000	0.0
93	0x2b6d02ee	8.420338e-13
94	0x224b3e64	2.754466e-18
95	0x2c9bbb35	4.426149e-12
96	0x2de42bb6	2.594001e-11
97	0x188a3ffb	3.5736768e-24
98	0x2558b61e	1.8796717e-16
99	0x2e3477f5	4.1033805e-11

exp_avg f4 [20]
0	0xb7823cfb	-1.5525604e-05
1	0x3774e9c6	1.4597963e-05
2	0x312a16e5	2.475127e-09
3	0xb68377b3	-3.918039e-06
4	0x38759f68	5.856101e-05
5	0xb5afc860	-1.3096833e-06
6	0x36ee09d6	7.094098e-06
7	0xa7b1ac2b	-4.9314034e-15
8	0xb6833411	-3.9101656e-06
9	0x001532a1	1.946708e-39
10	0xb84631ec	-4.7253372e-05
11	0xb5996e06	-1.1431409e-06
12	0x00000000	0.0
13	0xb67399a7	-3.629926e-06
14	0xaceacae3	-6.673205e-12
15	0xb79354b4	-1.7563209e-05
16	0xb52f00f2	-6.5193956e-07
17	0x33c8c20f	9.348525e-08
18	0xb6654858	-3.4165769e-06
19	0x346d14d3	2.2079921e-07

exp_avg_sq f4 [20]
0	0x2f6b675f	2.140985e-10
1	0x308743c3	9.841802e-10
2	0x2b909971	1.0274404e-12
3	0x301eec30	5.781571e-10
4	0x31e9d8e7	6.8058514e-09
5	0x2c34d7a5	2.5699245e-12
6	0x2f14556c	1.349087e-10
7	0x1ca5349f	1.0932386e-21
8	0x2d092a59	7.7969515e-12
9	0x00000000	0.0
10	0x30d5f501	1.5567424e-09
11	0x2cae4533	4.95306e-12
12	0x00000000	0.0
13	0x2f81db4c	2.3620783e-10
14	0x27874595	3.754547e-15
15	0x2ed46d09	9.6600124e-11
16	0x2bedab14	1.6887347e-12
17	0x2b529f26	7.482785e-13
18	0x2cb0fbde	5.0301837e-12
19	0x2f054b86	1.2123111e-10

exp_avg f4 [20]
0	0xb7823cfa	-1.5525602e-05
1	0x3774e9c7	1.4597964e-05
2	0x312a16e5	2.475127e-09
3	0xb68377b5	-3.91804e-06
4	0x38759f68	5.856101e-05
5	0xb5afc860	-1.3096833e-06
6	0x36ee09d6	7.094098e-06
7	0xa7b1ac2b	-4.9314034e-15
8	0xb6833410	-3.910165e-06
9	0x001532a1	1.946708e-39
10	0xb84631ec	-4.7253372e-05
11	0xb5996e04	-1.1431407e-06
12	0x00000000	0.0
13	0xb67399a7	-3.629926e-06
14	0xaceacae3	-6.673205e-12
15	0xb79354b4	-1.7563209e-05
16	0xb52f00f0	-6.5193944e-07
17	0x33c8c210	9.3485255e-08
18	0xb6654856	-3.4165764e-06
19	0x346d14d3	2.2079921e-07

exp_avg_sq f4 [20]
0	0x2f6b675f	2.140985e-10
1	0x308743c3	9.841802e-10
2	0x2b909971	1.0274404e-12
3	0x301eec2f	5.78157e-10
4	0x31e9d8e8	6.805852e-09
5	0x2c34d7a5	2.5699245e-12
6	0x2f14556b	1.3490868e-10
7	0x1ca5349f	1.0932386e-21
8	0x2d092a59	7.7969515e-12
9	0x00000000	0.0
10	0x30d5f502	1.5567425e-09
11	0x2cae4534	4.9530605e-12
12	0x00000000	0.0
13	0x2f81db4c	2.3620783e-10
14	0x27874595	3.754547e-15
15	0x2ed46d0a	9.660013e-11
16	0x2bedab17	1.688735e-12
17	0x2b529f27	7.4827856e-13
18	0x2cb0fbdd	5.0301833e-12
19	0x2f054b87	1.2123112e-10

exp_avg f4 [2, 5]
0	0xbc7899e0	-0.015173405
1	0x3ac7c6cf	0.0015241745
2	0xb91cf825	-0.0001496976
3	0xbb987c13	-0.0046534627
4	0x3be65b6e	0.0070299422
5	0x3c7899e0	0.015173405
6	0xbac7c6cf	-0.0015241745
7	0x391cf825	0.0001496976
8	0x3b987c13	0.0046534627
9	0xbbe65b6e	-0.0070299422

exp_avg_sq f4 [2, 5]
0	0x378efc96	1.7045339e-05
1	0x36f61fb7	7.3350634e-06
2	0x32bc159f	2.1895913e-08
3	0x36614a27	3.3570775e-06
4	0x392ea403	0.00016655032
5	0x378efc97	1.704534e-05
6	0x36f61fb7	7.3350634e-06
7	0x32bc159f	2.1895913e-08
8	0x36614a27	3.3570775e-06
9	0x392ea403	0.00016655032

exp_avg f4 [2]
0	0xbf031fcf	-0.5122041
1	0x3f031fcf	0.5122041

exp_avg_sq f4 [2]
0	0x3ce09e7e	0.027419325
1	0x3ce09e7e	0.027419325
